models/2025-01-10/gan_model.pth (torch, 117138 bytes, 11 tensors)

generator.0.weight f4 [128, 100]
0	0xbc41c679	-0.011827105
1	0xbdc01d6f	-0.09380614
2	0xbe3c3395	-0.18379052
3	0x3ce22674	0.027606227
4	0xbd4ba97a	-0.049722172
5	0x3e12b1d5	0.1432565
6	0x3df2a23c	0.1184735
7	0xbd8ae93a	-0.06782766
8	0xbda25b70	-0.079275966
9	0xbd336f5a	-0.043807365
10	0x3cffe742	0.031238202
11	0x3d28fb8b	0.041255515
12	0x3c7427d3	0.014902073
13	0xbc00e280	-0.007866502
14	0x3db13e1c	0.086544245
15	0xbd29d4b1	-0.041462604
16	0xbc4788fa	-0.012178654
17	0x3d938051	0.07202209
18	0xbc91464b	-0.017733714
19	0xbdca2fb5	-0.09872381
20	0x3d047484	0.03233768
21	0xbdd00e23	-0.10158946
22	0x3d8b5824	0.06803921
23	0x3d90abfa	0.07064052
24	0x3daed699	0.08537025
25	0xbc8836b2	-0.016627643
26	0x3abe1f1a	0.0014505119
27	0xbdae6a04	-0.085163146
28	0xbdca810a	-0.098878935
29	0xbd9b3b9b	-0.07579728
30	0xbdf32bc8	-0.11873585
31	0x3dccaf35	0.099943556
32	0xbe1cd5ad	-0.15315886
33	0x3d737741	0.0594399
34	0xbd497e70	-0.049192846
35	0xbd3884bc	-0.04504846
36	0x3cec73c5	0.028863797
37	0xbc777ee3	-0.015105936
38	0xbcaf43f3	-0.021394705
39	0x3c364b57	0.011126361
40	0x3d37b686	0.044851802
41	0x3d6228ed	0.05521481
42	0x3e2a7a82	0.16648296
43	0xbcd498ac	-0.025951706
44	0xbc79a821	-0.015237839
45	0xbcbebd4a	-0.02328362
46	0xbdbfe415	-0.09369675
47	0xbdb7ab7d	-0.08968256
48	0xbc86c0a8	-0.016449288
49	0xbdbe2b3f	-0.09285592
50	0x3d83ad46	0.06429534
51	0x3bd43888	0.0064764656
52	0xbd76af2b	-0.060225647
53	0x3da7e0a6	0.08197145
54	0x3cc71b8b	0.024305126
55	0xbe2aaf67	-0.16668473
56	0xbe5f5ea9	-0.21813454
57	0x3c7c35f5	0.015393724
58	0x3cdd85b2	0.02704129
59	0xbe028a28	-0.12748015
60	0xbcd7a079	-0.026321637
61	0x3db5dac7	0.08879619
62	0x3da9c9ad	0.0829042
63	0xbe08cb0b	-0.13358705
64	0xbda1fdaf	-0.079097144
65	0x3d3901cd	0.045167733
66	0xba18ed3c	-0.00058336905
67	0x3e33bb2c	0.17551869
68	0xbdfa2809	-0.12214667
69	0xbdc2729c	-0.09494516
70	0xbe4b4330	-0.19849849
71	0xbdebaf8b	-0.115080915
72	0x3c81f0e7	0.015861942
73	0x3d05c6aa	0.032660164
74	0xbd7789fe	-0.060434334
75	0xbd29aab9	-0.04142258
76	0x3e257471	0.161577
77	0xbcd10458	-0.025514767
78	0xbbb849e0	-0.005624041
79	0x3c159283	0.009129169
80	0x3c8dd199	0.017311858
81	0xbdd3c16c	-0.10339627
82	0xbe4c751e	-0.19966552
83	0xbd43d520	-0.047810674
84	0xbcf1c0b1	-0.029510828
85	0xbd737ddc	-0.0594462
86	0xbd7bf3b7	-0.06151172
87	0xbc7217e7	-0.014776207
88	0x3dcafdc5	0.09911684
89	0xbd26e3bc	-0.04074453
90	0x3de80620	0.11329293
91	0xbd54c02c	-0.051941082
92	0xbe03f0ae	-0.12884781
93	0xbd3415de	-0.043966167
94	0xbe09dea6	-0.1346384
95	0xbdf96ef2	-0.12179364
96	0xbcb5e5d1	-0.022204312
97	0x3ddfd11c	0.10928556
98	0x3c69fe4d	0.014281821
99	0xbd5eb65b	-0.054373126
100	0x3d9a70d2	0.0754105
101	0x3d9579c4	0.072986156
102	0xbda957c9	-0.08268697
103	0xbce979b0	-0.028500408
104	0x3dfd769f	0.12376141
105	0x3cd8719a	0.026421357
106	0x3d245285	0.04011776
107	0x3c94169a	0.018077184
108	0xbdddcc3a	-0.10829969
109	0xbd367dff	-0.044553753
110	0x3dbb318b	0.09140309
111	0xbd63ac50	-0.055584252
112	0x3de87eec	0.113523334
113	0xbd519ef7	-0.05117699
114	0x3e503c7b	0.20335571
115	0x3e3813ff	0.17976378
116	0xbda25b5a	-0.0792758
117	0xbdb3a8fa	-0.08772464
118	0xbde7cdfc	-0.11318585
119	0xbe24949b	-0.16072313
120	0xbe6652b7	-0.2249249
121	0xbdf79741	-0.12089396
122	0xbe79285f	-0.24331807
123	0x3e22006c	0.15820473
124	0xbe4202aa	-0.18946329
125	0xbdc1955e	-0.09452318
126	0x3dd15436	0.1022114
127	0xbced47f0	-0.028964967
128	0xbe14b613	-0.14522581
129	0x3daf896e	0.085711345
130	0xbd2120a9	-0.039337788
131	0x3e8403c8	0.25784135
132	0xbde40864	-0.11134413
133	0xbd9ee289	-0.07758052
134	0xbd11026c	-0.0354027
135	0xbdd75227	-0.10513716
136	0x3e580f23	0.21099524
137	0xbe4bb226	-0.19892177
138	0xbd15c22d	-0.036562134
139	0x3de16946	0.110064074
140	0x3d89dfa1	0.06732107
141	0x3e4eec64	0.20207363
142	0x3dbfbf29	0.09362633
143	0x3ddfb321	0.10922838
144	0x3da1a5ab	0.07892927
145	0x3e72c82c	0.23709172
146	0xbe5c0eba	-0.21489993
147	0xbdbea0ec	-0.09308037
148	0x3e13d54d	0.14436837
149	0xbe34be6d	-0.17650767
150	0x3d328e53	0.043592762
151	0x3ddf4353	0.10901513
152	0xbe532dbd	-0.20622917
153	0xbd71feb9	-0.059080813
154	0xbdbc553b	-0.09195944
155	0xbe774dcf	-0.24150775
156	0x3c3029e2	0.010752173
157	0x3d042d20	0.032269597
158	0x3e4398ba	0.1910123
159	0xbcfd4629	-0.030917244
160	0x3e0c80f1	0.13721062
161	0x3e14d0c8	0.14532769
162	0xbc506c63	-0.012721154
163	0x3d269b37	0.04067537
164	0xbb05c08e	-0.002040896
165	0x3e3d46c2	0.18484023
166	0xbdca8415	-0.09888474
167	0x3d9a8456	0.07544772
168	0xbdc13b19	-0.094351
169	0x3dcf6baa	0.10127957
170	0xbdd6590b	-0.10466202
171	0xbd2fbdfd	-0.042905796
172	0x3e264d00	0.1624031
173	0x3da2ee1a	0.079555705
174	0xbe1d60ae	-0.15368912
175	0x3d45d722	0.04830087
176	0x3e4b349d	0.19844289
177	0x3d8febff	0.070274346
178	0xbdac4f4e	-0.08413564
179	0x3d30eb6a	0.04319326
180	0xbcd66f4b	-0.026176115
181	0xbea7319a	-0.3265503
182	0xbe0a1a54	-0.13486606
183	0xbe22c119	-0.15893973
184	0xbdbf838b	-0.09351262
185	0xbd0517ab	-0.032493275
186	0x3ddf8e5d	0.109158255
187	0xbd99352c	-0.07480845
188	0xbd5d4b1a	-0.0540267
189	0xbe53cfb7	-0.20684706
190	0x3e0ec626	0.13942775
191	0xbe2039f5	-0.15647109
192	0xbdaefb7c	-0.085440606
193	0xbe6fa50d	-0.23402806
194	0xbdc88c81	-0.09792424
195	0x3cf52480	0.029924631
196	0xbd92948e	-0.07157241
197	0x3d92e7aa	0.07173093
198	0x3d960864	0.07325819
199	0xbe52a00e	-0.20568869
200	0x3e12d1bb	0.14337818
201	0x3d954224	0.07288006
202	0xbe340511	-0.17580058
203	0x3dbb31a2	0.09140326
204	0x3dc57f66	0.0964344
205	0x3e473830	0.19455028
206	0x3d92922b	0.071567856
207	0xbd9c20cc	-0.07623443
208	0xbe3bf833	-0.18356399
209	0xbe50ac20	-0.2037816
210	0x3cf9b59c	0.030482106
211	0xbe13a0eb	-0.14416854
212	0xbdd2dd33	-0.10296097
213	0xbda1e48d	-0.07904921
214	0xbbfd751c	-0.007734908
215	0x3ddd28ab	0.107987724
216	0x3e897539	0.26847246
217	0xbe148932	-0.14505461
218	0x3db26800	0.08711243
219	0xbc61772d	-0.013761324
220	0xbd941c75	-0.0723199
221	0xbde7ef11	-0.11324895
222	0xbd888bde	-0.066673025
223	0x3e1e4c35	0.15458758
224	0xbd8bb767	-0.068220906
225	0xbdcfc3ce	-0.10144769
226	0x3ca9000b	0.020629903
227	0xbe26b372	-0.1627939
228	0xbe464b68	-0.19364703
229	0x3d99c34a	0.075079516
230	0xbde3c4e1	-0.11121536
231	0x3e297e4b	0.16552083
232	0xbe1dbfd0	-0.15405202
233	0x3e1a123f	0.15046023
234	0x3d58fe12	0.052976675
235	0xbba143ce	-0.004921413
236	0x3e0e65c9	0.13906015
237	0xbe2bb70e	-0.16769049
238	0xbd74cbc6	-0.059764646
239	0x3e834b4f	0.25643393
240	0x3d81a3cc	0.0633007
241	0x3df4aa9e	0.11946605
242	0x3e783727	0.24239789
243	0x3dd541c4	0.104129344
244	0xbd91a5f4	-0.07111731
245	0x3dcc21d9	0.099673934
246	0xbe52966b	-0.20565192
247	0xbd2eb4b1	-0.04265279
248	0x3e563ab8	0.20920837
249	0xbd99d20f	-0.075107686
250	0x3de159ea	0.11003478
251	0x3d1c6d13	0.03818996
252	0xbe2c3ccd	-0.16820069
253	0xbd052d5e	-0.03251397
254	0xbd10c305	-0.035342235
255	0xbe1aafd3	-0.15106134

generator.0.bias f4 [128]
0	0xbe27470f	-0.163357
1	0x3dc17c26	0.094475076
2	0x3d5df177	0.054185357
3	0x3d11445c	0.035465583
4	0xbe060f99	-0.13091888
5	0xbe64e0d3	-0.22351389
6	0xbb8d5f21	-0.0043143188
7	0xbc966dab	-0.01836284
8	0x3eb31106	0.34973925
9	0x3daa87d6	0.0832669
10	0xbe567447	-0.20942794
11	0xbccf5633	-0.025309658
12	0x3ec624e5	0.38700023
13	0xbe1e4d2b	-0.15459125
14	0x3cb6fbd2	0.022336874
15	0xbe7d9af8	-0.24766147
16	0xbe0c9287	-0.13727771
17	0x3eb6b64c	0.35685956
18	0x3e96332c	0.29335916
19	0x3e623a14	0.22092468
20	0xbe9bb2ad	-0.30409756
21	0x3e0da57d	0.1383266
22	0x3e0a9e48	0.13536942
23	0xbe4888ad	-0.19583388
24	0x3e976278	0.29567313
25	0x3ebc139c	0.3673371
26	0x3e9a3d4c	0.3012489
27	0xbe1c7be9	-0.15281643
28	0x3ea6ebde	0.32601827
29	0x3e656a01	0.22403719
30	0xbe269412	-0.16267422
31	0x3e9e6be7	0.30941698
32	0x3e8a6d56	0.27036542
33	0xbde03f3c	-0.10949561
34	0x3e241816	0.16024813
35	0xbd430dca	-0.047620572
36	0xbe55914b	-0.20856206
37	0x3e053e59	0.13012065
38	0x3e6d8197	0.23193966
39	0x3ed104a0	0.4082384
40	0xbe4166c2	-0.18886855
41	0x3ece9cfa	0.4035414
42	0x3e886821	0.26641944
43	0xbe10cfe9	-0.14141811
44	0x3ec5f999	0.3866699
45	0x3ddffcf9	0.109369226
46	0x3e7e814f	0.24854015
47	0xbeb82e77	-0.3597295
48	0xbe94c53b	-0.29056725
49	0xbd5a9524	-0.053364888
50	0xbd18129b	-0.03712712
51	0x3cd513b8	0.02601038
52	0x3e90ce94	0.28282607
53	0x3d67d115	0.05659588
54	0x3d3eb4a1	0.04655898
55	0xbe31ed52	-0.17375687
56	0x3d322ada	0.043497898
57	0xbd671ac9	-0.05642203
58	0x3e7d1a19	0.24716987
59	0xbeaa7eaa	-0.33299762
60	0x3dd43d4e	0.103632554
61	0x3e414727	0.18874799
62	0x3d7801fa	0.06054876
63	0x3d8674f1	0.065652736
64	0x3dcabc20	0.09899163
65	0xbe43c7ee	-0.19119236
66	0xbe88c07b	-0.2670935
67	0xbe33dc8a	-0.17564598
68	0x3bb52210	0.005527742
69	0x3ede5560	0.4342451
70	0x3db1866a	0.086682156
71	0x3df9ce7a	0.121975854
72	0x3a6656f8	0.0008786763
73	0x3ec6bd4f	0.38816306
74	0x3cc13fec	0.02359005
75	0x3ec4505c	0.3834256
76	0x3e6d34ae	0.23164627
77	0x3dcf57d5	0.101241745
78	0x3ef7fb05	0.484337
79	0xbe61b8cb	-0.22043149
80	0x3ec7075e	0.38872808
81	0xbdf425f7	-0.11921304
82	0x3ebe7b37	0.3720338
83	0x3e728814	0.23684722
84	0xbe9bbe0b	-0.3041843
85	0x3c776573	0.015099871
86	0x3ecb49a9	0.39704636
87	0xbe1e0b51	-0.15434004
88	0x3d02a64c	0.031896874
89	0xbe8506e4	-0.2598182
90	0x3eee880a	0.46588165
91	0x3d2f1665	0.042745966
92	0xbe16feea	-0.1474568
93	0x3e564b40	0.20927143
94	0x3d5b6915	0.05356701
95	0xbe366242	-0.1781092
96	0xbcdfde7e	-0.027327772
97	0xbe3a3687	-0.18184863
98	0x3da9f161	0.082979925
99	0x384dcb70	4.9065275e-05
100	0x3e79088e	0.2431967
101	0x3d125292	0.035723276
102	0x3e697a94	0.22800666
103	0xbe240faa	-0.160216
104	0x3e3b004e	0.18261835
105	0x3e2fa5bf	0.17153071
106	0xbe903f79	-0.28173426
107	0xbde64898	-0.11244315
108	0x3e65f9e2	0.22458604
109	0x3e3e7160	0.18597937
110	0x3c208df7	0.009799472
111	0xbe38d5e9	-0.1805035
112	0x3e6f51b9	0.23371018
113	0xbe836892	-0.25665718
114	0xbe0317e1	-0.12802078
115	0x3dc64625	0.09681348
116	0x3f0caf84	0.54955316
117	0xbd111866	-0.03542366
118	0x3d011b58	0.031520218
119	0xbe2d365d	-0.16915269
120	0xbc6a5ea4	-0.014304791
121	0x3e5b5360	0.21418524
122	0xbe8a654c	-0.27030408
123	0x3ee5ad07	0.44858572
124	0xbe938d34	-0.28818667
125	0x3f04d064	0.5188048
126	0x3f0db7c5	0.55358535
127	0x3dd5a4ba	0.1043181

generator.2.weight f4 [64, 128]
0	0xbdc6741d	-0.096901156
1	0xbd7d05ce	-0.061773114
2	0xbd313ab2	-0.043268867
3	0xbde086f6	-0.10963242
4	0xbca03f17	-0.019561334
5	0xbcfcfb26	-0.030881476
6	0xbd7287dc	-0.059211597
7	0xbd8e1bcb	-0.06938895
8	0x3c212b91	0.009837047
9	0xbdd11a10	-0.10210049
10	0xbdb5600c	-0.0885621
11	0x3c72f780	0.014829516
12	0xbd4de716	-0.05026921
13	0xbc04241e	-0.008065252
14	0x3bc50a63	0.006013201
15	0xbd9a8486	-0.07544808
16	0x3d04bce3	0.0324067
17	0x3d29c230	0.041444957
18	0xbd5e6375	-0.05429407
19	0x3cc12e48	0.023581639
20	0xbd7d39a0	-0.061822534
21	0xbdc884e0	-0.09790969
22	0xbd4cd30a	-0.05000595
23	0xbd4dc2f8	-0.050234765
24	0x3c952218	0.018204734
25	0x3c8b4051	0.016998442
26	0xbd92fb0b	-0.07176789
27	0xbdc7ed02	-0.097620025
28	0xbd826aa8	-0.06367999
29	0xbdab4fb7	-0.08364814
30	0xbe02a259	-0.12757243
31	0xbcd44749	-0.025912898
32	0x3cc20d22	0.023687903
33	0xbd88afcf	-0.06674158
34	0xbc4f062d	-0.01263575
35	0xbdd7eb3d	-0.10542915
36	0xbd8ada77	-0.0677995
37	0x3d5831e7	0.052781966
38	0xbd88452b	-0.06653818
39	0xbd9e765d	-0.0773742
40	0xbc7bb473	-0.015362847
41	0xbdb15623	-0.086590074
42	0x3c8f236f	0.01747295
43	0xbe0ded71	-0.13860108
44	0xbe23a982	-0.15982631
45	0xbcfc8030	-0.030822843
46	0xbd356ac2	-0.044291265
47	0xbd85a950	-0.065264344
48	0x3d34e6a6	0.044165276
49	0xbe05bdbd	-0.1306066
50	0x3ca40d9c	0.02002602
51	0x3d65782a	0.0560228
52	0xbc517601	-0.012784482
53	0x3dbf8d18	0.09353083
54	0xbdaae82d	-0.08345065
55	0xbb305ba6	-0.0026910095
56	0xbb15f38c	-0.002288076
57	0xbd1369f4	-0.035989717
58	0x3bb33244	0.0054686386
59	0x3d681789	0.05666307
60	0xbd81f1da	-0.06344958
61	0xbc5c3f0c	-0.013442766
62	0x3d5fbfe0	0.054626346
63	0xbd942478	-0.07233518
64	0xbccaa142	-0.024735097
65	0xbdd40324	-0.103521615
66	0x3b6465b4	0.003485066
67	0xbcf69c16	-0.030103724
68	0xbcffc916	-0.031223815
69	0xbd1d3f92	-0.038390703
70	0xbbabe9a6	-0.005246359
71	0xbdc5d8dd	-0.09660504
72	0xbd865c14	-0.06560531
73	0xbd86f3a4	-0.065894395
74	0xbd768d96	-0.06019362
75	0xbd8866d6	-0.066602394
76	0xbcc2599f	-0.023724375
77	0xbd0a7d88	-0.033811122
78	0xbd555f50	-0.05209285
79	0x3df5b6d9	0.11997766
80	0xbafc6d92	-0.0019258729
81	0x3bd12241	0.006382257
82	0xbdbd2682	-0.092358604
83	0xbc87d95f	-0.016583143
84	0x3c4bccb0	0.012438938
85	0xbdbbb927	-0.091661744
86	0x3ca1ea88	0.019765154
87	0xbdb2d691	-0.087323315
88	0xbd6826e4	-0.056677714
89	0xbdaa20d6	-0.08307044
90	0x3cbf3828	0.023342207
91	0x3cbcce88	0.0230477
92	0xbe00e45c	-0.12587112
93	0x3c07ed05	0.008296256
94	0xbdc98d64	-0.09841421
95	0x3ddc0d4d	0.107447244
96	0xbdfc5fca	-0.12322958
97	0xbe199d31	-0.1500137
98	0x3d80f9b0	0.06297624
99	0xbdbc01fc	-0.09180066
100	0xbdc4f8e8	-0.096177876
101	0xbd2791e0	-0.0409106
102	0x3ce83c42	0.028349046
103	0xbbcd2268	-0.006260205
104	0x3c5176d3	0.012784678
105	0x3ba65812	0.005076417
106	0xbd6c53f5	-0.057697255
107	0x3d963081	0.0733347
108	0x3d323289	0.043505225
109	0x3cf0406b	0.029327592
110	0x3cf0add6	0.029379766
111	0x3d947162	0.072481886
112	0x3d1abb91	0.037776534
113	0xbdf01e6b	-0.11724552
114	0xbde3fb62	-0.11131932
115	0xbda550c0	-0.080720425
116	0xbc9fe067	-0.019516183
117	0x3cbfa456	0.023393791
118	0x3b3e82e4	0.0029069716
119	0xbc8c7ebf	-0.017150281
120	0xbcd2b432	-0.02572069
121	0xbd41e328	-0.047335774
122	0x3d715625	0.058920044
123	0xbd90f9ef	-0.07078921
124	0xbd587d47	-0.05285385
125	0x3d1ea082	0.03872729
126	0xbc99aa27	-0.018757893
127	0xbd986f52	-0.07443108
128	0x3d659c38	0.056057185
129	0x3e8c442e	0.27395767
130	0x3e449393	0.1919692
131	0x3e72981f	0.23690842
132	0xbcd344ec	-0.0257897
133	0x3da12636	0.07868616
134	0x3e814e32	0.2525497
135	0x3dacc2c5	0.08435587
136	0xbe0312a0	-0.12800074
137	0x3e937a8e	0.2880444
138	0xbd3484e0	-0.044072032
139	0x3e4dfb15	0.20115311
140	0x3e3e41fe	0.18579862
141	0x3db7dc71	0.08977593
142	0x3ea263d0	0.31716776
143	0xbd26dacb	-0.040736
144	0x3d31c77d	0.043403137
145	0x3c787f0f	0.015167012
146	0x3e0f5df4	0.14000684
147	0x3e518b7d	0.20463367
148	0xbde67166	-0.11252098
149	0x3d68eca9	0.05686632
150	0x3ea0d199	0.3140991
151	0x3d504598	0.05084762
152	0x3e2dece6	0.16984901
153	0xbe6dbf45	-0.23217495
154	0xbdda1981	-0.10649396
155	0x3db48ca6	0.08815889
156	0x3e1cfb63	0.15330271
157	0x3e869d4d	0.26291886
158	0x3dcf96ac	0.1013616
159	0x3d9a73fc	0.075416535
160	0x3e9f777e	0.31145853
161	0x3e23d8b5	0.16000636
162	0x3e60c14f	0.21948741
163	0x3d69ff44	0.057128206
164	0xbd3e7c7b	-0.046505433
165	0x3e9e2d55	0.3089396
166	0x3e50bb28	0.20383894
167	0xbcccdebc	-0.025008552
168	0xbc3c90c8	-0.011509128
169	0x3ea6df11	0.3259206
170	0x3bd776ab	0.0065754256
171	0x3db3057f	0.08741283
172	0x3ebc91b7	0.36829922
173	0x3e2c0ab2	0.16800955
174	0xbe306919	-0.17227592
175	0x3d84f9fa	0.06492992
176	0xbd1cc86f	-0.038277086
177	0x3d12c37b	0.035830956
178	0x3e88cf21	0.26720527
179	0x3e658e06	0.22417459
180	0x3e303515	0.17207749
181	0x3e40c65a	0.18825665
182	0x3e30d51a	0.17268792
183	0xbd5a352f	-0.053273376
184	0x3e9c73da	0.30557138
185	0x3e49b7be	0.19698998
186	0xbcb08138	-0.021545991
187	0x3d7835bf	0.06059813
188	0x3ec8621c	0.39137352
189	0x3dd70512	0.10499014
190	0x3e729bda	0.23692265
191	0x3e658e51	0.2241757
192	0x3e65d659	0.22445048
193	0xbb0ace2a	-0.0021180012
194	0x3d8c9b78	0.06865591
195	0xbc32c472	-0.010911094
196	0x3e83bf07	0.2573168
197	0xbc1c869c	-0.009553578
198	0x3e36dbb0	0.17857242
199	0x3e1f294b	0.15543096
200	0x3ce09d31	0.027418705
201	0xbe25a273	-0.1617525
202	0x3e3db8bf	0.18527506
203	0x3d866b58	0.06563443
204	0x3dc9887e	0.09840487
205	0x3e89bf01	0.26903537
206	0xbd80eaef	-0.0629481
207	0xbdc11cf3	-0.0942935
208	0x3d6157ed	0.055015493
209	0x3d825955	0.06364695
210	0xbe894d5c	-0.26816833
211	0x3e83d3b7	0.25747463
212	0xbdf7fefe	-0.12109183
213	0x3e711fb0	0.23547244
214	0x3decf74a	0.11570604
215	0xbd90cdcf	-0.07070505
216	0x3ddf9e06	0.109188125
217	0x3e20e411	0.15712
218	0x3df79012	0.12088026
219	0x3e1058a3	0.14096312
220	0x3c36e3ed	0.01116274
221	0x3e62fe96	0.2216743
222	0x3ea4bf0d	0.3217701
223	0x3d1eee35	0.03880139
224	0x3e0c4820	0.13699389
225	0xbd3a957a	-0.04555271
226	0x3eac7d6f	0.33689448
227	0x3e88cbbe	0.26717943
228	0x3e21e944	0.1581164
229	0x3e89e649	0.26933506
230	0x3dac10d0	0.08401644
231	0xbcabc2a4	-0.020966835
232	0x3e3700e5	0.17871435
233	0x3e9f2977	0.31086323
234	0xbd998cd4	-0.07497564
235	0xbd90fd7d	-0.07079599
236	0x3e649f38	0.22326362
237	0x3e386224	0.18006188
238	0x3e50eecb	0.20403592
239	0x3d4b164d	0.049581815
240	0x3e37cbc8	0.1794883
241	0x3d1cd052	0.038284607
242	0xbd1be0a9	-0.03805605
243	0x3e34f7c9	0.17672648
244	0x3d3aef36	0.045638286
245	0x3e1a378f	0.15060256
246	0x3e6d005b	0.23144667
247	0xbd9eecd8	-0.07760018
248	0x3eb0d6f0	0.34538984
249	0x3df5be49	0.11999185
250	0xbd9674eb	-0.07346519
251	0x3e09274f	0.13393901
252	0xbcbd6f6f	-0.023124425
253	0x3e313ce1	0.1730838
254	0x3d6eacad	0.058270145
255	0x3e8cd451	0.27505735

generator.2.bias f4 [64]
0	0xbdcbe459	-0.09955663
1	0xbd125f6c	-0.035735533
2	0x3e357e82	0.1772404
3	0x3e41cc22	0.18925527
4	0x3db352e1	0.08756042
5	0x3e4302f8	0.19044101
6	0x3ebddbec	0.3708185
7	0x3e577ba3	0.21043257
8	0x3e8dfd3e	0.2773227
9	0x3e7bf115	0.24603684
10	0x3e0c93f1	0.1372831
11	0x3c6ac9bd	0.014330325
12	0x3e6ccb51	0.23124434
13	0x3e16288b	0.14663903
14	0x3e13ac88	0.14421284
15	0x3e7fdf7e	0.24987599
16	0x3ed08cb1	0.4073234
17	0xbde157df	-0.11003088
18	0x3e34aa69	0.17643131
19	0x3de73868	0.112900555
20	0x3e808b4f	0.25106284
21	0x3c6bfabb	0.0144030405
22	0x3e4b8435	0.19874652
23	0xbca98661	-0.02069396
24	0x3e2d7558	0.16939294
25	0x3ea2fb61	0.31832412
26	0x3ec6c4b1	0.3882194
27	0x3e24471b	0.1604275
28	0x3df13921	0.117784746
29	0x3e76b0d6	0.24090895
30	0x3eb661c6	0.3562147
31	0x3b040add	0.0020148077
32	0x3df915fa	0.12162395
33	0x3e736716	0.23769793
34	0x3e06d0fe	0.13165662
35	0x3eb3fd5d	0.35154238
36	0x3e5b6654	0.21425754
37	0x3d1d336e	0.038379125
38	0x3e08610d	0.13318272
39	0x3eadbcf6	0.33933228
40	0x3ed7ab4d	0.4212288
41	0x3d643436	0.055713855
42	0x3e235cf3	0.15953426
43	0x3ec6df0d	0.3884205
44	0x3d13d56f	0.036092218
45	0x3e5d2812	0.21597317
46	0x3e130fce	0.14361498
47	0xbd70508f	-0.058670577
48	0x3e382bd3	0.17985468
49	0x3e7fdf9d	0.24987645
50	0x3e43ca4b	0.19120137
51	0x3e7415b5	0.23836406
52	0x3d9a96e4	0.07548311
53	0x3c5d5bf5	0.013510694
54	0x3e969a1f	0.2941446
55	0x3e493c42	0.19651893
56	0x3e673de5	0.22582205
57	0x3dfd0fca	0.12356527
58	0x3ea5b0d6	0.32361478
59	0x3e0f70ee	0.14007923
60	0x3dc04c06	0.093895
61	0x3db28c82	0.08718206
62	0x3ea66f90	0.3250699
63	0x3e61b797	0.2204269

generator.4.weight f4 [37, 64]
0	0x3e052caa	0.13005319
1	0x3ca287b1	0.019840093
2	0x3d98d3ef	0.07462298
3	0x3e70d2c4	0.235179
4	0x3e05c69f	0.13064049
5	0xbe24004f	-0.16015743
6	0xbea1f25e	-0.31630224
7	0xbe77088c	-0.24124354
8	0x3dc821ae	0.09772049
9	0x3d0611af	0.03273171
10	0x3dc884c2	0.097909465
11	0x3e2bfaf8	0.16794956
12	0x3c4e0807	0.012575156
13	0xbe0351e4	-0.12824208
14	0x3e45b11f	0.19305848
15	0xbc1b0ddd	-0.0094637545
16	0xbf00eb11	-0.5035868
17	0x3d266602	0.040624626
18	0xbebb761e	-0.36613554
19	0xbded815d	-0.1159694
20	0x3e0bfe48	0.1367122
21	0x3e426508	0.18983853
22	0xbe8c272e	-0.27373642
23	0x3b4908bc	0.0030675372
24	0x3e6de042	0.23230079
25	0x3e4177fc	0.18893427
26	0x3de92075	0.11383144
27	0xbafb4ec4	-0.0019173254
28	0x3dacaf23	0.08431842
29	0xbdb74173	-0.0894803
30	0x3d441cc9	0.047879014
31	0xbdf12a38	-0.11775631
32	0xbda65ea7	-0.08123522
33	0xbe44de60	-0.19225454
34	0x3da461f8	0.080264986
35	0x3caa41c1	0.020783307
36	0xbea380e1	-0.31934264
37	0xbd93e69a	-0.07221718
38	0x3e16d8ea	0.14731184
39	0x3e0f71da	0.14008275
40	0x3eba753e	0.36417574
41	0x3de0e762	0.10981633
42	0x3e912ec7	0.28356
43	0x3e35723c	0.17719358
44	0x3c7e3f21	0.015517981
45	0xbeca0e40	-0.39463997
46	0x3d40075c	0.04688202
47	0x3dbe5824	0.09294155
48	0xbde16d56	-0.11007182
49	0x3e36272f	0.17788385
50	0x3dc23933	0.09483566
51	0xbe08340e	-0.13301107
52	0x3e3fc2a2	0.1872659
53	0xbcd1bcfb	-0.025602808
54	0xbe22c5e8	-0.15895808
55	0x3e122ea1	0.142756
56	0xbdd2689b	-0.10273858
57	0x3e40eabb	0.18839543
58	0xbba3fd7f	-0.0050045843
59	0x3e833d7b	0.25632843
60	0xbe2c6c15	-0.16838105
61	0x3cc960c4	0.024582274
62	0x3e01051e	0.12599608
63	0xbdd82cd3	-0.105554245
64	0xbe04661d	-0.12929578
65	0x3d5d36c8	0.05400732
66	0x3e3929c5	0.1808234
67	0x3e31eaad	0.17374678
68	0x3deb79d9	0.1149785
69	0x3d3d62d4	0.046236828
70	0xbe53e640	-0.20693302
71	0xbe183507	-0.14863978
72	0x3d1e483f	0.038643118
73	0x3ca1cc71	0.019750806
74	0x3e19d52b	0.15022723
75	0x3d3a7fc8	0.045532018
76	0x3d2f7e0b	0.042844813
77	0xbe6c830f	-0.2309687
78	0x3e1bd8f1	0.15219475
79	0x3e8a4778	0.2700765
80	0xbbc388d0	-0.005967237
81	0xbe165c84	-0.1468373
82	0xbe2c4608	-0.1682359
83	0x3e60f8da	0.2196993
84	0x3d8eb0ce	0.069673166
85	0xbce7167b	-0.028208962
86	0xbdb2a8aa	-0.08723576
87	0xbd1b2c88	-0.037884265
88	0x3d1c7a17	0.03820237
89	0x3dd4805a	0.103760436
90	0x3e4affb1	0.19824101
91	0x3d25f574	0.040517285
92	0xbd0100f9	-0.03149507
93	0x3d0867d0	0.03330213
94	0xbe12b1f0	-0.1432569
95	0x3ef2236f	0.4729266
96	0xbd30f386	-0.043200992
97	0xbe68f5de	-0.22750041
98	0xbd63ec08	-0.05564502
99	0xbd20fe87	-0.039305236
100	0x3d925b36	0.07146303
101	0x3e8b66d6	0.27226895
102	0x3e20384c	0.15646476
103	0x3eaab056	0.3333766
104	0x3e825024	0.25451767
105	0x3e3ee74d	0.18642922
106	0x3e1f0376	0.15528664
107	0x3e584dff	0.21123503
108	0x3e5cd4cb	0.21565549
109	0xbc805c8b	-0.015669128
110	0x3dcc34b4	0.0997099
111	0xbd425e0f	-0.047452983
112	0xbe2a27ab	-0.16616695
113	0x3e061920	0.13095522
114	0xbb682dcb	-0.0035427685
115	0xbc6fb523	-0.014630589
116	0x3d2a2eac	0.041548416
117	0x3e1094d5	0.14119275
118	0xbd217bba	-0.039424635
119	0x3e4fe385	0.20301636
120	0x3e118266	0.142099
121	0x3e511ca9	0.20421089
122	0x3daf66f7	0.08564561
123	0x3e914cb2	0.28378826
124	0x3e64255f	0.22279881
125	0x3e77f9b2	0.24216345
126	0x3e809224	0.25111496
127	0xbd40d761	-0.0470804
128	0xbd46a3c3	-0.04849602
129	0xbb789325	-0.0037929502
130	0x3e8ce20b	0.27516207
131	0x3e9f807f	0.31152722
132	0x3c18ce6a	0.009326557
133	0xbeac27be	-0.3362407
134	0xbe855fcc	-0.2604965
135	0xbdd1932f	-0.10233151
136	0xbd8365b6	-0.06415884
137	0x3d9fba39	0.07799191
138	0xbb42e5a7	-0.0029738934
139	0x3da6efcb	0.08151206
140	0xbf06a7e0	-0.52599907
141	0xbe9d4e2f	-0.30723712
142	0xbac865c4	-0.0015289118
143	0xbd0544c8	-0.032536298
144	0xbda0a578	-0.07844061
145	0xbd5af3af	-0.05345505
146	0xbde840ad	-0.11340461
147	0xbe1a762c	-0.15084141
148	0xbd7a53e7	-0.06111517
149	0xbd664ecf	-0.0562275
150	0xbee44bcc	-0.44589078
151	0x3cf26d91	0.029593261
152	0xbe9bef40	-0.3045597
153	0xbd70ca59	-0.058786724
154	0xbd3ae831	-0.04563159
155	0xbead0085	-0.3378946
156	0xbdebadce	-0.1150776
157	0xbe9227a3	-0.28545865
158	0xbea0ee09	-0.31431606
159	0x3e006600	0.1253891
160	0xbe0d6472	-0.13807848
161	0xbe52bd38	-0.20579994
162	0xbe7f0009	-0.24902357
163	0x3bef18e1	0.007296667
164	0xbe2e6b06	-0.17033014
165	0x3d68598c	0.056726024
166	0x3e1c73fd	0.15278621
167	0xbe6caf8f	-0.23113845
168	0x3e5a3c33	0.21312027
169	0x3cc935fb	0.024561873
170	0x3dca9c15	0.098930515
171	0x3bb56207	0.0055353674
172	0x3e01287f	0.12613104
173	0xbe4cb901	-0.19992448
174	0xbcb823d9	-0.022478031
175	0xbd96cb6d	-0.07363019
176	0xbea979d8	-0.33100772
177	0xbe2713ec	-0.16316193
178	0x3d89003c	0.06689498
179	0xbed8499c	-0.4224366
180	0xbd47858d	-0.04871135
181	0xbe2eb215	-0.1706012
182	0xbe850be1	-0.25985625
183	0x3dc8db64	0.098074704
184	0xbe7fe38d	-0.24989147
185	0x3ea00330	0.31252432
186	0xbe670c97	-0.22563396
187	0x3c99a9c6	0.018757712
188	0x3d9d7d84	0.07689956
189	0x3d5d0b11	0.053965632
190	0x3da6f11d	0.081514575
191	0xbe85c0bc	-0.26123607
192	0xbc5f17df	-0.013616531
193	0xbe7bbeca	-0.24584499
194	0xbedcfd50	-0.43162012
195	0xbe94c913	-0.29059657
196	0xbc574ff3	-0.01314162
197	0x3d935f13	0.07195868
198	0xbe126528	-0.142964
199	0xbc8e2c8b	-0.017355224
200	0xbeafc69f	-0.34331223
201	0xbe32f4da	-0.17476216
202	0xbe59eae6	-0.21281013
203	0xbcc47e6f	-0.02398607
204	0x3e31d239	0.1736535
205	0xbe56b7b2	-0.20968512
206	0xbe271c7d	-0.16319461
207	0xbe76ce84	-0.24102217
208	0x3e2ec4b7	0.17067228
209	0x3d819304	0.06326869
210	0x3d22a6aa	0.039709724
211	0xbca09f7d	-0.0196073
212	0x3c0dcd72	0.008654939
213	0xbe2db475	-0.1696337
214	0x3d865210	0.06558621
215	0xbdaf9033	-0.08572426
216	0xbdd71673	-0.10502329
217	0x3e2b2e16	0.16716799
218	0x3ddf6639	0.10908169
219	0xbdefdd73	-0.1171216
220	0xbe12ca02	-0.14334872
221	0xbdc003c9	-0.09375722
222	0xbe0e5b2e	-0.1390197
223	0xbe67b9ef	-0.22629522
224	0xbdf68e4d	-0.120388605
225	0xbebea992	-0.37238747
226	0xbd128bb6	-0.03577777
227	0xbeb9c472	-0.36282688
228	0x3d983277	0.074315004
229	0xbe54f15e	-0.207952
230	0xbe845d95	-0.25852647
231	0x3d2a5436	0.041584216
232	0xbeca1f19	-0.3947685
233	0xbed6e426	-0.41970938
234	0xbdee6f7e	-0.11642359
235	0xbe67275d	-0.2257361
236	0xbde53d9a	-0.1119339
237	0x3db2b859	0.08726568
238	0xbe3e7312	-0.18598583
239	0x3de373a0	0.11106038
240	0xbd1aa933	-0.037759017
241	0xbe198f61	-0.14996101
242	0xbe76b642	-0.24092963
243	0x3e9bdce4	0.30441964
244	0xbe2eb8c7	-0.17062674
245	0x3ca51f17	0.020156426
246	0xbdfa3559	-0.122172065
247	0xbe636633	-0.22206955
248	0xbdf8e861	-0.12153698
249	0xbe8de236	-0.27711648
250	0xbdaabc4c	-0.08336696
251	0xbe47dec7	-0.19518577
252	0xbe889b98	-0.2668121
253	0x3d964bc4	0.0733867
254	0xbdc553e7	-0.09635144
255	0xbdb35066	-0.08755569

generator.4.bias f4 [37]
0	0xbcb54f0a	-0.022132415
1	0x3df2b1d6	0.11850326
2	0xbe6c1a5e	-0.23056933
3	0xbd9185ca	-0.07105596
4	0x3e16dc52	0.14732483
5	0xbe42f510	-0.19038796
6	0xbb693ebe	-0.0035590376
7	0xbdd66264	-0.10467985
8	0x3ca1769c	0.019709878
9	0x3b6ed031	0.003644001
10	0x3d31c7c4	0.043403402
11	0xbcfe163b	-0.03101646
12	0x3d71392c	0.058892414
13	0x3d9be42c	0.0761188
14	0xbd8fd4af	-0.07022988
15	0xbda66806	-0.0812531
16	0x3b8f3a11	0.0043709357
17	0xbeb3ca44	-0.35115254
18	0xbdc16f7f	-0.09445094
19	0xbdb7f950	-0.089830995
20	0xbdbf7ba9	-0.09349758
21	0x3dc8d6c6	0.0980659
22	0xbe91cbed	-0.28475896
23	0x3aeda4e1	0.0018130803
24	0xbe354eda	-0.1770586
25	0xbe36fb7c	-0.17869371
26	0xbc42707a	-0.011867637
27	0xbe219a88	-0.15781605
28	0xbd1df125	-0.03856005
29	0xbd6c5564	-0.057698622
30	0xbe455efc	-0.19274515
31	0xbe09662c	-0.13417882
32	0x3dd26c26	0.10274534
33	0x3e4a40dd	0.19751306
34	0xbe351a6d	-0.17685862
35	0xbe633347	-0.2218753
36	0xbe6bbf6d	-0.23022242

discriminator.0.weight f4 [64, 37]
0	0x3e5699a9	0.20957054
1	0xbea1cea7	-0.31602976
2	0xbebe9afb	-0.37227616
3	0xbe11d25a	-0.14240399
4	0xbe56d68b	-0.20980279
5	0x3d1a37b1	0.037650768
6	0xbd580944	-0.05274321
7	0x3ef7109a	0.48254853
8	0x3e1b6db0	0.15178561
9	0xbddf95c3	-0.10917237
10	0x3e0152d6	0.12629256
11	0x3d3ca654	0.04605706
12	0x3eb496aa	0.35271198
13	0x3e738ef7	0.23785006
14	0xbe1ae381	-0.15125848
15	0xbc035d16	-0.008017799
16	0xbe84d0b9	-0.25940493
17	0xbd1f1a86	-0.038843654
18	0x3ede9b39	0.434778
19	0x3dd16486	0.102242514
20	0x3eb18070	0.34668303
21	0xbdce28a2	-0.10066344
22	0x3e9067d2	0.2820421
23	0xbdcdf064	-0.100556165
24	0x3e440aef	0.19144796
25	0xbe4f6d61	-0.20256568
26	0xbeba9d47	-0.36448118
27	0xbe2dfb84	-0.16990477
28	0xbc85bbab	-0.016324839
29	0x3d9698d4	0.073533684
30	0x3dfaa456	0.12238376
31	0x3e05cb63	0.13065867
32	0xbe27bbc3	-0.16380219
33	0x3e540c7e	0.2070789
34	0xbcf789dd	-0.030217106
35	0xbea48c37	-0.32138225
36	0x3e060a25	0.13089807
37	0x3e715880	0.23568916
38	0xbebfe7df	-0.3748159
39	0x3eda37a7	0.42620584
40	0x3e2a42c5	0.16627033
41	0x3e42e52a	0.19032732
42	0x3d841495	0.06449238
43	0x3e328f97	0.17437588
44	0xbe7176b7	-0.23580442
45	0xbe2cbd43	-0.16869073
46	0xbe9bb190	-0.30408907
47	0x3e1fe0ea	0.15613142
48	0x3e4acfb8	0.19805801
49	0xbe51f983	-0.20505337
50	0x3e4a0985	0.19730194
51	0x3e977f01	0.29589084
52	0xbd85383c	-0.065048665
53	0x3ea425b6	0.3206002
54	0x3ed934cc	0.42423093
55	0x3e6bddd6	0.23033842
56	0x3cce8f48	0.025214806
57	0x3e79a32b	0.2437865
58	0xbe41fb7d	-0.18943591
59	0xbdba6e9a	-0.09103127
60	0x3d495d1a	0.049161054
61	0xbd33b73b	-0.043875914
62	0x3ee3049e	0.4433946
63	0x3dcb0ece	0.09914933
64	0xbe1e84c4	-0.15480334
65	0x3def681d	0.1168978
66	0x3e66c49e	0.22535941
67	0x3e0d77c2	0.13815215
68	0xbd5850ac	-0.05281131
69	0xbec30c03	-0.38095102
70	0x3c9e42ae	0.019318905
71	0x3ea2bd66	0.31785125
72	0xbd36e738	-0.0446541
73	0xbea3a979	-0.31965235
74	0xbc48636e	-0.012230737
75	0xbeaa5c4c	-0.33273542
76	0x3df3e44b	0.11908778
77	0x3d400d50	0.046887696
78	0x3c8507de	0.016239103
79	0xbdc420e1	-0.09576584
80	0x3d74ce2a	0.059766926
81	0xbe360bb3	-0.177779
82	0x3e951d08	0.29123712
83	0xbd1c0e92	-0.038099833
84	0x3d450c1e	0.04810726
85	0xbe27110b	-0.16315095
86	0xbe85794b	-0.26069102
87	0xbd1ffac3	-0.039057504
88	0xbda26efc	-0.07931325
89	0xbdafc012	-0.085815564
90	0x3d109603	0.035299312
91	0x3d7ba759	0.061438892
92	0x3e12fa43	0.1435328
93	0xbdb877ff	-0.090072624
94	0xbe3f04df	-0.18654202
95	0xbe9602b8	-0.2929895
96	0xbd890d2a	-0.06691964
97	0x3e83e2b7	0.25758907
98	0xbe58da01	-0.21176912
99	0x3ed1b65c	0.40959442
100	0x3e34f950	0.1767323
101	0xbe1dab35	-0.15397342
102	0xbe2d9a6c	-0.16953439
103	0x3dbc5863	0.09196546
104	0x3e344443	0.17604165
105	0xbd603b2c	-0.05474393
106	0xbdc05560	-0.09391284
107	0x3deed691	0.11662019
108	0x3e9ad13a	0.30237752
109	0x3e5dba12	0.21653011
110	0xbdf91ef2	-0.121641055
111	0xbdc14c74	-0.094384104
112	0x3c80606b	0.015670976
113	0xbe12e49b	-0.14345019
114	0xbe25a317	-0.16175495
115	0xbd2b411c	-0.04181014
116	0xbddc944b	-0.10770472
117	0x3ea025f9	0.3127897
118	0xbd8fa364	-0.07013586
119	0x3e1df638	0.15425956
120	0x3b83b9a6	0.0040199338
121	0x3f057d97	0.5214476
122	0x3e5dc6b8	0.21657836
123	0xbec12f7e	-0.37731546
124	0x3e2c15ac	0.16805142
125	0xbeb22fd2	-0.3480211
126	0x3dc9c699	0.098523326
127	0x3e5acb89	0.21366705
128	0x3e8d18da	0.27558023
129	0x3e26e112	0.16296795
130	0x3e3f1b50	0.18662763
131	0x3d88df84	0.06683257
132	0x3e9334f0	0.28751326
133	0xbd8ac92e	-0.06776653
134	0x3c0366a2	0.008020075
135	0xbe9f2b5e	-0.31087774
136	0xbcb81888	-0.022472635
137	0x3e276ce1	0.16350128
138	0xbd537b07	-0.051631
139	0x3d8de7e2	0.06928994
140	0x3e82122b	0.25404486
141	0x3de85b78	0.11345571
142	0x3df14381	0.117804535
143	0xbe6c8f08	-0.23101437
144	0xbeb67b4e	-0.3564095
145	0xbe534458	-0.2063154
146	0xbe89906a	-0.26867992
147	0xbe807090	-0.25085878
148	0x3c1cbcba	0.00956648
149	0xbe454e6d	-0.19268198
150	0xbdba0e27	-0.090847306
151	0x3cdfcb0f	0.027318506
152	0x3e90a583	0.28251275
153	0xbe83a308	-0.2571032
154	0xbe6d3c8b	-0.23167627
155	0x3dfd29f2	0.12361516
156	0xbd1e7a6c	-0.03869097
157	0x3eb23016	0.34802312
158	0xbe1d0fe7	-0.15338098
159	0xbe85069e	-0.2598161
160	0x3cd6cc52	0.026220474
161	0xbe3c0e1d	-0.18364759
162	0x3ee550d6	0.44788235
163	0x3d564ed0	0.052321255
164	0xbecb59e1	-0.3971701
165	0x3e8947f7	0.26812717
166	0x3e3c4be9	0.18388332
167	0xbe570798	-0.2099899
168	0xbe18c3c3	-0.14918427
169	0xbbf20968	-0.007386375
170	0x3cd10886	0.02551676
171	0x3dd0f9d3	0.102039
172	0x3f09c2a2	0.5381261
173	0x3d2f2429	0.042759094
174	0x3e1998cf	0.14999698
175	0x3e62173f	0.2207918
176	0x3daccdda	0.084377006
177	0x3e48fe74	0.19628316
178	0xbef69341	-0.4815922
179	0x3e9e86d7	0.3096225
180	0xbe426519	-0.18983878
181	0x3c0ac256	0.008469185
182	0x3d9bee11	0.07613767
183	0xbd6eac13	-0.05826957
184	0x3d1a4213	0.03766067
185	0x3d3e5078	0.04646346
186	0xbdadf71a	-0.084943965
187	0x3c8987e1	0.016788425
188	0xbc187b53	-0.009306747
189	0x3dc4efb7	0.096160345
190	0x3e871bed	0.26388493
191	0xbded49cc	-0.11586341
192	0xbd3de4ec	-0.046360895
193	0x3d982279	0.0742845
194	0x3e85bc2f	0.26120135
195	0x3e3ef5ef	0.18648504
196	0x3de86e35	0.11349145
197	0xbded1aea	-0.11577399
198	0x3c1c6deb	0.009547691
199	0x3cb1afe2	0.021690313
200	0xbe4a3954	-0.19748431
201	0x3dfe9f90	0.12432778
202	0x3cb68fe1	0.022285404
203	0xbdbf9b87	-0.09355836
204	0x3ca1e641	0.019763114
205	0x3e44ab10	0.1920588
206	0x3d001eed	0.031279493
207	0x3e03bdff	0.12865447
208	0x3d024320	0.031802297
209	0xbde790da	-0.11306925
210	0xbe3285a7	-0.17433797
211	0x3d7fa557	0.06241354
212	0x3d857199	0.06515808
213	0x3df3fc02	0.11913301
214	0x3da04bac	0.07826933
215	0x3e8097a7	0.25115702
216	0x3e23299e	0.15933844
217	0x3e2f3fa7	0.17114125
218	0x3c311432	0.010808038
219	0xbd88b7c3	-0.06675675
220	0x3d6be85f	0.057594653
221	0x3c72aebf	0.0148121705
222	0x3d434dc7	0.047681596
223	0xbe0fd1b1	-0.14044835
224	0xbe70ea8f	-0.23526977
225	0x3ce95e3e	0.028487321
226	0x3ec49ccf	0.38400885
227	0xbe76d00e	-0.24102804
228	0xbe344bd4	-0.17607051
229	0xbeca9576	-0.39567155
230	0x3d55ea32	0.0522253
231	0x3d875d6b	0.06609615
232	0xbe536733	-0.20644836
233	0x3e6f6bda	0.23380986
234	0xbd776963	-0.06040324
235	0xbeb8b4cc	-0.36075437
236	0x3e87a31e	0.26491636
237	0xbdf0ad39	-0.117517896
238	0x3db90dfe	0.09035872
239	0xbe1e6348	-0.1546756
240	0xbdf1d8f3	-0.11808958
241	0x3e4322a4	0.19056183
242	0xbe2615c1	-0.16219236
243	0x3db08145	0.08618406
244	0xbe897624	-0.26847947
245	0xbdcb0d60	-0.099146605
246	0x3eff1f8f	0.49828765
247	0x3d9339fb	0.07188793
248	0xbe5cc8b9	-0.21560945
249	0x3d746dca	0.059675016
250	0xbe3a5241	-0.1819544
251	0x3da1f9a3	0.079089426
252	0xbd196033	-0.03744526
253	0xbe869366	-0.2628433
254	0x3ea3677c	0.3191489
255	0xbe6738e5	-0.22580297

discriminator.0.bias f4 [64]
0	0xbdad639c	-0.084662646
1	0x3d433c02	0.04766465
2	0xbd38ba28	-0.045099407
3	0xbd64aed0	-0.055830777
4	0xbd77fc35	-0.060543258
5	0x3e9f76f3	0.3114544
6	0x3cd0350c	0.02541592
7	0x3e675522	0.2259107
8	0x3e945ec0	0.2897854
9	0x3f0c3c49	0.5477949
10	0xbe18d60b	-0.14925401
11	0x3e58e35e	0.21180484
12	0x3ea97393	0.3309599
13	0xbdddbc0f	-0.10826885
14	0x3daef0cf	0.08542024
15	0x3e7b1a8d	0.24521847
16	0x3e44bb6e	0.19212124
17	0xbd7f1c05	-0.06228258
18	0xbdc58bee	-0.0964583
19	0xbf1016b1	-0.56284624
20	0x3d0df55e	0.03465783
21	0xbc0b1201	-0.008488179
22	0x3df150c5	0.11782984
23	0xbddd8c38	-0.1081776
24	0x3d81af0f	0.06332218
25	0x3db30fff	0.087432854
26	0x3ce3bc4a	0.027799744
27	0x3d2b20c9	0.041779313
28	0x3dccf0ce	0.10006867
29	0x3d5f25c5	0.05447938
30	0xbb0d73ad	-0.002158384
31	0x3e01b29e	0.12665793
32	0xbd9724a9	-0.07380039
33	0x3eb69b18	0.35665202
34	0xbd9297e2	-0.071578756
35	0xbb559cb7	-0.003259463
36	0xbd032baf	-0.03202408
37	0x3bf76558	0.007549923
38	0x3e2c518f	0.16827987
39	0x3e645973	0.22299747
40	0xbdaf00df	-0.08545088
41	0xbdd68c0d	-0.10475931
42	0x3dc7b8e9	0.09752066
43	0xbd4ac1ae	-0.049501114
44	0xbcb1df78	-0.021713004
45	0x3eaee4df	0.3415899
46	0x3e0c01b3	0.13672523
47	0x3c683309	0.014172324
48	0x3e028648	0.12746537
49	0xbe17ea80	-0.14835548
50	0x3d902efe	0.07040213
51	0xbd4d1365	-0.050067324
52	0x3e16e4f8	0.14735782
53	0x3cf46bcf	0.029836563
54	0x3d654f93	0.05598409
55	0xbe6015a0	-0.2188325
56	0xbf191ee2	-0.5981275
57	0xbd9305d8	-0.07178849
58	0x3d5ccf1c	0.053908452
59	0x3e886fe1	0.26647857
60	0x3e3c708c	0.18402308
61	0x3ea9c4f0	0.33158064
62	0xbf3827d3	-0.71935767
63	0x3d0e27e6	0.03470602

discriminator.2.weight f4 [32, 64]
0	0xbedf6ea8	-0.43639112
1	0xbef41f77	-0.47680256
2	0xbda10426	-0.078621194
3	0xbdd08791	-0.10182107
4	0xbed7801b	-0.42089924
5	0x3e8365cd	0.25663605
6	0xbea1d2fa	-0.31606275
7	0x3ebef9d6	0.37299985
8	0x3e9d126c	0.30678117
9	0x3f0e2084	0.55518365
10	0x3e964f4e	0.2935738
11	0x3e6b5f8e	0.2298567
12	0x3e9381b6	0.288099
13	0xbdcbcbd8	-0.099509895
14	0x39fd5f6b	0.00048327012
15	0x3ddd4528	0.10804206
16	0x3e385b9b	0.18003695
17	0x3dae962c	0.08524737
18	0xbe9df99b	-0.30854496
19	0x3ec2fcde	0.38083547
20	0xbe2ee7a5	-0.17080553
21	0xbe63ef28	-0.222592
22	0xbe6d7e37	-0.23192678
23	0xbdfb8eb6	-0.12283079
24	0xbdaabc1f	-0.083366625
25	0x3df31b16	0.118704006
26	0xbdb3ac8d	-0.08773146
27	0xbe02242a	-0.12709108
28	0xbec9ef26	-0.39440268
29	0x3c1227eb	0.00892065
30	0xbef36aed	-0.47542515
31	0x3d0a5f3d	0.033782233
32	0xbe2e86b4	-0.17043573
33	0x3eb9bbd0	0.36276102
34	0xbee8627a	-0.45387632
35	0xbd0ce347	-0.034396436
36	0xbe8c2d1f	-0.27378175
37	0xbf1a6321	-0.6030751
38	0x3df8bfe7	0.121459775
39	0x3db2f475	0.08738033
40	0xbe2a3dbf	-0.16625117
41	0xbcdaf9d3	-0.026730454
42	0x3d911b05	0.07085232
43	0xbeaed933	-0.34150085
44	0xbe06166b	-0.1309449
45	0x3edae0a4	0.42749512
46	0x3e9fa2ab	0.31178793
47	0xbee41c03	-0.4455262
48	0x3dc06eef	0.09396159
49	0xbe869efe	-0.26293176
50	0x3dec9102	0.115510955
51	0xbeb249c1	-0.34821895
52	0x3e9c2646	0.3049795
53	0xbf1bee0d	-0.6091011
54	0xbec1403b	-0.37744316
55	0x3cbd519b	0.023110202
56	0x3ef0f05f	0.4705839
57	0x3e625e20	0.22106218
58	0x3d725636	0.05916425
59	0x3e84b83a	0.25921804
60	0x3cc250bc	0.023720138
61	0x3ee3ed94	0.44517195
62	0x3f17200c	0.59033275
63	0xbe8f553b	-0.27994713
64	0xbead1461	-0.3380461
65	0xbf072982	-0.5279771
66	0x3dd2690f	0.102739446
67	0xbe95959a	-0.292157
68	0xbe9363d9	-0.28787115
69	0x3e30f552	0.17281082
70	0xbea78af1	-0.3272319
71	0x3e93e744	0.2888738
72	0x3db52ae1	0.08846069
73	0x3ea5e06b	0.3239778
74	0x3eb6d932	0.35712582
75	0x3e690502	0.22755817
76	0x3e88a2d0	0.26686716
77	0xbe435192	-0.19074085
78	0xbe3acdba	-0.18242541
79	0x3e502ffe	0.20330808
80	0x3e4b8e9b	0.19878618
81	0x3db7bf7a	0.08972068
82	0xbe92e8fd	-0.2869338
83	0x3ee61350	0.4493661
84	0xbe7ee7bd	-0.24893089
85	0xbd9888e8	-0.07447988
86	0xbeacbcac	-0.33737695
87	0xbda9ccf2	-0.08291043
88	0xbcd04cc4	-0.02542723
89	0x3d0c4d8c	0.034253642
90	0xbe0953ac	-0.13410825
91	0xbdf05ea2	-0.117368
92	0xbe8df629	-0.27726868
93	0x3d780048	0.060547143
94	0xbe9f67bf	-0.3113384
95	0x3e47b5e3	0.19502978
96	0xbea57f57	-0.32323715
97	0x3e7599cf	0.23984455
98	0xbef58c4a	-0.47958595
99	0x3e078da2	0.13237622
100	0xbebe963d	-0.37223998
101	0xbf1305e3	-0.5743086
102	0x3daca984	0.0843077
103	0x3e7b12d5	0.24518903
104	0xbda2c299	-0.07947273
105	0x3cec35af	0.028834192
106	0x3e0ac289	0.13550772
107	0xbe480e5d	-0.19536729
108	0xbcec5303	-0.028848177
109	0x3ecb370d	0.39690438
110	0x3e54d4b4	0.20784265
111	0xbec9a269	-0.39381722
112	0x3e8b17cf	0.27166602
113	0xbe2f4e39	-0.17119683
114	0xbd811db8	-0.063044965
115	0xbefb3297	-0.49062034
116	0x3ee99f5b	0.4562939
117	0xbf1aabe0	-0.6041851
118	0xbe889068	-0.26672673
119	0xbe468b5e	-0.19389102
120	0x3e908c13	0.28231868
121	0x3e077d4e	0.13231394
122	0x3def8760	0.116957426
123	0x3ea52f95	0.32262865
124	0xbdd150e4	-0.10220507
125	0x3ecc0f0e	0.39855236
126	0x3eda48ef	0.4263377
127	0xbef79607	-0.4835665
128	0x3dba3aef	0.09093272
129	0x3eae0e64	0.33995354
130	0x3c41e1b7	0.0118336
131	0x3e45b50b	0.19307344
132	0x3e8c10b9	0.27356508
133	0x3c7b8e40	0.015353739
134	0x3d9d7e62	0.07690121
135	0xbdaa35cb	-0.083110414
136	0xbd388668	-0.045050055
137	0xbe4c3055	-0.19940312
138	0xbe8cd37e	-0.27505106
139	0xbe230e5a	-0.15923443
140	0xbc56b0de	-0.013103692
141	0x3e90bce6	0.28269118
142	0x3e0adb95	0.13560326
143	0xbd853cbb	-0.06505724
144	0xbe20d8bb	-0.15707676
145	0xbdd8ecfd	-0.10592077
146	0x3e613d98	0.21996152
147	0xbe28b5f8	-0.16475666
148	0x3db85508	0.090005934
149	0x3e9ab4c0	0.30216026
150	0x3eb9c736	0.36284798
151	0xbd6491e8	-0.05580321
152	0x3e748691	0.23879458
153	0x3d1e1dc7	0.038602617
154	0x3de631b5	0.112399496
155	0x3cb99fd7	0.022659225
156	0x3eadf3b5	0.33974996
157	0x3e285ee3	0.16442446
158	0x3ef779e4	0.48335183
159	0xbe300460	-0.17189169
160	0x3f0ce436	0.5503572
161	0xbda5bcc6	-0.08092646
162	0x3edf6f72	0.43639714
163	0x3e034036	0.12817463
164	0x3ed7aea8	0.4212544
165	0x3ee5e095	0.44897905
166	0xbddd14a3	-0.10794952
167	0xbdde26a7	-0.10847216
168	0x3df4cfa6	0.11953668
169	0x3d98dfee	0.07464586
170	0x3cddc8b7	0.027073247
171	0x3e9abba4	0.30221283
172	0x3e68e269	0.22742619
173	0xbdcf08b0	-0.10109079
174	0x3db119ea	0.08647521
175	0x3ea56622	0.32304484
176	0x3bebd848	0.0071974136
177	0x3e868ae6	0.26277846
178	0x3e465881	0.19369699
179	0x3ee4d672	0.4469486
180	0xbe20943d	-0.15681548
181	0x3f03bcff	0.5146026
182	0x3e648f41	0.22320272
183	0x3e5405f8	0.20705402
184	0xbe67cc58	-0.22636545
185	0x3e0ad7f4	0.13558942
186	0x3df31d81	0.11870862
187	0xbd93c132	-0.072145835
188	0x3e7b932a	0.24567857
189	0xbe57d0d4	-0.21075755
190	0xbe8476ba	-0.2587183
191	0x3eb2d6bf	0.34929463
192	0x3e9af1d3	0.30262622
193	0x3ef66d1c	0.4813012
194	0xbd543fc6	-0.05181863
195	0xbcd73fcb	-0.026275536
196	0x3e9a0f7c	0.3008994
197	0xbd9c1b4b	-0.07622393
198	0x3e409b6a	0.18809286
199	0xbe7d67b3	-0.2474659
200	0xbd83bad2	-0.064321175
201	0xbed8c19a	-0.42335206
202	0xbd8aa8f4	-0.067705065
203	0x3e2b60fe	0.16736218
204	0xbe158e87	-0.14605151
205	0x3e2d4fd4	0.16924983
206	0x3e436e51	0.19085051
207	0x3c6b09ab	0.014345567
208	0x3d6cfc64	0.057857886
209	0xbd5a43b5	-0.053287227
210	0x3e913cef	0.283668
211	0xbde69674	-0.112591654
212	0x3db0f0de	0.08639692
213	0x3e3d6b36	0.18497929
214	0x3ee0c3e4	0.43899453
215	0x3e67104d	0.22564812
216	0x3df991b2	0.12185992
217	0x3e9ed7ee	0.31024116
218	0x3e76b17c	0.24091142
219	0x3dcfcb8a	0.10146244
220	0x3f09065f	0.53525347
221	0x3d8f9c53	0.07012238
222	0x3ee2fee7	0.443351
223	0x3ce21fc8	0.027603045
224	0x3e375147	0.17902099
225	0xbe2f55c2	-0.17122558
226	0x3eb86f1a	0.36022264
227	0xbb0dab1c	-0.0021616882
228	0x3ea3aa45	0.31965843
229	0x3eb74fc4	0.35803044
230	0xbd2eeb63	-0.04270495
231	0x3d1fac51	0.038982693
232	0x3d8bbbbb	0.06822916
233	0x3de7f098	0.113251865
234	0x3cc8a896	0.02449445
235	0x3f0c43c1	0.54790884
236	0x3e2fbd5f	0.17162083
237	0xbd0dc024	-0.034607068
238	0x3df80731	0.12110747
239	0x3ed1d515	0.4098288
240	0xbd8b266b	-0.06794437
241	0x3dfc75b4	0.123271376
242	0xbdd35de4	-0.103206426
243	0x3eb4dc26	0.3532421
244	0xbe15e729	-0.14638962
245	0x3f2f8f00	0.68577576
246	0x3eb8a9ba	0.3606699
247	0x3cb9e9d8	0.022694513
248	0xbe3cbb5f	-0.18430851
249	0xbd79d6e4	-0.06099595
250	0x3e0b06c9	0.13576807
251	0xbd807ce0	-0.06273818
252	0x3e395975	0.18100531
253	0xbe5dd96f	-0.21664976
254	0xbee6683b	-0.45001397
255	0x3e8ff0ae	0.28113312

discriminator.2.bias f4 [32]
0	0x3e8babfd	0.27279654
1	0x3e4de01e	0.20105025
2	0x3d3e4448	0.046451837
3	0x3b68d6c2	0.0035528396
4	0xbe452221	-0.192513
5	0xbddbbbb5	-0.10729162
6	0xbdfb9994	-0.12285152
7	0xbddcb330	-0.10776365
8	0xbd1fa531	-0.0389759
9	0xbb955957	-0.0045577693
10	0x3cc5df4e	0.024154332
11	0xbca7dad3	-0.020490086
12	0xbd33da97	-0.043909635
13	0xbc9f1763	-0.019420331
14	0x3c76c3e6	0.015061354
15	0xbd5922af	-0.053011592
16	0x3e9da87f	0.30792615
17	0x3e8fcd28	0.2808621
18	0xbd8331c3	-0.06405976
19	0xbd182ba7	-0.037151005
20	0xbdb73edb	-0.089475356
21	0xbe0c839f	-0.13722084
22	0xbe191d30	-0.1495254
23	0xbc5ad544	-0.013356511
24	0xbddd5c2a	-0.108085945
25	0x3c381546	0.011235541
26	0xbdf5f522	-0.12009646
27	0xbc5aa89d	-0.013345865
28	0x3e8fc4b2	0.28079754
29	0x3eb43806	0.35198992
30	0xbd36e2ac	-0.044649765
31	0xbe03c2e2	-0.1286731

discriminator.4.weight f4 [1, 32]
0	0xbf0d3c46	-0.55170095
1	0xbf1717bb	-0.59020585
2	0x3e9ae856	0.30255383
3	0x3e9f88c6	0.31159037
4	0x3f003ba3	0.50091
5	0x3e8ea6a2	0.27861506
6	0x3f2583c1	0.64654166
7	0x3eada3cb	0.33914027
8	0xbd291e34	-0.04128857
9	0x3ed8d5f6	0.4235074
10	0xbdf3e9f5	-0.11909858
11	0x3ee14bac	0.44003046
12	0xbd8549c6	-0.06508212
13	0x3ebd9d07	0.37033865
14	0x3eb26dcc	0.34849393
15	0xbd92337d	-0.07138727
16	0xbeeae3a4	-0.458768
17	0xbf13bbd8	-0.577085
18	0x3ea97e2d	0.33104077
19	0x3e40bad6	0.18821272
20	0x3e85faeb	0.26167998
21	0x3ebffdef	0.37498423
22	0x3e952fcd	0.29138032
23	0xbe1464c6	-0.14491567
24	0x3e9cafbe	0.3060283
25	0xbe1da5e4	-0.15395314
26	0x3e9dfa1c	0.3085488
27	0x3ebf5199	0.37366942
28	0xbf0f6633	-0.5601532
29	0xbf0567ee	-0.5211171
30	0x3ebe5360	0.37172985
31	0x3ef2f897	0.47455284
