models/2023-02-10/lstm_model.onnx (onnx, 468420 bytes, 6 tensors)

fc.weight f4 [7, 256]
00000000: 899f 5a3d e879 7d3d f7bd 413d 66ae b0bc
00000010: 26c8 a93d 1b5f 7a3d aa81 f0bc 83c2 1fbd
00000020: 3c82 8b3d 8786 6abc 3486 1bbd 5714 90bd
00000030: b99c 383e ecab 8d3c a919 b43d 0692 7e3d
00000040: bd12 7dbd 3952 88bc cbfe e4bd 0a6a afbd
00000050: e1ba c13d 8fd4 3cbd 2de1 063d 73a7 17bd
00000060: c297 b9bd 35b6 f23c 2604 c2bd 3f16 373d
00000070: 44a1 2bbd 7279 46bc 304f ed3c 519f 0f3e
00000080: 011e 313c cc52 833c 98f2 873d a23c 723d
00000090: 05ce 25bd c0fa 1ebd fefa ae3d 2153 b63d
000000a0: 5379 663c f50c e83b 3171 caba c21a 0fbd
000000b0: d3bb c53d 05d0 da3b 9368 cbbd 6495 4d3d
000000c0: afc4 ffbc d029 da3c aa22 dabb 2730 f3bd
000000d0: 7ddb 1e3c 5c9a 503d 3c4d 6e3d f694 653d
000000e0: cb20 4d3d 578c 94bd bf9f c9bd 5215 ebbd
000000f0: 80f8 713d 8471 113c be72 123c 423c c2bc
00000100: c2bb b13d 796c e13b 9945 6d3c 30d5 97bd
00000110: 9c7a cf3d 9f2e d2bc 54b2 35bd 10bd 173b
00000120: 9a02 96bc 5226 243d ab17 8c3d 5ae4 2fbd
00000130: de4b 86bc 9258 5a3a 2fd3 9d3c db2e a4bd
00000140: 4557 c5bb 12be 2cbd a585 8f3c a272 203d
00000150: 327b 0a3c a629 f2bb a470 dfbd 9c6f c93d
00000160: 5872 39bb 929f 833d 3a38 8ebd 1c49 4f3c
00000170: fe0a 00bc fe47 dd3c c035 3a3d 7a37 19bd
00000180: 629b 56bb 09c5 193d 01f3 9a3d 2be1 e53c
00000190: 20fe 8e3d 25ac fabc 78a9 ef3c a3d6 85bd
000001a0: 29be 0fbc d950 113d df75 3abc d3c1 3fbd
000001b0: 718f acbc 116a 923d 68e3 cb3d 5d89 b33a
000001c0: c300 b4bd a180 5ebd 40ee 203c 07f0 d4bc
000001d0: 52ca fbbc 03eb f2bc 627a 473d bbbc ce3c
000001e0: 2fff a2bd c412 81bd bdf8 bdbd 25e9 69bd
000001f0: 6bd8 8c3d 4656 9f3d b237 733c cd0f 90bd
00000200: 89da d83c 80cd bfbb 94b8 52bd 096f 313d
00000210: 61f0 933c e591 713d cabb c1bc 2962 d6ba
00000220: bfd6 dabc 3f5a 9fbb 6958 2ebc 4761 4fbd
00000230: e201 22bc 1ada 18bc e81d e7bc fad5 82bc
00000240: d59d 22bd 973c b9bd 96f5 ad3d 8673 7f3c
00000250: a5a4 e13c 4f19 433d a00e 25bd a28d a4bd
00000260: a47d 083d fba6 d13c 86b8 d53c 47cb de3d
00000270: 2fd4 80bd 920d 0d3d 87c4 9f3d c114 b83c
00000280: 2003 1ebd b8b9 2a3d bbf9 17bd 92f0 8f3c
00000290: 6ff2 b0bc 1c80 f3bd c2a0 1b3d a23f bcbc
000002a0: ef15 84bc 5310 a8bd e375 043e 1e4e f03a
000002b0: 85c6 513c f744 1c3d d764 6b3c af82 8cbd
000002c0: a82a 2d3d b253 0c3e e777 e33c dea8 d6bc
000002d0: b0c4 b93d 8bbc 2e3d 14e8 ad3a f29d a83d
000002e0: 2ce4 de3d 0de7 a03d ac77 723d 71b3 803d
000002f0: 06f0 83bd 9e5b e339 f69b 7abd 693b d6bc
00000300: 0892 3eba 8c42 aabc 12ee d6bc 52ef 9e3c
00000310: b7e0 2ebc a5dc 25bc c7f1 c53c 0610 28bd
00000320: 99aa c23c 1bf4 6dbb ac0b 21bd 159a 67bc
00000330: 188c e83c 7f6f a03d 8dbf b3bd 9274 5bbc
00000340: ba91 cfbd f8f3 ad3d 37a9 01be 32fe a33d
00000350: a20c b53d 7482 ddbc f27d 103e d6f7 c3ba
00000360: 563e 2ebd f4e4 9a3d 85ad a93b 7043 48b8
00000370: e3b7 b93c 9c1d 2cbd eb1d 01bd 5a7a 56bc
00000380: 94a2 e9bd d038 83bc 05d1 4c3d 0bd3 46bd
00000390: e95c b1bc d5a6 13bd 9f31 9a3d 59f2 b73c
000003a0: dfd3 133c 9fdf ea3c 785f 00bd 7759 213d
000003b0: b83b 92b9 cdd5 ae3d 0dfb a83d 7b3e a23d
000003c0: e138 f83c 0b97 003d 09a7 56bd 47c4 9e3d
000003d0: 801f 513d a9d0 c63d 05b9 853d ec9b a83c
000003e0: 8553 c4bc d40a 55bd 6594 bd3b 1a3d ad3d
000003f0: e731 34bc 3903 eabd 7f0f dbbd 1067 9dbc
0.0533748 0.061883837 0.047300305 -0.021567535 0.082901284 0.061125856 -0.029358704 -0.03900386
0.068119496 -0.0143143 -0.037969783 -0.070351295 0.18028535 0.017293893 0.08793957 0.062150978
-0.06178545 -0.01664077 -0.111814104 -0.08565147 0.094594724 -0.04610115 0.032929588 -0.037024926
-0.09062149 0.029627899 -0.094734475 0.04469895 -0.04190184 -0.012113916 0.028968424 0.14025618
0.010810376 0.016030692 0.06638068 0.059139855 -0.04047968 -0.038813353 0.08543967 0.08902574
0.014067012 0.0070816227 -0.0015445111 -0.034937628 0.09654965 0.00667763 -0.09932055 0.050191298
-0.031221716 0.026631266 -0.0066569643 -0.11874419 0.009695885 0.05092846 0.058179125 0.056050263
0.050080102 -0.0725333 -0.09844922 -0.11478676 0.05907488 0.008877162 0.0089384895 -0.023710374
0.0867839 0.006879386 0.014481925 -0.07413709 0.10130808 -0.025656996 -0.04435952 0.0023153462
-0.018311787 0.040075608 0.06840452 -0.042942382 -0.016393598 0.0008329238 0.01926574 -0.080167495
-0.006022366 -0.042173453 0.017519781 0.039171822 0.008452224 -0.007390219 -0.10910156 0.09835741
-0.0028296914 0.0642692 -0.06944318 0.012651708 -0.007815121 0.027011868 0.045461416 -0.037406422
-0.0032746424 0.037541423 0.075658806 0.02806147 0.06982064 -0.030599663 0.029255614 -0.06535079
-0.008773365 0.035477493 -0.011380642 -0.046815705 -0.021064492 0.07149137 0.09955484 0.0013697554
-0.08789208 -0.05432189 0.009822428 -0.02599336 -0.030736122 -0.029653078 0.048700698 0.025236478
-0.07958829 -0.063024074 -0.09275959 -0.05710711 0.06877216 0.07780127 0.014844822 -0.07034264
0.026471393 -0.005853355 -0.05144556 0.043318782 0.018058958 0.058977026 -0.023649115 -0.0016356158
-0.026713727 -0.004863053 -0.010641196 -0.05062988 -0.009888144 -0.009329343 -0.028212503 -0.015971173
-0.0397013 -0.0904476 0.084941074 0.015591508 0.027544329 0.047631558 -0.04029715 -0.08034827
0.033322945 0.025592318 0.026088964 0.10878616 -0.06290471 0.03443677 0.078011565 0.022470834
-0.0385772 0.04168102 -0.037103396 0.017570768 -0.021599976 -0.11889669 0.037995107 -0.022979561
-0.01612374 -0.082062386 0.12935595 0.0018333828 0.012803678 0.038151708 0.014367304 -0.068608634
0.04227701 0.13703802 0.027767135 -0.026203569 0.09070718 0.042660277 0.0013268017 0.08233251
0.10883364 0.078565694 0.05919616 0.06284226 -0.06442265 0.00043365074 -0.061183892 -0.026151376
-0.0007269685 -0.020783685 -0.026236568 0.019401226 -0.010673693 -0.010123407 0.02416314 -0.041030906
0.023762988 -0.0036308828 -0.03931777 -0.014135857 0.028387114 0.07833766 -0.0877677 -0.013394492
-0.10135217 0.08493799 -0.12662207 0.08007468 0.088403 -0.027039744 0.14110544 -0.001495118
-0.042539917 0.075632006 0.005178156 -4.7746522e-05 0.022670692 -0.042020425 -0.031522673 -0.013090694
-0.114079624 -0.016018301 0.050004024 -0.04854111 -0.021650748 -0.036047775 0.07528996 0.022454428
0.009022682 0.028671084 -0.031341046 0.03939196 -0.00027891784 0.08536873 0.08251009 0.079220735
0.03030056 0.031394046 -0.05240539 0.07752281 0.05105543 0.097077675 0.0652943 0.020582162
-0.023965606 -0.05201228 0.0057855123 0.0845892 -0.010998226 -0.11426396 -0.10696315 -0.019214183

fc.bias f4 [7]
00000000: 0050 473d 70a6 473d 4ec3 b03d deb0 8e3d
00000010: 2747 9b3d b10e c63d 8449 d63d
0.04866028 0.04874271 0.086310014 0.069673285 0.075819306 0.09670771 0.10463241

onnx::GRU_197 f4 [2, 768]
00000000: 5d8a dbbd 3bd6 0bbe eb23 d7bd 3d64 e6bd
00000010: 01c7 8bbd beb9 03be 6018 42bd 5332 44be
00000020: 3014 cfbd 92ba a1bd a4a7 62be 1189 a8bd
00000030: 04e3 48be 8110 97bd 08a2 c8bd ba2c 16be
00000040: e8c8 63bd 91d3 50be 6bad 66be 2e7b 26be
00000050: ba1c 4bbe e431 94bd 4fad 0abe 633d cdbd
00000060: 75d9 42be d132 b4bd 77cb cbbd e8dc 63be
00000070: 8a7c 49be 0fcc 48be 3e97 c4bd 0ad0 6fbd
00000080: 1c5e 49be 2011 c0bd 6e01 61be 4b95 2dbe
00000090: 76cb 76bd b7dc 37be bc17 8bbd 16a8 1abe
000000a0: d1b2 90bd b83d c7bd 40e0 c5bd 561b 63be
000000b0: 0b25 e7bd f5a8 61be f851 1dbe bc8c c2bd
000000c0: 43b7 e9bd 7f74 3ebe c18e 3cbd 30d4 00be
000000d0: 8338 71bd 1157 4fbe cb22 02be e42c 2ebe
000000e0: d4e3 2cbe 590e 2fbe 8b03 11be 45e1 71bd
000000f0: 3c92 f3bd b14a 25be 97c8 28be f7ff 41bd
00000100: a0b5 d7bd bb05 61be f510 11be b7b1 1ebe
00000110: b483 36be 030e 00be 2b48 13be a871 cbbd
00000120: bf20 73bd d29b 34be 1091 b5bd 4c45 60be
00000130: 5b7f 1cbe 2925 7abd da59 dabd da4f afbd
00000140: 3317 06be 007a 4cbd d925 34be f88d 48be
00000150: d9b2 67bd 2acd 40be 386d 21be e7da c9bd
00000160: 1cc8 2bbe 77a4 e7bd 13e4 b0bd 3dec b7bd
00000170: e0b1 12be 794c 95bd 72e0 e4bd 5c9a 9dbd
00000180: 23c1 f3bd 5eda 0ebe 4cb8 8fbd cc80 39be
00000190: 19c3 4bbe 2389 c5bd 3ecc 64be 9207 85bd
000001a0: 727d 04be cfc2 bcbd 889a 3abe 6766 7ebd
000001b0: f912 28be 8504 bdbd b6ea e3bd 791c 48bd
000001c0: 7e3f 3bbe 1842 34be d54c 4abe 4ea3 0abd
000001d0: 25f0 17be 82ee 12be e336 d1bd fa7f 12be
000001e0: 34fa 32be 11f6 48be 9326 e6bd 0c2e 67be
000001f0: d8b3 05be 82a4 89bd 0788 0ebe e513 6fbd
00000200: 15cb 353c 3eb8 ed3d dd9b 103e 67b7 ac3d
00000210: d4ed db3c 542c 6a3d bbe8 4bbc 00d7 da3c
00000220: 4157 a13d db01 e2bb abf4 ffbd 518c cd3d
00000230: a360 d43c 331e 76bc 2f67 9e3d e663 0e3e
00000240: 80a1 22bd 23fe 0f3e 2410 5ebd 3153 ccbc
00000250: 7783 fb3b 1bb7 c43c e3e1 183c 9a87 953d
00000260: 3b87 5dbd 3e68 b3bd 3f95 d63d ee47 94bd
00000270: 1334 353e 3dbf c73d 0627 963d 700c babc
00000280: 984b c33d b8bd e23d 68b8 413e 894c 483e
00000290: 4654 1d3e ad28 2a3c af23 0c3e 0c8e 9f3d
000002a0: b1a0 c13c 1eac e4bc ab23 513d 6044 1f3c
000002b0: 3d71 c33d 5d29 3f3e 0ec0 54bd b2fc 57ba
000002c0: 8e7f d4bd 442c f63c d4eb 84bd b0ba a23d
000002d0: 7abe 8b3c 52fe 94bd 9ef4 973d 7660 233d
000002e0: 096e c83d 8ea5 f8bd b989 333d 0366 c6bc
000002f0: 8e76 d33c df75 4cbd 16d9 ae3d b03e edbd
00000300: 973d 203e c2a4 723d fbf4 033e 0774 003e
00000310: 8402 b83d bfb8 9cbd 4c90 ee3d ac3d d4bd
00000320: e923 013e 1c87 233c 59da 09bb 3c40 213e
00000330: 201f c73c 91c4 8c3c 42a9 233e da7d 9dbd
00000340: a86d a5bb b919 dabb df95 5ebc 761b 003e
00000350: 024f 3c3d bca7 663d 51fb f13d c1d8 cabc
00000360: 32cb 753d 1ccb c13d 35bb e4bc 3ec1 ce3d
00000370: 2ec2 383d 95ea 5e3d 815f 1d3c f666 303d
00000380: df52 ae3d ced4 083e 0f42 373e f718 3d3e
00000390: bc23 1b3e 5115 4f3d 50ec d0bc 772f 7e3d
000003a0: f9b6 e9bc 9c86 5b3d 74d9 a13d 4fbc 1b3e
000003b0: c966 103d 6fe1 ee3c 3e17 1a3b 4fe8 cf3d
000003c0: d452 88bd c76c 8a3c ecb3 10bd 5000 fc3d
000003d0: 59ad 90bd 21cb 353c 38f1 cc3d 4b59 283c
000003e0: 6967 7fbd 7017 8f3d 0768 4d3d f010 bbbd
000003f0: 53fa 573d 785a 83bc adf4 d6bd a5b9 bd3d
-0.1071975 -0.13655941 -0.10504898 -0.11249588 -0.06825066 -0.12863824 -0.047386527 -0.19159822
-0.10111272 -0.078969136 -0.22134262 -0.08229268 -0.1961785 -0.07376195 -0.0979653 -0.146655
-0.05561152 -0.20393206 -0.22527091 -0.16257927 -0.19835177 -0.072360784 -0.13542674 -0.10021474
-0.19028266 -0.08798755 -0.09950917 -0.22252238 -0.19676414 -0.19609092 -0.0959916 -0.05854801
-0.19664806 -0.09378266 -0.21973202 -0.16951482 -0.06025263 -0.1795529 -0.06791636 -0.15103182
-0.070653565 -0.09728569 -0.09661913 -0.22178397 -0.11286362 -0.22037108 -0.153633 -0.09499499
-0.114119075 -0.18599127 -0.04603458 -0.12580943 -0.058891784 -0.20248057 -0.12708585 -0.17009312
-0.16883785 -0.17095317 -0.14161508 -0.059052724 -0.11893126 -0.16141774 -0.16482769 -0.047363248
-0.10532689 -0.21974842 -0.14166625 -0.1549748 -0.17823678 -0.12505345 -0.14382999 -0.099337876
-0.0593574 -0.17637566 -0.08865559 -0.21901435 -0.15282957 -0.061070595 -0.10661669 -0.08560152
-0.13094787 -0.049921036 -0.17592563 -0.19585407 -0.056567047 -0.18828264 -0.1576432 -0.098562054
-0.16775554 -0.11310666 -0.08637252 -0.08980606 -0.14325666 -0.072899766 -0.11175622 -0.07695457
-0.11902072 -0.13950488 -0.07017574 -0.18115538 -0.19898643 -0.096452974 -0.22343537 -0.064955845
-0.12938479 -0.09216844 -0.18223011 -0.062109377 -0.16413487 -0.09229378 -0.11128752 -0.04885528
-0.18285939 -0.17603338 -0.19755872 -0.033847146 -0.14837702 -0.14348796 -0.10215547 -0.14306632
-0.17478257 -0.19625117 -0.11237826 -0.22576159 -0.13056886 -0.067208305 -0.13919078 -0.058368582
0.011095782 0.11607407 0.14121957 0.08433419 0.026846804 0.05717118 -0.012445624 0.026713848
0.078779705 -0.006897194 -0.124978386 0.10036529 0.025924986 -0.0150218485 0.077345245 0.13905296
-0.0397048 0.14061789 -0.05421461 -0.024942013 0.007675584 0.024013093 0.009331199 0.073012546
-0.054084044 -0.08760117 0.10477685 -0.07240282 0.17695646 0.09753273 0.07331662 -0.022711009
0.09535903 0.11071342 0.18918002 0.19560446 0.15364179 0.010385674 0.13685487 0.07790765
0.023636194 -0.027914103 0.051059406 0.009720892 0.09543083 0.18668123 -0.05194097 -0.00082392537
-0.103758916 0.030050404 -0.06490293 0.07945764 0.0170586 -0.0727507 0.07419704 0.039886914
0.097866125 -0.12140952 0.043832514 -0.024218565 0.025813367 -0.049917098 0.085374996 -0.11584222
0.15648495 0.059239157 0.12886421 0.12544261 0.08984855 -0.07652425 0.11648616 -0.103633255
0.12611355 0.009980943 -0.0021034686 0.1574716 0.024306834 0.017183574 0.15982535 -0.0769002
-0.0050484724 -0.0066558984 -0.013585537 0.12510476 0.045973785 0.056312308 0.11815513 -0.02476156
0.060008235 0.09462568 -0.027921299 0.10095452 0.04510706 0.054422934 0.009605289 0.04306694
0.085119 0.13362429 0.17896293 0.18466555 0.1515035 0.05055744 -0.025503308 0.062056985
-0.028529631 0.05359517 0.07902804 0.15208553 0.035254274 0.02916023 0.0023512389 0.10151731
-0.06656423 0.016897572 -0.035327837 0.12304747 -0.070643134 0.011095793 0.10006946 0.010275195
-0.06235448 0.06986892 0.050148036 -0.0913409 0.052728962 -0.01603435 -0.10495887 0.092639245

onnx::GRU_198 f4 [2, 384, 19]
00000000: a9c2 efbd e66a 96bd 2523 a1be 1738 99bd
00000010: f829 0cbe fd94 e6bd faa0 94bc 1168 1ebe
00000020: f34e 24be 89a8 bfbd 6864 bdbd 23bc b2be
00000030: 9ac6 d1bd 0e09 95be b1b7 f6bd 8a46 79bd
00000040: 82dc f8bd dc86 e4bd 2cb7 07be 5f0c 093d
00000050: ba37 9bbd 9b9a 82be 3bdf 4dbe e610 4cbe
00000060: 8fda 68bd 99d5 edbc 6be4 35bd 37ec 54be
00000070: 9b26 2cbd 3e55 09be c6be 51be 491a 51bd
00000080: 20ca 75be 5b99 24be 269a d4bc 5f38 16be
00000090: cc3a 25bd 2b0c 50be 6834 94bd bacb 45be
000000a0: 91f6 98be 8a1d cdbd d5f4 5bbe ac32 47be
000000b0: 3837 1bbc 7c2c 0abd a075 0cbe 588e 22be
000000c0: 9b22 13be c550 93be 738c 85bd d6ab 8abe
000000d0: 1b6a 11be 6936 25be 14d4 08be 1c1f 34bd
000000e0: 2e7e 54bd a40c 0cbd 3ba3 28be a838 49be
000000f0: bd5e ebbd 7b29 2ebe f4da 27be bfb2 ddbd
00000100: 9a2e 81bd 6255 0cbe b556 a5bc 7379 eebd
00000110: 8d4b 55be 7eac 2ebe 39a0 9dbe 2825 27be
00000120: 70df 51be 5b6d 30be f5fe 43be a0cb 04be
00000130: cb14 3ebd 9dd7 0ebe f991 b8be 0c9f 06bd
00000140: c9df 1abe 1ded 9abd c2a3 10bc 6648 13be
00000150: c359 34be cc87 d0bb 2f79 0bbb 6e5a 9fbe
00000160: 64dc 5fbd c2c4 b0be 0636 2fbe a83c 14bd
00000170: d57d dbbd bef6 d1bb e069 cfbd 62a1 a9bd
00000180: c01c 83bd e413 40be 5bab 11be 8bf6 4fbe
00000190: be69 1bbe 85f8 21be 9bc3 71bd a0f6 23be
000001a0: 4d17 cebd 0aa1 9ebd 0e3f 71be f916 4fbe
000001b0: 7dc0 30be e217 b8bd ea80 43be 5693 7dbd
000001c0: 9f7c ccbd af18 22be 9eb4 e6bd 6057 0fbe
000001d0: 43dd b2be 66f2 f5bd 774b f0bd 55ec 1bbe
000001e0: 9b77 2c3c b0a6 f3bd d87a debd cf78 30be
000001f0: 84a3 1fbe eb66 68be 65a5 b7bd 825d 75be
00000200: a5f8 2fbe 4561 11bd 7732 f6bc 6bf9 95bd
00000210: 54ac 1ebe 09cf f2bc 9e43 13be f7c4 12be
00000220: b856 1ebe 5f86 2bbe 06b2 0ebe 2b6d 8fbd
00000230: e053 fbbd 314f 88bd b38a c0bd 09e0 63be
00000240: da75 65be 7758 62be 6064 8cbe f4ed 02be
00000250: f632 e0bd 7e65 07be 7739 24bd 84a6 3ebe
00000260: 6699 bfbd 3e06 23be 6b4d 71be f26d 27be
00000270: 377e abbd ff4f 3bbe 56ff 24be 775c ecbd
00000280: 7f1f b9bd 90b0 d1bd a311 c5bd 7154 60be
00000290: b4ec 8fbd 1d20 2abe f28f a5bd dba9 14be
000002a0: 9a6c 4ebe 0d70 2dbe 8633 e0bd 280e f13c
000002b0: 033d 27be 81a0 4abe 7fb3 02be 935c 15be
000002c0: cef2 03be e832 dfbd 232b a2bc 7cfe 1abe
000002d0: bafe 43bd 39b8 45be 1813 a2be 76a1 fcbd
000002e0: 048d 43be b329 b6bd 1726 cfbd c439 4bbe
000002f0: 8fa8 dcbd 717b 3abe 91b4 e1bd d6d1 04be
00000300: 5a08 98be 36ab 48be b67d b8be 32f0 f6bd
00000310: 46c1 df3b 6ceb 03be 33e3 27bc 0f59 6ebe
00000320: 356a 5bbe d035 1fbe 01a5 45be 27ae 7ebe
00000330: b194 b6bd b296 66bd ee96 8fbd 2d7a c6bb
00000340: 62dc 2cbe 7e02 30bd c668 6dbd 9be8 84be
00000350: 3515 2dbe 4566 bdbd fc0f 41be 0960 04be
00000360: b4ce 0fbd f4ac 43be 23e3 ddbd a562 a7bd
00000370: 2789 8bbe 4538 36be f344 adbe 9d4e 4ebe
00000380: 8da4 b7bd 893d 24be 1687 bdbd dde5 06be
00000390: 5b3e c0bd d0a0 41be 890c 4ebd a820 e1be
000003a0: d976 dbbe 1b77 76be 8c90 11be 5060 97bb
000003b0: 337b d13d f683 c9be 677e c8be 615c aa3d
000003c0: 632d 77be ea64 133c f677 7fbe 1db7 1ebd
000003d0: fe4e 21bd 6e5c 07be 19ce a6bd 0b1f babd
000003e0: f3dc 80bd 6805 a5be 8ae7 26be fea8 06be
000003f0: 8407 3dbe a256 09bd 6ced 34be ecf9 23be
-0.1170705 -0.07344608 -0.31472126 -0.074814014 -0.13687885 -0.11258886 -0.018143166 -0.15469386
-0.16045742 -0.093583174 -0.092476666 -0.34909162 -0.10242958 -0.2910847 -0.12046755 -0.060858287
-0.121514335 -0.11158535 -0.13253468 0.033459064 -0.075789884 -0.2550858 -0.20104687 -0.19928321
-0.05684906 -0.029032515 -0.04440729 -0.20793234 -0.042029005 -0.13411424 -0.2048293 -0.051050458
-0.24002886 -0.16074125 -0.02595241 -0.14669941 -0.040339276 -0.20317142 -0.07236558 -0.19315997
-0.29875615 -0.100154 -0.21480115 -0.19452924 -0.009473614 -0.03373383 -0.13716745 -0.15874612
-0.1436867 -0.2877256 -0.06520929 -0.27084225 -0.14200632 -0.16134037 -0.13362151 -0.04397498
-0.051878147 -0.034191743 -0.16468517 -0.19650519 -0.11492679 -0.17008011 -0.16392118 -0.10825109
-0.06307717 -0.13704446 -0.020182947 -0.11644258 -0.20829602 -0.17057988 -0.30786303 -0.16322768
-0.20495391 -0.17229216 -0.19140227 -0.12968302 -0.04640655 -0.13949437 -0.36048868 -0.032866523
-0.1512443 -0.07564757 -0.008828105 -0.14383087 -0.17612366 -0.0063638445 -0.0021281948 -0.3112368
-0.05465354 -0.34525114 -0.17110452 -0.03619066 -0.1071736 -0.006407588 -0.10127616 -0.082827345
-0.06401968 -0.18757588 -0.14225523 -0.20308892 -0.15177056 -0.15817459 -0.059024435 -0.16012049
-0.10063038 -0.077455595 -0.2355921 -0.20223607 -0.17260928 -0.0898893 -0.19092146 -0.06190809
-0.09984707 -0.15829729 -0.11264919 -0.13998175 -0.34934434 -0.120091245 -0.11733144 -0.15226872
0.010526563 -0.118970275 -0.10863274 -0.17233585 -0.1558972 -0.2269551 -0.089670934 -0.23961452
-0.17184694 -0.035493154 -0.03005336 -0.07322963 -0.15495425 -0.029639738 -0.14381263 -0.14332949
-0.15462768 -0.16750477 -0.13935098 -0.07003244 -0.12271857 -0.066557296 -0.09401455 -0.22253431
-0.22408238 -0.22104059 -0.2742033 -0.12786084 -0.1094722 -0.1322231 -0.040093865 -0.18618208
-0.0935543 -0.1592035 -0.23564689 -0.16350535 -0.08373683 -0.18292235 -0.16113028 -0.11541074
-0.090392105 -0.10238755 -0.096225046 -0.21907212 -0.070275694 -0.16613813 -0.08084096 -0.1451792
-0.20158616 -0.16937275 -0.10947327 0.029425696 -0.16331868 -0.1978779 -0.12763785 -0.14586096
-0.12885591 -0.108983815 -0.01979596 -0.1513614 -0.047850348 -0.19308557 -0.31655192 -0.12335484
-0.19096762 -0.08894672 -0.10114687 -0.19846255 -0.107743375 -0.18211152 -0.110207684 -0.12970671
-0.29693872 -0.19596562 -0.3603341 -0.12057532 0.00682846 -0.12882775 -0.01024704 -0.2327616
-0.21427234 -0.15547872 -0.19301225 -0.24871121 -0.089150794 -0.056296058 -0.070112094 -0.006057045
-0.16880944 -0.042971127 -0.057961248 -0.25958714 -0.16902621 -0.09248022 -0.18853754 -0.1292726
-0.035109237 -0.19108945 -0.108343385 -0.08173112 -0.27253076 -0.17794903 -0.33841667 -0.20147176
-0.089669324 -0.16039099 -0.09254281 -0.13173623 -0.09386893 -0.18909001 -0.050304923 -0.43970227
-0.4286411 -0.24068873 -0.14215297 -0.0046196356 0.102285765 -0.3935849 -0.39158937 0.08318401
-0.24138407 0.008996228 -0.24948105 -0.03874885 -0.039381973 -0.13218853 -0.08144779 -0.09087952
-0.06292143 -0.32230687 -0.16299263 -0.13150403 -0.18459898 -0.033529885 -0.17668694 -0.16013306

onnx::GRU_199 f4 [2, 384, 128]
00000000: 8803 80bd b850 013d 97fd ab3d e8c2 1ebd
00000010: de91 b3bd 7ec8 6fbd ab6f 093d 9c94 7b3d
00000020: f189 8dbc e19d 213b 488f 83bd efa3 25bd
00000030: 1631 70bd 29b0 6b3d 24ac 8ebc b579 16bd
00000040: 36e5 1cbc d247 233d 5ab7 48bd 952b 4dbc
00000050: 1b8d 193d b12f 2bbc 469d ea3c 9b3a 73bd
00000060: a14d a4bb 05a3 2fbd 14aa a63d 38ce b4bd
00000070: 0026 36bd 4bf1 0ebd 80ce 1f3d 028d 21bd
00000080: 7541 64bd d8e7 a8bb 29ef e7bc a2cd af3d
00000090: 8ab2 5e3d 3795 8d3d 93aa 97bd c9c1 babc
000000a0: 85bb 8abd e158 a33d 62b4 563d e5c3 8dbd
000000b0: facc 85bd 94e0 323d 8ab5 37bd 7c53 e73c
000000c0: 3df7 9ebd 9f79 90bd 8780 f6bc 0a9a 8dbd
000000d0: 039e 5e3d ec3e 8abd f6f1 ecbc 1e1a b1bd
000000e0: 4818 a63d f054 6c3c aaf9 5bbd ef9a 9ebc
000000f0: 2f18 d93c cdc8 f7bc e178 903d d287 a6bc
00000100: e56f a93d 9092 453d f570 7f3d 26ad 183b
00000110: 16cb d0bc 5807 1a3d 9974 633d f210 463c
00000120: ff80 903c ffa5 9b3d fa8e 44bd d72b 9cbc
00000130: 3861 dc3b e4f9 29bc 4c14 50bd 8630 e83c
00000140: a423 8b3c 821b 5bbd 9b75 a3bb bc09 263c
00000150: a221 13bc ffe8 de3c 3366 a6bd 9ad6 47bc
00000160: d290 853d 4b2a 203b 2a37 2bbc e1f9 c5bc
00000170: a392 5fbc ad5a 2abc b46d 30bd f950 81bd
00000180: feaa f7bb 357f b33d d082 883d 3c86 8c3b
00000190: 23cb 1c3d 373d 9f3c 69ba 39bd f6b3 023d
000001a0: aa67 253d 50ed bfbb 3ce1 573d 890e 103d
000001b0: c89d 2bbd eafe d23c 0540 253d 1b01 8f3d
000001c0: 50c6 76bd 0bef a6bd 50d7 0dbd 7d79 f43b
000001d0: a0cd 8ebd bbf6 b2bc 8f6a 84bd 9f03 89bd
000001e0: 94c7 db3c 97c6 303d 6b1e 433c ab24 7b3d
000001f0: 0387 adbc fa50 3b3c d480 853d dff1 953d
00000200: ca4b cf3c a58c 9abd 8122 af3c ec71 823d
00000210: 77a7 f63c 764b b2bd 34a4 ecbc 8a7c 39bd
00000220: 24ec a2bd 0c9b 96bd d203 6a3d acf0 67bd
00000230: d938 5abd c58d 1dbd 0c09 1abc 943a 573d
00000240: 6056 b2bd 40e5 21bd 111f 6cbc 77e9 c83c
00000250: d5e1 48bd 8adc c4bc b4ab 42bd b687 a2bc
00000260: 2329 3b3d 2b14 19bd 7f9f 42bc 8127 6dbd
00000270: 6e41 ca3c b684 68bd 89d4 a73c e837 b4bd
00000280: cd5f 0d3d 6a52 023d 374f 89bd d658 38bc
00000290: 9c36 59bd f8e3 2cbd ccbb 273d 16bb 4ebd
000002a0: 8465 4c3d 21fb 363d 1d4d a23d 327a 07bd
000002b0: 9c8b a0bd 9e5a 6a3d f55f aabc c984 0ebd
000002c0: 2791 2bbd a157 a83d 04d9 8cbd 3544 9d3c
000002d0: 2fe6 8f3c 9925 0dbd d6f9 4d3d 1477 513d
000002e0: bf8d 733d b41b c33c b460 c03c 8715 cd3c
000002f0: bdd0 e6bc 26a3 90bd 029b 293b 3ae0 053c
00000300: 9aae 5f3d 9af7 733c adf4 213b ac47 00bd
00000310: c088 973d b40d a03d 4a0b b23d 7c57 b9bb
00000320: e5b4 31bd 428d 92bd f923 b2bd abe0 90bd
00000330: 3a89 e7bc 8e09 8d3d cddd a6bd 3186 d7bc
00000340: aa66 113d f20d 2a3d fea0 7e3b 1eb1 a2bc
00000350: a6ad 893b dedc 62bd 1155 323d de8e 533d
00000360: 62e0 723c 4e19 7e3d f42c 553d 1c90 a9bd
00000370: 5154 0ebd e21e 9abd 77db 033d 8667 a2bd
00000380: cdf8 ab3c bc1e 93bd 6fb7 383d fcf2 77bd
00000390: 7bfd a2bd b242 12bd 865c ef3c 96b6 1abd
000003a0: 9b29 073d c600 393b 7eea 44bd 35d7 9fbb
000003b0: 38b1 653d afc6 5dbd d60f 9e3d 2536 c93c
000003c0: 9831 3c3d e772 8bbc 4dca 863d 030b 87bd
000003d0: d41f 12bd 2134 633d d5a0 42bd 7a5e 973d
000003e0: 9a3f 03bd 5c72 abbd 23cd aa3d 16c0 933d
000003f0: 4342 153d 8e0d 9bbd 708e 9c3c 34fc abbc
-0.062506735 0.03157112 0.08397978 -0.038760096 -0.08768056 -0.058540814 0.03355376 0.06142102
-0.01727769 0.0024660754 -0.06423813 -0.040439542 -0.058640562 0.057541046 -0.017416067 -0.036737163
-0.0095761325 0.039863415 -0.049002983 -0.012522598 0.037488084 -0.010448382 0.028639447 -0.059382062
-0.005014137 -0.042880077 0.081379086 -0.088283956 -0.044469833 -0.034898084 0.039015293 -0.039441116
-0.055726487 -0.005154591 -0.028312283 0.08584143 0.054369487 0.06913226 -0.07405581 -0.022797482
-0.06774048 0.07975937 0.05241812 -0.069221295 -0.06533237 0.043671206 -0.044850864 0.02823805
-0.07762001 -0.070544474 -0.030090583 -0.06914146 0.05434991 -0.06750283 -0.02892397 -0.086475596
0.081101 0.014424548 -0.053704895 -0.019360987 0.02650079 -0.030247116 0.07054306 -0.020328436
0.08273295 0.048235476 0.062363584 0.0023296564 -0.025487464 0.03760466 0.055531118 0.012089001
0.017639635 0.076000206 -0.047987916 -0.019063873 0.0067254566 -0.01037452 -0.050800607 0.02834345
0.016984768 -0.05349303 -0.004988385 0.010134157 -0.008980187 0.02721071 -0.08124962 -0.012197161
0.06521763 0.002443927 -0.010450164 -0.024167003 -0.013645801 -0.010397595 -0.04307337 -0.063142724
-0.0075582257 0.08764497 0.066655755 0.004288463 0.038279664 0.01943837 -0.04534379 0.031909905
0.040382065 -0.0058571473 0.052705035 0.03517011 -0.04189852 0.025756318 0.040344257 0.06982633
-0.06024772 -0.081510626 -0.034629166 0.0074607716 -0.069728136 -0.021846166 -0.06465637 -0.06690144
0.026828565 0.04315814 0.011909108 0.061314266 -0.021182543 0.011432881 0.06518713 0.07321524
0.025304694 -0.07546357 0.021378757 0.06369385 0.03010915 -0.08705799 -0.028886892 -0.045284785
-0.079551965 -0.073537916 0.05713255 -0.056626007 -0.05327687 -0.03846528 -0.009401571 0.0525461
-0.08707881 -0.03952527 -0.014411704 0.024525387 -0.049043495 -0.024030942 -0.04752703 -0.019840103
0.045693528 -0.03737275 -0.011878847 -0.057899002 0.024689402 -0.056767188 0.020487087 -0.08799726
0.03451519 0.031816877 -0.06704562 -0.011251649 -0.053030595 -0.042209595 0.04095058 -0.050471388
0.0499015 0.04467309 0.079248644 -0.03307552 -0.078391284 0.057215326 -0.020797709 -0.034794603
-0.041886475 0.08219839 -0.0687733 0.019197563 0.017565815 -0.034459684 0.05028709 0.051138952
0.05946135 0.02381692 0.023483612 0.02503468 -0.028175706 -0.07062368 0.0025879745 0.008171136
0.054609872 0.014890576 0.0024712489 -0.03131835 0.0739913 0.07815114 0.086935595 -0.005656181
-0.043385405 -0.07155849 -0.086982675 -0.07074102 -0.028263677 0.06886588 -0.08147774 -0.026309105
0.0354983 0.041517206 0.0038853283 -0.019859847 0.0042016087 -0.055386417 0.043538157 0.05164992
0.014824005 0.06203585 0.052044824 -0.0827944 -0.03474838 -0.07525422 0.03219172 -0.07929902
0.02099266 -0.071835965 0.04509681 -0.060534462 -0.07958504 -0.035708137 0.029218923 -0.037771784
0.032998662 0.002822922 -0.04807519 -0.0048779496 0.056077212 -0.054144558 0.07717864 0.024561951
0.045945734 -0.017022563 0.065815546 -0.06593897 -0.035674885 0.055469636 -0.047516663 0.07391067
-0.032043077 -0.08371422 0.08339908 0.07214372 0.036440145 -0.07570945 0.019110888 -0.020994283

onnx::MatMul_200 f4 [256, 1]
00000000: 986f 64bc d003 763d 1064 dabc e0e7 cb3c
00000010: 9c78 753d 6897 1e3c 2435 7abd 60ac efbb
00000020: da08 353d 90b6 9a3b 084e 28bc 5624 333d
00000030: 98bf 673c d0f0 bf3b 3053 633d b418 203d
00000040: 00ee c039 b0d2 b53b 103b 82bc 0246 1f3d
00000050: e439 543d 60c8 7fbd 642f 4bbd 9818 8fbc
00000060: d83f fa3c 6e1d 26bd f4e7 ab3c 50fd 733c
00000070: b4fb f43c 1086 013d e0b5 053c 0061 273a
00000080: 90c6 86bb 00de 5f3c 28c5 293c 7672 08bd
00000090: 0817 2c3d 8638 453d 847d 373d 60c7 3d3c
000000a0: 3a8d 0e3d 3a46 70bd b04e 293c 0c4f bbbc
000000b0: e83d d8bc 6487 683d 10f6 8abb 2c8b 7ebd
000000c0: dcb2 c5bc e050 debb e455 2c3d 0019 813a
000000d0: c0c9 323d ce85 19bd 5877 d0bc 28f5 39bd
000000e0: e8a9 6f3c 7886 d33c 8c88 c2bc 407d 35bb
000000f0: 7e1c 163d 4880 65bd 8e86 513d 94f6 4abd
00000100: c475 b8bc ee4c 143d f0d9 44bd f423 85bc
00000110: 5c78 14bd 40bb 57bb 5642 6e3d 50ca 713d
00000120: 40af aebb 96e4 383d 70a8 3abd d4c1 9abc
00000130: 2e6a 783d f4ff f43c a26f 1abd 6006 1e3c
00000140: 10d3 613c c221 62bd 005b 9eb9 9a67 783d
00000150: 7ef0 2fbd 40ed c93a d8a1 4cbd 8805 aebc
00000160: 049b eebc c0ec fc3a 78c5 d5bc e091 033b
00000170: 64e5 b8bc b2b0 4e3d 4a64 0e3d 20c1 a4bc
00000180: 04ee 5a3d e09a 7ebc 74c6 bcbc 50fe a13b
00000190: e01f 6fbb 56d0 05bd fc55 35bd 3213 35bd
000001a0: 7035 353c b84c 58bc 489e f8bc 9c02 d2bc
000001b0: 342c 233d f85e 813c 4a5c 1b3d ac0a 923c
000001c0: f247 38bd a8ff f9bc 28b4 463c 40d3 78bc
000001d0: 302e 59bc 7053 703d 72d8 543d 0272 26bd
000001e0: e250 39bd c838 133c c8aa 80bc 3410 d8bc
000001f0: 48b5 c3bc 42a7 31bd b264 35bd 4852 bb3c
00000200: 34c7 c83c 1880 b8bc 3036 e3bc de05 363d
00000210: 563b 323d 3ce5 29bd 38eb 54bc 6642 473d
00000220: 4873 5b3d 988e 033d 5cc2 583d 72fa 56bd
00000230: 30df 9bbb 3239 753d a49f 59bd b817 733c
00000240: ba24 483d c827 eb3c 6484 c6bc c0e5 a7ba
00000250: 18bf 643d c6a5 643d 1407 523d 08d8 7f3c
00000260: 7462 fb3c 1cad 48bd 4867 72bc 0a90 50bd
00000270: e831 573d 8872 4c3c a8a7 cdbc e8f0 363d
00000280: 8ac0 2b3d da16 7e3d 887f 5b3c 94c8 433d
00000290: f47e 73bd 5cbf 773d 800b a03c f2b6 0e3d
000002a0: 70f7 9dbb a80e 2f3d 70ca 7cbd ec1e 273d
000002b0: e82c 063c 78ad 423c bc23 833c 402f 1fbc
000002c0: a0fc e1bc 40d2 d8bc d201 64bd 5860 163c
000002d0: 18f3 9f3c f4b3 723d 109a 9d3b fcfc 14bd
000002e0: 0a29 7b3d 8cd5 05bd ccf8 66bd 5c9b 41bd
000002f0: e452 e7bc 46c0 173d 78c6 4c3d cc6d 1f3d
00000300: e8cc 2cbc 7891 7ebc 602c ab3b eeef 293d
00000310: 8019 7c3d 08fb 723d 48d5 503c 1aa9 143d
00000320: 12ce 0abd 806d 00bd ea53 15bd a4e5 6a3d
00000330: fcc9 f9bc 8079 4aba e02b d9bb 702c 60bc
00000340: c49e 093d 80b9 743b 4060 a6bc f87a a0bc
00000350: cc0b 93bc 103a f33b 408d f6bb e06d c0bc
00000360: 12eb 173d 0ed7 253d c832 14bd 884f 45bd
00000370: 2c61 cdbc c074 6d3b d0bf 923b 801c 853c
00000380: d4e8 12bd 8e32 483d f8ad 853c 64dd fabc
00000390: 366d 02bd a827 a5bc 184f aebc 9e04 2dbd
000003a0: 3a69 5abd 82b0 50bd 6e4e 2b3d ac7a 67bd
000003b0: fcfe 343d 4c61 ef3c ee51 743d 9033 c93b
000003c0: bc57 d63c 0668 36bd 02e1 13bd eaa4 68bd
000003d0: d0c5 99bb e050 dbbc 003c 713b 148a f73c
000003e0: 848b ddbc 80de 26bd 8a12 6abd 960c 50bd
000003f0: 1abc 07bd b884 513c 8053 343b 203f 19bb
-0.013942622 0.06006223 -0.026659042 0.02489084 0.059929475 0.009679653 -0.061085835 -0.00731425
0.044197895 0.00472147 -0.01027251 0.043735825 0.014144801 0.0058575645 0.055499256 0.03908606
0.00036798418 0.0055487975 -0.015897304 0.038885124 0.05181302 -0.062446952 -0.049605742 -0.017467782
0.030548021 -0.04055541 0.020984627 0.014891937 0.029905178 0.031621993 0.008161038 0.00063849986
-0.004113026 0.013663769 0.010361947 -0.033312283 0.04201415 0.048149608 0.044797435 0.011583179
0.034802653 -0.058660723 0.010333702 -0.02286484 -0.026396707 0.056769744 -0.0042407587 -0.062144443
-0.024133138 -0.0067845434 0.0420741 0.000984937 0.043649435 -0.03748112 -0.025447533 -0.045399815
0.014627911 0.025820956 -0.023746751 -0.0027693063 0.036648266 -0.05603054 0.051153712 -0.04955156
-0.022517093 0.03620618 -0.048059404 -0.016252495 -0.036247596 -0.0032918006 0.05816873 0.05903083
-0.00533095 0.04513987 -0.04557079 -0.018891253 0.060648136 0.029907204 -0.037704118 0.009645075
0.013783231 -0.055207975 -0.0003020391 0.060645677 -0.04295396 0.0015405789 -0.049959034 -0.021242872
-0.029126652 0.0019296631 -0.026095137 0.0020075962 -0.02257032 0.05046148 0.03476361 -0.02011162
0.053449646 -0.015539855 -0.023043849 0.0049436465 -0.0036487505 -0.032669388 -0.044271454 -0.04420776
0.011060104 -0.013201885 -0.030348912 -0.02563601 0.039837077 0.015792355 0.03792981 0.017827354
-0.044990487 -0.030517414 0.012127914 -0.015187085 -0.013255641 0.058673322 0.05196423 -0.04063607
-0.04524315 0.008985706 -0.015706435 -0.026374914 -0.023890153 -0.0433724 -0.044285484 0.022866383
0.02450905 -0.022522017 -0.0277358 0.04443919 0.04351362 -0.04147838 -0.012995534 0.048647307
0.053576738 0.03211841 0.05291973 -0.052484937 -0.0047568306 0.059869 -0.05313076 0.014837198
0.04886315 0.028705493 -0.02423305 -0.001280956 0.055846304 0.055822156 0.05127628 0.015615471
0.030686595 -0.048993215 -0.014795132 -0.050918616 0.05253783 0.012478478 -0.025104359 0.04466334
0.041931666 0.06203351 0.013397105 0.047798708 -0.059447244 0.06048523 0.019536734 0.03484244
-0.0048207566 0.042738587 -0.061716497 0.040800974 0.008189417 0.0118821785 0.01600825 -0.009715855
-0.027586281 -0.026467443 -0.0556658 0.009178244 0.019525096 0.059253648 0.0048096254 -0.036374077
0.061318435 -0.032674357 -0.056389615 -0.047267303 -0.028237768 0.0370486 0.049993962 0.03892307
-0.0105469 -0.015537612 0.005223796 0.04148858 0.061547756 0.059321433 0.012746163 0.03629408
-0.03388793 -0.031354427 -0.03645698 0.05734791 -0.030491821 -0.00077237934 -0.0066275448 -0.01368247
0.033598676 0.0037342012 -0.020309567 -0.019589886 -0.017949961 0.007422693 -0.0075241625 -0.023489892
0.037089415 0.040488295 -0.03618124 -0.04817155 -0.02507075 0.0036232919 0.0044784322 0.016248941
-0.035866573 0.048876338 0.016318306 -0.030623145 -0.031842433 -0.020160511 -0.02127795 -0.04224073
-0.053323008 -0.05094958 0.041822843 -0.056513473 0.044188485 0.0292212 0.059648447 0.00614018
0.026164882 -0.0445328 -0.036103256 -0.0567979 -0.0046927705 -0.026771963 0.0036809444 0.030217208
-0.027044065 -0.040739536 -0.057146586 -0.050793253 -0.033138372 0.01278799 0.002751559 -0.0023383573
