models/2019-03-08/gnn_model.pth (torch, 12192 bytes, 4 tensors)

fc1.weight f4 [64, 1]
0	0x3e46a554	0.19399005
1	0xbeb0cf4e	-0.3453316
2	0x3ec7030b	0.3886951
3	0xbebc4cda	-0.36777383
4	0x3f483724	0.7820914
5	0xbf4fcb60	-0.811697
6	0xbede1e44	-0.43382466
7	0x3f064fcc	0.5246551
8	0xbee28e5c	-0.44249237
9	0x3f84247e	1.0323637
10	0x3e3e6d68	0.18596423
11	0x3e2bd800	0.16781616
12	0x3f1c060d	0.6094673
13	0x3f48c574	0.7842629
14	0x3f4e974f	0.8069963
15	0x3d21ce60	0.039503455
16	0xbeb41f04	-0.35179913
17	0x3efd0efc	0.49425495
18	0xbe6d3125	-0.23163278
19	0xbf66da6c	-0.90177035
20	0xbf850359	-1.0391647
21	0xbf0322f0	-0.51225185
22	0x3f0fd2dc	0.5618112
23	0xbf4c3712	-0.7977153
24	0x3f47e9cf	0.7809114
25	0x3db05ce0	0.086114645
26	0xbf53cc36	-0.82733476
27	0x3d8dbd70	0.06920898
28	0x3f498a6e	0.7872685
29	0x3f3ebe41	0.74509054
30	0x3dfa1c21	0.122123964
31	0x3f5d1d74	0.86373067
32	0xbf28b6bc	-0.6590383
33	0xb9926476	-0.0002792214
34	0x3d930300	0.071783066
35	0xbf375864	-0.7161925
36	0x3cada9dc	0.02119916
37	0x3eff105c	0.4981717
38	0xbf7dd1b2	-0.99148095
39	0xbf630e54	-0.8869374
40	0xbeacf3bc	-0.33779705
41	0xbe46a736	-0.19399723
42	0x3fa3fa61	1.2810785
43	0x3f5873e6	0.84551847
44	0xbf7d480e	-0.9893807
45	0xbd8340be	-0.06408833
46	0xbca7d191	-0.020485671
47	0x3ef50572	0.47855717
48	0x3f036a86	0.51334417
49	0x3ec38918	0.38190532
50	0xbf29e2cc	-0.6636169
51	0x3e590af8	0.2119559
52	0x3a259bd3	0.000631747
53	0x3f1ab1eb	0.6042773
54	0xbf4a9b56	-0.79143274
55	0xbdcbc164	-0.09948996
56	0xbf2631c9	-0.64919716
57	0xbd30c2dc	-0.043154582
58	0x3d601100	0.054703712
59	0x3ecf2498	0.40457606
60	0xbf60f6e0	-0.878767
61	0x3f24215b	0.64113396
62	0xbf0b8c06	-0.54510534
63	0x3eec9dde	0.46214193

fc1.bias f4 [64]
0	0xbe3e2e62	-0.18572381
1	0x3f0a9b7b	0.54143494
2	0xbe2b83f2	-0.16749552
3	0x3e032088	0.12805378
4	0xbf7b6968	-0.9820771
5	0x3f0273fc	0.5095823
6	0xbe8c5e64	-0.27415764
7	0xbe4a0b5b	-0.19730894
8	0x3f21d3af	0.6321363
9	0xbec7a04a	-0.38989478
10	0xbead184c	-0.338076
11	0xbee71e90	-0.45140505
12	0xbe880e51	-0.26573423
13	0x3e411855	0.18856938
14	0x3f1d78f8	0.6151271
15	0xbf7b1e9c	-0.9809358
16	0xbf0d44a0	-0.5518284
17	0xbf3743a4	-0.71587586
18	0x3ef4d725	0.47820392
19	0xbe555ec8	-0.20836937
20	0x3ee380a6	0.44434088
21	0xbf7fc224	-0.9990561
22	0xbcfad4aa	-0.030618984
23	0xbf102580	-0.5630722
24	0x3e153c9a	0.14573899
25	0xbe5e46e0	-0.21706724
26	0x3d0fe180	0.035127163
27	0xbf293626	-0.6609825
28	0x3e76484b	0.24051015
29	0x3f291fb5	0.66064006
30	0x3f4e7297	0.806436
31	0x3e9b7d0f	0.3036885
32	0x3c067100	0.008205652
33	0xbdc7964e	-0.09745465
34	0xbebbea50	-0.36702204
35	0xbea07000	-0.3133545
36	0x3ec93bc6	0.39303416
37	0xbf4aa4ec	-0.791579
38	0xbf77af84	-0.9675219
39	0x3daf5da0	0.085627794
40	0x3f3cc96b	0.7374484
41	0x3f0511f4	0.5198052
42	0xbef6d750	-0.48211145
43	0xbf75ad18	-0.95967245
44	0x3e8f9464	0.280429
45	0x3f14bdc7	0.5810208
46	0x3f281a1f	0.6566486
47	0xbdff5935	-0.12468187
48	0xbf22dcca	-0.6361815
49	0xbf30a1fa	-0.68997157
50	0xbf3076cc	-0.6893127
51	0xbe619a20	-0.2203145
52	0x3efb8dc5	0.491316
53	0x3ef390c5	0.47571388
54	0xbf7ba7b8	-0.98302794
55	0xbc03f9be	-0.008055149
56	0x3e30c3db	0.17262213
57	0x3ec74ca2	0.38925654
58	0xbe0bd700	-0.13656235
59	0xbf3e42ee	-0.74320877
60	0x3d370c80	0.044689655
61	0xbd19d17a	-0.037553288
62	0xbed01e2c	-0.4064802
63	0x3f4f4b34	0.80974126

fc2.weight f4 [37, 64]
0	0x3d83d115	0.064363636
1	0x3d2a30a9	0.041550312
2	0xbd2e4e48	-0.042555124
3	0xbe130c35	-0.14360125
4	0xbda233b6	-0.07920019
5	0xbb9611a7	-0.004579741
6	0xbd220660	-0.03955686
7	0x3d11ad4a	0.035565652
8	0x3c925bd8	0.01786606
9	0x3ea199d1	0.31562665
10	0xbcde62d8	-0.027146742
11	0x3df81ae0	0.12114501
12	0x3d9b8800	0.07594299
13	0x3e0f686a	0.14004675
14	0xbd9fce33	-0.07803001
15	0x3cdc9e38	0.026930913
16	0xbda541b6	-0.08069174
17	0xbd0fb644	-0.03508593
18	0xbd379791	-0.04482228
19	0xbd161db0	-0.036649406
20	0xbda903f6	-0.082527086
21	0xbdba14fc	-0.09086034
22	0x3dc1de07	0.094661765
23	0xbd39dd38	-0.045376986
24	0xbc249a96	-0.010046622
25	0xbc5c8d60	-0.013461441
26	0xbdd197c0	-0.10234022
27	0xbc4ffb70	-0.012694225
28	0x3df9c693	0.12196078
29	0xbaeffb67	-0.0018309177
30	0x3d812d64	0.06307486
31	0x3d7c3fcd	0.061584283
32	0xbccdd6a0	-0.025126755
33	0x3d8fae34	0.070156485
34	0x3d81972e	0.06327663
35	0x3bef2480	0.0072980523
36	0x3d76e12c	0.060273334
37	0xbcc4ce90	-0.024024278
38	0xbb89fae0	-0.004210815
39	0xbc3b6b40	-0.011439145
40	0xbd52a4bd	-0.051426638
41	0xbdc0b365	-0.09409217
42	0x3e4b7ed9	0.19872607
43	0x3cfb2168	0.030655578
44	0x3d23a914	0.039956167
45	0x3da347e5	0.07972697
46	0x3d8d0466	0.068856046
47	0xbce41c16	-0.027845424
48	0xbdab63ea	-0.083686665
49	0xbd7af7fc	-0.061271653
50	0x3d45c9b0	0.048288047
51	0x3dee1874	0.11625758
52	0x3af93987	0.0019014337
53	0x3d87c8a9	0.0663007
54	0xbdee7ae0	-0.1164453
55	0xbd7c1294	-0.061541155
56	0xbe02d28f	-0.12775634
57	0xbd732f39	-0.059371207
58	0xbb8c9160	-0.004289791
59	0x3cbeda00	0.02329731
60	0xbbab2e40	-0.0052240193
61	0x3c2774b6	0.010220697
62	0xbd5f0670	-0.0544495
63	0x3e11001e	0.14160201
64	0x3defb9bf	0.1170535
65	0xbb434e63	-0.002980136
66	0x3cc43e69	0.02395554
67	0xbd476ee4	-0.048689738
68	0xbd8e18b6	-0.06938307
69	0xbe0fee25	-0.14055689
70	0xbd5b6878	-0.053566426
71	0x3db1196d	0.08647428
72	0xbc792624	-0.015206847
73	0x3e7207bd	0.23635764
74	0xbdfc82a2	-0.12329604
75	0x3da58002	0.08081056
76	0x3e345ed6	0.17614302
77	0x3cfaa949	0.0305983
78	0xbd719790	-0.058982432
79	0xbdc9ae9c	-0.09847757
80	0xbd6a3c30	-0.057186306
81	0x3d22b848	0.039726526
82	0x3dcdc4f2	0.1004733
83	0xbcea79c8	-0.028622523
84	0xbd467280	-0.04844904
85	0xbc83c418	-0.016084716
86	0x3cf43068	0.029808238
87	0xbd74ea0c	-0.059793517
88	0x3dda1b18	0.10649699
89	0x3d84899e	0.06471561
90	0x3ddd35e8	0.108012974
91	0x3c3bc790	0.011461154
92	0xbda542b9	-0.08069367
93	0x3d3413bc	0.043964133
94	0x3c4d8a67	0.012545205
95	0x3deb7698	0.11497229
96	0x3dd06dba	0.10177179
97	0x3e0a95ab	0.13533656
98	0x3cbf76f8	0.023372158
99	0x3cbf1578	0.023325667
100	0x3c2f89f4	0.010714043
101	0x3df4eecc	0.119596094
102	0xbdc535ee	-0.09629427
103	0xbc26a520	-0.010171205
104	0x3dba1fd4	0.09088102
105	0x3c8c5237	0.017129047
106	0x3e6d3ee7	0.23168527
107	0x3c9a6380	0.018846273
108	0x3d69a268	0.05703965
109	0xbd6d9b97	-0.05800971
110	0x3df7009d	0.12060664
111	0xbd10dc7a	-0.035366513
112	0x3dbb89be	0.091571316
113	0x3db5dd74	0.088801295
114	0xbdcf2602	-0.10114671
115	0xbdfd61d0	-0.12372172
116	0x3db5333a	0.08847661
117	0x3e08017e	0.13281819
118	0x3dc9af5a	0.09847899
119	0xbdc8206f	-0.09771811
120	0xbd02123c	-0.03175567
121	0x3d039ecb	0.03213386
122	0x3de989d4	0.11403242
123	0xbdd06d60	-0.101771116
124	0xbcb42358	-0.02198951
125	0x3e26bc43	0.16282754
126	0x3db3bbf6	0.08776085
127	0xbd47aa99	-0.04874668
128	0xbca3b0ed	-0.019981826
129	0x3cf3a1d7	0.029740257
130	0xbd4c6711	-0.04990298
131	0xbd6f3306	-0.05839827
132	0x3cdb53e0	0.026773393
133	0xbe0e2596	-0.13881525
134	0xbc853558	-0.016260788
135	0xbc99aac8	-0.018758193
136	0x3dca38ca	0.09874113
137	0x3e4d05c3	0.20021729
138	0x3dee6620	0.116405725
139	0x3d8cb21a	0.06869908
140	0x3df10d45	0.11770109
141	0x3dc003fb	0.09375759
142	0x3d4143f5	0.04718395
143	0x3daf6c9c	0.085656375
144	0xbc399fa0	-0.0113295615
145	0xbdb1f62a	-0.0868953
146	0x3dfc4923	0.12318637
147	0x3d07f3d4	0.033191517
148	0xbc961de7	-0.018324805
149	0xbda179f2	-0.07884587
150	0x3d7456fc	0.059653267
151	0x3bfa1720	0.0076321512
152	0xbd00f2ff	-0.03148174
153	0xbda0ed8a	-0.07857807
154	0xbd2c2e94	-0.042036608
155	0x3d3a9514	0.04555233
156	0xbda27ee2	-0.07934357
157	0xbc227762	-0.009916158
158	0xbd914959	-0.07094068
159	0x3d582d71	0.05277771
160	0xbd145ba4	-0.036220208
161	0x3e03c8c2	0.12869552
162	0xbcb4d3a0	-0.022073567
163	0x3dc693e0	0.09696174
164	0xbdd5b347	-0.10434585
165	0x3da83782	0.08213712
166	0xbd835b66	-0.06413917
167	0xbb3b4e80	-0.0028580725
168	0xbdc0466d	-0.09388433
169	0x3d82beb8	0.06384033
170	0x3e98f1fb	0.29872116
171	0x3d5f95f0	0.05458635
172	0xbcdc1130	-0.026863664
173	0xbcf42ab8	-0.029805526
174	0xbd6a72e8	-0.05723849
175	0x3e17e0c6	0.14831838
176	0x3c398400	0.011322975
177	0x3dcd74a6	0.100320145
178	0xbd1d84ac	-0.038456604
179	0x3d86d7ce	0.0658413
180	0x3d8fe743	0.070265315
181	0x3dca4e15	0.09878174
182	0x3d27c588	0.040959865
183	0x3d3fd15f	0.04683053
184	0xbd8ab2b2	-0.06772365
185	0x3d5ffd5f	0.054684993
186	0x3d0df434	0.03465672
187	0x3bf27b80	0.0073999763
188	0x3dea4f32	0.114408866
189	0x3e0b605c	0.13610977
190	0xbc4dadc0	-0.012553632
191	0x3e1f1969	0.15537037
192	0x3e4b3804	0.19845587
193	0x3b474859	0.0030408113
194	0x3c7e2b87	0.015513307
195	0x3cf345a3	0.029696291
196	0x3dd03f4a	0.101683214
197	0x3d4c3559	0.049855564
198	0x3b8f4960	0.0043727607
199	0x3cb24030	0.021759123
200	0x3db58fcd	0.088653184
201	0x3e540f96	0.2070907
202	0x3dd72f2e	0.10507046
203	0xbd4bc850	-0.04975158
204	0x3dcc4876	0.09974758
205	0x3db452c8	0.08804852
206	0x3d279ad5	0.040919144
207	0xbb8455c0	-0.0040385425
208	0xbd80b038	-0.06283611
209	0xbd6f7c64	-0.058468238
210	0x3d2ea55d	0.04263817
211	0xbc8d9658	-0.017283604
212	0xbce8be4b	-0.028411051
213	0xbc9d4910	-0.019199878
214	0x3d3dcb67	0.046336558
215	0xbde817a2	-0.113326326
216	0x3e1b2bbe	0.15153405
217	0x3d82b424	0.06382015
218	0x3ddf26da	0.10896082
219	0xbdcfa224	-0.10138348
220	0xbd23c844	-0.03998591
221	0x3df0f252	0.11764969
222	0xbd0a39d8	-0.03374657
223	0x3da3001c	0.07959005
224	0x3bac9500	0.0052667856
225	0x3dbbd190	0.0917083
226	0xbdc5ec8a	-0.09664257
227	0x3d5ffb7c	0.054683194
228	0xbc964b43	-0.018346434
229	0x3df1efd0	0.11813319
230	0x3db011b0	0.085971236
231	0x3dc4be6c	0.096066326
232	0x3daf47ba	0.08558603
233	0xbd433392	-0.047656603
234	0x3e88e97c	0.26740634
235	0xbc203350	-0.009777859
236	0xbc915748	-0.017741814
237	0x3c829b6e	0.015943255
238	0xbd566800	-0.052345276
239	0x3ca44c2b	0.020055851
240	0x3dc71cee	0.09722315
241	0x3d57ad60	0.052655578
242	0x3c8fcb90	0.01755312
243	0x3dcf1a0e	0.101123914
244	0x3e204ff4	0.156555
245	0x3b3f5c21	0.00291992
246	0x3dd6b0c4	0.10482934
247	0xbd86b83c	-0.06578109
248	0x3e21c615	0.15798219
249	0xbd88345b	-0.06650611
250	0x3ddf933a	0.10916753
251	0xbcfeb030	-0.031089872
252	0xbd8188a6	-0.06324892
253	0x3e22d53c	0.15901655
254	0xbd190590	-0.03735882
255	0xbd68c172	-0.05682511

fc2.bias f4 [37]
0	0x3af6a900	0.0018818676
1	0x3d0af949	0.033929143
2	0x3dcaf638	0.09910244
3	0x3c8c69e7	0.017140342
4	0x3d8c8243	0.06860783
5	0x3d4ecba9	0.050487194
6	0x3e018e95	0.12652047
7	0x3d177265	0.03697433
8	0x3d7f54eb	0.062336843
9	0x3d04324b	0.032274526
10	0x3cf08fb0	0.02936539
11	0x3dc6ed40	0.097132206
12	0xbd475c36	-0.048671924
13	0xbd4c81ff	-0.04992866
14	0x3df436f9	0.11924548
15	0x3ddae8d0	0.10688937
16	0xbdcebeb0	-0.100949645
17	0xbd824f40	-0.06362772
18	0x3de6240e	0.11237346
19	0x3d39a71a	0.045325376
20	0x3db49ab9	0.088185735
21	0x3def3789	0.11680514
22	0x3c8f6219	0.017502831
23	0x3d4dd71a	0.050253965
24	0xbcebc15f	-0.02877873
25	0xbc48e221	-0.012260945
26	0xbd5ffe8d	-0.054686118
27	0x3d9cbec2	0.07653572
28	0x3db25426	0.08707456
29	0x3d617546	0.05504348
30	0x3dc2149a	0.09476586
31	0x3b808538	0.003922131
32	0x3dd59a71	0.10429848
33	0xbd07e0eb	-0.033173483
34	0x3cbd046d	0.0230734
35	0x3b6157ee	0.0034384686
36	0xbdbb6d3a	-0.09151693
