models/2017-02-03/lstm_model.onnx (onnx, 468420 bytes, 6 tensors)

fc.weight f4 [7, 256]
00000000: d20b 0f3d 5b3f 433d 7f0c 283d e544 98bc
00000010: f5c6 3b3d cf95 923d 4dfe 77bd a5ae d2bc
00000020: 064d 913d 0a78 0ebc aa61 b8ba 2cd0 48bd
00000030: 8b3b 1f3d 85a9 b03c aae0 c23d 9954 853d
00000040: e6a7 a3bc c6c0 09bc c32e 98bd 5d12 ebbc
00000050: 5ccf af3d 7826 90bd 2e61 0d3d cb31 59bc
00000060: 089f 47bd 0c4d f13c e526 b9bd 9647 6d3d
00000070: 60a8 7fbd 2aee 09bd 994a 533c e53f bb3d
00000080: 3885 613b 4008 163d 3f2a 953d 2326 903d
00000090: 52b4 96bc 8201 acbc 457c 9b3d 9404 b83d
000000a0: 0b49 d338 2354 e53a 4c4f 853c e920 33bd
000000b0: 5c12 bb3d df74 873b 5946 c1bd ca5f 4d3c
000000c0: e5a9 37bd 33a5 583c 1083 83bb 0629 95bd
000000d0: 098d ef3c bd58 7b3d 96e0 833d bcd2 073d
000000e0: dbc8 e23c f887 3abd 23e0 d1bd 55b9 89bd
000000f0: 6a8e 063d c348 673c c6ea a0bc 6324 9fbc
00000100: 6172 ac3d 0fc4 bb3c e0fa 703c 19f6 91bd
00000110: 1dd8 c33d fbe7 1bbd 2631 45bd 2e50 953c
00000120: 7e9f adbc ba9e 2e3d 084b 783d 6861 1cbd
00000130: 75b2 1b3c dc6b 06bd 5cc7 2a3c 175b 8ebd
00000140: d61d 843a b30d 0ebd 44b3 4d3c 2823 c03c
00000150: 06d9 ae3c 8586 0cbd c06e cdbd 9343 7f3d
00000160: fb0d 86ba db3f 623d 26f6 6ebd d171 c13c
00000170: 1c74 003c 37ef 243d 0aab 153d a20f a9bc
00000180: b3e4 cabb 3064 2d3d a42b ad3d 9401 503c
00000190: 2b2d 9b3d bd77 09bd 9f5d 323c 9e7d 67bd
000001a0: 5713 0b3c 9796 183d 3766 0dbd 4b40 5fbd
000001b0: 6bd6 afbb d054 ef3c 132b bb3d 7f10 88bb
000001c0: 0043 acbd 7f28 52bd 0ee3 75bc d6c7 c6bc
000001d0: 82d3 99bc 0c97 f9bc 92b0 363d 20ea e83c
000001e0: 5b3c 9dbd 9d31 9ebd 4fbe bbbd 2213 8abd
000001f0: 88d7 8f3d 9086 3f3d a626 7e3c 8a2b 8abd
00000200: f31d c53c 9a59 553c e69f f6bc ff52 023d
00000210: f0c6 ec3c 4632 693d 221c 3dbd 91a4 573b
00000220: 4287 9cbc 75c8 46bc 3790 24bc cfb0 65bd
00000230: c403 f3bc 8f65 3fb9 84cc f23c 17ca 51ba
00000240: a391 f5bc 0d96 b4bd c082 9d3d 6c2b d23c
00000250: eff1 103d cced a43c bc5c 3bbd 5d1c b0bd
00000260: 526a ce3c f0ca 5bbc 4e21 043d da46 d13d
00000270: 2315 8dbc 2b2a 3a3d be07 873d 2720 0b3c
00000280: 613e d1bc e1be 3b3d 8e57 e3bc 8ec9 1e3d
00000290: 0d2e e1bc d566 7ebd 7d2a ca39 46a6 abbc
000002a0: 80c0 32bc acf1 95bd ed91 e93d 1f16 d13a
000002b0: 2a1c e53c 4f50 893c 045a 2e3c 3bd2 69bd
000002c0: 1557 313d 0a08 193d 7026 bb3c 8def 403c
000002d0: 1db2 b23d 985d d23c bbf8 833c 8b8d 9a3d
000002e0: e250 b13d 0391 9b3d 890a d63b 18b0 893d
000002f0: b85b 98bd 59d8 b43c 3819 0fbd 4ee6 00bd
00000300: ebc7 bcbb ace9 d3b9 3dcc 01bd fa29 113d
00000310: 3a8d 0ebc de7c 69b8 95dd e13c ddd4 20bd
00000320: 4f1b 1a3d 60a2 fdbc 81a5 24bd d4d2 fc39
00000330: 0278 6d3d 2d96 9c3d df92 cdbc 58ac 80bc
00000340: 24be bcbd 3eb0 393d 8627 aebd 2297 7d3d
00000350: 4f81 883d 8aee cabc 5bd0 c33d 0013 103d
00000360: 4604 b7bc 2665 663d cc7a 8abc 93a3 a93c
00000370: 115a 8e3c 4c04 18bd 0e88 42bc bb8f 82bc
00000380: 76f3 a1bd 21fa aabd e9f4 733d 66c8 67bd
00000390: 222b 93b9 9ae2 0dbd 8cf9 a03d b52d 9f3c
000003a0: 3e6b a73b fbd1 4e3d 0a7c 77bc 69bb f83c
000003b0: eae5 1a3c 151f a33d efd5 a83d 441d a63d
000003c0: 499e 1d3d dfd5 333d 4fbd 22bd 7f4e 923d
000003d0: 670a f83c 7b37 ca3d cab6 b03c 71a9 553d
000003e0: a131 6d3b 03e7 aebc 90d2 4b3c fe22 9b3d
000003f0: 4b9d 0fbc d4b2 c6bd f824 d1bd 13d2 a6bc
0.034923382 0.047667842 0.041027542 -0.018587539 0.045844037 0.0715748 -0.060545254 -0.025718043
0.07094769 -0.008695612 -0.0014067192 -0.049026653 0.038875144 0.021565208 0.095155075 0.06510276
-0.019977521 -0.008407777 -0.07430794 -0.02869528 0.085844725 -0.07038587 0.034516506 -0.0132565005
-0.04873565 0.029455684 -0.09040622 0.057929598 -0.062416434 -0.033674397 0.012896203 0.09143046
0.003441168 0.03662896 0.072834484 0.07038524 -0.01839653 -0.020996813 0.07592062 0.08985248
0.00010074869 0.0017496388 0.016273163 -0.043732557 0.09134361 0.004133805 -0.09437246 0.012535045
-0.04483976 0.01322298 -0.0040134266 -0.07283215 0.029242055 0.061363924 0.06439321 0.033159956
0.027683666 -0.045539826 -0.10247829 -0.067248024 0.03285066 0.014116469 -0.019643199 -0.01942653
0.084202535 0.022920636 0.014708251 -0.071270175 0.09562705 -0.03806303 -0.048142575 0.01822671
-0.021194216 0.042631842 0.06061843 -0.03817883 0.009502997 -0.032817706 0.010423508 -0.06950968
0.0010079693 -0.034681033 0.012554947 0.023454264 0.02134372 -0.034307975 -0.100308895 0.062320303
-0.0010227555 0.05523668 -0.058340214 0.023613842 0.007840183 0.040267196 0.03654007 -0.020637337
-0.006191814 0.042331874 0.084555894 0.012695689 0.075769745 -0.033561457 0.010886579 -0.056516282
0.008488498 0.03725299 -0.034521308 -0.054504674 -0.005366137 0.029215246 0.09139075 -0.004152357
-0.08411217 -0.05130815 -0.015007747 -0.024265211 -0.018777613 -0.030467533 0.044601984 0.028431952
-0.076775275 -0.07724307 -0.09167158 -0.067419305 0.07023531 0.04675919 0.015512144 -0.06746586
0.024062132 0.013021851 -0.030105542 0.031817432 0.028903455 0.05693271 -0.046169408 0.0032904486
-0.019107465 -0.012132754 -0.010044149 -0.05607682 -0.029664882 -0.00018253013 0.029638536 -0.0008002831
-0.029976672 -0.088176824 0.07690954 0.02565547 0.035386976 0.020132922 -0.045742735 -0.0859916
0.025197182 -0.013415083 0.032258324 0.10218592 -0.017221993 0.04545037 0.065932736 0.008491552
-0.02554244 0.045836333 -0.02775171 0.038766436 -0.027487779 -0.062109787 0.000385601 -0.020953309
-0.010910153 -0.07321486 0.11404786 0.0015952027 0.027967531 0.016761927 0.010641579 -0.057085257
0.04329594 0.037361182 0.022845477 0.011775863 0.08725379 0.025679395 0.016109815 0.075465284
0.08658005 0.07596018 0.0065320176 0.0672304 -0.07439369 0.022075819 -0.03493616 -0.031469636
-0.0057611368 -0.00040419155 -0.031688917 0.035440423 -0.008700663 -5.566782e-05 0.027571479 -0.039265502
0.0376237 -0.030961215 -0.0401969 0.00048222265 0.057975776 0.07645831 -0.025094448 -0.01570718
-0.09215954 0.045334093 -0.08503632 0.06191171 0.06665289 -0.024771947 0.09561225 0.03517437
-0.022340905 0.056248806 -0.016904257 0.020707881 0.017376931 -0.037113473 -0.011873258 -0.015937677
-0.079077646 -0.083484896 0.059559736 -0.0565876 -0.0002807016 -0.034639932 0.07860097 0.019430974
0.00510922 0.05049322 -0.015105257 0.030362802 0.00945423 0.07964913 0.082439296 0.08111051
0.03848103 0.043905135 -0.03973132 0.07143878 0.030278398 0.09873863 0.021571536 0.052163545
0.0036192911 -0.02135039 0.012440339 0.075750336 -0.008765529 -0.097020775 -0.10212129 -0.020363843

fc.bias f4 [7]
00000000: 395f 783d f562 863d ab53 d03d ca63 aa3d
00000010: 7938 a93d 28bc c83d 5b7c cd3d
0.060637686 0.06561843 0.101722084 0.083198145 0.082627244 0.09801513 0.100334845

onnx::GRU_197 f4 [2, 768]
00000000: 9a2e 09be 4bd1 20be ef1b 02be 024c 08be
00000010: 046b c4bd 7a02 13be 0d5c 70bd eddc 50be
00000020: 0e75 e6bd 1d82 c4bd 573e 40be 9113 debd
00000030: c4ff 28be 9b45 bdbd c074 f4bd e43a 26be
00000040: 07bf 8fbd 23bc 6cbe 67c7 75be 0ade 43be
00000050: b9c7 57be 30db b6bd f9b8 2abe 8c37 f4bd
00000060: b864 43be b8d3 bdbd cc1d fbbd db6b 6fbe
00000070: 381a 5fbe db39 4abe a132 e1bd df21 a1bd
00000080: 6b4c 5fbe c09f eebd 2582 78be 67bd 3abe
00000090: 8032 99bd 3b0a 4abe 4e51 b7bd 8842 3fbe
000000a0: ca3d a9bd 5dc6 f0bd f6fb f5bd 70ad 71be
000000b0: d2b8 0abe a7a4 72be 553f 39be bb80 efbd
000000c0: 3a9a 07be 19a2 59be e87e 84bd 7541 1abe
000000d0: 71c0 9cbd b59a 5dbe 7137 12be 3484 48be
000000e0: e01a 46be befc 3dbe fbfe 38be e7c3 a0bd
000000f0: c84e 0cbe 3a10 3abe dcd2 40be 501e 96bd
00000100: 7628 09be 8a9f 71be c92d 2fbe 30d6 36be
00000110: 0c7e 4ebe c8a6 1dbe 7882 1ebe 6960 febd
00000120: 67eb 9abd 6383 40be 6097 ecbd f481 6bbe
00000130: afa4 26be 314d afbd f30e ffbd 60a2 c8bd
00000140: 908a 14be 2959 9fbd 386f 46be 3ef8 5abe
00000150: f985 95bd b648 51be 0463 34be 9032 f6bd
00000160: bbf7 38be e970 18be b300 d8bd 4005 f0bd
00000170: 112d 22be f8ee c5bd 215e 0ebe dc82 c2bd
00000180: b67d 0fbe 0e3b 24be e21b b7bd 244d 4dbe
00000190: 497e 62be 4add f5bd f1fc 7abe aaba c2bd
000001a0: cecb 1fbe c19a e4bd 060c 49be 0fd6 b2bd
000001b0: dc42 3ebe 1f8a 06be 7eff 1abe 7e5f 99bd
000001c0: 3d4c 4cbe 3172 45be 41b8 67be 4837 7cbd
000001d0: 326f 29be 453b 2abe 2f84 eebd 5b62 2bbe
000001e0: 2f0b 51be c2d1 5abe 0472 04be de52 75be
000001f0: 2495 18be 9061 d2bd d3ac 29be 0563 8ebd
00000200: dcb2 a33d 1e25 423e b87e 4a3e c0f8 233e
00000210: 85b1 1d3e 3630 ee3d ce6b 413d 2cd1 8d3d
00000220: be39 0c3e e740 553d 61c5 edbd 558b 403e
00000230: 284c 253e fd32 423d e866 e53d 4f8e 323e
00000240: 7717 663d 4bb3 373e 307a 32bd 09d7 c33d
00000250: c892 a43d 6bb1 9f3d db4b 823d 8da0 e53d
00000260: 4fb8 153e 698d d4bc 395d 333e 541a ca3b
00000270: 08db 563e dd3e 333e cbc6 d33d 1967 a83d
00000280: 354f 163e 1681 3b3e 7901 6d3e 750c 603e
00000290: 3471 593e a4a0 6a3d 8a48 513e 68e9 1c3e
000002a0: 37ed b33d c2cf 15bc 17ab dc3d 0b51 943d
000002b0: ee79 193e d93b 823e 6d00 7eba 0cda 743d
000002c0: e4da 42bd 5618 943d dae7 71bd acf3 493e
000002d0: 80f8 f23c d469 06bc bb65 de3d 13f2 f73d
000002e0: 6647 323e 47ae 9fbd 8816 b73d ccca ff3d
000002f0: 0f48 e63d d1fe 4f3d 14c5 383e b8f9 8ebd
00000300: 90ba 4c3e b3b3 d63d dd1f 473e fbb6 3b3e
00000310: 327d 1e3e 8711 7f3c 6b2a 2d3e 2428 49bd
00000320: 1f39 2f3e ff15 383d 8881 813d 462a 553e
00000330: 896c 3b3e 03c9 ff3d 4a93 563e 5557 82bd
00000340: ae5e 6a3d f46a 863d 36bd c13d f5d4 383e
00000350: 3bcf cb3d 0301 c23d 7c38 1d3e 7c04 a43d
00000360: 4b88 c83d b92a 3b3e 228c 2e3d e21a 473e
00000370: 489c da3d ccff b73d 3fe5 7e3d 700c 043e
00000380: 8e1c 163e ced2 2a3e 5daf 653e d580 5e3e
00000390: 6895 4d3e 7c79 073e 548c 253d 7144 123e
000003a0: 63ac 0b3d bde4 f33d 534c ec3d d86b 5b3e
000003b0: 8e54 aa3d 851c 083e 5af9 9e3d f045 353e
000003c0: 8980 85bc c332 803d 8ee4 6b3d 21b7 443e
000003d0: 61db 0bbd ff23 a23d 0c98 363e 7e39 8f3d
000003e0: 18f3 05bc 1851 d33d a201 a73d f07d f5bc
000003f0: 36fe e83d 77dd 813d fe02 9bbd 5acb 233e
-0.13396683 -0.15704839 -0.12705968 -0.13310245 -0.09590724 -0.14356413 -0.058681536 -0.20396776
-0.11252795 -0.0959513 -0.18773781 -0.10843576 -0.16503817 -0.09241792 -0.11936331 -0.16233402
-0.070188574 -0.23118643 -0.24001847 -0.1912767 -0.21072282 -0.089285254 -0.16672124 -0.11924657
-0.1908139 -0.09268898 -0.12261543 -0.23380987 -0.21787345 -0.19748633 -0.10995985 -0.078677885
-0.21806495 -0.11651564 -0.24268396 -0.18236314 -0.07480335 -0.19730465 -0.089510545 -0.18677723
-0.082637385 -0.11756585 -0.12010948 -0.23601317 -0.13547066 -0.23695622 -0.18090566 -0.11694475
-0.13242427 -0.21253242 -0.06469518 -0.15064032 -0.07653893 -0.21641047 -0.14278962 -0.19581681
-0.1934619 -0.18553445 -0.18066017 -0.078498654 -0.13701928 -0.18170252 -0.18830436 -0.073300004
-0.13394341 -0.23596016 -0.1710731 -0.17855144 -0.2016527 -0.15395653 -0.15479457 -0.124207325
-0.07564431 -0.1880012 -0.1155231 -0.22998792 -0.1627376 -0.08559645 -0.12454023 -0.097965956
-0.14505982 -0.07780678 -0.19378364 -0.2138376 -0.07300944 -0.20437893 -0.17615896 -0.12021363
-0.18063252 -0.14886822 -0.10547008 -0.11719751 -0.15837504 -0.0966472 -0.13903095 -0.09497616
-0.14012799 -0.16038153 -0.08940865 -0.20048958 -0.22118486 -0.12005098 -0.24510552 -0.095082596
-0.15605089 -0.111623295 -0.19633493 -0.08732235 -0.18580192 -0.13138627 -0.15136525 -0.07488917
-0.19950958 -0.19281842 -0.22628881 -0.061576158 -0.16546324 -0.16624172 -0.11646306 -0.16736738
-0.20414422 -0.21369079 -0.12934119 -0.23957393 -0.14900643 -0.10272515 -0.16569833 -0.0695248
0.07993099 0.18959472 0.19774902 0.1601286 0.1539975 0.11630289 0.04722195 0.06924662
0.13693902 0.05206385 -0.11609913 0.18803151 0.16142333 0.047411907 0.112012684 0.17437099
0.05617472 0.17939489 -0.04357356 0.09562499 0.08035809 0.07797512 0.063621245 0.11212263
0.1462109 -0.025946336 0.1751603 0.0061676893 0.20981991 0.17504449 0.10340651 0.08222789
0.14678653 0.18310961 0.23145093 0.21879752 0.2123459 0.057282105 0.20437828 0.15323412
0.087854795 -0.009143772 0.1077482 0.0724202 0.14987919 0.25436285 -0.00096893945 0.05977826
-0.04757203 0.07231204 -0.059059 0.1972186 0.02965951 -0.008203942 0.10859247 0.12106719
0.17410049 -0.07796913 0.08939844 0.12489852 0.11244213 0.05078012 0.1804393 -0.06981224
0.19993043 0.10483494 0.19445749 0.1833152 0.15477446 0.015568144 0.16910712 -0.049110547
0.17111634 0.044942852 0.06323534 0.20816907 0.18303122 0.12489512 0.20954624 -0.063643135
0.0572192 0.065633684 0.09459917 0.18049987 0.099516355 0.09472849 0.15353578 0.08008668
0.09791621 0.18278016 0.04261411 0.19443849 0.106743395 0.08984336 0.062230345 0.1289537
0.1465933 0.16681978 0.22430177 0.21728833 0.20076525 0.13229936 0.04041703 0.14283921
0.034099948 0.11908863 0.11537995 0.21427858 0.08316909 0.1329213 0.07762404 0.1770246
-0.016296642 0.06259682 0.057591014 0.19210483 -0.034144763 0.07917022 0.17831439 0.06993388
-0.008175634 0.10318202 0.08154608 -0.029967278 0.11376612 0.06341069 -0.0756893 0.15995541

onnx::GRU_198 f4 [2, 384, 19]
00000000: 4cac ddbd d18f d6bd f886 6dbe df47 c3bd
00000010: c80b 1bbe eaf8 1fbe 481e 93bd 87a5 0cbe
00000020: 8a20 22be e3ee 25be 18e1 f7bd 775c 88be
00000030: c522 00be 5731 67be ffd3 20be ad0c 83bd
00000040: 63ff bdbd 8218 6cbd edd3 20be c21b 533d
00000050: 3145 cfbd 9205 20be a9e9 50be 6647 48be
00000060: 159a bebd 6370 9ebd 5277 d6bc ae8d 4bbe
00000070: 619e cfbd 0c24 15be 341e d9bd 6e8f 89bd
00000080: 4d95 1ebe b956 41be 4c42 04bd f998 f5bd
00000090: db10 743c 908e 65be 80a1 f0bc 1065 64be
000000a0: f9ce 50be 477b dfbd 87ec 54be e574 74be
000000b0: cf6b 88bd db4c 1abc 1b7f f9bd 593b 70be
000000c0: 3720 1fbe 6683 45be 0594 a4bd d74c 3fbe
000000d0: 5aeb 31be 74b2 23be 5da2 c7bd ca3d a93c
000000e0: 2235 94bd d326 39bc 4dee 41be cd43 c5bd
000000f0: bd74 0cbe d45f 3dbe 070d 50be bf63 21be
00000100: 26f5 15bd 8c7f dabd e972 e3bd 6275 14be
00000110: 9569 ddbd b7c5 3fbe 56e1 5cbe 5ba6 45be
00000120: 5610 4cbe ca35 0abe e5c8 03be 7b9c 18be
00000130: b264 c93b fd54 30be 542d 72be a1ab 8abd
00000140: 8b52 32be b374 01be d55c 94bd cfc8 e4bd
00000150: 705a 0dbe ddaa fcbd 1371 39bd 34be 3fbe
00000160: 9247 9fbd 1c95 72be a2fd 58be 9f26 d5bc
00000170: 22e3 75bd 4dbb 8a3d 146d 01be 7c47 8bbd
00000180: 8e68 aabd 6a89 dbbd 74c0 1fbe 234b 5abe
00000190: ef1f 3cbe ee59 49be b265 c7bc 6117 13be
000001a0: 16b4 25be 1ff5 c7bd e0ef 1ebe 02c0 5abe
000001b0: d6e1 d5bd 3845 ecbd 89cd 38be 7d34 93bc
000001c0: bc40 edbc f687 2dbe 8e66 9abd d45d 27be
000001d0: 1374 6ebe 7d10 d3bd d2e2 b7bd b17f 3abe
000001e0: 6525 11bd 3bf6 b6bd dad2 d5bd e7cb 59be
000001f0: b015 14be 1641 e2bd a0ff b7bd f7ba 11be
00000200: 29c9 44be ea18 01bd 8618 113c 9aa2 29bc
00000210: 0156 2abe 89a8 25bd f414 26be 20c5 bbbd
00000220: d5bf 18be e552 1cbe 9e91 2bbe 3270 d1bd
00000230: 4447 cdbd 2825 8cbd b337 01be 86d3 5ebe
00000240: 7293 30be cf8f 69be f9f1 6fbe c909 17be
00000250: eb57 dabd 8708 d3bd 2062 303c 5ebd 48be
00000260: dbb3 c9bd 5726 33be 5a62 31be e91e 2bbe
00000270: 943f 9fbd b915 56be 6206 48be fdfe bfbd
00000280: 2460 a0bd 4de0 18be 6716 cfbd 6169 20be
00000290: 61db 9fbd 59c1 ebbd abb3 cbbd ff04 0fbe
000002a0: 13e8 2fbe f487 f4bd 98fd f2bd 6f87 ab3d
000002b0: 5774 42be dcf4 d3bd 917a 12be e826 1abe
000002c0: 4fcc 30be 8ff9 1cbe d161 f73c aec3 fcbd
000002d0: f1a9 02be f65a 59be 0b80 63be e689 08be
000002e0: 511c cdbd a16d f7bd 047e abbd 9314 0bbe
000002f0: 2006 f5bb 9fc4 47be 03b0 043d 1eb4 febd
00000300: eb92 32be d6bd 8bbd 49cf 48be 5f2d 01be
00000310: a91c 05bd 9856 fabc 48ee 49bc 7db8 41be
00000320: ba70 94bd d4df 06bd 5964 08be 4d0e 16be
00000330: ace3 8cbd 104d 9dbc f85a 093d f9b4 173e
00000340: b081 0abe 2737 0cbd d324 b1bd ba1d 17be
00000350: f256 4ebe 433d f2bd f354 6dbe ab34 41be
00000360: 0fdb acbc b17d 26be 6681 56be b804 01be
00000370: d35e 24be d2ac 4ebe a163 71be 36f8 71be
00000380: 6840 bdbd ddac 0abe 44ad 40bd 3aac 23be
00000390: 5726 1f3d 9754 2ebe f270 71be f7fe 41be
000003a0: 6553 11be e010 78be b45d 46be bc47 a63d
000003b0: 8833 c0bd 9178 5cbe 95e9 f5bd 3a7f d1bd
000003c0: 4bb6 4cbe 781c 51be e66c 5abe e235 81bd
000003d0: 55b0 a63c 9f81 213b 7a16 59bd f856 d6bd
000003e0: 5b77 b0bd ca2f 78be 88d6 34be 7e12 12be
000003f0: 8f46 60be 1cb9 95bd 7019 1abe de72 1abe
-0.10823879 -0.104766496 -0.23196018 -0.09535193 -0.15141213 -0.15622297 -0.0718351 -0.13735019
-0.15832725 -0.1620441 -0.1210348 -0.26633045 -0.12513264 -0.22577415 -0.1570587 -0.06398902
-0.09277227 -0.05764056 -0.15705843 0.051540144 -0.10120619 -0.15627125 -0.20401634 -0.19558486
-0.093067326 -0.0773628 -0.026179943 -0.19878265 -0.1013763 -0.14564532 -0.10601464 -0.0671681
-0.15486641 -0.18880738 -0.032289788 -0.11992068 0.014896597 -0.22417665 -0.029373884 -0.22304177
-0.20391454 -0.10912185 -0.20793353 -0.23872717 -0.06661188 -0.009417738 -0.121824466 -0.2346014
-0.15539633 -0.19288406 -0.08036045 -0.18681656 -0.17374936 -0.15986043 -0.09747765 0.020659346
-0.07236697 -0.01130076 -0.18938561 -0.096320726 -0.13716407 -0.18493587 -0.2031747 -0.15760706
-0.036610745 -0.10668859 -0.11105902 -0.14497903 -0.10811154 -0.18727766 -0.21570334 -0.19301741
-0.19928107 -0.13497081 -0.12869604 -0.14903443 0.006146037 -0.1721992 -0.23650104 -0.06771017
-0.174143 -0.12642173 -0.07244269 -0.11171114 -0.1380403 -0.12337277 -0.04527385 -0.187249
-0.07777323 -0.23689693 -0.21190503 -0.026019393 -0.060031064 0.06774006 -0.12639266 -0.06800744
-0.083207235 -0.10719569 -0.15600759 -0.21317725 -0.18371557 -0.19663212 -0.024340484 -0.14364387
-0.16181979 -0.0976355 -0.15521193 -0.21362308 -0.104434654 -0.1153664 -0.18047155 -0.017969364
-0.028961532 -0.16946396 -0.07539092 -0.16344386 -0.23286466 -0.10305879 -0.089788094 -0.18212773
-0.035436053 -0.089336835 -0.10440607 -0.21269189 -0.14461398 -0.110475704 -0.089843035 -0.14231478
-0.19217362 -0.0315179 0.0088559445 -0.010353709 -0.1663437 -0.04044393 -0.1621893 -0.09168458
-0.14916928 -0.15265997 -0.16754767 -0.10226478 -0.100233585 -0.068430245 -0.12618904 -0.21760377
-0.17243746 -0.22808765 -0.23432149 -0.14749826 -0.106613 -0.10304361 0.010765582 -0.19603488
-0.09848758 -0.17495094 -0.17322674 -0.1671101 -0.077757984 -0.20906724 -0.19533685 -0.09374807
-0.07830837 -0.14929314 -0.10111695 -0.15665199 -0.07805515 -0.115114875 -0.09946378 -0.1396675
-0.17178373 -0.119399935 -0.118647754 0.08375441 -0.18989693 -0.103494376 -0.14304568 -0.15053904
-0.17265438 -0.15329574 0.03019801 -0.123420104 -0.1276014 -0.21226105 -0.22216813 -0.13333854
-0.100151666 -0.12081457 -0.08373645 -0.13582067 -0.007477537 -0.19508599 0.03239442 -0.124366984
-0.17438857 -0.06823318 -0.19610323 -0.12614964 -0.032498036 -0.03055887 -0.012324877 -0.18918033
-0.072480634 -0.032928303 -0.1331953 -0.14653893 -0.068793625 -0.019201785 0.03353402 0.1481513
-0.13526034 -0.034232285 -0.08649602 -0.14757434 -0.20150355 -0.11828091 -0.23176937 -0.18867747
-0.021100549 -0.16258885 -0.20947799 -0.12599456 -0.16051798 -0.20183113 -0.23573162 -0.23629841
-0.092408 -0.13542505 -0.04704024 -0.15983668 0.038854923 -0.17024456 -0.23578241 -0.18944918
-0.14191969 -0.24225187 -0.19371682 0.08119151 -0.09384829 -0.21530367 -0.12007443 -0.10229345
-0.19991414 -0.20421016 -0.21330604 -0.063091055 0.020347754 0.002464391 -0.05299995 -0.10465807
-0.08616515 -0.2423698 -0.17659962 -0.14264867 -0.21901916 -0.073106974 -0.15048766 -0.15082881

onnx::GRU_199 f4 [2, 384, 128]
00000000: 8803 80bd b850 013d 97fd ab3d e8c2 1ebd
00000010: de91 b3bd 7ec8 6fbd ab6f 093d 9c94 7b3d
00000020: f189 8dbc e19d 213b 488f 83bd efa3 25bd
00000030: 1631 70bd 29b0 6b3d 24ac 8ebc b579 16bd
00000040: 36e5 1cbc d247 233d 5ab7 48bd 952b 4dbc
00000050: 1b8d 193d b12f 2bbc 469d ea3c 9b3a 73bd
00000060: a14d a4bb 05a3 2fbd 14aa a63d 38ce b4bd
00000070: 0026 36bd 4bf1 0ebd 80ce 1f3d 028d 21bd
00000080: 7541 64bd d8e7 a8bb 29ef e7bc a2cd af3d
00000090: 8ab2 5e3d 3795 8d3d 93aa 97bd c9c1 babc
000000a0: 85bb 8abd e158 a33d 62b4 563d e5c3 8dbd
000000b0: facc 85bd 94e0 323d 8ab5 37bd 7c53 e73c
000000c0: 3df7 9ebd 9f79 90bd 8780 f6bc 0a9a 8dbd
000000d0: 039e 5e3d ec3e 8abd f6f1 ecbc 1e1a b1bd
000000e0: 4818 a63d f054 6c3c aaf9 5bbd ef9a 9ebc
000000f0: 2f18 d93c cdc8 f7bc e178 903d d287 a6bc
00000100: e56f a93d 9092 453d f570 7f3d 26ad 183b
00000110: 16cb d0bc 5807 1a3d 9974 633d f210 463c
00000120: ff80 903c ffa5 9b3d fa8e 44bd d72b 9cbc
00000130: 3861 dc3b e4f9 29bc 4c14 50bd 8630 e83c
00000140: a423 8b3c 821b 5bbd 9b75 a3bb bc09 263c
00000150: a221 13bc ffe8 de3c 3366 a6bd 9ad6 47bc
00000160: d290 853d 4b2a 203b 2a37 2bbc e1f9 c5bc
00000170: a392 5fbc ad5a 2abc b46d 30bd f950 81bd
00000180: feaa f7bb 357f b33d d082 883d 3c86 8c3b
00000190: 23cb 1c3d 373d 9f3c 69ba 39bd f6b3 023d
000001a0: aa67 253d 50ed bfbb 3ce1 573d 890e 103d
000001b0: c89d 2bbd eafe d23c 0540 253d 1b01 8f3d
000001c0: 50c6 76bd 0bef a6bd 50d7 0dbd 7d79 f43b
000001d0: a0cd 8ebd bbf6 b2bc 8f6a 84bd 9f03 89bd
000001e0: 94c7 db3c 97c6 303d 6b1e 433c ab24 7b3d
000001f0: 0387 adbc fa50 3b3c d480 853d dff1 953d
00000200: ca4b cf3c a58c 9abd 8122 af3c ec71 823d
00000210: 77a7 f63c 764b b2bd 34a4 ecbc 8a7c 39bd
00000220: 24ec a2bd 0c9b 96bd d203 6a3d acf0 67bd
00000230: d938 5abd c58d 1dbd 0c09 1abc 943a 573d
00000240: 6056 b2bd 40e5 21bd 111f 6cbc 77e9 c83c
00000250: d5e1 48bd 8adc c4bc b4ab 42bd b687 a2bc
00000260: 2329 3b3d 2b14 19bd 7f9f 42bc 8127 6dbd
00000270: 6e41 ca3c b684 68bd 89d4 a73c e837 b4bd
00000280: cd5f 0d3d 6a52 023d 374f 89bd d658 38bc
00000290: 9c36 59bd f8e3 2cbd ccbb 273d 16bb 4ebd
000002a0: 8465 4c3d 21fb 363d 1d4d a23d 327a 07bd
000002b0: 9c8b a0bd 9e5a 6a3d f55f aabc c984 0ebd
000002c0: 2791 2bbd a157 a83d 04d9 8cbd 3544 9d3c
000002d0: 2fe6 8f3c 9925 0dbd d6f9 4d3d 1477 513d
000002e0: bf8d 733d b41b c33c b460 c03c 8715 cd3c
000002f0: bdd0 e6bc 26a3 90bd 029b 293b 3ae0 053c
00000300: 9aae 5f3d 9af7 733c adf4 213b ac47 00bd
00000310: c088 973d b40d a03d 4a0b b23d 7c57 b9bb
00000320: e5b4 31bd 428d 92bd f923 b2bd abe0 90bd
00000330: 3a89 e7bc 8e09 8d3d cddd a6bd 3186 d7bc
00000340: aa66 113d f20d 2a3d fea0 7e3b 1eb1 a2bc
00000350: a6ad 893b dedc 62bd 1155 323d de8e 533d
00000360: 62e0 723c 4e19 7e3d f42c 553d 1c90 a9bd
00000370: 5154 0ebd e21e 9abd 77db 033d 8667 a2bd
00000380: cdf8 ab3c bc1e 93bd 6fb7 383d fcf2 77bd
00000390: 7bfd a2bd b242 12bd 865c ef3c 96b6 1abd
000003a0: 9b29 073d c600 393b 7eea 44bd 35d7 9fbb
000003b0: 38b1 653d afc6 5dbd d60f 9e3d 2536 c93c
000003c0: 9831 3c3d e772 8bbc 4dca 863d 030b 87bd
000003d0: d41f 12bd 2134 633d d5a0 42bd 7a5e 973d
000003e0: 9a3f 03bd 5c72 abbd 23cd aa3d 16c0 933d
000003f0: 4342 153d 8e0d 9bbd 708e 9c3c 34fc abbc
-0.062506735 0.03157112 0.08397978 -0.038760096 -0.08768056 -0.058540814 0.03355376 0.06142102
-0.01727769 0.0024660754 -0.06423813 -0.040439542 -0.058640562 0.057541046 -0.017416067 -0.036737163
-0.0095761325 0.039863415 -0.049002983 -0.012522598 0.037488084 -0.010448382 0.028639447 -0.059382062
-0.005014137 -0.042880077 0.081379086 -0.088283956 -0.044469833 -0.034898084 0.039015293 -0.039441116
-0.055726487 -0.005154591 -0.028312283 0.08584143 0.054369487 0.06913226 -0.07405581 -0.022797482
-0.06774048 0.07975937 0.05241812 -0.069221295 -0.06533237 0.043671206 -0.044850864 0.02823805
-0.07762001 -0.070544474 -0.030090583 -0.06914146 0.05434991 -0.06750283 -0.02892397 -0.086475596
0.081101 0.014424548 -0.053704895 -0.019360987 0.02650079 -0.030247116 0.07054306 -0.020328436
0.08273295 0.048235476 0.062363584 0.0023296564 -0.025487464 0.03760466 0.055531118 0.012089001
0.017639635 0.076000206 -0.047987916 -0.019063873 0.0067254566 -0.01037452 -0.050800607 0.02834345
0.016984768 -0.05349303 -0.004988385 0.010134157 -0.008980187 0.02721071 -0.08124962 -0.012197161
0.06521763 0.002443927 -0.010450164 -0.024167003 -0.013645801 -0.010397595 -0.04307337 -0.063142724
-0.0075582257 0.08764497 0.066655755 0.004288463 0.038279664 0.01943837 -0.04534379 0.031909905
0.040382065 -0.0058571473 0.052705035 0.03517011 -0.04189852 0.025756318 0.040344257 0.06982633
-0.06024772 -0.081510626 -0.034629166 0.0074607716 -0.069728136 -0.021846166 -0.06465637 -0.06690144
0.026828565 0.04315814 0.011909108 0.061314266 -0.021182543 0.011432881 0.06518713 0.07321524
0.025304694 -0.07546357 0.021378757 0.06369385 0.03010915 -0.08705799 -0.028886892 -0.045284785
-0.079551965 -0.073537916 0.05713255 -0.056626007 -0.05327687 -0.03846528 -0.009401571 0.0525461
-0.08707881 -0.03952527 -0.014411704 0.024525387 -0.049043495 -0.024030942 -0.04752703 -0.019840103
0.045693528 -0.03737275 -0.011878847 -0.057899002 0.024689402 -0.056767188 0.020487087 -0.08799726
0.03451519 0.031816877 -0.06704562 -0.011251649 -0.053030595 -0.042209595 0.04095058 -0.050471388
0.0499015 0.04467309 0.079248644 -0.03307552 -0.078391284 0.057215326 -0.020797709 -0.034794603
-0.041886475 0.08219839 -0.0687733 0.019197563 0.017565815 -0.034459684 0.05028709 0.051138952
0.05946135 0.02381692 0.023483612 0.02503468 -0.028175706 -0.07062368 0.0025879745 0.008171136
0.054609872 0.014890576 0.0024712489 -0.03131835 0.0739913 0.07815114 0.086935595 -0.005656181
-0.043385405 -0.07155849 -0.086982675 -0.07074102 -0.028263677 0.06886588 -0.08147774 -0.026309105
0.0354983 0.041517206 0.0038853283 -0.019859847 0.0042016087 -0.055386417 0.043538157 0.05164992
0.014824005 0.06203585 0.052044824 -0.0827944 -0.03474838 -0.07525422 0.03219172 -0.07929902
0.02099266 -0.071835965 0.04509681 -0.060534462 -0.07958504 -0.035708137 0.029218923 -0.037771784
0.032998662 0.002822922 -0.04807519 -0.0048779496 0.056077212 -0.054144558 0.07717864 0.024561951
0.045945734 -0.017022563 0.065815546 -0.06593897 -0.035674885 0.055469636 -0.047516663 0.07391067
-0.032043077 -0.08371422 0.08339908 0.07214372 0.036440145 -0.07570945 0.019110888 -0.020994283

onnx::MatMul_200 f4 [256, 1]
00000000: 986f 64bc d003 763d 1064 dabc e0e7 cb3c
00000010: 9c78 753d 6897 1e3c 2435 7abd 60ac efbb
00000020: da08 353d 90b6 9a3b 084e 28bc 5624 333d
00000030: 98bf 673c d0f0 bf3b 3053 633d b418 203d
00000040: 00ee c039 b0d2 b53b 103b 82bc 0246 1f3d
00000050: e439 543d 60c8 7fbd 642f 4bbd 9818 8fbc
00000060: d83f fa3c 6e1d 26bd f4e7 ab3c 50fd 733c
00000070: b4fb f43c 1086 013d e0b5 053c 0061 273a
00000080: 90c6 86bb 00de 5f3c 28c5 293c 7672 08bd
00000090: 0817 2c3d 8638 453d 847d 373d 60c7 3d3c
000000a0: 3a8d 0e3d 3a46 70bd b04e 293c 0c4f bbbc
000000b0: e83d d8bc 6487 683d 10f6 8abb 2c8b 7ebd
000000c0: dcb2 c5bc e050 debb e455 2c3d 0019 813a
000000d0: c0c9 323d ce85 19bd 5877 d0bc 28f5 39bd
000000e0: e8a9 6f3c 7886 d33c 8c88 c2bc 407d 35bb
000000f0: 7e1c 163d 4880 65bd 8e86 513d 94f6 4abd
00000100: c475 b8bc ee4c 143d f0d9 44bd f423 85bc
00000110: 5c78 14bd 40bb 57bb 5642 6e3d 50ca 713d
00000120: 40af aebb 96e4 383d 70a8 3abd d4c1 9abc
00000130: 2e6a 783d f4ff f43c a26f 1abd 6006 1e3c
00000140: 10d3 613c c221 62bd 005b 9eb9 9a67 783d
00000150: 7ef0 2fbd 40ed c93a d8a1 4cbd 8805 aebc
00000160: 049b eebc c0ec fc3a 78c5 d5bc e091 033b
00000170: 64e5 b8bc b2b0 4e3d 4a64 0e3d 20c1 a4bc
00000180: 04ee 5a3d e09a 7ebc 74c6 bcbc 50fe a13b
00000190: e01f 6fbb 56d0 05bd fc55 35bd 3213 35bd
000001a0: 7035 353c b84c 58bc 489e f8bc 9c02 d2bc
000001b0: 342c 233d f85e 813c 4a5c 1b3d ac0a 923c
000001c0: f247 38bd a8ff f9bc 28b4 463c 40d3 78bc
000001d0: 302e 59bc 7053 703d 72d8 543d 0272 26bd
000001e0: e250 39bd c838 133c c8aa 80bc 3410 d8bc
000001f0: 48b5 c3bc 42a7 31bd b264 35bd 4852 bb3c
00000200: 34c7 c83c 1880 b8bc 3036 e3bc de05 363d
00000210: 563b 323d 3ce5 29bd 38eb 54bc 6642 473d
00000220: 4873 5b3d 988e 033d 5cc2 583d 72fa 56bd
00000230: 30df 9bbb 3239 753d a49f 59bd b817 733c
00000240: ba24 483d c827 eb3c 6484 c6bc c0e5 a7ba
00000250: 18bf 643d c6a5 643d 1407 523d 08d8 7f3c
00000260: 7462 fb3c 1cad 48bd 4867 72bc 0a90 50bd
00000270: e831 573d 8872 4c3c a8a7 cdbc e8f0 363d
00000280: 8ac0 2b3d da16 7e3d 887f 5b3c 94c8 433d
00000290: f47e 73bd 5cbf 773d 800b a03c f2b6 0e3d
000002a0: 70f7 9dbb a80e 2f3d 70ca 7cbd ec1e 273d
000002b0: e82c 063c 78ad 423c bc23 833c 402f 1fbc
000002c0: a0fc e1bc 40d2 d8bc d201 64bd 5860 163c
000002d0: 18f3 9f3c f4b3 723d 109a 9d3b fcfc 14bd
000002e0: 0a29 7b3d 8cd5 05bd ccf8 66bd 5c9b 41bd
000002f0: e452 e7bc 46c0 173d 78c6 4c3d cc6d 1f3d
00000300: e8cc 2cbc 7891 7ebc 602c ab3b eeef 293d
00000310: 8019 7c3d 08fb 723d 48d5 503c 1aa9 143d
00000320: 12ce 0abd 806d 00bd ea53 15bd a4e5 6a3d
00000330: fcc9 f9bc 8079 4aba e02b d9bb 702c 60bc
00000340: c49e 093d 80b9 743b 4060 a6bc f87a a0bc
00000350: cc0b 93bc 103a f33b 408d f6bb e06d c0bc
00000360: 12eb 173d 0ed7 253d c832 14bd 884f 45bd
00000370: 2c61 cdbc c074 6d3b d0bf 923b 801c 853c
00000380: d4e8 12bd 8e32 483d f8ad 853c 64dd fabc
00000390: 366d 02bd a827 a5bc 184f aebc 9e04 2dbd
000003a0: 3a69 5abd 82b0 50bd 6e4e 2b3d ac7a 67bd
000003b0: fcfe 343d 4c61 ef3c ee51 743d 9033 c93b
000003c0: bc57 d63c 0668 36bd 02e1 13bd eaa4 68bd
000003d0: d0c5 99bb e050 dbbc 003c 713b 148a f73c
000003e0: 848b ddbc 80de 26bd 8a12 6abd 960c 50bd
000003f0: 1abc 07bd b884 513c 8053 343b 203f 19bb
-0.013942622 0.06006223 -0.026659042 0.02489084 0.059929475 0.009679653 -0.061085835 -0.00731425
0.044197895 0.00472147 -0.01027251 0.043735825 0.014144801 0.0058575645 0.055499256 0.03908606
0.00036798418 0.0055487975 -0.015897304 0.038885124 0.05181302 -0.062446952 -0.049605742 -0.017467782
0.030548021 -0.04055541 0.020984627 0.014891937 0.029905178 0.031621993 0.008161038 0.00063849986
-0.004113026 0.013663769 0.010361947 -0.033312283 0.04201415 0.048149608 0.044797435 0.011583179
0.034802653 -0.058660723 0.010333702 -0.02286484 -0.026396707 0.056769744 -0.0042407587 -0.062144443
-0.024133138 -0.0067845434 0.0420741 0.000984937 0.043649435 -0.03748112 -0.025447533 -0.045399815
0.014627911 0.025820956 -0.023746751 -0.0027693063 0.036648266 -0.05603054 0.051153712 -0.04955156
-0.022517093 0.03620618 -0.048059404 -0.016252495 -0.036247596 -0.0032918006 0.05816873 0.05903083
-0.00533095 0.04513987 -0.04557079 -0.018891253 0.060648136 0.029907204 -0.037704118 0.009645075
0.013783231 -0.055207975 -0.0003020391 0.060645677 -0.04295396 0.0015405789 -0.049959034 -0.021242872
-0.029126652 0.0019296631 -0.026095137 0.0020075962 -0.02257032 0.05046148 0.03476361 -0.02011162
0.053449646 -0.015539855 -0.023043849 0.0049436465 -0.0036487505 -0.032669388 -0.044271454 -0.04420776
0.011060104 -0.013201885 -0.030348912 -0.02563601 0.039837077 0.015792355 0.03792981 0.017827354
-0.044990487 -0.030517414 0.012127914 -0.015187085 -0.013255641 0.058673322 0.05196423 -0.04063607
-0.04524315 0.008985706 -0.015706435 -0.026374914 -0.023890153 -0.0433724 -0.044285484 0.022866383
0.02450905 -0.022522017 -0.0277358 0.04443919 0.04351362 -0.04147838 -0.012995534 0.048647307
0.053576738 0.03211841 0.05291973 -0.052484937 -0.0047568306 0.059869 -0.05313076 0.014837198
0.04886315 0.028705493 -0.02423305 -0.001280956 0.055846304 0.055822156 0.05127628 0.015615471
0.030686595 -0.048993215 -0.014795132 -0.050918616 0.05253783 0.012478478 -0.025104359 0.04466334
0.041931666 0.06203351 0.013397105 0.047798708 -0.059447244 0.06048523 0.019536734 0.03484244
-0.0048207566 0.042738587 -0.061716497 0.040800974 0.008189417 0.0118821785 0.01600825 -0.009715855
-0.027586281 -0.026467443 -0.0556658 0.009178244 0.019525096 0.059253648 0.0048096254 -0.036374077
0.061318435 -0.032674357 -0.056389615 -0.047267303 -0.028237768 0.0370486 0.049993962 0.03892307
-0.0105469 -0.015537612 0.005223796 0.04148858 0.061547756 0.059321433 0.012746163 0.03629408
-0.03388793 -0.031354427 -0.03645698 0.05734791 -0.030491821 -0.00077237934 -0.0066275448 -0.01368247
0.033598676 0.0037342012 -0.020309567 -0.019589886 -0.017949961 0.007422693 -0.0075241625 -0.023489892
0.037089415 0.040488295 -0.03618124 -0.04817155 -0.02507075 0.0036232919 0.0044784322 0.016248941
-0.035866573 0.048876338 0.016318306 -0.030623145 -0.031842433 -0.020160511 -0.02127795 -0.04224073
-0.053323008 -0.05094958 0.041822843 -0.056513473 0.044188485 0.0292212 0.059648447 0.00614018
0.026164882 -0.0445328 -0.036103256 -0.0567979 -0.0046927705 -0.026771963 0.0036809444 0.030217208
-0.027044065 -0.040739536 -0.057146586 -0.050793253 -0.033138372 0.01278799 0.002751559 -0.0023383573
