models/2017-08-25/gan_model.pth (torch, 117138 bytes, 11 tensors)

generator.0.weight f4 [128, 100]
0	0xbe2e1f9c	-0.17004246
1	0xbe302f94	-0.1720565
2	0x3d5f7dc8	0.054563314
3	0x3d8269cb	0.06367835
4	0xbcbc2aec	-0.022969685
5	0x3cf6a604	0.03010846
6	0x3e404661	0.18776847
7	0x3de2c48a	0.11072643
8	0xbd1f6786	-0.038917087
9	0xbbb2b80b	-0.0054540685
10	0x3ea05ebf	0.31322286
11	0x3e8a8595	0.2705504
12	0x3e4d303d	0.20037933
13	0x3b9b9268	0.0047476776
14	0x3e9d58cf	0.30731818
15	0xbe3e1093	-0.1856101
16	0x3e35d4d4	0.17756969
17	0x3d0bf9dd	0.034173835
18	0xbd903901	-0.07042123
19	0xbc5259d1	-0.012838797
20	0x3d927c31	0.07152594
21	0x3dc4cafa	0.09609027
22	0x3de878a6	0.11351137
23	0xbe5efb91	-0.21775652
24	0x3c338f59	0.01095947
25	0x3e7f4d6b	0.24931876
26	0xbe3abfcc	-0.18237227
27	0x3daf4a44	0.08559087
28	0xbcb3892a	-0.02191599
29	0xbe388e82	-0.18023112
30	0x3da9d21b	0.082920276
31	0xbc9c9b27	-0.019116951
32	0xbdcd113e	-0.10013054
33	0x3dd9fbce	0.10643731
34	0xbc56c3ae	-0.013108177
35	0xbb7a646a	-0.0038206824
36	0x3d572553	0.05252583
37	0x3e342472	0.17592028
38	0x3d7215e6	0.059102915
39	0x3d095f05	0.033537883
40	0xbbb6837c	-0.0055698734
41	0xbda864fa	-0.08222385
42	0xbd5761a8	-0.052583367
43	0xbe19fa13	-0.15036802
44	0x3d9cf0eb	0.07663139
45	0xbe67e52e	-0.22646019
46	0xbd188097	-0.037232008
47	0xbd44fc42	-0.048092134
48	0xbd8aabeb	-0.06771072
49	0xbd02027d	-0.031740654
50	0x3e824d1c	0.25449455
51	0x3dac9263	0.084263586
52	0x3e2a0680	0.16604042
53	0x3c9d7c7f	0.019224403
54	0xbc03b9c0	-0.008039892
55	0xbe031767	-0.12801896
56	0xbe30db48	-0.17271149
57	0x3e3f09dd	0.18656106
58	0x3ddf868e	0.10914336
59	0x3e029882	0.1275349
60	0x3e6e1e35	0.2325371
61	0x3db88749	0.090101786
62	0x3bf398d0	0.007433988
63	0x3d7a38d4	0.06108935
64	0xbe22de00	-0.15904999
65	0x3e0f391a	0.13986626
66	0x3dfbc984	0.122942954
67	0xbdaf7089	-0.08566386
68	0x3d8ae530	0.06781995
69	0xbe1fe8d6	-0.15616164
70	0xbdaf3e42	-0.085567966
71	0xbdc29a63	-0.09502103
72	0xbd2b99e0	-0.041894794
73	0x3d83c98e	0.06434928
74	0x3cd3c5d8	0.025851175
75	0x3e02284d	0.12710686
76	0x3d8f3f06	0.06994443
77	0xbe2caf83	-0.16863827
78	0x3dcb3a5c	0.099232405
79	0xbd21e4c1	-0.039524797
80	0xbe2124e3	-0.15736727
81	0xbe21e42e	-0.158097
82	0xbd933fd7	-0.07189911
83	0xbd8c7fa1	-0.06860281
84	0xbbb45c48	-0.005504165
85	0xbe6b7231	-0.2299278
86	0x3c04a410	0.008095756
87	0x3e5444ad	0.20729323
88	0x3e969bee	0.2941584
89	0x3cd978e0	0.026546896
90	0x3e15d908	0.14633572
91	0x3d3dfd01	0.04638386
92	0xbd0025ff	-0.031286236
93	0xbd3a2f41	-0.04545522
94	0x3e074b1a	0.13212243
95	0x3cb2e92c	0.0218397
96	0xbd69dc80	-0.05709505
97	0x3d7fc765	0.062446017
98	0x3dd7b96e	0.10533415
99	0xbdada55d	-0.08478806
100	0xbd1455ec	-0.036214754
101	0xbd5f1667	-0.054464724
102	0xbca0313a	-0.019554723
103	0x3cde15c1	0.027109982
104	0xbc9e7403	-0.019342428
105	0x3d3c2943	0.045937788
106	0x3ce96648	0.028491154
107	0xbcbb6a06	-0.022877704
108	0xbd152ede	-0.03642165
109	0xbd00df48	-0.031462938
110	0x3d79a445	0.060947675
111	0x3d3db0cf	0.046311196
112	0x3d465faa	0.048431076
113	0x3d2726d1	0.040808503
114	0x3da5dd65	0.08098868
115	0xbd59ff92	-0.053222246
116	0x3c74a361	0.014931531
117	0x3d6538d7	0.05596241
118	0xbb6dd02c	-0.003628741
119	0xbd222d6e	-0.039594106
120	0x3d2677c3	0.040641557
121	0x3d008292	0.03137452
122	0x3cda5528	0.026651934
123	0xbce6541a	-0.028116275
124	0x3d0658eb	0.032799643
125	0xbd0945db	-0.033513885
126	0x3d25a0d9	0.0404366
127	0x3ce60ae5	0.028081367
128	0xbd155ef3	-0.036467504
129	0xbb842568	-0.0040327795
130	0xbabeb783	-0.001455054
131	0xbc7bd9d3	-0.015371758
132	0xbceaef51	-0.028678568
133	0x3d1b790f	0.037957247
134	0xbc9d1991	-0.01917723
135	0x3c37c1ce	0.01121564
136	0x3d03f14b	0.032212537
137	0x3d0f09d0	0.034921467
138	0xbcda3ba9	-0.026639776
139	0x3c0b1912	0.008489864
140	0xbcc2fdc8	-0.023802653
141	0xbc83aca6	-0.016073536
142	0x3d02585a	0.03182254
143	0xbd2850d7	-0.04109272
144	0x3cc90bcc	0.024541758
145	0xbc5c94bb	-0.0134631945
146	0x3cf7c7b3	0.030246591
147	0x3c381ea1	0.011237771
148	0xbc538066	-0.012909031
149	0xbc52d8ea	-0.012869099
150	0x3c9ea0fa	0.019363869
151	0x3cf01e77	0.029311402
152	0xbd1d94db	-0.038472038
153	0x3c1d0a2b	0.009584944
154	0x3a53178c	0.000805252
155	0xbc938c06	-0.018011104
156	0xbd7c81ed	-0.061647344
157	0x3d16a86e	0.03678172
158	0x3c95da68	0.01829262
159	0x3b880017	0.0041504013
160	0x3c4217ce	0.011846496
161	0xbbc658ec	-0.006053081
162	0x3cce8174	0.025208212
163	0xbd09fe86	-0.033689998
164	0xbca2e39f	-0.019883929
165	0xbc237c39	-0.009978347
166	0xbd39134c	-0.04518442
167	0x3c76f7fa	0.015073771
168	0x3c29e2b7	0.010368994
169	0xbd12dfd6	-0.035857998
170	0xbd148e3f	-0.03626847
171	0xbd21b67a	-0.039480664
172	0xbd118391	-0.035525862
173	0xbc7be31f	-0.015373974
174	0x3d07c1a8	0.03314367
175	0x3dc86dfd	0.097866036
176	0x3bace683	0.0052765026
177	0xbc2da020	-0.010597259
178	0xbcb852f0	-0.022500485
179	0xbc9c936c	-0.019113265
180	0xbc3dd8c5	-0.011587326
181	0xbc972c8c	-0.018453859
182	0xbc215d07	-0.00984884
183	0x3cac6ea0	0.021048844
184	0xbbc36d94	-0.0059639905
185	0xbd3b7745	-0.04576804
186	0xbcc2a697	-0.023761077
187	0x3c6c221b	0.014412428
188	0x3c07dde8	0.008292653
189	0x3c56e11f	0.0131151965
190	0xbd0566a4	-0.03256859
191	0x3cfd9371	0.030954095
192	0xbb34f00e	-0.0027608904
193	0xbb6bcef2	-0.0035981503
194	0x3ab8c5f8	0.0014097085
195	0x3bd9072a	0.0066231685
196	0xbc49b4e5	-0.012311195
197	0x3ced76a9	0.028987246
198	0x3ad1c10a	0.0016002965
199	0x3d11a4d5	0.035557587
200	0xbe28bfd0	-0.1647942
201	0xbe28ee4c	-0.16497153
202	0xbdbdb130	-0.092623115
203	0x3d6db8c5	0.058037538
204	0xbd00621e	-0.03134357
205	0xbdb4e093	-0.08831897
206	0x3d986e22	0.07442881
207	0xbd626c76	-0.055279218
208	0xbc88cbb6	-0.0166987
209	0xbdaa1b9c	-0.08306047
210	0xbcb43322	-0.021997038
211	0x3e57ad46	0.21062192
212	0xbdf87a72	-0.121327296
213	0x3d14ab3a	0.036296107
214	0x3e698dbe	0.22807977
215	0x3e0f3526	0.13985118
216	0xbe7b96e1	-0.24569274
217	0x3e84b730	0.2592101
218	0x3e0efe13	0.13964109
219	0x3e2edbc3	0.1707602
220	0xbe00d769	-0.12582172
221	0x3da6c14a	0.08142336
222	0xbc010845	-0.007875507
223	0x3e831449	0.25601414
224	0xbc694f20	-0.014240056
225	0x3e838a20	0.2569132
226	0x3e566212	0.20935848
227	0x3da06f85	0.07833771
228	0xbc309752	-0.010778265
229	0xbe517612	-0.20455196
230	0xbead4f29	-0.33849457
231	0x3d86262b	0.06550249
232	0x3e0345a1	0.1281953
233	0x3e93ccb4	0.28867114
234	0xbbfb830d	-0.0076755346
235	0x3e7e46c7	0.24831687
236	0x3e166bed	0.14689608
237	0xbe37709a	-0.17914048
238	0x3e002466	0.12513885
239	0x3e2c60e9	0.16833843
240	0xbe9af765	-0.30266872
241	0x3dcad007	0.09902959
242	0xbd02be62	-0.031919844
243	0xbdffc01e	-0.12487815
244	0x3dc771a5	0.09738473
245	0xbdd6d1a7	-0.10489207
246	0x3e6f3ee0	0.23363829
247	0x3e1e388c	0.15451258
248	0x3dca7795	0.0988609
249	0x3d6e277e	0.05814313
250	0x3cd4e6c8	0.025988951
251	0x3dbca873	0.09211817
252	0xbd292af8	-0.041300744
253	0x3e3c51f3	0.18390636
254	0x3e3f8fe1	0.18707229
255	0xbdd503db	-0.10401126

generator.0.bias f4 [128]
0	0x3ea74427	0.32669184
1	0xbeed8677	-0.4639165
2	0x3e870b21	0.26375678
3	0xbedce64c	-0.43144453
4	0xbed753b2	-0.42056042
5	0x3f09ba8a	0.5380026
6	0xbee6e3e9	-0.45095757
7	0x3f20d212	0.6282054
8	0xbef1df0b	-0.4724048
9	0xbe8908c9	-0.26764515
10	0x3ebe2ba4	0.3714267
11	0x3eaddd08	0.33957696
12	0xbecb0d3d	-0.39658538
13	0xbee7851d	-0.45218745
14	0x3ea0399f	0.3129396
15	0xbeac3fcc	-0.33642423
16	0xbec55f7e	-0.38549417
17	0x3e69f30f	0.22846626
18	0x3f03dd2d	0.5150936
19	0x3f2cc7d0	0.6749239
20	0xbef16572	-0.4714771
21	0x3e922519	0.28543928
22	0x3f02d397	0.5110411
23	0xbe45db3e	-0.19321916
24	0xbee36a71	-0.44417146
25	0xbea2e53f	-0.31815526
26	0xbebabaf2	-0.36470753
27	0xbf00b380	-0.50273895
28	0xbde94fc8	-0.1139217
29	0x3e80488c	0.2505535
30	0x3edd224f	0.43190238
31	0x3f10c466	0.5654968
32	0xbe67cb60	-0.22636175
33	0xbed39b8c	-0.4132961
34	0x3f073d64	0.5282805
35	0x3f07d525	0.5305961
36	0xbee05770	-0.4381671
37	0xbee2e29d	-0.44313517
38	0xbe0218e6	-0.1270481
39	0xbe0804bc	-0.13283056
40	0xbef84724	-0.48491776
41	0x3e1b8b4c	0.15189856
42	0xbef32a36	-0.47493142
43	0xbec062e5	-0.3757545
44	0x3f135dbe	0.57564914
45	0xbeeea0f6	-0.46607178
46	0x3eac4933	0.33649597
47	0xbed64128	-0.41846585
48	0x3ee42e1f	0.44566438
49	0xbee62875	-0.4495274
50	0xbee0b832	-0.4389053
51	0x3dbe2cb9	0.09285874
52	0xbf02e55a	-0.5113121
53	0xbe36ddcf	-0.17858051
54	0xbef10f54	-0.47082007
55	0x3f41bc1b	0.7567765
56	0x3effaab4	0.49934924
57	0xbe93a5f1	-0.2883754
58	0xbf03d946	-0.5150341
59	0xbe8032df	-0.25038812
60	0x3ef59f25	0.4797298
61	0xbcf6210e	-0.030045059
62	0xbe1b3745	-0.15157802
63	0x3ed6f4a0	0.4198351
64	0xbeb740fe	-0.35791773
65	0x3ec2caf7	0.38045475
66	0x3e221c5b	0.15831129
67	0x3e764473	0.24049549
68	0xbed5f7fa	-0.41790754
69	0xbedcc9e2	-0.43122774
70	0xbeca5f2c	-0.39525735
71	0x3d8d2e0f	0.068935506
72	0xbec222db	-0.37917218
73	0xbf052d36	-0.5202211
74	0xbda201c8	-0.07910496
75	0x3e425a69	0.18979801
76	0xbdc3fc91	-0.095696576
77	0x3ed4e3b4	0.41579974
78	0x3cf6f991	0.0301483
79	0xbee6cf3b	-0.4507998
80	0x3f1d962d	0.61557275
81	0xbf07d3e5	-0.530577
82	0xbec3ac1e	-0.38217252
83	0xbe919160	-0.28431225
84	0x3eda3d0b	0.42624697
85	0xbe86c373	-0.2632099
86	0xbee7c13a	-0.45264608
87	0x3ee2e1e7	0.44312975
88	0x3c320a67	0.010866738
89	0xbec8294c	-0.39094007
90	0xbc694a6a	-0.014238933
91	0xbead36cd	-0.33830872
92	0x3efa7cbd	0.48923293
93	0xbe53c423	-0.20680289
94	0xbece2c52	-0.4026819
95	0xbee3b527	-0.44474146
96	0x3e35e861	0.17764427
97	0xbecf4162	-0.4047957
98	0xbefae01b	-0.48999104
99	0xbe96a6da	-0.29424173
100	0x3e12b925	0.1432844
101	0xbeb5b760	-0.35491467
102	0xbec8b7fd	-0.39202872
103	0xbee0f043	-0.43933305
104	0xbea10195	-0.3144652
105	0xbee34a2e	-0.44392532
106	0xbec985e6	-0.3935997
107	0xbec45c16	-0.38351506
108	0x3eba734b	0.36416087
109	0xbec5dc01	-0.38644412
110	0xbdf56b49	-0.11983354
111	0x3def26a1	0.1167729
112	0xbe87eafd	-0.2654647
113	0xbee5e50b	-0.44901308
114	0xbeca2bf1	-0.3948665
115	0xbed15436	-0.4088456
116	0x3c243a9f	0.010023742
117	0x3f004935	0.50111705
118	0xbebe1a34	-0.37129366
119	0xbecf7d66	-0.4052536
120	0xbf00d76d	-0.50328714
121	0xbefd8bd8	-0.49520755
122	0x3ea84b87	0.32870123
123	0xbecc6677	-0.39921924
124	0xbee88de4	-0.45420754
125	0x3eb24e59	0.348254
126	0xbd5e91b8	-0.054338187
127	0xbeb07742	-0.34465986

generator.2.weight f4 [64, 128]
0	0x3ebbb5bc	0.3666209
1	0x3dbfe483	0.09369757
2	0x3ec1366b	0.3773683
3	0x3d8e5cfb	0.06951328
4	0x3dc70d59	0.09719343
5	0x3e7fa3f8	0.24964893
6	0x3dc7e71e	0.09760879
7	0x3f076e14	0.5290234
8	0x3c87a1a0	0.016556561
9	0x3e108f77	0.14117227
10	0x3e859189	0.26087597
11	0x3ebad4a7	0.36490366
12	0x3d16e512	0.036839552
13	0xbbb4a869	-0.00551324
14	0x3efdf7f7	0.49603245
15	0xbb3e7890	-0.002906356
16	0x3e2dd91a	0.16977349
17	0x3f14811b	0.580095
18	0x3eb36f69	0.35045937
19	0x3ece5400	0.40298462
20	0x3d697591	0.056996886
21	0x3ece3c0d	0.4028019
22	0x3f098814	0.53723264
23	0x3e166cd2	0.14689949
24	0x3cca307b	0.02468132
25	0x3d1d3f51	0.03839046
26	0x3d91553b	0.070963345
27	0xbde7fee3	-0.11327913
28	0x3e8b1863	0.27167043
29	0x3ea83eba	0.32860357
30	0x3ea7f615	0.32804933
31	0x3eaaf0cf	0.33386847
32	0x3e1ab598	0.15108335
33	0x3e2ca7f0	0.16860938
34	0x3ea22bdc	0.31674087
35	0x3eb4e91b	0.35334095
36	0x3e25ce92	0.16192082
37	0x3c983751	0.018581064
38	0x3de0a352	0.10968651
39	0xbc3aacb9	-0.011393719
40	0x3dc5bb49	0.096548624
41	0xbebb2596	-0.36552113
42	0xbd13755f	-0.036000606
43	0x3e1b6f09	0.15179075
44	0x3998e2e9	0.0002916076
45	0x3d241cb9	0.040066455
46	0x3e7e8638	0.24855888
47	0x3dc6c5b8	0.097056806
48	0x3e8eacf7	0.27866337
49	0xbb8cf338	-0.004301455
50	0x3d12f78e	0.035880618
51	0x3e8a9417	0.2706611
52	0x3d59d4f5	0.053181607
53	0x3e5ed2dc	0.21760124
54	0xbd9d752d	-0.07688365
55	0x3ebf5777	0.37371418
56	0x3ee0ece3	0.4393073
57	0x3dcc0be7	0.09963208
58	0x3d8e0998	0.069354236
59	0x3df187ff	0.11793517
60	0x3f102c21	0.56317335
61	0xbce47a90	-0.027890474
62	0x3ea0501b	0.31311116
63	0x3ebfe828	0.3748181
64	0x3e0f62ab	0.14002483
65	0x3eaced63	0.33774862
66	0x3e743c8c	0.23851222
67	0x3e7d7dbd	0.24754997
68	0x3ddb499b	0.107073985
69	0xbcd1a6e8	-0.025592282
70	0x3e18c1e1	0.14917709
71	0x3cfcb450	0.030847698
72	0x3de77912	0.11302389
73	0x3da8d9c0	0.082446575
74	0x3ccc4a3e	0.024937745
75	0x3e17cd9e	0.1482453
76	0x3df75034	0.120758444
77	0x3ea8e944	0.32990468
78	0x3e7eaf0d	0.24871464
79	0x3d3f33a2	0.0466801
80	0x3d240870	0.04004711
81	0xbcb29a29	-0.021802025
82	0x3d617b4e	0.055049233
83	0x3e2f02a4	0.17090851
84	0x3ed3018c	0.41212118
85	0x3e256449	0.16151537
86	0x3d73133b	0.05934451
87	0x3ebe9846	0.3722555
88	0x3e53815a	0.20654812
89	0x3de80092	0.11328234
90	0xbd983910	-0.07432759
91	0x3dc5299c	0.09627077
92	0x3ecc6e94	0.39928114
93	0x3e28dc73	0.16490345
94	0x3d6322ca	0.0554531
95	0x3df27dad	0.11840377
96	0x3e811fcd	0.25219575
97	0xbbae42fa	-0.005318043
98	0xbd699eb1	-0.057036106
99	0x3db4a630	0.0882076
100	0x3e267f1a	0.16259423
101	0x3d09e77e	0.033668034
102	0xbcd9bb32	-0.02657852
103	0x3d3f3fab	0.046691578
104	0x3e6b6296	0.22986826
105	0x3d112517	0.035435762
106	0x3e162c09	0.14665236
107	0x3d85310b	0.06503495
108	0x3eb0ea86	0.34553927
109	0x3d961a65	0.07329253
110	0x3d6a5a91	0.057215277
111	0x3ec50d0c	0.38486516
112	0x3e559058	0.20855844
113	0x3e3298e4	0.17441136
114	0x3e4c5994	0.19956046
115	0x3b6ef749	0.0036463311
116	0xbd41b65a	-0.047293045
117	0x3ec67cc7	0.38767073
118	0x3e10d4da	0.14143696
119	0x3cab3dae	0.020903435
120	0xbd0ad58c	-0.03389506
121	0x3d949c12	0.072563305
122	0x3ea8409b	0.3286179
123	0x3dcf1f93	0.10113444
124	0x3e26ef78	0.16302288
125	0x3e9f12f2	0.31069142
126	0xbe2bf219	-0.16791572
127	0x3e2b7d6d	0.16747065
128	0x3d0fe807	0.035133388
129	0x3eaced6f	0.33774897
130	0xbe4b6ba9	-0.19865288
131	0x3eb1bf9e	0.34716505
132	0x3ed5a2f4	0.41725886
133	0xbe52f951	-0.20602919
134	0x3ea941f3	0.33058128
135	0xbe4396d0	-0.19100499
136	0x3ee0eeca	0.43932182
137	0xbd011324	-0.031512395
138	0xbef2e13d	-0.47437468
139	0xbe071a4f	-0.1319363
140	0x3e29f031	0.16595532
141	0x3eab1190	0.33411837
142	0xbdc841a8	-0.09778148
143	0x3e53760f	0.20650505
144	0x3dc94c04	0.09828952
145	0xbd29ccc1	-0.041455034
146	0xbdd963a2	-0.106147066
147	0xbe8b2286	-0.27174777
148	0x3eda5d2b	0.42649207
149	0xbe3b13e0	-0.182693
150	0xbe38aa63	-0.18033747
151	0xbdc4618e	-0.095889196
152	0x3ebb793e	0.36615938
153	0x3e5c36d6	0.21505293
154	0x3e3309f6	0.17484269
155	0x3edf9b27	0.4367306
156	0x3d44639f	0.04794657
157	0xbe3a262a	-0.18178621
158	0xbe5aae85	-0.21355636
159	0xbd8d6d88	-0.06905657
160	0xbdcbf5d1	-0.09958995
161	0x3ecdccf1	0.4019542
162	0xbe5cc684	-0.21560103
163	0xbdd47c38	-0.10375255
164	0x3ea508ee	0.32233375
165	0x3e82b064	0.255252
166	0x3ef8a537	0.4856355
167	0x3eff767b	0.4989508
168	0x3ec87cf7	0.3915784
169	0x3ee7347a	0.45157224
170	0x3ec50a94	0.38484633
171	0x3ece668a	0.40312606
172	0xbe39afa5	-0.1813341
173	0x3e9560cb	0.2917541
174	0xbe499645	-0.1968623
175	0x3b679688	0.0035337526
176	0xbdff3439	-0.124611326
177	0x3ed75da1	0.4206362
178	0x3e94220c	0.28932226
179	0x3e08ff08	0.13378537
180	0x3e83b751	0.25725797
181	0x3f2a43c9	0.6650968
182	0x3ea76c26	0.32699698
183	0xbf5d9fd5	-0.8657201
184	0xbe875670	-0.26433134
185	0x3bf26cf4	0.007398242
186	0x3e905341	0.28188518
187	0x3c602381	0.01368034
188	0xbe38708a	-0.1801168
189	0x3e9ac93a	0.3023165
190	0xbdd89abe	-0.1057639
191	0xbe6dc592	-0.23219898
192	0x3e9daa7a	0.30794126
193	0xbe4dd7e5	-0.20101888
194	0xbec5c7e8	-0.3862908
195	0x3f2e8857	0.6817679
196	0x3edb9831	0.4288955
197	0x3ef6c53e	0.4819736
198	0x3e1fb604	0.15596777
199	0xbd952e96	-0.07284276
200	0xbcbaf70e	-0.022822883
201	0x3ec25049	0.37951878
202	0x3eab5ef2	0.33470875
203	0xbe2e07a6	-0.16995105
204	0x3f03b82f	0.51452917
205	0xbf01f48c	-0.50763774
206	0x3c5c5f4d	0.013450456
207	0x3ed29190	0.4112668
208	0xbde823b0	-0.11334932
209	0x3eb56e9c	0.3543595
210	0x3e6fd12f	0.23419641
211	0x3d412a76	0.047159635
212	0xbe322c84	-0.17399794
213	0x3e653ae5	0.22385748
214	0x3ef9321a	0.48671037
215	0xbe61b89a	-0.22043076
216	0xbe269eb3	-0.16271476
217	0x3e9bf6d5	0.30461755
218	0x3ed2abd4	0.4114672
219	0x3e8e92f6	0.27846497
220	0xbe65bcd2	-0.2243531
221	0x3aa315f5	0.0012442457
222	0x3ea3c893	0.31988963
223	0x3ec5529f	0.38539597
224	0x3c5ecdfc	0.013598915
225	0x3e53728e	0.20649168
226	0x3e9f3b53	0.31099948
227	0x3eaf08a8	0.34186292
228	0xbe095166	-0.13409957
229	0x3e839055	0.25696054
230	0x3eee537a	0.46548063
231	0x3ebe3630	0.37150717
232	0x3e724c94	0.23662025
233	0x3e6e4db7	0.23271833
234	0x3ea7624d	0.32692185
235	0x3e654f30	0.22393489
236	0xbe0a42e4	-0.13502079
237	0x3ec95f21	0.3933039
238	0x3eded263	0.43519887
239	0xbde0fd35	-0.109857954
240	0xbd540f92	-0.05177266
241	0x3ec2681d	0.37970057
242	0xbda4c29b	-0.080449305
243	0x3eb3c8c0	0.35114098
244	0x3f017b22	0.5057851
245	0xbe2ffd96	-0.17186579
246	0x3e1e818c	0.15479106
247	0x3eb04de2	0.3443442
248	0x3e8e8355	0.27834573
249	0x3ec76c9b	0.38950047
250	0xbec7f0a0	-0.3905077
251	0x3e6fa853	0.23404054
252	0x3edfa516	0.43680638
253	0xbf0391b9	-0.5139423
254	0x3ea1347a	0.3148535
255	0x3e6dcb4a	0.2322208

generator.2.bias f4 [64]
0	0x3e0b93cc	0.13630599
1	0x3eba0f92	0.36340004
2	0x3d4f573a	0.050620295
3	0x3e2903cc	0.16505355
4	0x3e5d26fa	0.215969
5	0x3e5a3acf	0.21311496
6	0x3dee7e6b	0.11645206
7	0x3e09a882	0.13443187
8	0x3ee388b6	0.4444024
9	0x3e562681	0.20913126
10	0x3e058e5d	0.13042589
11	0x3f18d342	0.59697354
12	0xbdb08b71	-0.08620346
13	0x3d24968c	0.040182635
14	0x3e58d306	0.21174249
15	0xbdd6fb3f	-0.1049714
16	0x3e1c1497	0.1524223
17	0x3dbf3b7c	0.093375176
18	0x3e4f336a	0.20234457
19	0x3e323a6c	0.17405099
20	0x3d73bcae	0.05950611
21	0x3e5a05a3	0.21291213
22	0xbcc61a8a	-0.024182577
23	0x3b3ccc2d	0.0028808222
24	0x3e360e6a	0.17778936
25	0x3d0534dc	0.032521114
26	0x3db661c7	0.08905368
27	0x3e80183d	0.25018492
28	0x3e8dcc54	0.27694952
29	0x3d88e479	0.06684203
30	0x3d6e8541	0.05823255
31	0xbd9b7413	-0.07590499
32	0x3eed2a11	0.46321157
33	0x3e2fe9f7	0.17179094
34	0x3e95d793	0.29266033
35	0x3e32c5fa	0.17458335
36	0x3dff0936	0.12452929
37	0x3f1a380f	0.6024179
38	0xbd48cd31	-0.04902381
39	0x3d7a9c42	0.061184175
40	0x3df705b4	0.12061635
41	0x3e5a058c	0.21291178
42	0x3eb48290	0.3525586
43	0x3e9dd6a8	0.30827832
44	0xbceb938a	-0.028756876
45	0x3e59c96f	0.21268247
46	0x3e60a5aa	0.21938196
47	0x3ef24efc	0.47325885
48	0x3ca95752	0.02067152
49	0x3d675a8e	0.056482844
50	0x3dc061e0	0.09393668
51	0x3e24049f	0.16017388
52	0x3e8888fd	0.26667014
53	0x3d576487	0.052586105
54	0xbc54c413	-0.012986201
55	0x3d36d0e2	0.0446328
56	0x3e44cefc	0.19219583
57	0x3d8dc2fc	0.06921956
58	0x3e4b9426	0.19880733
59	0x3e7b4c79	0.24540891
60	0x3dc2e087	0.095154814
61	0x3e00e829	0.12588562
62	0x3dd3886e	0.10328756
63	0x3e612afd	0.21989055

generator.4.weight f4 [37, 64]
0	0xbe70683a	-0.2347726
1	0x3ea33136	0.31873482
2	0x3e28e97b	0.16495316
3	0x3dc21262	0.094761625
4	0xbdaa2637	-0.0830807
5	0x3dd79ffa	0.1052856
6	0xbda33815	-0.07969681
7	0xbe10c91b	-0.14139216
8	0xbecc6ca8	-0.39926648
9	0xbe7d846c	-0.24757546
10	0x3e5fe897	0.2186607
11	0xbda63a57	-0.08116596
12	0x3e4758b7	0.19467436
13	0x3e994418	0.29934764
14	0xbc5ace44	-0.013354842
15	0x3e32e16b	0.17468803
16	0xbdbe16c4	-0.09281686
17	0x3e00440e	0.12525961
18	0xbeaca8e4	-0.33722603
19	0x3d9082b9	0.07056183
20	0x3e5417a7	0.20712148
21	0xbd370bfd	-0.044689167
22	0x3e3fafab	0.18719356
23	0x3cee47a2	0.029086892
24	0xbb9c1c48	-0.0047641136
25	0x3db4cb54	0.08827844
26	0xbe17a3d8	-0.14808595
27	0x3e4839f0	0.19553351
28	0xbe2efb3f	-0.1708803
29	0x3d289bf0	0.04116434
30	0x3e09da55	0.13462193
31	0xba98c7a3	-0.0011656176
32	0xbde3cd1d	-0.11123107
33	0xbe38e37d	-0.1805553
34	0xbd19c247	-0.037538793
35	0xbe593ef6	-0.21215424
36	0x3e0c5250	0.13703275
37	0xbeb74a65	-0.35798946
38	0xbe0ea71e	-0.13930938
39	0x3e3f0980	0.18655968
40	0xbe703381	-0.23457147
41	0xbe66347b	-0.22480957
42	0xbce0fc88	-0.027464166
43	0x3d037f42	0.032103784
44	0x3dc95b9e	0.09831928
45	0xbd9b9ab1	-0.075978644
46	0xbe0df0b9	-0.1386136
47	0x3dbeecb9	0.09322495
48	0xbe4d3dd9	-0.20043124
49	0xbda4c2ab	-0.080449425
50	0xbbea161e	-0.00714375
51	0xbe2a5525	-0.16634043
52	0x3d464657	0.048406925
53	0xbdf1d36d	-0.118079044
54	0x3e2d748b	0.16938989
55	0x3d95694a	0.07295473
56	0x3d24694b	0.040139478
57	0xbda3e3a8	-0.08002406
58	0xbe92a115	-0.2863852
59	0xbe204885	-0.15652664
60	0x3d8c2d78	0.0684461
61	0x3d8549ba	0.06508203
62	0x3d798c62	0.060924895
63	0xbe13f022	-0.14447072
64	0x3c97c0b1	0.0185245
65	0x3e3491ce	0.17633745
66	0xbd1740eb	-0.036927145
67	0x3e40202c	0.18762273
68	0x3e11286a	0.14175573
69	0xbd170d6d	-0.03687804
70	0xbbe665ba	-0.0070311697
71	0xbe37a83f	-0.17935275
72	0xbe9d8d7e	-0.30772012
73	0xbdc3c722	-0.09559466
74	0x3da88de4	0.082301885
75	0xbe46406a	-0.1936051
76	0xbe865894	-0.26239455
77	0x3cbc4d7d	0.022986168
78	0x3d271fb1	0.040801708
79	0xbbc9d31a	-0.0061591985
80	0xbebfc5b0	-0.3745551
81	0xbd8b168f	-0.06791412
82	0xbc4939c8	-0.0122818425
83	0x3e1dd2f9	0.15412511
84	0xbda4ab1f	-0.08040451
85	0xbd2c3351	-0.042041127
86	0xbdeb7282	-0.1149645
87	0xbe54e560	-0.20790625
88	0x3c31c7eb	0.010850887
89	0xbd069f85	-0.032866973
90	0x3daf42a2	0.08557631
91	0xbdc1260e	-0.094310865
92	0xbd9f1dbc	-0.07769343
93	0xbe25674c	-0.16152686
94	0x3dee03a6	0.1162179
95	0xbd8d8c92	-0.06911577
96	0xbeeab891	-0.45843938
97	0xbddaa83f	-0.10676622
98	0x3d319df4	0.043363526
99	0xbdd4fa36	-0.103992864
100	0xbe6a3518	-0.22871816
101	0xbe1a7cff	-0.15086745
102	0xbd6a839b	-0.057254415
103	0x3e2547f4	0.16140729
104	0xbe968fbb	-0.29406533
105	0x3e45b488	0.19307148
106	0xbbc418cf	-0.0059844027
107	0x3e400a53	0.18753938
108	0xbd784349	-0.060611043
109	0xbe023d91	-0.12718798
110	0xbd43a5fe	-0.047765724
111	0xbdd02ba9	-0.101645775
112	0xbe37911f	-0.17926453
113	0xbe17fff8	-0.14843738
114	0xbe3fc633	-0.18727951
115	0xbe44cd99	-0.19219054
116	0xbe21c226	-0.15796718
117	0xbea43223	-0.320695
118	0x3d4a35a8	0.049367577
119	0xbe5c1a3d	-0.21494384
120	0xbe2d3072	-0.16913012
121	0xbe2943d4	-0.1652978
122	0xbce495b8	-0.027903423
123	0xbeb2419c	-0.3481568
124	0xbe6f6a8d	-0.2338049
125	0x3be929fb	0.0071156
126	0xbdd5c847	-0.104385905
127	0x3d87f792	0.06639017
128	0xbdbc17b5	-0.09184209
129	0x3e94466f	0.28959987
130	0x3e14ad36	0.145192
131	0x3dc4edef	0.09615695
132	0xbb6a5d4d	-0.0035761178
133	0xbd809664	-0.06278685
134	0xbb11a90d	-0.0022226006
135	0xbd4b9836	-0.049705707
136	0xbe2a7c61	-0.1664901
137	0xbe66e10c	-0.22546786
138	0x3dcebc05	0.10094456
139	0xbede32a2	-0.43398005
140	0x3ddcca22	0.10780741
141	0x3e7d455f	0.24733494
142	0xbcaaa22f	-0.020829288
143	0x3e84be73	0.2592655
144	0xbe279b19	-0.16367759
145	0xbe21972e	-0.15780327
146	0xbe0de106	-0.13855371
147	0x3e821768	0.25408483
148	0x3e10926e	0.14118358
149	0xbe55275a	-0.20815793
150	0x3d450421	0.04809964
151	0xbdd11149	-0.10208375
152	0xbd19625c	-0.03744732
153	0x3e126e29	0.14299835
154	0xbca9fdf3	-0.020750975
155	0xbe4feb1e	-0.20304534
156	0xbcd468d6	-0.025928896
157	0xbdd695f3	-0.10477819
158	0x3dfd692c	0.123735756
159	0xbda54ef8	-0.08071703
160	0xbe6325c1	-0.2218237
161	0xbd905a08	-0.07048422
162	0xbc6d68cc	-0.014490318
163	0xbe700b0f	-0.23441719
164	0xbe065b39	-0.13120736
165	0xbd8d9e10	-0.06914914
166	0xbde6da4c	-0.112721056
167	0x3dd6e6f7	0.10493272
168	0xbdf1bd90	-0.11803734
169	0xba467893	-0.00075710675
170	0x3d0f8d6b	0.035046976
171	0x3dc4fd70	0.09618652
172	0xbd0fc4be	-0.035099737
173	0xbe7e39c5	-0.24826725
174	0xbe78a98a	-0.24283424
175	0xbef1f3da	-0.47256356
176	0xbddc6d4b	-0.107630335
177	0xbe3cb215	-0.18427308
178	0xbda8e196	-0.08246152
179	0xbd4a511d	-0.049393762
180	0xbe3a8d8d	-0.1821806
181	0xbe63973b	-0.22225659
182	0xbc7c0a87	-0.015383369
183	0xbeadbbcd	-0.33932343
184	0xbe9a1abe	-0.30098528
185	0xbea24fc6	-0.31701487
186	0xbd1bcc5e	-0.038036697
187	0xbe24d65e	-0.160974
188	0xbe2f4436	-0.17115864
189	0xbdbf139e	-0.093299136
190	0x3d063495	0.03276499
191	0xbe03749b	-0.1283745
192	0xbe913cab	-0.28366598
193	0x3e0d50c4	0.13800341
194	0x3db701ec	0.089359134
195	0x3baff858	0.005370181
196	0x3cf32641	0.029681327
197	0x3cb70d57	0.022345228
198	0x3e166a24	0.14688927
199	0xbe32e211	-0.1746905
200	0xbe5d714e	-0.21625254
201	0xbe73331f	-0.2374997
202	0x3e00d008	0.12579358
203	0x3d861286	0.06546502
204	0x3e02c881	0.12771799
205	0x3da71faa	0.08160336
206	0xbd008252	-0.031374283
207	0x3e5c4c70	0.21513534
208	0xbe7f1f84	-0.24914366
209	0xbb60c548	-0.0034297276
210	0xbe4d865b	-0.20070784
211	0x3e9984a7	0.29984018
212	0x3e0a8381	0.13526727
213	0xbe01ac79	-0.1266345
214	0x3dbcfb04	0.09227565
215	0xbcdb0c17	-0.026739163
216	0x3db2b6d0	0.08726275
217	0x3e64ba73	0.2233675
218	0xbe61aadf	-0.22037838
219	0x3db2a543	0.087229274
220	0xbd1d9e42	-0.038481005
221	0xbbf92929	-0.0076037836
222	0x3d7edb8b	0.06222109
223	0xbd7ef124	-0.06224169
224	0xbe17fbd3	-0.14842157
225	0xbdd54ecf	-0.10415422
226	0xbd5bdb5c	-0.053675994
227	0xbebd265f	-0.36943337
228	0x3cc06a5b	0.023488214
229	0xbea32c29	-0.3186963
230	0x3d8076a6	0.062726304
231	0x3e641187	0.22272311
232	0xbdb9b2d1	-0.0906731
233	0x3cf65fed	0.030075038
234	0xbe91d8de	-0.2848577
235	0x3e0db38d	0.13838024
236	0x3d34be03	0.04412652
237	0xbe528c9a	-0.20561448
238	0xbe6a6efa	-0.22893897
239	0x3dff8b06	0.124776885
240	0xbd858dc8	-0.06521183
241	0xbe8ea8de	-0.2786321
242	0xbe2fbe2b	-0.17162387
243	0xbd9fdd0f	-0.078058355
244	0xbd22120b	-0.03956799
245	0xbeafb108	-0.34314752
246	0x3e03ff2a	0.12890306
247	0xbda8c3b1	-0.0824045
248	0xbde33a70	-0.110951304
249	0xbe0cb986	-0.13742647
250	0xbe010f6b	-0.12603538
251	0xbec053d4	-0.37563956
252	0x3dee95f6	0.116496965
253	0xbdd9e409	-0.106391974
254	0x3bf2aee6	0.0074061034
255	0xbe4c5746	-0.19955167

generator.4.bias f4 [37]
0	0xbe0e6c00	-0.13908386
1	0xbbf1deef	-0.007381312
2	0xbdececde	-0.11568616
3	0xbe0f09ee	-0.13968632
4	0xbd7cd46d	-0.061726023
5	0xbe48a2e8	-0.19593394
6	0xbe8317e7	-0.25604174
7	0xbe7c8ccf	-0.24663089
8	0xbcc150ae	-0.023598041
9	0xbce00945	-0.02734817
10	0xbe880ec8	-0.26573777
11	0xbdba3975	-0.0909299
12	0xbe2dda7c	-0.16977876
13	0xbe898b2c	-0.26863992
14	0xbda8af59	-0.0823657
15	0xbe1e3fcd	-0.15454026
16	0xbe05c2cd	-0.13062592
17	0xbd821495	-0.06351582
18	0xbe30bd53	-0.17259721
19	0xbe0b3e3f	-0.13597964
20	0x3da6bef2	0.08141889
21	0x3b331796	0.002732729
22	0xbe7369b2	-0.23770788
23	0xbe54403c	-0.20727628
24	0xbc14f5b2	-0.009091781
25	0xbdc1b4e2	-0.09458329
26	0x3ded1563	0.11576345
27	0xbd60837a	-0.054812886
28	0xbe33a38b	-0.17542855
29	0xbd17ed2a	-0.03709141
30	0xbc10e0cb	-0.008842657
31	0xbe58278d	-0.21108837
32	0xbe4d5852	-0.20053223
33	0xbd06d6f8	-0.032919854
34	0xbd67db2b	-0.0566055
35	0xbe1d610a	-0.15369049
36	0xbe02aa8b	-0.1276037

discriminator.0.weight f4 [64, 37]
0	0x3cc699c6	0.024243247
1	0xbd90fed4	-0.070798546
2	0xbe21a226	-0.15784511
3	0x3d81de67	0.06341248
4	0x3e172c5f	0.1476302
5	0x3e8fed0c	0.2811054
6	0x3d02c0e7	0.031922247
7	0xbcd47169	-0.025932984
8	0xbb751771	-0.0037398005
9	0x3cc0e663	0.023547357
10	0xbe25c212	-0.16187313
11	0x3e7e1e13	0.2481616
12	0xbd81862e	-0.06324421
13	0xbc1fa18c	-0.009743106
14	0xbe8d10ae	-0.27551788
15	0xbd92f9b9	-0.07176537
16	0x3dfceb57	0.12349575
17	0x3cb72a80	0.022359133
18	0x3d1c3a81	0.03814173
19	0x3e60b844	0.21945292
20	0x3ea9e9e5	0.3318626
21	0xba6c7a25	-0.00090208865
22	0x3d5fd908	0.054650337
23	0x3eda8116	0.4267661
24	0xbeda795d	-0.42670718
25	0xbec637f2	-0.38714558
26	0xbdec0448	-0.11524254
27	0x3e39303b	0.18084805
28	0xbe3be0ee	-0.18347523
29	0x3cd88f37	0.026435478
30	0x3e57d7dd	0.21078439
31	0xbe9e3c31	-0.30905297
32	0xbe9018cd	-0.28143921
33	0xbe1e19fd	-0.15439601
34	0x3e8b1b08	0.2716906
35	0xbd558c01	-0.05213547
36	0xbea42ae9	-0.32063988
37	0xbe340ac8	-0.17582238
38	0x3e8c7131	0.27430108
39	0x3c01e547	0.007928199
40	0xbeb612b8	-0.35561156
41	0x3e4f7361	0.20258857
42	0x3d986c8a	0.07442577
43	0xbd8937f5	-0.06700126
44	0x3dfb07fd	0.12257383
45	0x3d8aecba	0.06783433
46	0xbd8e1210	-0.06937039
47	0xbc149a1b	-0.009069945
48	0x3c9cbf3c	0.019134156
49	0xbd93af46	-0.07211165
50	0x3d9c736b	0.07639202
51	0xbecba7b4	-0.39776385
52	0xbe42504a	-0.1897594
53	0xbc95f509	-0.018305318
54	0xbe7a4060	-0.2443862
55	0xbeb45034	-0.3521744
56	0x3dfc0ab8	0.12306732
57	0x3e41760d	0.18892689
58	0x3e4a69b2	0.19766882
59	0xbbbd8db2	-0.0057847137
60	0x3e9dfb4c	0.30855787
61	0xbd9c7b22	-0.07640673
62	0x3e2484b5	0.16066249
63	0x3dde7d91	0.10863794
64	0x3d0901d6	0.033449017
65	0xbedf3bdc	-0.43600357
66	0xbdf2fcd0	-0.118646264
67	0xbe7dc473	-0.2478197
68	0xbaef2833	-0.0018246233
69	0xbf249a75	-0.6429818
70	0x3e027d30	0.12743068
71	0x3dbd60ca	0.09246977
72	0x3e2a5d35	0.16637118
73	0xbef272b7	-0.47353145
74	0xbda393bf	-0.07987165
75	0x3e4fc531	0.20290066
76	0x3b693535	0.0035584692
77	0xbda63ee8	-0.08117467
78	0x3d0ac815	0.03388222
79	0x3d85dce0	0.06536269
80	0x3d8bf6c8	0.06834179
81	0xbe222848	-0.15835679
82	0x3defeaac	0.11714682
83	0xbcda9dc9	-0.026686566
84	0xbe14722a	-0.14496675
85	0xbdc82e4c	-0.097744554
86	0x3e21ebd5	0.15812619
87	0x3dcac9cc	0.09901771
88	0xbe02a719	-0.12759055
89	0xbe95031d	-0.29103938
90	0xbea32d49	-0.31870487
91	0x3dd4d628	0.103924096
92	0x3d175f94	0.036956385
93	0xbb6dd939	-0.0036292805
94	0x3dfe4bb9	0.12416787
95	0xbd5a5cd1	-0.053311173
96	0x3ecbf948	0.39838624
97	0xbe50ab89	-0.20377935
98	0x3d3b9664	0.04579772
99	0x3dbeb9ab	0.09312757
100	0xbdbcaf77	-0.09213155
101	0xbebef7dd	-0.3729848
102	0x3d782fd4	0.060592487
103	0x3d014861	0.031563167
104	0x3e3e3035	0.18573077
105	0x3e881121	0.26575568
106	0xbe84299b	-0.25812992
107	0x3d8f1158	0.0698573
108	0x3dcc78ba	0.09983964
109	0x3e41fde5	0.1894451
110	0xbd9da071	-0.076966174
111	0xbea31a7b	-0.3185614
112	0xbed13d59	-0.40867117
113	0xbefd089c	-0.4942063
114	0xbef069d0	-0.4695573
115	0xbf391e76	-0.72312105
116	0x3e325825	0.17416437
117	0xbf1363fc	-0.5757444
118	0x3e1fe1f8	0.15613544
119	0x3e13abed	0.14421053
120	0xbf0b0613	-0.54306144
121	0xbe9d8553	-0.3076578
122	0xbe31a4fc	-0.17348093
123	0x3e12610c	0.14294833
124	0xbe0f6a52	-0.14005402
125	0x3ebfdb9d	0.3747224
126	0xbf07b1ee	-0.53005874
127	0x3d4aaeb0	0.049483
128	0x3e47392b	0.19455402
129	0x3d19a3c0	0.03750968
130	0x3e4a950e	0.19783422
131	0x3e95970e	0.29216808
132	0xbeb20fe7	-0.34777758
133	0x3ea802fe	0.32814783
134	0x3b1f1b29	0.0024277663
135	0xbef787fc	-0.48345935
136	0xbee35401	-0.44400027
137	0xbe86f88c	-0.263615
138	0xbeb071fa	-0.34461957
139	0x3dc47cff	0.095941536
140	0x3e9da99e	0.3079347
141	0xbeca9f5d	-0.3957471
142	0x3db3e5f0	0.087840915
143	0xbd2f44c8	-0.042790204
144	0xbf06bb36	-0.5262941
145	0x3e1c4fa1	0.15264751
146	0x3dd9abc2	0.10628463
147	0x3cf0b77a	0.029384363
148	0x3d1b75aa	0.03795401
149	0xbdee62cb	-0.11639937
150	0x3e167a2c	0.14695042
151	0x3a1e2865	0.0006033241
152	0x3d7529bf	0.059854265
153	0x3e4b61cb	0.19861524
154	0xbda18b3b	-0.07887884
155	0xbe4c5717	-0.19955097
156	0x3dc63c0e	0.09679423
157	0xbe8f9b95	-0.28048387
158	0x3e0e42d6	0.13892683
159	0x3da7b5fe	0.08189009
160	0xbe9195bd	-0.28434554
161	0xbd2d11c5	-0.042253274
162	0xbe91ecdf	-0.2850103
163	0x3e0b2ea1	0.13592006
164	0x3e2bf67b	0.16793244
165	0xbdd968f9	-0.10615725
166	0xbd3aeb58	-0.045634598
167	0x3e55b724	0.20870644
168	0x3e6c9fda	0.23107854
169	0x3e138328	0.14405501
170	0xbe57a88d	-0.21060391
171	0x3dc00701	0.09376336
172	0xbe81f65b	-0.25383267
173	0x3da7394e	0.08165227
174	0x3ae64442	0.001756795
175	0xbc928e79	-0.017890202
176	0xbcf6bad4	-0.030118383
177	0x3d5f1c9d	0.054470647
178	0xbe9a4071	-0.3012729
179	0xbc6d0491	-0.014466421
180	0xbe8f7e49	-0.28026035
181	0xbdb34d5d	-0.0875499
182	0xbe69e4aa	-0.22841135
183	0x3ee4a864	0.44659722
184	0x3cf96445	0.03044332
185	0xbebda0e1	-0.37036803
186	0xbdeda2b2	-0.11603297
187	0xbe76e4ac	-0.24110669
188	0xbec000d2	-0.37500626
189	0xbe9090a9	-0.28235367
190	0x3def9d2d	0.11699901
191	0xbed5b160	-0.4173689
192	0x3ea9664e	0.33085865
193	0x3dd08743	0.10182049
194	0xbe4e67d1	-0.2015679
195	0xbe2924d6	-0.16517958
196	0xbd017530	-0.0316059
197	0x3e0740ac	0.13208264
198	0xbe5b288d	-0.21402188
199	0x3e567a69	0.20945133
200	0xbea7659a	-0.32694703
201	0xbd9e1bed	-0.0772017
202	0x3dd53769	0.10410959
203	0x3c825d7d	0.01591372
204	0x3e638aca	0.22220913
205	0x3e7fcd78	0.24980724
206	0x3d87d01e	0.06631492
207	0x3dc73ef5	0.09728805
208	0xbc9e59a3	-0.019329851
209	0xbd93dbf6	-0.072196886
210	0xbdcc60f5	-0.099794306
211	0xbea6c0e5	-0.32569042
212	0xbebe3b0a	-0.37154418
213	0x3e2393fa	0.15974417
214	0x3e8b8aa6	0.27254218
215	0xbd2d5b9a	-0.042323686
216	0x3ea906cb	0.33012995
217	0xbdaf748f	-0.08567154
218	0xbea76db9	-0.327009
219	0x3e5fd4ca	0.21858516
220	0x3d66a9b2	0.056314178
221	0xbc1f7d5f	-0.009734481
222	0x3db86411	0.09003461
223	0x3e996fb0	0.29968023
224	0x3ecd9999	0.40156248
225	0x3e328fca	0.17437664
226	0xbd980f01	-0.07424737
227	0xbcc0714d	-0.023491526
228	0xbd063155	-0.03276189
229	0xbda8757e	-0.08225535
230	0x3e1b8bbe	0.15190026
231	0x3ce8488b	0.028354904
232	0xbe266b44	-0.16251856
233	0xbede420e	-0.4340977
234	0xbcd9e0ec	-0.026596509
235	0xbe0b84be	-0.13624856
236	0x3e41a858	0.18911874
237	0xbd09a88f	-0.033608016
238	0xbe897b8a	-0.26852065
239	0xbd881f14	-0.06646553
240	0xbe564103	-0.20923238
241	0xbbf0c1c4	-0.0073473174
242	0x3de5eec0	0.112271786
243	0xbe8a4e83	-0.27013025
244	0xbe0edd99	-0.1395172
245	0xbdca8501	-0.0988865
246	0xb7a7025e	-1.9909054e-05
247	0xbd8fcd2a	-0.07021554
248	0xbeafd2d1	-0.34340528
249	0xbdce36cd	-0.10069046
250	0x3d1d15b7	0.038350787
251	0xbda785df	-0.08179831
252	0x3e966a3c	0.29377925
253	0x3e820bc7	0.2539961
254	0xbcd42fd5	-0.025901714
255	0x3ec2ee88	0.3807261

discriminator.0.bias f4 [64]
0	0xbd9a5723	-0.07536151
1	0x3c8d4975	0.017246941
2	0x3debe592	0.115183964
3	0x3e52f0fe	0.20599744
4	0x3daa7f9e	0.08325122
5	0x3a5f75d1	0.0008524331
6	0x3cc7f42e	0.024408426
7	0x3d8d05f4	0.06885901
8	0x3d0e8aa9	0.034800205
9	0xbce04e4c	-0.027381085
10	0xbcd9db36	-0.026593786
11	0x3e840a2d	0.25789014
12	0x3e2a7f86	0.16650209
13	0x3d5116ac	0.051047012
14	0x3dd1e395	0.10248486
15	0x3d7cf2a2	0.06175483
16	0x3e8f11af	0.2794318
17	0xbd01c3a1	-0.031680707
18	0xbe2c67df	-0.16836499
19	0x3d98adab	0.074549995
20	0x3e6fed39	0.23430337
21	0xbe075da7	-0.1321932
22	0x3e378e9d	0.17925496
23	0x3e0f838b	0.14015023
24	0x3d42f11c	0.04759322
25	0x3e1395fd	0.14412685
26	0x3d185a3b	0.037195425
27	0x3e693c21	0.22776844
28	0x3d7e5184	0.062089458
29	0x3e1e01ef	0.15430425
30	0x3d9149f5	0.07094184
31	0x3cf4109e	0.02979308
32	0x3d3948f2	0.04523558
33	0x3e470dc2	0.19438842
34	0x3de2065e	0.11036371
35	0x3ce2c635	0.027682403
36	0xbecef64c	-0.40422285
37	0x3e0636ef	0.13106893
38	0x3e0f6e12	0.14006832
39	0xbc7303c1	-0.014832438
40	0xbd683420	-0.056690335
41	0x3db8c8d8	0.09022683
42	0xbc0edde6	-0.008719897
43	0x3d6a99bf	0.05727553
44	0x3e41a14e	0.18909189
45	0x3e561079	0.20904721
46	0x3d0bca19	0.034128282
47	0xbcfb24e1	-0.030657234
48	0x3e3f9429	0.18708862
49	0xbd096081	-0.0335393
50	0xbd42127d	-0.047380913
51	0xbc9c7882	-0.019100431
52	0x3e2f3462	0.17109826
53	0x3e3fddd7	0.18736969
54	0x3e47265f	0.19448231
55	0x3e28e0b2	0.16491964
56	0xbdc87dfc	-0.097896546
57	0x3db51e28	0.088436425
58	0x3cd16299	0.02555971
59	0x3df05f67	0.117369466
60	0xbd0529f8	-0.032510728
61	0xbe124d36	-0.14287266
62	0xbe298213	-0.16553526
63	0xbc81baa9	-0.015836077

discriminator.2.weight f4 [32, 64]
0	0xbd11cf7f	-0.035598274
1	0xbdd70118	-0.104982555
2	0xbcc8b2d0	-0.024499327
3	0x3c4c8660	0.012483209
4	0xbd96c8ce	-0.07362519
5	0xbbaddf54	-0.005306164
6	0x3c905cd3	0.017622387
7	0xbc2d3110	-0.010570779
8	0x3cafd45c	0.021463566
9	0xbdb18aad	-0.086690284
10	0x3dd95078	0.10611051
11	0x3dbbda8a	0.091725424
12	0xbdb47d92	-0.08813013
13	0x3b20f0c4	0.002455757
14	0x3ca56bac	0.020192944
15	0xbd4103e0	-0.047122836
16	0xbdbf1d6e	-0.09331785
17	0xbda50140	-0.08056879
18	0xbde77fd4	-0.11303678
19	0x3c839c01	0.0160656
20	0x3cd5a230	0.026078314
21	0x3dc3b094	0.09555164
22	0xbdd3b7bf	-0.10337781
23	0x3d31ec19	0.04343805
24	0xbd9d525e	-0.07681726
25	0xbe0372c7	-0.12836753
26	0x3d1ff371	0.039050523
27	0x3d6c6301	0.057711605
28	0x3da3c37f	0.07996272
29	0xbd9b848b	-0.0759364
30	0x3d1fb300	0.038989067
31	0xbd8dfe9d	-0.06933329
32	0x3d3d39ed	0.04619782
33	0xbd9bee4e	-0.076138124
34	0xbe094985	-0.13406952
35	0x3df0cfe0	0.11758399
36	0xbd94e857	-0.07270878
37	0xb95a0eac	-0.00020795566
38	0x3dcd4175	0.100222506
39	0xbda40ebc	-0.08010623
40	0xbdb3c313	-0.08777442
41	0x3d695dc6	0.056974195
42	0xbd38e811	-0.04514319
43	0xbd9897a1	-0.07450796
44	0xbd503141	-0.050828222
45	0xbdd89d4f	-0.10576879
46	0xbd19d35e	-0.03755509
47	0xbc9079e9	-0.017636256
48	0xbdeb3865	-0.11485366
49	0xbd63a978	-0.05558154
50	0x3d872642	0.06599094
51	0xbdae51d2	-0.085117
52	0xbd8aa917	-0.067705326
53	0x3d41eae1	0.04734314
54	0xbd829323	-0.0637572
55	0xbe020dee	-0.12700626
56	0xbd74d27b	-0.059771042
57	0xbc8ff2f9	-0.017571913
58	0x3d89a7f1	0.067214854
59	0x3d2f6e6e	0.042829923
60	0x3dec115a	0.11526747
61	0xbd753b93	-0.059871268
62	0xbd23dcdb	-0.040005546
63	0x3dc382a8	0.09546405
64	0xbe541991	-0.20712878
65	0xbe60c71f	-0.21950959
66	0x3c5185fa	0.01278829
67	0x3e91948f	0.28433654
68	0xbe64554f	-0.22298168
69	0x3eae5852	0.34051758
70	0xbe2ebfdb	-0.17065375
71	0xbe61f283	-0.22065167
72	0xbeecb49f	-0.46231553
73	0xbec2e481	-0.3806496
74	0x3d9f2c71	0.077721484
75	0x3dc999fa	0.09843822
76	0xbf0409bb	-0.5157735
77	0xbd9a861a	-0.07545109
78	0xbdbbe76b	-0.09174999
79	0xbe0542c4	-0.1301375
80	0xbd2fcd69	-0.042920504
81	0xbea734ff	-0.3265762
82	0xbcf53096	-0.029930394
83	0xbeaefbca	-0.34176475
84	0x3ef60cf1	0.48056749
85	0xbcc69544	-0.024241097
86	0x3d95373f	0.07285928
87	0x3e059b6c	0.1304757
88	0x3d86e1c0	0.06586027
89	0xbe784d75	-0.24248298
90	0xbe71b2de	-0.23603389
91	0x3e171a97	0.14756237
92	0xbcc93fa6	-0.024566483
93	0x3e3da5c4	0.18520266
94	0x3d1134d5	0.035450775
95	0x3e34b852	0.17648438
96	0x3e02be44	0.12767893
97	0xbdfb7bcf	-0.12279474
98	0x3e9d6280	0.30739212
99	0xbe9dffc2	-0.3085919
100	0x3e9c5b6c	0.305385
101	0x3dcd1bb7	0.10015052
102	0xbef7bfe2	-0.48388582
103	0xbe097af4	-0.13425809
104	0x3c693093	0.014232772
105	0xbe89859d	-0.2685975
106	0xbe770967	-0.2412468
107	0x3de91156	0.1138026
108	0xbe5ac6a6	-0.21364841
109	0xbd4e29ce	-0.050332837
110	0x3d5356cb	0.051596444
111	0xbeff10c0	-0.49817467
112	0xbd29b420	-0.041431546
113	0x3e5672f0	0.20942283
114	0xbe803f30	-0.25048208
115	0x3d27006d	0.04077189
116	0xbec2821b	-0.37989888
117	0xbe0515f4	-0.12996656
118	0x3cf0123f	0.029305575
119	0x3e4c6601	0.19960786
120	0xbd2b9bf6	-0.041896783
121	0xbea4a286	-0.32155246
122	0xbddc0bb8	-0.10744423
123	0xbe68bacb	-0.22727506
124	0x3da21455	0.07914034
125	0xbee29d9c	-0.4426087
126	0x3e44dc1d	0.19224592
127	0xbeaddc56	-0.33957165
128	0xbe00e1da	-0.12586156
129	0xbeecebce	-0.46273655
130	0x3cddeba5	0.027089903
131	0x3eccdd29	0.40012482
132	0xbe81209b	-0.25220188
133	0x3e0c1981	0.13681604
134	0xbeb93cf4	-0.36179316
135	0xbddfd263	-0.109288
136	0xbf01c300	-0.5068817
137	0xbf1acaab	-0.60465497
138	0x3d0af756	0.033927284
139	0xbbcc8f0e	-0.0062426394
140	0xbf250fac	-0.6447704
141	0x3c6716c2	0.014104547
142	0xbdcff737	-0.10154574
143	0xbe025ce7	-0.12730752
144	0x3d4fb7a7	0.050712254
145	0xbe5b72d5	-0.21430524
146	0xbc48f9d2	-0.012266593
147	0xbe211e44	-0.15734202
148	0x3e9e4cdd	0.30918017
149	0x3e5b74ed	0.21431322
150	0x3dd5892e	0.104265556
151	0x3dfa5934	0.122240454
152	0x3e075758	0.13216913
153	0xbe9562ab	-0.2917684
154	0xbead6229	-0.33863953
155	0x3e05df96	0.13073573
156	0x3ad03af4	0.001588671
157	0x3e866b55	0.26253763
158	0xbd562d83	-0.052289497
159	0x3e129b1f	0.14316987
160	0x3e42d4db	0.1902651
161	0xbe4564d6	-0.19276747
162	0x3e8b3b44	0.27193654
163	0xbeaccf2c	-0.3375181
164	0x3ec5c719	0.38628462
165	0x3e8206da	0.25395852
166	0xbf27d6f2	-0.65562356
167	0x3c898161	0.016785325
168	0x3c0d3fb8	0.008621149
169	0xbe561c37	-0.209092
170	0xbd57d81e	-0.05269634
171	0x3d8a212c	0.06744608
172	0xbdc23af8	-0.09483904
173	0x3d90afd3	0.07064786
174	0x3e304055	0.1721204
175	0xbf296b0f	-0.66178983
176	0xbe8f388d	-0.27972832
177	0x3e0b09d2	0.13577965
178	0xbe344987	-0.17606173
179	0x3e0ae464	0.13563687
180	0xbf1b9ca7	-0.6078591
181	0x3c674e07	0.014117724
182	0xbc8a746a	-0.016901214
183	0x3d5585d3	0.052129578
184	0xbdf7a978	-0.120928705
185	0xbee39dc5	-0.44456306
186	0xbe0c6fb7	-0.13714491
187	0xbd35d9ce	-0.044397168
188	0xbd1f2897	-0.03885707
189	0xbeb80e8b	-0.35948595
190	0x3e21e6f0	0.15810752
191	0xbeba4ff4	-0.36389124
192	0xbe02d7d4	-0.12777644
193	0xbdc1c4d8	-0.09461373
194	0xbd328614	-0.043584898
195	0x3e6f6d2c	0.2338149
196	0xbe6171b0	-0.22016025
197	0x3e438572	0.19093874
198	0xbe27b48c	-0.16377467
199	0xbd8b15d2	-0.06791271
200	0xbec03231	-0.37538293
201	0xbda1f003	-0.07907107
202	0xbb908d70	-0.004411392
203	0xbda688ad	-0.081315376
204	0xbe865926	-0.2623989
205	0xbea9c227	-0.3315594
206	0xbe4bf6d1	-0.19918372
207	0xbe5e9e85	-0.21740158
208	0x3d8f506d	0.06997762
209	0xbed8d67f	-0.42351148
210	0xbc727a7a	-0.0147997085
211	0xbe8c24a6	-0.2737171
212	0x3de64949	0.11244447
213	0x3db6eab0	0.08931482
214	0x3e23ed18	0.16008413
215	0x3e0dc81a	0.13845864
216	0x3d654748	0.055976182
217	0xbe8e991b	-0.27851185
218	0xbdcc4cd8	-0.09975594
219	0x3d8fdeee	0.07024942
220	0x3dbe4620	0.09290719
221	0x3cb2f0b7	0.021843297
222	0xbc64926a	-0.013950923
223	0x3e4e0984	0.20120817
224	0xbca65585	-0.02030445
225	0x3d2f4d88	0.04279855
226	0x3eaccd0f	0.33750197
227	0xbea61bdf	-0.3244314
228	0x3e2cd0a1	0.1687646
229	0x3d72dd14	0.059292868
230	0xbea29955	-0.31757608
231	0x3d94fed2	0.072751656
232	0xbba1e7c4	-0.0049409587
233	0xbd0fcdd9	-0.03510842
234	0xbe303138	-0.17206275
235	0x3e1a9997	0.15097652
236	0xbced475b	-0.028964689
237	0xbe26831f	-0.16260956
238	0xbdb12356	-0.08649318
239	0xbe2c4a15	-0.16825135
240	0x3ab11f01	0.0013513268
241	0xbd304606	-0.04303553
242	0xbe8284bb	-0.2549189
243	0x3d13a913	0.036049914
244	0xbe356995	-0.17716058
245	0xbe5b9c2f	-0.21446298
246	0xbd8f6faf	-0.07003724
247	0x3cd9a4b0	0.026567787
248	0x3e2ddc18	0.1697849
249	0x3c875dc6	0.016524207
250	0xbc9c6ad9	-0.019093918
251	0xbe8b7057	-0.27234146
252	0xbdbaef13	-0.09127631
253	0xbea120ca	-0.3147033
254	0xbdfca628	-0.12336379
255	0xbdc517ea	-0.09623702

discriminator.2.bias f4 [32]
0	0xbd86ff83	-0.06591704
1	0x3dc9eccb	0.09859618
2	0x3d9af2a6	0.07565813
3	0xbdddc3c5	-0.10828356
4	0x3d9a2dee	0.07528292
5	0xbde07703	-0.109602
6	0xbd5caf5f	-0.053878184
7	0x3dffbee1	0.12487579
8	0x3d881bf4	0.06645957
9	0xbc42a1ad	-0.011879367
10	0x3d883a96	0.066517994
11	0x3e1a5cf8	0.15074527
12	0xbc872570	-0.016497344
13	0x3d0a5d0a	0.033780135
14	0x3d94363a	0.072369054
15	0xbdbc9439	-0.09207959
16	0x3ceef411	0.029169114
17	0x3bee1f58	0.00726692
18	0x3da7da54	0.0819594
19	0xbd93cb6e	-0.072165355
20	0x3e2fb447	0.17158614
21	0x3d8340bb	0.06408831
22	0xbdf1997a	-0.117968515
23	0x3e17813f	0.14795397
24	0xbc8f0fa1	-0.017463507
25	0x3b910ca9	0.004426558
26	0x3b87d2a6	0.0041449843
27	0x3da599c2	0.080859676
28	0x3c3e4dc5	0.011615221
29	0xbbebffd8	-0.00720213
30	0x3daba2a9	0.08380634
31	0xbdc59b35	-0.09648744

discriminator.4.weight f4 [1, 32]
0	0xbc7b2f1f	-0.015331059
1	0xbecc3715	-0.39885774
2	0xbee8844a	-0.4541343
3	0xbe92884d	-0.28619614
4	0x3f2a47af	0.6651563
5	0xbbec3df8	-0.0072095357
6	0x3ee3f82e	0.44525284
7	0xbf03dcb1	-0.51508623
8	0xbef80c6c	-0.48446977
9	0x3e2e8979	0.17044629
10	0x3e743d9d	0.23851629
11	0xbebe68ac	-0.37189233
12	0xbd44df06	-0.048064254
13	0x3f06dde7	0.52682346
14	0xbee28071	-0.44238618
15	0xbe1f7c4e	-0.15574762
16	0x3eb183ea	0.34670955
17	0x3ed2a6ad	0.4114279
18	0x3ed9b235	0.42518774
19	0xbd80ae45	-0.06283239
20	0xbebd1a09	-0.36933926
21	0xbefd9dc9	-0.49534443
22	0xbcf65a03	-0.030072218
23	0xbf0d5447	-0.5520672
24	0xbebca5c5	-0.36845222
25	0x3ec2e7b9	0.38067415
26	0xbec2de17	-0.38060066
27	0x3f086936	0.5328554
28	0xbcdc6104	-0.02690173
29	0x3eae8daa	0.34092456
30	0x3eda8569	0.4267991
31	0xbdcc9144	-0.09988645
