models/2025-08-29/lstm_model.onnx (onnx, 465348 bytes, 6 tensors)

fc.weight f4 [7, 256]
00000000: 4c56 a83d 088b 1e3e 7023 8f3d e50c fb3d
00000010: b7cc 2f3d 6c1f 4b3d bd66 8d3d 998d dfbd
00000020: cf0a a4bd 80b0 a1bd cebd a33c 5bca 9b3e
00000030: 7700 1a3e 75d7 af3c 373a b83c 7691 84bd
00000040: 973e 903a 23c9 d43c c899 85bc bc0b b73d
00000050: cfe4 2cbd 7695 54bd 864c dd3b 071b a1bd
00000060: 1f06 ccbd 0549 9c3c d12a 8fbd 6d18 db3d
00000070: 89e1 70bd 6da1 9e3d 4df1 4e3c fd4e 7d3b
00000080: b895 883b ca50 763d 7c45 683d 7042 5f3d
00000090: 9cfc dc3c e0bb 34bd 75b4 7a3c ed27 bbbd
000000a0: 99d9 f0bd e745 80bc 83b8 e23d e8cf 243c
000000b0: 0968 b43c f444 8cbc 135b 2f3b d540 3abc
000000c0: 47b2 d83d d50c 3dbc 0323 cd3d 4b84 cd3d
000000d0: 09bf 1d3c 51de 6f3d 0b20 503b d68f 40bc
000000e0: ac2a bd3d fcc9 eebb 887f 0abd b7b2 f3bc
000000f0: fd8d 933c b9da 183c ed31 e1bd 6713 893d
00000100: 21cb d03c 095d 45bb d994 b53d 654c c4bc
00000110: b7b0 773c 8041 0c3d 4bc1 aa3b 63d2 3bbd
00000120: e80c 973b 3320 d7bc 562f 8b3d 6f8a 2c3d
00000130: d5cd ac3c c700 58bd 74c7 8ebd dbf1 e5bc
00000140: f78e 7cbd 68ba fe3c 396a 90bd 8f96 733d
00000150: fe8b 123c a385 c4be 428c d2bd bc6a bd3d
00000160: d3a0 a5bc 657f 02bd 3377 94bc 00ca cabc
00000170: 7434 c33d ce16 183d 3b49 e63c 109d 113d
00000180: acc2 efbd 7d86 e0bb a168 0b3d 82c4 1b3d
00000190: ca7b 1bbd f4f8 cd3d 0e75 f33d 600b 5d3b
000001a0: c018 013d 2178 4cbd 9ab9 a5bc 1b6c 52bd
000001b0: 4feb 193c 8031 efbb 877a e43d 3415 01be
000001c0: 1669 1e3e cef5 a33c 6781 b3bc d40a 54bd
000001d0: ca92 2bbd 8b7e ce3d 10ec 5c3d 7701 5c3d
000001e0: 77da 2abd 8f9c 843d f76c 463d 3db4 80bd
000001f0: 4239 18bc 2fb9 823c c0b5 cfbd 097a 95bd
00000200: b0aa 283d f130 7d3d 4c4d 88bc af76 3e3c
00000210: 76a9 83bd 4cb2 e6bd 328c e8bd a13d 27bd
00000220: cdcc 9c3e d3f7 053d 97a7 1ebc bc01 86bd
00000230: 6e20 87bc 4578 19be 800b dcbc ebc5 39bd
00000240: e34b 1abc 9238 d1bd 0abc 0f3d 3304 85bd
00000250: cce1 323e 24f7 893c b2da 5c3c 92fe 47bd
00000260: 41a8 383d 7a39 e3bd a609 7dbd 24c8 123d
00000270: 2b0d e8bc e5d9 d2bd 69a4 283d af24 c03d
00000280: 15c1 23bd 92bb 8e3d f6e3 94bd 20f1 cabd
00000290: 46cc 983e d4bb 07bd f629 76bd 8609 c33d
000002a0: eb09 87bd fe14 22bb 2b8f ab3c b0ed 053d
000002b0: 9e71 3d3c 2352 a83d d986 65bc ede9 ff3b
000002c0: dd08 f8bc 8b22 b93c ca37 61bc d1e3 0e3e
000002d0: d568 ed3c 0cab e93d 83e7 47bd a214 2a3d
000002e0: b3ab 43bd 5139 943d ea42 afbc 5573 bcbd
000002f0: 9efb 103d 6729 c63c 27a1 bcbb 3579 063d
00000300: 2480 ba3d a699 b0bd 81de c5bb 98fb 9f3d
00000310: fcf3 2cbd f6c0 cb3c d2c3 ccbc 09cc e33d
00000320: 0585 253a 39a7 833d 4159 4fbd 1b81 95bb
00000330: 181b 2f3e b989 11bc 64fd 8cbd f9d1 603d
00000340: 6279 01bd d8ce cd3c b174 88bd 8dc0 0abd
00000350: 5517 b93c dfb3 97bc adcb 2b3d cc84 623d
00000360: 3c66 9c3c 2464 253d 0096 a6bd 6e1f e93d
00000370: 13e7 c03d d06d 613d e974 ffbb 110f a5bc
00000380: 1132 a4bd 3310 acbc 1b25 fabc d146 58bd
00000390: 79fc 733c cffe 81bd 0533 24bc b855 5cbd
000003a0: b80e d9bd 367e bb3d 2ff4 cbbd 3a94 b83d
000003b0: ffe7 283d 5ddf ad3d 0aed 6b3b 24e4 a83d
000003c0: 8585 cabd 83d1 6a3c f0bc 313d cc6e 52bd
000003d0: fdcd 863d accb cc3c b5b8 11bd 6a9e 9abd
000003e0: df70 8abd 8421 debd 217a 11be 5898 18bd
000003f0: 45e9 923c 0208 77bd 470e d8bd 5a05 423c
0.08219585 0.15482724 0.06989181 0.12258319 0.04291984 0.049590513 0.069043614 -0.109156795
-0.08009874 -0.07894993 0.019987967 0.30427822 0.1503924 0.021465043 0.022488697 -0.06473057
0.0011004981 0.025974816 -0.01630868 0.08937785 -0.042210396 -0.05190035 0.006753507 -0.07866483
-0.09962105 0.019077787 -0.069905885 0.10698018 -0.058808837 0.07745633 0.012630773 0.0038651817
0.0041682385 0.06013564 0.05670689 0.05450672 0.026975922 -0.044124484 0.015301813 -0.091384746
-0.117602535 -0.015658332 0.11070349 0.010059334 0.022022264 -0.017122723 0.0026757165 -0.011367996
0.10580879 -0.011538704 0.100164436 0.100349985 0.009628066 0.058561627 0.003175738 -0.011753043
0.09236655 -0.007287262 -0.03381303 -0.029748304 0.018012041 0.009329491 -0.10995851 0.06693154
0.025487484 -0.0030115268 0.08866281 -0.023962209 0.015117816 0.034242153 0.0052110306 -0.045854937
0.004609693 -0.026260471 0.06796138 0.042124208 0.021094242 -0.052735116 -0.069716364 -0.028069427
-0.06165978 0.031094745 -0.0705151 0.059469756 0.00894451 -0.38383207 -0.10280658 0.092488736
-0.020218289 -0.031859774 -0.018123245 -0.024754524 0.09531489 0.037131123 0.02811109 0.035550177
-0.117070526 -0.0068519698 0.03403533 0.0380292 -0.03795985 0.1005725 0.11887561 0.0033728704
0.031517744 -0.04991925 -0.020230103 -0.05137263 0.009394481 -0.007299602 0.11156183 -0.12605745
0.15469775 0.02001467 -0.02191229 -0.05176814 -0.041888036 0.1008273 0.053936064 0.053712334
-0.04171225 0.06475174 0.04844376 -0.06284378 -0.009290995 0.015957443 -0.10142088 -0.07298667
0.041178405 0.061814252 -0.01663842 0.011624976 -0.064288065 -0.11264476 -0.11354865 -0.04083026
0.30625 0.032707047 -0.009683511 -0.065432996 -0.016494956 -0.14987285 -0.026860952 -0.045354765
-0.009417507 -0.10215868 0.035091437 -0.064949416 0.17468947 0.016841479 0.013479875 -0.04882676
0.045082334 -0.11094947 -0.06177678 0.0358354 -0.028326591 -0.10295466 0.04117242 0.09381997
-0.03997906 0.0696937 -0.072700426 -0.09909272 0.29843348 -0.03313811 -0.06009861 0.09523301
-0.065936886 -0.002473175 0.020942291 0.03269738 0.011562733 0.08218791 -0.014009201 0.0078098685
-0.030277664 0.02259948 -0.013746211 0.13954093 0.028980652 0.11409578 -0.04880477 0.041523583
-0.047771167 0.07237495 -0.021394212 -0.09201685 0.03539621 0.024189664 -0.0057565155 0.032830436
0.09106472 -0.08623056 -0.0060384874 0.078116596 -0.04222487 0.024872284 -0.024995718 0.11122901
0.0006314072 0.064283796 -0.05062223 -0.0045625097 0.17100179 -0.008882933 -0.06884268 0.054887746
-0.0316099 0.025123045 -0.06662882 -0.033875037 0.022594133 -0.018518386 0.041942287 0.055302426
0.019091718 0.040378705 -0.08134079 0.11382948 0.09419074 0.055036366 -0.007795919 -0.020148786
-0.08017362 -0.021003818 -0.030535271 -0.05280191 0.014891737 -0.06347429 -0.01002193 -0.053792685
-0.105985105 0.09154932 -0.09958684 0.09012647 0.041236874 0.08489869 0.003599944 0.08246639
-0.09888748 0.014332178 0.043393075 -0.051375195 0.06582258 0.024999462 -0.03557654 -0.07549746
-0.0675981 -0.10846236 -0.14206745 -0.03725466 0.017933497 -0.06031037 -0.10549598 0.011842096

fc.bias f4 [7]
00000000: 9042 893d c3c8 1c3b 9d0b bf3d 5d4a ad3c
00000010: 7589 f83d d726 ee3d f24e 2d3e
0.06702149 0.0023923374 0.09328387 0.021153623 0.12135593 0.11628502 0.16924646

onnx::GRU_197 f4 [2, 768]
00000000: 976f 4ebe f62c 18be 9237 adbd 2589 60bd
00000010: f814 34be 8e8f 5abe d2bb 28be 1994 5bbe
00000020: 25bc 8fbd 0b21 6abe ffdf 5bbd cb97 f9be
00000030: 2dbf 61be a47b 9abd 9ce2 69be 4ee5 8abd
00000040: 46f9 35be 046d 61be 43cd 6cbd 515a ccbd
00000050: 4068 bfbd 9ed5 70be b4b8 86bd e5e6 71be
00000060: 9c46 09be 3c03 6fbe 7071 b5bd e65f 07be
00000070: afb6 63be e7d3 d0bd 2407 04be 66d5 b5bd
00000080: 13a1 21be d0a6 afbd e571 02be ace3 46be
00000090: f82a fdbd dc84 05be e87c f0bd a914 38be
000000a0: f17b f1bd 562d d6bd 544f 58be 4b7d fdbd
000000b0: 33ca f7bd 0b68 53be 671e 25be 3fb1 1cbe
000000c0: 2801 5abe 0d2e 42be c545 3dbe 181f 18be
000000d0: d7bb c8bd f95d 4dbe 1df5 14be 5453 e7bd
000000e0: f126 06be d1d3 07be 56c6 44be bec1 08be
000000f0: a94c e4bd ab33 06be f264 e3bd bee6 3cbe
00000100: 0504 11be be66 0bbe e16e 00be 23d2 a5bd
00000110: 647a 53be c796 a3bd ac4a c5bd 41b9 46be
00000120: c0cd 2dbe 0a46 4dbe 9128 4dbe 0e84 88bd
00000130: 2132 0fbe 5508 32be 49b3 f1bd 2ba6 29be
00000140: a4fa 66be bc6a 2ebe 20a0 1fbe 904f eebd
00000150: 37c3 6bbe e8cd a7be e021 a0bd abce 6bbe
00000160: 73af a6bd 5689 95bd 5e22 26be 6833 19be
00000170: b7e3 36be 44b5 2bbe 9558 27be 8025 65be
00000180: 0769 e8bd b24f 5bbe a5d8 62be 171e 80bd
00000190: 0ec3 29be 8614 96bd b0b4 20be a07c 61be
000001a0: 8a92 60be 0448 0dbe ced7 17be 7611 67be
000001b0: 7c72 b0bd 759b e6bd acbe 46be 0661 35be
000001c0: 3dc0 c7bd eb56 08be ac09 18be 4801 5ebe
000001d0: cb84 26be 70a9 e8bd 58ed b4bd ea6b 66be
000001e0: b30e dcbd c827 adbd 2115 03be d5ba 28be
000001f0: c747 e2bd 31a1 3abe 085b 3ebe 6151 27be
00000200: fec4 523e 8659 a5bd d273 2dbd 4847 ccbd
00000210: 2fa1 f93d 1d0a c03d cee8 d63c 4d52 a33d
00000220: daf9 303c 1f19 003e 4187 85bd 2393 17be
00000230: 6372 72bd a7e4 e13c 21f7 f5bc cfa9 cc3d
00000240: 9031 563e 6faf 173d 3bbf c43d 2ce6 54bc
00000250: 69e9 313e be24 10bd 8e0f fdbc 0380 d23d
00000260: 0579 123e badc b5bd 1291 003e 25aa 563e
00000270: 81c3 a03a 632c 513d c2b1 95bc 97c7 e53c
00000280: 7a06 a13b 3722 40bd fcad 513d 47a6 773d
00000290: b996 773d 1549 a1bb 5a4c 263d 1714 9a3d
000002a0: 8bcd febd ab25 273e 57ca 5bbd 3b0d fbbc
000002b0: 0b34 de3c e330 b83d 8da4 183e e23e 3d3e
000002c0: ef65 823d 223e 0a3e b8bf 153d e9d5 573d
000002d0: e4b5 0abe 9452 3c3d 1dcd 503e c620 153e
000002e0: 646d 003e 1345 353e 65d3 503d da88 25be
000002f0: 3637 093e 7496 f03c 487e 023e d4a8 eb3d
00000300: 1429 683d f830 24bc c2d4 3b3e a650 df3a
00000310: 3224 3e3d 3b77 323d e5c6 3a3d 9a9e dc3d
00000320: 4903 213e 861b 023e 3802 2d3d 51cd 823d
00000330: 834b 0f3d e136 c63c a799 053e 983a 1a3d
00000340: 174f 6bbc aed6 da3c b16c ef3d d4a7 9a3c
00000350: 48d1 0c3e c005 19be 919b 863d 6f85 64bc
00000360: 67bb 1d3e 561f 073e 04af d73d f742 fa3c
00000370: 1614 b7bd dab8 363d 1275 723d 0257 e1bd
00000380: 0931 423d 1a04 8a3d 2375 f93c 1b1f 613d
00000390: ebdd 063e f5a7 6abd fd82 eabb 9b7f 383d
000003a0: b037 103e baa5 e33d f6cc a9bb c312 263e
000003b0: 1e51 d23d 6ac5 bf3d 7365 b33c 9c20 febd
000003c0: ae46 0abe 85ff 85bd 9d89 1f3e 2a6e fa3d
000003d0: d097 4e3d 8667 133d 740c e43d b5d7 163d
000003e0: ec16 4e3e f643 eb3d b022 a33d 6093 dcbd
000003f0: 8a56 373e ef28 863d 611c 91bd 7da2 57bd
-0.20159756 -0.14860901 -0.08457865 -0.05481829 -0.17586124 -0.21343824 -0.16477898 -0.21443214
-0.070183076 -0.22864167 -0.053680416 -0.4874862 -0.22045584 -0.07543114 -0.22840351 -0.06782018
-0.17770872 -0.22014242 -0.05781294 -0.09978164 -0.09346056 -0.23518988 -0.06578198 -0.23623236
-0.13405842 -0.23341078 -0.08859527 -0.13220176 -0.22237657 -0.10196667 -0.12893349 -0.08878593
-0.15784101 -0.08576739 -0.1273876 -0.19422787 -0.12361711 -0.13038963 -0.11742574 -0.17976631
-0.11791218 -0.10457866 -0.21124011 -0.12377413 -0.12099113 -0.20645158 -0.16124879 -0.15301989
-0.21289504 -0.1896288 -0.18483646 -0.14855611 -0.098014526 -0.20055379 -0.14546628 -0.112951905
-0.13100792 -0.13264395 -0.19216284 -0.13355157 -0.11147434 -0.13105647 -0.11103238 -0.18447396
-0.1416169 -0.13613412 -0.12542297 -0.08096721 -0.20652157 -0.07987743 -0.09633383 -0.19406606
-0.16973019 -0.20046249 -0.20035006 -0.066658124 -0.13983966 -0.17385991 -0.11801774 -0.16567294
-0.2255655 -0.17032903 -0.15588427 -0.11636269 -0.23023687 -0.32774282 -0.07818961 -0.23028056
-0.08138933 -0.073015854 -0.16224048 -0.14961016 -0.17860304 -0.16768366 -0.16342385 -0.22377586
-0.113481574 -0.2141712 -0.22152956 -0.06255739 -0.16578314 -0.07328133 -0.15693927 -0.22020197
-0.219309 -0.13797003 -0.14828417 -0.22565255 -0.08615586 -0.1126012 -0.19408673 -0.17712793
-0.097534634 -0.13314407 -0.1484744 -0.21680176 -0.16261594 -0.11360443 -0.08834332 -0.22502103
-0.10744991 -0.08454853 -0.12801029 -0.16477521 -0.11048847 -0.18225552 -0.18589413 -0.16339637
0.20582959 -0.08073716 -0.042346783 -0.09974533 0.121889465 0.09376929 0.026234057 0.07974682
0.010801757 0.12509583 -0.06519938 -0.14802222 -0.05919112 0.02757485 -0.030025067 0.09993326
0.20917344 0.03703254 0.09606787 -0.01299433 0.17374195 -0.03519129 -0.030891206 0.102783225
0.14303978 -0.08879991 0.1255534 0.20963342 0.0012265296 0.05106772 -0.018273238 0.028049273
0.004914102 -0.04690763 0.051191315 0.06046131 0.060446475 -0.004922042 0.04060016 0.07523363
-0.12441548 0.16322963 -0.053659763 -0.030645957 0.027124425 0.089936994 0.14906521 0.18481019
0.063670985 0.13500264 0.03655979 0.052694235 -0.13545948 0.04597719 0.20390745 0.14563283
0.12541729 0.17702131 0.05098285 -0.16165486 0.13399968 0.029368617 0.12743485 0.11506811
0.0566798 -0.010021441 0.1834288 0.0017037585 0.046421237 0.04357074 0.045599837 0.10772438
0.1572391 0.12705812 0.042238444 0.06386817 0.034984123 0.02419609 0.13046895 0.037653536
-0.014362118 0.026713695 0.11690653 0.018878855 0.1375171 -0.149436 0.06572641 -0.013947829
0.1540352 0.13195547 0.105314285 0.03054951 -0.08939378 0.044609882 0.05919368 -0.110029235
0.047410045 0.067390636 0.030451363 0.054961305 0.13170592 -0.057289083 -0.0071567283 0.04504357
0.14083743 0.11115594 -0.005181904 0.16218095 0.10269378 0.093638256 0.02189896 -0.124085635
-0.13503525 -0.06542877 0.15579839 0.122280434 0.05043775 0.0359874 0.11135188 0.036826808
0.20125932 0.11487572 0.079656005 -0.10770297 0.17904106 0.06550776 -0.07085491 -0.052645195

onnx::GRU_198 f4 [2, 384, 18]
00000000: 8aa9 07be d9c0 9ebe 40fe 84be a6f8 8cbe
00000010: ab34 c4bc 856b 91bb 1198 62bd b41d e4bd
00000020: 18d8 28be 97b4 08be 5123 75be 51fc 63be
00000030: bd91 8cbe 214b 4fbe 65c4 dabd 4e1f 37be
00000040: aeb1 f5bd 9814 2cbe 3a25 8fbd ff79 2dbe
00000050: 3063 85be 9de1 b0be c16f eabc 0fa6 b1bc
00000060: 0442 dabd f27b 9ebd 8f02 91be a27c 9bbe
00000070: 7e64 a6be 5bcb 16be ebb4 fabd f0d1 57be
00000080: c4db 51bd a1bb 93bd 8f33 a0bd b676 15be
00000090: c285 8cbd b2f1 8cbe 4213 48be 2ed2 30be
000000a0: a3dd 303d ef21 84bd b95b dcbd 0793 25be
000000b0: b3e5 28be f9dd 14be 09e1 aabe dc8b 08be
000000c0: 2a75 7dbe da13 93bd 78a0 10be 6015 dcbd
000000d0: a23a 6ebd ee69 d0bd 472d 01be 1604 aebe
000000e0: 9ec9 b0bd b8e8 26be d14f 5f3b 6ea9 a0bd
000000f0: 757f 1fbc 34fb c8bd e1ce 53bd 2c80 c23c
00000100: 9f3a d3be 4832 71bd eedf 89be b6e2 02be
00000110: ec66 3abe 5ff7 03be c60e fbbd 4f15 04be
00000120: a0ea 73be 6113 7cbe 43de 55be 16f8 49be
00000130: 7bfd 3abd 87a1 05be 5c76 50be dc0c 46be
00000140: 7399 18be dba6 bfbd 5e99 3abe 230e 69be
00000150: 29e1 54be 3f00 50be 6866 4ebe b431 06be
00000160: aa4f 38be 7825 6abe c5f0 62be e796 b2be
00000170: 5022 5cbd 063c aabd dc4f 0fbd 2911 11be
00000180: db9e 2bbe c6c9 4fbe 46da 1bbe a406 42bd
00000190: f67c 85be 7083 32be a010 56be ccb6 3ebe
000001a0: 197e 44be e3ee c0bd 9813 27be e102 ddbd
000001b0: 0963 90bd fcb6 afbe 58ac 3cbe 359c bebd
000001c0: b27c a3bd 07c4 c6bb 85b7 14be 9002 f0bd
000001d0: 0acd 37be 7676 1ebe 1954 95be 2e78 e0bd
000001e0: 5c68 52be d589 77bd d7f8 04be aa07 03be
000001f0: 883b d0bd 258f 20be 2552 11be ffce b3be
00000200: 28eb 5cbe 3f45 bbbd 498f 53bd 3b60 cfbc
00000210: 03d8 ccbd b3ff ffbd 2f00 4cbd e8d1 2fbe
00000220: 0c18 90be 47a6 07be 3d5e 62be dcbe 66be
00000230: dc73 bebd bac9 2ebe ebd6 dfbd 1822 a5bd
00000240: c170 26be 40ef 95be 928f 29be 7193 cbbd
00000250: dac1 4d3d 7a48 94bd 8947 22be 5276 51be
00000260: e28c 7bbd 1865 93bd 8e99 74be 658a 67be
00000270: c3c0 45be cdf0 1fbe 2fd5 7cbd 83fc 2cbd
00000280: 934c e3bd 49e5 3bbe c380 83bd eb66 a0be
00000290: 2268 a6bd c845 65be 4cbb e3bc fc91 32be
000002a0: 9b27 1dbe 65b9 e5bd ffad 46be bd05 44be
000002b0: 82eb 50be ed36 cbbd 14fb 7bbe 06ad 4ebe
000002c0: bee7 18be bed5 16be fd5d 85bd ff4f 2dbe
000002d0: 143c 1cbe 2438 b3be f2bf 26be 3ccb 8ebd
000002e0: 9c41 693d 0488 7fbd 1665 fabd a167 40bd
000002f0: 6bcc bebd 533b 01be 39d3 a2be 5623 11be
00000300: 7d97 69be 346e b6bd b559 1fbd a025 cbbd
00000310: b0ff b8bc e56a 21be 0b11 ddbe 31e9 12bf
00000320: eeb5 f6be 23c0 edbe c2cc a3bd de21 77be
00000330: f87f 9bbe f6ca d0be 6913 b4be cd40 8fbe
00000340: 530d 12bf 1450 b7be b47e ebbe 5922 dcbe
00000350: 90b2 adbe d7eb 83be 4926 6bbe c51c c8be
00000360: 1dbb a9bd 34b4 cabe b96f 2abe b11b 12bd
00000370: 571c 09bc 55f7 8f38 2283 d0bd ebca 58be
00000380: ade8 93bc ad83 0dbb 2afc a2be 4586 49be
00000390: 3378 9ebe 1cf4 34be edc9 82bd e3f9 ecbd
000003a0: ecc5 cdbd 554a b1bd af15 d2bd e1aa babe
000003b0: d42e 40bd a44a 8dbd e67f 5fbd 3fe5 ddbb
000003c0: 0b31 7dbd 2c5b 28be 3626 26be ceec dabd
000003d0: 43c9 cabe deba a9bd 981c 64be d129 19be
000003e0: 11f6 e1bc 8637 09be e8e0 aebd 1afb 40be
000003f0: 6086 16be 0c52 84be 5e25 d7bd 9f4d 17be
-0.13248268 -0.31006506 -0.25975227 -0.27533454 -0.023950895 -0.004437866 -0.055320803 -0.11138478
-0.16488683 -0.1335014 -0.23939253 -0.2226422 -0.2745494 -0.20243503 -0.106819905 -0.17883036
-0.1199678 -0.16804731 -0.06989522 -0.16941069 -0.26052237 -0.3454713 -0.028617742 -0.021685628
-0.10657123 -0.077384844 -0.28322265 -0.30368525 -0.32498544 -0.14726011 -0.122415386 -0.21076179
-0.051234975 -0.07213522 -0.07822334 -0.14596066 -0.0686145 -0.2752815 -0.19538596 -0.17267677
0.04318012 -0.06451785 -0.10759682 -0.16169368 -0.16493873 -0.14537801 -0.33374813 -0.13334602
-0.24751726 -0.07181521 -0.14123714 -0.107462645 -0.058161385 -0.101764545 -0.12614928 -0.33987492
-0.086322054 -0.16299713 0.0034074674 -0.07844816 -0.009734978 -0.09813538 -0.051710967 0.023742758
-0.41255662 -0.058885843 -0.26928657 -0.12781796 -0.18203324 -0.12887333 -0.12258677 -0.12898754
-0.23819971 -0.24616767 -0.20885567 -0.19723544 -0.045651894 -0.13049899 -0.2035765 -0.19340843
-0.14902286 -0.09357997 -0.18222567 -0.22759299 -0.20789017 -0.20312594 -0.20156252 -0.13104898
-0.1799914 -0.22865856 -0.22162159 -0.34880754 -0.05374366 -0.0831223 -0.03498827 -0.14166702
-0.16759817 -0.20291814 -0.15219983 -0.047369614 -0.260719 -0.17432952 -0.2090478 -0.18624419
-0.19188727 -0.09420564 -0.16316068 -0.10791565 -0.070501395 -0.34319293 -0.18425119 -0.09307138
-0.07982768 -0.0060658487 -0.14523132 -0.11719239 -0.1794931 -0.15474877 -0.29165724 -0.109604225
-0.20547622 -0.06043418 -0.1298555 -0.12795892 -0.10167605 -0.15679605 -0.14191492 -0.35118863
-0.2157408 -0.09144067 -0.05165032 -0.025314441 -0.100021385 -0.12499943 -0.049804863 -0.17169917
-0.28143346 -0.13247024 -0.22106262 -0.22533745 -0.09299442 -0.1706914 -0.10929664 -0.080631435
-0.1625395 -0.29284096 -0.16558674 -0.099402316 0.0502337 -0.07240386 -0.15847601 -0.20455292
-0.061413653 -0.071970165 -0.23886701 -0.22611387 -0.19311814 -0.15619202 -0.061726745 -0.042233
-0.1109859 -0.18349184 -0.06421044 -0.3132852 -0.081253305 -0.223899 -0.027799271 -0.17438501
-0.1534714 -0.11217002 -0.19402312 -0.19142814 -0.20402339 -0.09922586 -0.24607497 -0.2018319
-0.14932153 -0.14729974 -0.065120675 -0.16925047 -0.15257293 -0.3500377 -0.16284159 -0.06972358
0.056947336 -0.062385574 -0.12226312 -0.04697383 -0.093163334 -0.12620287 -0.31801775 -0.14173636
-0.22811694 -0.08907738 -0.03890391 -0.09919286 -0.022582859 -0.15763433 -0.43177065 -0.5738707
-0.48185676 -0.4643565 -0.07998039 -0.24134013 -0.3037107 -0.40779847 -0.3517106 -0.27979127
-0.5705158 -0.35803282 -0.45995104 -0.42994955 -0.33925295 -0.2576587 -0.22963823 -0.3908445
-0.08287642 -0.3959061 -0.16644181 -0.03567094 -0.008368573 6.8648405e-05 -0.101812616 -0.21171157
-0.018055284 -0.0021593377 -0.3183301 -0.19680126 -0.3095108 -0.17671245 -0.063861705 -0.115710996
-0.10047516 -0.08656756 -0.10258042 -0.36458495 -0.04691966 -0.06899002 -0.054565333 -0.006771713
-0.06181435 -0.1644103 -0.16225514 -0.10689698 -0.39606676 -0.08287595 -0.22276533 -0.14957358
-0.027583154 -0.13400087 -0.08538991 -0.18845788 -0.14699697 -0.25843847 -0.10505174 -0.14775704

onnx::GRU_199 f4 [2, 384, 128]
00000000: 89f6 40bd 6e1d 2bbd d343 7b3c df3c 0c3c
00000010: 3e30 a43d 96a4 963c de1f 7c3c ee09 3cbd
00000020: 3c55 9d3d 7b18 98ba 65a2 583d 50e6 90bd
00000030: e169 3d3d 2011 933d 5d9b 6a3d 143d 973d
00000040: cc91 24bd b8df 81bd 0e57 023d b6df 1c3d
00000050: 88fb 5bbd 9b87 e8bc 5da6 94ba 8ef5 f2bb
00000060: b529 2d3d 4793 803d 564b d13c 8854 0fbd
00000070: a1cc 61bd f957 9c3d 0c44 223c 796b 3dbd
00000080: dd0f 87bd eaf7 75bd 510f a93d f603 64bd
00000090: f73b b0bd 759f 87bd c3e9 2bbd 93fc 30bb
000000a0: 603f 78bd a46f 1f3d 4dad 6dbc 6eb6 16bd
000000b0: 04a6 5bbd 0343 e5bc c5de af3d 82ea 913b
000000c0: bc05 cc3c c75b afbd c310 5d3d 01bf 643c
000000d0: af37 20bc c342 d13a 3e46 27bd 3d88 8cbd
000000e0: 5132 35bd 922c e33c a1e5 983d db1d 7cbd
000000f0: 9c8f 263d c1fa 2fbd 0c7c 883d b0b5 303c
00000100: 5078 a4bd af26 9cbd c735 ae3c 1534 4a3d
00000110: 45b9 d53c e941 c73c 0c52 63bc 90a4 34bd
00000120: 7dc7 793c a57f 8fbd e0a7 343d d3de 09bd
00000130: db45 a2bd 5c5c 1d3c 222b 0b3d 7d24 8abd
00000140: 0f86 64bd 8fb1 81bc 90c3 15bd cdaa 923d
00000150: 3195 5c3c d30c e2bc 080d 8dbd 70de 85bd
00000160: 56b1 f73c b745 adbc 1b6e 4b3c 3120 833c
00000170: 6f60 7c3d b61a 213a 79be 213d 24ba a9bd
00000180: 1606 7f3d 39a8 9abd 4c6f cfbc 3f80 b4bd
00000190: 16aa 383d 3e12 bfbc 9bd1 b1bd be07 48bd
000001a0: 326c 463d 2dd9 733d ecad 7d3d 3d75 acbd
000001b0: f4c5 14bd afee 693c 0249 b5bb 1bc7 37bd
000001c0: 4c30 b03d e4ff 60bd d049 6c3d b5b8 683d
000001d0: 3360 9bbd 64d0 6fbd c566 73bd d933 843d
000001e0: a0ab 9ebd c06e 8b3a 483a ddbc 3744 a8bc
000001f0: 66f3 55bd e924 9cbd 4992 9bbd 9f4c 1abc
00000200: 8906 a53b f092 bb3c 0277 ed3c 532f 19bd
00000210: caf9 453d fc0b 553d 4908 8fbd b7b5 9a3d
00000220: 47e1 1cbc 22e2 9dbb 593f acbd 9934 403d
00000230: 5d5a 123d 2ad4 b73c 4e2f 1f3d af31 9fbd
00000240: 84dd b33d 6329 723d cd43 d5bc e6b7 3e3d
00000250: c913 01bd 64ef e5bc ad16 b0bb 0796 5f3d
00000260: adf3 463d bbdb f9bc 2ecc 95bd 6922 8a3a
00000270: 86c0 19bd 7476 bbbb 80e7 373d 98ac 713d
00000280: b6f2 983b e057 143d 26c8 843c 0dc7 24bd
00000290: e924 573d e2df 7dbd f482 dabb e73e 1dbd
000002a0: 44ee c33b fb2f 963d 9b24 e53c 534b bebb
000002b0: a1bb a8bd 2c10 81bd e33c 96bc 67fa 2dbd
000002c0: edb2 8e3c 1785 b2bd ca7f a83d 2bdd dbbc
000002d0: 67b5 573d 4fed 813d d605 943d bae5 6fbc
000002e0: 76bf 483b 2ad1 383d 1be3 86bd 03d7 cdbb
000002f0: eb48 183d aae0 02bb 14da 80bd fc4c 573c
00000300: 49bc 94bc 3b15 5e3d 9744 7cbd a203 f23b
00000310: 3fa6 44bc da1c d4ba 30d4 a33d cc6e 3d3a
00000320: b3e4 64bb ca92 abbd 72d0 2ebd d002 92bd
00000330: b52d c83b 9bb2 9dbc 418e d43c 7ef6 923d
00000340: 147b 9c3c 07a2 80bd 9a2d 5cbd 00e1 23bd
00000350: 244d 4abd 0a8a 703c 6a72 adbd 0db5 8abd
00000360: a1da 7cbc 8cc8 77bd 112e 643d 5c4f ee3c
00000370: 0b6e 8c3d d464 263d fdea c0bc 1a08 58bc
00000380: 59ad 293d c670 a4bd 0313 af3c 9552 a5bd
00000390: d0ee 1a3d 2c19 ebbc 4418 ef3c fd88 0b3d
000003a0: f72a 623b 466d 343c 988e 04bd 8bbb 3c3b
000003b0: ddd2 503d c4ce 943d aea5 cbbc 5c82 a73c
000003c0: ba95 ad3c 723e 113d f44c fa3c d49f f03c
000003d0: 443a 83bd 5657 77bc 555f 34bd ae0b 963d
000003e0: d537 0abd d80f 1e3d b32e c03c 6abf ff3c
000003f0: 33ac ad3c 9120 03bc d83b ebbc cb63 b13d
-0.047110114 -0.041776113 0.015335995 0.008559435 0.08017014 0.018389028 0.015388457 -0.045907907
0.07682273 -0.0011603975 0.052889246 -0.070751786 0.046243552 0.07181001 0.057277072 0.073846966
-0.040178105 -0.06341499 0.031821303 0.038299285 -0.053706676 -0.028384974 -0.0011341084 -0.0074145263
0.042276103 0.06278091 0.025548618 -0.034992725 -0.05512679 0.07633967 0.009903919 -0.046245072
-0.065948226 -0.060050882 0.082548745 -0.05566784 -0.086051874 -0.06622211 -0.04197098 -0.0027006015
-0.060607314 0.03892483 -0.01450665 -0.036795072 -0.05362512 -0.027986055 0.08587412 0.0044530043
0.024905078 -0.08562427 0.053971063 0.0139615545 -0.009778901 0.0015965331 -0.040838473 -0.06861923
-0.04423744 0.027731214 0.07465673 -0.06155191 0.0406643 -0.042963747 0.06664285 0.010785505
-0.0803076 -0.07624566 0.021265877 0.049366076 0.02608932 0.02432342 -0.013874542 -0.04410225
0.015245316 -0.07006768 0.04410541 -0.033659767 -0.0792348 0.00960454 0.03397668 -0.06745241
-0.05579191 -0.015831737 -0.036563456 0.07161484 0.013463304 -0.027594006 -0.06887251 -0.06536567
0.030235928 -0.021151407 0.012416388 0.016006561 0.061615404 0.0006145643 0.03948829 -0.08287457
0.062261663 -0.07551617 -0.025321625 -0.088135235 0.04508408 -0.023324128 -0.08682557 -0.04883551
0.048443027 0.059533287 0.061933443 -0.08420799 -0.036321595 0.014278098 -0.005532385 -0.044867616
0.08602962 -0.054931536 0.05768758 0.056816775 -0.07586708 -0.058548346 -0.05942418 0.06455202
-0.077475786 0.0010637864 -0.02700533 -0.02054034 -0.052234076 -0.076242276 -0.07596261 -0.009417682
0.0050361794 0.022897214 0.028987411 -0.037398648 0.04833392 0.052013382 -0.06984002 0.075541906
-0.009575195 -0.004818217 -0.0841052 0.04692516 0.03573071 0.022440035 0.038863473 -0.07773148
0.08782485 0.0591215 -0.026033306 0.046562098 -0.03151301 -0.028068252 -0.005373797 0.054586437
0.04857223 -0.030500283 -0.07314335 0.001053882 -0.03753712 -0.005720908 0.04489851 0.05900249
0.0046676053 0.036216617 0.01620872 -0.040228892 0.052525435 -0.06198109 -0.006668443 -0.038390066
0.005979331 0.0733337 0.027971556 -0.005807319 -0.082389124 -0.06301913 -0.01833958 -0.04247513
0.017419303 -0.08716791 0.08227499 -0.02683886 0.052663233 0.06344091 0.072276756 -0.014642173
0.0030631698 0.04512135 -0.06586286 -0.006281735 0.037178915 -0.0019970336 -0.06291595 0.013140913
-0.018156188 0.054219466 -0.06158885 0.007385687 -0.012002527 -0.0016182915 0.07999456 0.0007226288
-0.0034926354 -0.08377607 -0.042679258 -0.07129443 0.0061089643 -0.019250205 0.025946738 0.07175921
0.019101657 -0.06280904 -0.053754427 -0.0400095 -0.049389973 0.014681349 -0.084690884 -0.06772814
-0.015432985 -0.06049399 0.055707995 0.029090576 0.068569265 0.0406235 -0.023549551 -0.013185525
0.041425083 -0.08029322 0.02137137 -0.08072392 0.037825406 -0.028698526 0.029186375 0.03406619
0.0034510472 0.011012381 -0.03236255 0.0028798308 0.050982345 0.07266 -0.024859276 0.020447902
0.02118956 0.035459943 0.030554272 0.029373087 -0.06407598 -0.015096506 -0.04403623 0.073264465
-0.03374465 0.03858933 0.023459768 0.031219203 0.021200275 -0.00800337 -0.02871506 0.08661612

onnx::MatMul_200 f4 [256, 1]
00000000: d4d5 923c 287f 553c 98c4 b83c 0c26 b1bc
00000010: 709d a4bb 381b 97bc 3cc3 febc 4ae5 72bd
00000020: 30dd 53bd f41b c43c fc8e c3bc 50af 233d
00000030: 90a3 843b 40b0 2bbb 1850 643c b0b8 62bc
00000040: a06c 6fbd 0463 0d3d 3ea8 203d 1c50 febc
00000050: 48a5 eebc 18ce 0fbc 3eee 71bd 1eb1 0e3d
00000060: 182e 4b3c de4f 68bd 605b 113b d235 763d
00000070: 1456 993c a02e b83b 5cda fabc 809d 0abd
00000080: 622b 0bbd 2069 273c e01e f1bc 8450 55bd
00000090: a026 183d 600c 1b3b f850 2ebc fe21 233d
000000a0: 3056 23bc 788d d13c e0eb 7abb b8ad 42bd
000000b0: 80af 1fba 581f 3e3d 00d9 ae3a 00a6 c2bc
000000c0: 302b c4bc c0ef fd3b 6038 71bb e4e6 19bd
000000d0: f0c6 723c 9c4d 02bd cc3f c1bc d67e 283d
000000e0: 3eb3 54bd c0b8 77bb 340d 83bc 00b8 a13c
000000f0: 3c1e 18bd 6c94 1ebd 20b1 313d 92e1 27bd
00000100: 086d 043d e04a 28bd 2246 233d a042 b5bc
00000110: 28f3 dfbc 3ccc 6fbd 5ccc 503d c444 f0bc
00000120: 2402 5bbd 4079 b4bc 3c5c d2bc a046 febb
00000130: 322b 0cbd 28a2 5a3d c862 03bd 76e9 363d
00000140: 4cd5 d1bc c6b0 003d ee9b 30bd 689d 02bc
00000150: 6828 143d 080e 86bc c050 2c3b 3a4a 4f3d
00000160: 90e2 d8bc 949f 6dbd e655 533d 805b 17bd
00000170: 000a 0a3a 409f 08bb ac74 923c 189a 553c
00000180: 9865 a43c eebd 5c3d c87d dfbc 3edb 17bd
00000190: fec7 05bd e074 0ebc f0eb 29bc a2c2 3cbd
000001a0: 8693 753d 40fa 3dbb 202a 57bd 54c3 623d
000001b0: 8c0d 9c3c 000d 633a f4d1 d7bc 0046 6c39
000001c0: 5ca9 1abd f049 89bb 9ed6 013d 9855 043c
000001d0: 50b1 dfbc 9c67 9b3c 644c 743d ac0a 88bc
000001e0: 804f 693a 04ec c13c e07b 47bd d4e5 5bbd
000001f0: 541d edbc a625 20bd a8d3 2abc 2cb7 a3bc
00000200: 1844 6c3d 4876 2d3c 7ab8 16bd 7495 29bd
00000210: a8d7 183c 0487 8f3c 1cc6 233d 8c1b aa3c
00000220: f4a0 c53c 90c9 5b3d d24a 14bd 7697 7ebd
00000230: 8812 79bd c007 e93c 7469 59bd 62be 26bd
00000240: 60d4 37bd 7417 993c 1ca7 9f3c 2048 a33b
00000250: 4071 30bc 70aa b53c 287a 403d 6a30 023d
00000260: cc1b a43c d8d3 14bc 006f 643b 5863 a43c
00000270: e24f 213d ec1f 4cbd a038 413b 0033 17ba
00000280: 9854 d0bc 4093 99bb f89e 4e3d a008 06bb
00000290: 80ec 9a3b c82d 04bc 40f9 f6bb cc7f 7abd
000002a0: 3e8b 0b3d 0057 de3a 4cf0 9cbc 404a 1b3d
000002b0: f80b 5fbd 6c48 f9bc 20b4 963c 1a78 38bd
000002c0: d065 f8bc 40ae 71bd bab2 733d ea2e 6a3d
000002d0: 008b 063b 28d4 7e3c 98d1 d03c 2485 d83c
000002e0: bad0 5bbd 0897 0bbd 621f 223d e05d 4a3c
000002f0: 102d 99bb a4b0 763d d8bb d8bc e004 70bd
00000300: 0436 ef3c 0c5e 533d 8056 df3b 7028 583d
00000310: 001e 9b39 f05a 013d 7411 6f3d 2062 c5bb
00000320: 5a55 4f3d 60c5 14bd 703a 2a3c 0cdd 723d
00000330: e862 653c 68a8 e5bc e6ac 6dbd 4499 61bd
00000340: e037 d4bc 2098 d83c e0b0 163d 387c 64bc
00000350: e82f 113d 088c 7b3c a80c 48bc aa9a 4c3d
00000360: 8867 38bc 047c a83c e0dc e13b 7662 2dbd
00000370: 2c87 413d fad2 023d d439 d93c cabe 3abd
00000380: fed8 4a3d ac27 13bd 8473 3bbd 105a b1bc
00000390: 002e 6bbb 46cf 113d 9068 233c 0853 4f3d
000003a0: b020 7c3c b0f6 843b dc59 3ebd fe5a 5a3d
000003b0: 000e ebbc cce4 5bbd 544e 173d d025 41bd
000003c0: a865 7f3c f6c1 51bd 3afe 5cbd e85b e73c
000003d0: a098 153d a8ad 6dbc a0cb 91bc 24cb ce3c
000003e0: 14cb 33bd 28a8 3bbc c8d3 393c 5ac1 233d
000003f0: 688a bcbc 8071 b0ba 1475 0abd 288f aabc
0.017924227 0.013030805 0.02255468 -0.021624587 -0.005023651 -0.018445596 -0.031098954 -0.0593007
-0.051724613 0.02393911 -0.023871891 0.039962113 0.0040478185 -0.0026197582 0.013935111 -0.013837978
-0.058453202 0.034518257 0.03922295 -0.031044059 -0.029131547 -0.008777164 -0.059065096 0.03483688
0.012401126 -0.056716792 0.0022179708 0.06010992 0.018717803 0.0056207925 -0.0306217 -0.03384161
-0.03397692 0.010217935 -0.029433668 -0.05207874 0.03714621 0.00236585 -0.010639422 0.03982734
-0.009969279 0.025580153 -0.0038287565 -0.047528952 -0.000609152 0.04641661 0.0013339818 -0.023760796
-0.023946375 0.0077495277 -0.0036807284 -0.03757371 0.014817938 -0.031812295 -0.023589991 0.041136585
-0.05192875 -0.0037799329 -0.015997507 0.019741058 -0.03713821 -0.038715765 0.04338181 -0.040986605
0.032330543 -0.04108703 0.039861806 -0.022126496 -0.027337626 -0.058544382 0.050976142 -0.029329665
-0.05346884 -0.022030473 -0.025678746 -0.007759884 -0.03422088 0.0533773 -0.032076627 0.04465624
-0.025614403 0.031418584 -0.043117456 -0.007972099 0.036171347 -0.016364112 0.0026293248 0.050607897
-0.02647522 -0.058013514 0.05159559 -0.036952496 0.00052657723 -0.0020846874 0.0178779 0.013037227
0.020067975 0.05389207 -0.027281657 -0.03707432 -0.03266143 -0.008694857 -0.010371193 -0.046084054
0.059955142 -0.0028988272 -0.052530408 0.05536206 0.019049428 0.00086613 -0.02634523 0.00022532791
-0.03775917 -0.0041897222 0.031698816 0.008077048 -0.027306229 0.018970303 0.059643164 -0.016606651
0.0008900091 0.023672111 -0.04870212 -0.053685978 -0.028944649 -0.039098404 -0.010426439 -0.019984804
0.057682127 0.0105872825 -0.036797024 -0.041402295 0.00932876 0.017520435 0.039983854 0.020765088
0.0241246 0.05365902 -0.036204167 -0.062156163 -0.06080869 0.028446078 -0.053079084 -0.040708907
-0.04488027 0.018687941 0.019488864 0.004982963 -0.010769188 0.022175997 0.046991497 0.031784452
0.020032786 -0.009083711 0.00348562 0.020066902 0.039382823 -0.04983513 0.0029483214 -0.00057677925
-0.025430962 -0.004686743 0.050444573 -0.0020451918 0.0047279 -0.008067556 -0.007537037 -0.061157033
0.03406834 0.0016963184 -0.019157551 0.037912607 -0.054454774 -0.030430041 0.018396437 -0.045036413
-0.030321985 -0.05900407 0.05949662 0.057173647 0.0020529628 0.015553512 0.025490567 0.026430674
-0.053665854 -0.03407958 0.03958071 0.012351483 -0.0046745613 0.06022705 -0.026456758 -0.0585984
0.029200561 0.051603362 0.0068157315 0.05277294 0.00029586256 0.031580865 0.058366254 -0.0060236603
0.050618507 -0.036321044 0.010389909 0.059292838 0.014000632 -0.028034404 -0.058026217 -0.055077806
-0.02590555 0.026439726 0.036789775 -0.013945632 0.035446078 0.01535321 -0.012210049 0.049952187
-0.0112551525 0.020566948 0.0068927854 -0.042330228 0.04724805 0.031939484 0.026516832 -0.045592107
0.049523346 -0.035926506 -0.04576446 -0.02164939 -0.0035885572 0.035598062 0.00997366 0.050616294
0.015388653 0.0040577278 -0.046472415 0.053309433 -0.0286932 -0.053684995 0.036939934 -0.0471552
0.015588202 -0.051210366 -0.053953387 0.028242067 0.036522508 -0.014506735 -0.017797291 0.02524335
-0.043894842 -0.011453666 0.0113419965 0.039979316 -0.023015216 -0.001346156 -0.03380306 -0.020820215
