models/2022-03-25/gnn_model.pth (torch, 12192 bytes, 4 tensors)

fc1.weight f4 [64, 1]
000000 9a ab 23 3e bf a9 99 be 49 3c d9 3e 9b be ba be
       0.1598343 -0.30012318 0.42428806 -0.36473545
000010 24 37 48 3f d7 7a 31 bf 44 1e de be 1a 5f f6 3e
       0.7820914 -0.69328064 -0.43382466 0.48119432
000020 d2 7e cc be c9 ab 70 3f 68 6d 3e 3e 00 d8 2b 3e
       -0.39940506 0.94012123 0.18596423 0.16781616
000030 39 e2 1c 3f 07 e4 51 3f cf 9d 57 3f 60 ce 21 3d
       0.6128269 0.8198857 0.8422517 0.039503455
000040 04 1f b4 be fc 0e fd 3e be c9 58 be 6c da 66 bf
       -0.35179913 0.49425495 -0.21170709 -0.90177035
000050 99 a9 79 bf f0 22 03 bf d6 f3 1b 3f 12 37 4c bf
       -0.9752441 -0.51225185 0.6091894 -0.7977153
000060 73 ca 56 3f e0 5c b0 3d 36 cc 53 bf 70 bd 8d 3d
       0.83902663 0.086114645 -0.82733476 0.06920898
000070 f6 63 57 3f d5 80 54 3f d9 82 ef 3d e7 3d 69 3f
       0.84136903 0.8300908 0.11694879 0.9111008
000080 bc b6 28 bf 55 7c 03 bc 00 03 93 3d 64 58 37 bf
       -0.6590383 -0.008025249 0.071783066 -0.7161925
000090 f2 4b 8c 3d 5c 10 ff 3e b2 d1 7d bf 54 0e 63 bf
       0.06850423 0.4981717 -0.99148095 -0.8869374
0000a0 b7 11 9d be 87 3a 21 be e5 bf 5b 3f e6 73 58 3f
       -0.30677578 -0.15744983 0.8583968 0.84551847
0000b0 0e 48 7d bf a4 cf 78 bc f0 9a 11 3d 63 8d fd 3e
       -0.9893807 -0.015186224 0.03554815 0.49521932
0000c0 86 6a 03 3f 18 89 c3 3e cc e2 29 bf f8 0a 59 3e
       0.51334417 0.38190532 -0.6636169 0.2119559
0000d0 4b a7 89 3d d0 00 2c 3f 56 9b 4a bf 20 2e c6 bd
       0.06721362 0.6718874 -0.79143274 -0.096767664
0000e0 26 70 0c bf 74 1f 4a 3c 00 11 60 3d 98 24 cf 3e
       -0.54858625 0.012336601 0.054703712 0.40457606
0000f0 e0 f6 60 bf b6 2b 2c 3f 06 8c 0b bf a4 1c 11 3f
       -0.878767 0.672542 -0.54510534 0.5668433

fc1.bias f4 [64]
000000 9a ea 4b be fd 71 10 3f de 51 52 be 59 2c 08 3e
       -0.19913712 0.5642393 -0.20539042 0.13298167
000010 68 69 7b bf e3 26 2e 3f 64 5e 8c be 7f 4f 9a be
       -0.9820771 0.68028086 -0.27415764 -0.30138776
000020 01 f8 29 3f 30 3b 1c bf 4c 18 ad be 90 1e e7 be
       0.6639405 -0.6102781 -0.338076 -0.45140505
000030 20 0f af be 8b 4a 2b 3e 33 b3 19 3f 9c 1e 7b bf
       -0.34191227 0.16727655 0.6003906 -0.9809358
000040 a0 44 0d bf a4 43 37 bf d9 bf fb 3e c8 5e 55 be
       -0.5518284 -0.71587586 0.49169806 -0.20836937
000050 24 2c 04 3f 24 c2 7f bf 7f f6 2e bd 80 25 10 bf
       0.51629853 -0.9990561 -0.042715546 -0.5630722
000060 58 18 1a 3e e0 46 5e be 80 e1 0f 3d 26 36 29 bf
       0.15048349 -0.21706724 0.035127163 -0.6609825
000070 45 e3 63 3e 19 e2 31 3f 97 75 47 3f 0c fd 9d 3e
       0.22254665 0.6948562 0.779138 0.30857122
000080 00 71 06 3c 12 1e d5 bd 50 ea bb be 00 70 a0 be
       0.008205652 -0.10406126 -0.36702204 -0.3133545
000090 69 31 d4 3e ec a4 4a bf 84 af 77 bf a0 5d af 3d
       0.41443947 -0.791579 -0.9675219 0.085627794
0000a0 4a 30 41 3f 03 8d 04 3f 2e f1 60 bf 18 ad 75 bf
       0.7546431 0.51777667 -0.8786801 -0.95967245
0000b0 64 94 8f 3e e4 db 14 3f 85 63 28 3f 5f 60 1c be
       0.280429 0.58148026 0.65776855 -0.15271138
0000c0 ca dc 22 bf fa a1 30 bf cc 76 30 bf 20 9a 61 be
       -0.6361815 -0.68997157 -0.6893127 -0.2203145
0000d0 4e b2 03 3f 01 53 ff 3e b8 a7 7b bf f2 b0 76 3c
       0.51443946 0.49868014 -0.98302794 0.0150568355
0000e0 20 2a 8e 3e 59 0f d5 3e 00 d7 0b be ee 42 3e bf
       0.27766514 0.41613272 -0.13656235 -0.74320877
0000f0 80 0c 37 3d 09 6c 2c bd 2c 1e d0 be b4 52 5f 3f
       0.044689655 -0.042095218 -0.4064802 0.8723557

fc2.weight f4 [37, 64]
000000 29 cc 02 3d 5f 4a 0e 3d 52 1c e9 bc 10 55 16 be
       0.031932984 0.034738895 -0.028455887 -0.14680886
000010 b6 33 a2 bd 17 b7 98 bd 60 06 22 bd 00 13 67 3c
       -0.07920019 -0.074567966 -0.03955686 0.014103651
000020 ce 2f e6 3b 3a f6 9c 3e d8 62 de bc e0 1a f8 3d
       0.0070247417 0.30656606 -0.027146742 0.12114501
000030 75 76 b6 3d b7 46 22 3e 1d 0c 7b bd 38 9e dc 3c
       0.08909313 0.15847288 -0.06129085 0.026930913
000040 b6 41 a5 bd 44 b6 0f bd 42 41 5f bd b0 1d 16 bd
       -0.08069174 -0.03508593 -0.054505594 -0.036649406
000050 93 85 b3 bb fc 14 ba bd 44 f7 e5 3d 38 dd 39 bd
       -0.00547857 -0.09086034 0.11228803 -0.045376986
000060 c3 e5 00 3c 60 8d 5c bc c0 97 d1 bd 70 fb 4f bc
       0.007867279 -0.013461441 -0.10234022 -0.012694225
000070 09 b0 0f 3e 5c af 60 3c dd 51 97 3d c5 7d a2 3d
       0.14031996 0.013713684 0.07388661 0.07934145
000080 a0 d6 cd bc 0e 38 94 3d 2e 97 81 3d 80 24 ef 3b
       -0.025126755 0.07237254 0.06327663 0.0072980523
000090 93 3a 8a 3d 90 ce c4 bc e0 fa 89 bb 40 6b 3b bc
       0.067494534 -0.024024278 -0.004210815 -0.011439145
0000a0 14 6c 74 bd 88 69 b7 bd 5f 55 d6 bc 68 21 fb 3c
       -0.059673384 -0.08955675 -0.026163755 0.030655578
0000b0 14 a9 23 3d 9d 24 b4 3d 0e 38 9e 3d 53 44 1f bc
       0.039956167 0.08796046 0.07725535 -0.00972088
0000c0 ea 63 ab bd fc f7 7a bd b0 c9 45 3d 74 18 ee 3d
       -0.083686665 -0.061271653 0.048288047 0.11625758
0000d0 d7 ee 37 3c b0 f9 a5 3d e0 7a ee bd 2c b7 4d bd
       0.011226377 0.08104265 -0.1164453 -0.050223514
0000e0 c0 1f c5 bd 8e e9 5c bd 60 91 8c bb 00 da be 3c
       -0.096251965 -0.053933673 -0.004289791 0.02329731
0000f0 40 2e ab bb a2 1b e5 3c 70 06 5f bd 0e 34 1d 3e
       -0.0052240193 0.027967278 -0.0544495 0.15351889
000100 ef 5b e0 3d 69 71 8b bb 75 c9 17 3d 1d 52 d3 bd
       0.10955035 -0.004255463 0.03705736 -0.10318396
000110 b6 18 8e bd eb 29 58 be 78 68 5b bd ba ce 96 3d
       -0.06938307 -0.2110974 -0.053566426 0.07363649
000120 27 f5 9d bc f1 63 4c 3e a2 82 fc bd 02 80 a5 3d
       -0.019281937 0.1996 -0.12329604 0.08081056
000130 2b 55 40 3e 38 d8 48 3d 3e e6 2a bd 9c ae c9 bd
       0.18782489 0.049034327 -0.041723482 -0.09847757
000140 30 3c 6a bd 48 b8 22 3d 46 11 c7 3d c8 79 ea bc
       -0.057186306 0.039726526 0.097200915 -0.028622523
000150 40 93 9f 3c 18 c4 83 bc b4 23 41 3d 0c ea 74 bd
       0.019479394 -0.016084716 0.04715319 -0.059793517
000160 9d 07 00 3e 9e 89 84 3d e8 35 dd 3d 90 c7 3b 3c
       0.12502904 0.06471561 0.108012974 0.011461154
000170 f0 f0 80 bd 44 51 77 3d 0d af d3 3c 9d 2b 09 3e
       -0.06295955 0.060380235 0.025840307 0.13395543
000180 ba 6d d0 3d c5 51 0f 3e f8 76 bf 3c 78 15 bf 3c
       0.10177179 0.13996036 0.023372158 0.023325667
000190 77 35 aa 3c cc ee f4 3d ee 35 c5 bd 20 a5 26 bc
       0.020777447 0.119596094 -0.09629427 -0.010171205
0001a0 78 07 b8 3d d5 ec c4 3c a5 b3 c3 bd 80 63 9a 3c
       0.089857996 0.024038712 -0.09555749 0.018846273
0001b0 68 a2 69 3d fb d4 44 bd f1 08 07 3e 4f 54 98 bc
       0.05703965 -0.048054677 0.13187005 -0.018594889
0001c0 be 89 bb 3d 74 dd b5 3d 02 26 cf bd d0 61 fd bd
       0.091571316 0.088801295 -0.10114671 -0.12372172
0001d0 1a a1 ca 3d de d1 17 3e 5a af c9 3d e5 ac d9 bd
       0.09894009 0.14826152 0.09847899 -0.1062868
0001e0 e6 db a6 bd 22 89 28 3d d4 89 e9 3d 60 6d d0 bd
       -0.08147411 0.041146405 0.11403242 -0.101771116
0001f0 58 23 b4 bc 2f 1e 3a 3e f6 bb b3 3d 34 60 10 bd
       -0.02198951 0.18175577 0.08776085 -0.035247996
000200 19 49 fc bc ed 51 d8 3c 35 bb 0c bd 2d fc d9 bd
       -0.030796574 0.026406253 -0.034358222 -0.10643802
000210 e0 53 db 3c 48 ec 63 be 58 35 85 bc e0 07 f2 bc
       0.026773393 -0.22258103 -0.016260788 -0.02954477
000220 6f c2 bb 3d d2 be 2e 3e 20 66 ee 3d 1a b2 8c 3d
       0.09167945 0.1706498 0.116405725 0.06869908
000230 ac 09 07 3e 20 a9 e8 3d d7 3d 85 3d 9c 6c af 3d
       0.13187283 0.11360383 0.06505936 0.085656375
000240 a0 9f 39 bc 2a f6 b1 bd 01 7b f0 3d d4 f3 07 3d
       -0.0113295615 -0.0868953 0.11742211 0.033191517
000250 bf e9 6c 3d f2 79 a1 bd 11 ad a0 3d 20 17 fa 3b
       0.057840105 -0.07884587 0.0784551 0.0076321512
000260 8b 96 40 bc 8a ed a0 bd 94 2e 2c bd 14 95 3a 3d
       -0.011754642 -0.07857807 -0.042036608 0.04555233
000270 7f 53 77 bd 3a ac e7 3b 0b 09 6d bd 2a 7c 95 3d
       -0.060382362 0.0070700916 -0.057869952 0.07299073
000280 a4 5b 14 bd e3 a4 09 3e a0 d3 b4 bc e0 93 c6 3d
       -0.036220208 0.13441806 -0.022073567 0.09696174
000290 f2 bc c1 bd 82 37 a8 3d 66 5b 83 bd 80 4e 3b bb
       -0.094598666 0.08213712 -0.06413917 -0.0028580725
0002a0 1a 1d c7 bd 92 e6 8e 3d 6c d8 10 bd f0 95 5f 3d
       -0.097223476 0.069775715 -0.035362646 0.05458635
0002b0 30 11 dc bc cf 31 a8 bc fd 13 3d bd 6e d3 2a 3e
       -0.026863664 -0.020531563 -0.04616164 0.16682217
0002c0 00 84 39 3c a6 74 cd 3d ac 84 1d bd ce d7 86 3d
       0.011322975 0.100320145 -0.038456604 0.0658413
0002d0 e8 a4 a4 3d f3 26 eb 3d 88 c5 27 3d f7 a1 17 3d
       0.08039266 0.11482038 0.040959865 0.037019696
0002e0 9a ba f8 bd fd 55 81 3d 34 f4 0d 3d 80 7b f2 3b
       -0.121449664 0.06315229 0.03465672 0.0073999763
0002f0 32 4f ea 3d 67 e8 20 3e c0 ad 4d bc 49 3e 2d 3e
       0.114408866 0.15713654 -0.012553632 0.16918291
000300 25 e2 41 3e 8f 4d a4 3b b7 6c 18 3d a3 4e 28 3c
       0.18933924 0.0050141285 0.037213054 0.010272655
000310 4a 3f d0 3d 7e 1a 1a bb 60 49 8f 3b db 4a 53 3c
       0.101683214 -0.0023514326 0.0043727607 0.012896265
000320 ac 88 b4 3d 17 30 f5 3d 2e 2f d7 3d 50 c8 4b bd
       0.088151306 0.11972063 0.10507046 -0.04975158
000330 8b dd df 3d f7 7b d4 3d ee 35 65 3d c0 55 84 bb
       0.10930928 0.10375207 0.055959634 -0.0040385425
000340 38 b0 80 bd 64 7c 6f bd fd 81 32 3d 58 96 8d bc
       -0.06283611 -0.058468238 0.043580998 -0.017283604
000350 44 e3 14 3d 10 49 9d bc 26 dd 75 3d a2 17 e8 bd
       0.03634955 -0.019199878 0.060025357 -0.113326326
000360 e1 2c 2b 3e 24 b4 82 3d da 26 df 3d 24 a2 cf bd
       0.16716339 0.06382015 0.10896082 -0.10138348
000370 01 5d c5 bc 8a 26 07 3e 3f d1 ad bc 5f 51 c4 3d
       -0.0240922 0.13198295 -0.02121794 0.09585833
000380 00 95 ac 3b 4d e9 cf 3d 8a ec c5 bd 7c fb 5f 3d
       0.0052667856 0.101519205 -0.09664257 0.054683194
000390 2f 82 01 bc d0 ef f1 3d b0 11 b0 3d 6c be c4 3d
       -0.007904573 0.11813319 0.085971236 0.096066326
0003a0 c1 bc b3 3d 61 4f 1d bd 43 cb 3b bd 50 33 20 bc
       0.08776236 -0.03840578 -0.045848142 -0.009777859
0003b0 48 57 91 bc 42 6e d9 3c 2c f9 28 bd 25 d8 09 3d
       -0.017741814 0.026541833 -0.041253254 0.033653397
0003c0 ee 1c c7 3d 60 ad 57 3d 90 cb 8f 3c 0e 1a cf 3d
       0.09722315 0.052655578 0.01755312 0.101123914
0003d0 95 8d 2b 3e da 76 7e 3c c4 b0 d6 3d 0b fe 73 bd
       0.16753228 0.015531266 0.10482934 -0.059568446
0003e0 72 7b 8b 3d 84 eb 6b bd 3a 93 df 3d 30 b0 fe bc
       0.06810655 -0.057597652 0.10916753 -0.031089872
0003f0 a6 88 81 bd c5 86 35 3e 90 05 19 bd f9 26 39 bd
       -0.06324892 0.17727192 -0.03735882 -0.045203183

fc2.bias f4 [37]
000000 29 3b 18 3c 82 9d 3b 3d de 75 e1 3d 8e f5 df 3c
       0.009291449 0.045804508 0.110088095 0.02733877
000010 f5 cf a4 3d ff c4 80 3d 3a c5 0b 3e ee 1b 3f 3d
       0.08047477 0.06287574 0.13649455 0.046657495
000020 da 4f 88 3d 96 de 39 3d 0b 92 20 3d 28 20 df 3d
       0.066558555 0.04537829 0.039201777 0.10894805
000030 cc 56 21 bd 6d d7 26 bd a2 15 04 3e a2 52 f7 3d
       -0.039389417 -0.04073279 0.12898877 0.12076308
000040 02 12 ba bd 15 0a 54 bd ec 15 fc 3d 87 e4 4d 3d
       -0.09085466 -0.051767427 0.12308869 0.05026677
000050 06 a7 ca 3d 28 39 01 3e 03 96 03 3d f5 86 7d 3d
       0.098951384 0.1261946 0.032125484 0.061896283
000060 af 30 c9 bc 17 68 55 ba fc d3 2d bd f5 91 b5 3d
       -0.024559347 -0.0008140816 -0.042438492 0.0886573
000070 2e b2 ca 3d 65 76 93 3d c8 d5 d3 3d 7b 4c 69 3c
       0.09897266 0.07200316 0.1034351 0.014239426
000080 ad f8 e5 3d 00 1d f3 bc 0f 92 0a 3d 9f b0 2d 3c
       0.11229072 -0.029676914 0.0338307 0.010601192
000090 48 ac b0 bd
       -0.0862661
