models/2017-10-27/gan_model.pth (torch, 117138 bytes, 11 tensors)

generator.0.weight f4 [128, 100]
-0.062458035 -0.02468701 0.01556239 0.094276115 -0.0010465387 -0.04774762 0.028515546 -0.08824943
-0.059834942 -0.033702966 0.00030688473 0.02667889 -0.0026311688 0.060042433 0.046572287 -0.023847936
0.11408129 -0.030106174 -0.077373184 0.013019723 -0.030807592 0.052155178 0.05102077 0.07930715
-0.036513865 -0.03611244 0.06977802 0.07219267 -0.028847253 -0.06798405 -0.0025398126 0.10534334
-0.024284203 0.047318224 0.06099524 -0.024970617 -0.023638751 0.0106227165 0.010213407 -0.011452807
0.09100291 -0.04386196 0.06885175 0.019947074 -0.08609796 0.037210897 0.06967045 -0.005115393
-0.08502479 -0.10023884 0.07364029 -0.016291548 -0.044117033 0.02604697 0.05989707 -0.01252301
-0.09335987 0.030631442 -0.050661873 0.023318863 0.013462341 -0.087210715 -0.049077116 0.08175505
0.023862926 0.012821665 -0.073505536 0.056001283 -0.061096188 -0.093797006 0.04462962 -0.031156365
-0.08028229 0.05104094 -0.06927518 -0.01386372 0.0120732365 -0.033738643 -0.014347343 -0.0564407
-0.00838755 0.06700488 -0.040182956 -0.035376407 0.02544888 -0.034752343 0.032882337 0.01859627
-0.01884733 0.012797072 0.05602491 -0.09257117 -0.07591717 0.055343706 -0.04715835 -0.020618482
-0.0014276922 -0.027822834 0.0040667583 -0.04204678 -0.111423016 -0.0915958 -0.004117599 0.0543369
0.039458647 0.072665565 0.0819754 -0.011985022 -0.13730578 -0.025915913 -0.08840549 0.057645697
0.04609977 0.106766894 -0.099274226 0.07747088 -0.0155394105 -0.06352982 -0.11251696 -0.018281484
-0.049669933 0.04865337 0.089735754 -0.04650341 -0.07337575 0.14151718 0.023258276 0.08762207
-0.14001188 -0.1236381 -0.028923297 0.050181407 -0.055086978 -0.029810013 0.13648915 -0.18357083
0.14935698 0.09004419 0.06055271 -0.00714358 0.14579085 0.025041109 0.051672038 0.12720206
0.1820175 0.11853836 -0.06143162 -0.121064596 -0.20189448 -0.035668008 0.18361789 0.064085886
-0.1066967 0.13480787 0.008443864 -0.044030912 -0.19475988 0.020359954 0.07236198 -0.10754015
0.06555937 -0.07156234 -0.10440516 0.00891026 -0.08848711 -0.078063644 -0.009641879 -0.0050756834
0.03283121 -0.053808786 0.077123255 -0.06899938 -0.20278193 0.12648572 0.08432287 -0.06321681
0.062446754 -0.035844736 -0.023442693 0.0499846 0.011676646 -0.08364211 -0.14903083 -0.1899414
-0.04498267 -0.10422016 0.026622824 -0.022386612 -0.003438485 -0.08096051 0.15609357 0.07531162
-0.10245957 0.11028024 0.07946924 0.060898617 0.02239692 -0.06503902 -0.02133847 0.001953663
-0.11393947 0.11787734 0.14091933 0.05240706 -0.06819725 -0.051212505 0.15355894 0.19202676
-0.06914419 -0.12451817 0.13157828 0.022478044 -0.15379071 -0.114199884 0.1291571 -0.12812363
0.3489584 0.09634954 0.02704014 0.18966231 0.116626896 -0.008904063 0.050998636 -0.124165446
-0.13805401 0.09502615 -0.07407756 -0.041486047 0.20043185 -0.23437181 0.003045723 0.20203553
-0.066259004 -0.20411201 0.14226122 -0.022952398 0.026590092 0.18015103 -0.20092411 0.08980058
0.025829133 0.11070931 0.13793243 -0.0059820823 -0.15218711 0.09124507 -0.081452124 0.11235155
0.1144358 -0.31552085 -0.034184854 -0.10269492 -0.09760479 -0.15919873 0.07618162 -0.09505397
00000000: ffd3 7fbd 6a3c cabc 65f9 7e3c d613 c13d
00000010: 032c 89ba 0293 43bd 6f99 e93c 1ebc b4bd
00000020: 7c15 75bd 1f0c 0abd 5fe5 a039 b08d da3c
00000030: b06f 2cbb 0eef 753d 95c2 3e3d bf5c c3bc
00000040: 74a3 e93d 39a1 f6bc d575 9ebd ad50 553c
00000050: 3460 fcbc aba0 553d 28fb 503d c96b a23d
00000060: 908f 15bd a3ea 13bd c7e7 8e3d c0d9 933d
00000070: 1351 ecbc 393b 8bbd fc72 26bb 40be d73d
00000080: aaef c6bc c1d0 413d 25d6 793d 2e8f ccbc
00000090: 0ea6 c1bc e70a 2e3c 2256 273c 8ea4 3bbc
000000a0: bc5f ba3d 99a8 33bd 2502 8d3d 0c68 a33c
000000b0: 2154 b0bd 746a 183d 62af 8e3d 079f a7bb
000000c0: 7a21 aebd 054a cdbd b8d0 963d da75 85bc
000000d0: 10b4 34bd 7560 d53c a156 753d 502d 4dbc
000000e0: 7633 bfbd caee fa3c d382 4fbd 3307 bf3c
000000f0: 2791 5c3c 889b b2bd 1605 49bd 316f a73d
00000100: 2f7c c33c f611 523c 128a 96bd 9a61 653d
00000110: ff3f 7abd a518 c0bd 8ccd 363d a23b ffbc
00000120: 0b6b a4bd 4e10 513d 25e0 8dbd a824 63bc
00000130: d3ce 453c 8831 0abd 1e11 6bbc 5d2e 67bd
00000140: ef6b 09bc db39 893d e296 24bd dae6 10bd
00000150: 2b7a d03c 7958 0ebd a1af 063d 3457 983c
00000160: b765 9abc cfaa 513c 607a 653d f495 bdbd
00000170: 767a 9bbd 15b0 623d 1d29 41bd 17e8 a8bc
00000180: 6721 bbba b6ec e3bc 7142 853b 3f39 2cbd
00000190: c031 e4bd 9496 bbbd edec 86bb 5f90 5e3d
000001a0: 649f 213d afd1 943d b8e2 a73d d35c 44bc
000001b0: e399 0cbe 9c4d d4bc f00d b5bd e51d 6c3d
000001c0: 1dd3 3c3d 9aa8 da3d 4950 cbbd 0da9 9e3d
000001d0: 0399 7ebc ec1b 82bd 4b6f e6bd 0dc3 95bc
000001e0: b372 4bbd c248 473d 61c7 b73d 5c7a 3ebd
000001f0: 0646 96bd e1e9 103e 2488 be3c 3373 b33d
00000200: 465f 0fbe f935 fdbd 8df0 ecbc 058b 4d3d
00000210: e2a2 61bd 2134 f4bc d0c3 0b3e fef9 3bbe
00000220: 09f1 183e 1769 b83d 1e06 783d b114 eabb
00000230: 324a 153e 0323 cd3c 0fa6 533d 4241 023e
00000240: cc62 3a3e 3dc4 f23d b99f 7bbd b7f0 f7bd
00000250: 6dbd 4ebe 9e18 12bd 5406 3c3e 763f 833d
00000260: cd83 dabd 130b 0a3e 2258 0a3c c259 34bd
00000270: 226f 47be ebc9 a63c 8532 943d 033e dcbd
00000280: fe43 863d 478f 92bd 5fd2 d5bd 57fc 113c
00000290: bb38 b5bd d5df 9fbd f9f8 1dbc eb51 a6bb
000002a0: 057a 063d 9a66 5cbd ccf2 9d3d 8c4f 8dbd
000002b0: 11a6 4fbe 7985 013e 78b1 ac3d d177 81bd
000002c0: 2bc8 7f3d eed1 12bd e40a c0bc a7bc 4c3d
000002d0: 674f 3f3c 8e4c abbd 8a9b 18be 0080 42be
000002e0: c03f 38bd 6171 d5bd 1c18 da3c 2164 b7bc
000002f0: 3558 61bb a0ce a5bd fed6 1f3e fb3c 9a3d
00000300: 53d6 d1bd 9bda e13d c5c0 a23d d470 793d
00000310: bf79 b73c 2d33 85bd 04ce aebc 0709 003b
00000320: 1959 e9bd ad69 f13d 284d 103e c9a8 563d
00000330: 00ab 8bbd 34c4 51bd 8e3e 1d3e aaa2 443e
00000340: 789b 8dbd 6203 ffbd 75bc 063e e023 b83c
00000350: 507b 1dbe a1e1 e9bd c241 043e d732 03be
00000360: adaa b23e e852 c53d 4983 dd3c d636 423e
00000370: 15da ee3d 59e2 11bc f2e3 503d 744a febd
00000380: 085e 0dbe 129d c23d fab5 97bd 46ed 29bd
00000390: 023e 4d3e 2aff 6fbe c19a 473b 67e2 4e3e
000003a0: cdb2 87bd bd02 51be edac 113e ab06 bcbc
000003b0: 77d3 d93c 8379 383e 0dbf 4dbe 5ee9 b73d
000003c0: 9e97 d33c 90bb e23d 293e 0d3e 5805 c4bb
000003d0: f0d6 1bbe b2de ba3d 5fd0 a6bd 9218 e63d
000003e0: 515d ea3d f38b a1be 6b05 0cbd b751 d2bd
000003f0: 05e5 c7bd fe04 23be 1c05 9c3d a8ab c2bd

generator.0.bias f4 [128]
-0.2620204 0.068115406 0.12091004 0.24997418 -0.33423018 0.33682677 -0.054853786 -0.20007145
-0.09699972 -0.046883505 -0.013244536 0.14803359 -0.101042554 0.33667275 0.3519033 0.20808919
0.38857278 -0.2713749 0.14219095 -0.21539372 -0.22443995 -0.32246524 0.17503288 -0.03061738
0.112786956 -0.05378688 0.17834936 0.10175036 0.20196657 -0.0038479036 -0.37479156 -0.07687178
-0.33134222 0.11399159 -0.27363428 -0.26734135 -0.24027146 0.3576678 -0.20087847 -0.30771545
-0.0015501279 0.27570605 -0.019966664 0.16793443 0.1032086 -0.2672244 -0.045481652 0.5390748
0.14257021 0.19233003 -0.3228807 0.08405012 -0.23764649 -0.30394825 -0.10311708 0.3023286
0.32750246 0.6320859 0.107310526 -0.30624148 -0.23798205 -0.040209427 -0.03200438 -0.26864964
0.36128426 -0.009119305 0.11258636 0.020337768 -0.10071092 0.033872243 -0.3303071 -0.2189786
-0.04129276 -0.20730183 0.14843613 -0.28129452 -0.045360867 0.55763716 -0.28832936 -0.09891576
-0.26710305 0.061316617 -0.024188848 0.3131708 0.12680908 -0.051472396 -0.019218601 -0.27411306
0.05428801 0.23987152 0.041738875 -0.37074944 0.026277939 -0.27201208 -0.09543573 0.34415188
-0.16829146 -0.30120456 -0.19805987 -0.25207964 0.040081255 0.11295472 -0.31962544 -0.10425076
0.35052595 0.3099124 0.14839143 -0.091230355 -0.1265628 -0.0147628775 0.2553532 0.063284434
-0.19913605 -0.20387672 -0.3260388 -0.17257403 -0.20013581 -0.23708078 -0.28269333 -0.16502376
-0.340351 0.05513529 -0.33244476 0.57338697 -0.29228938 0.31388766 -0.09564989 0.12355671
00000000: 8a27 86be 1780 8b3d af9f f73d 3bf9 7f3e
00000010: 3820 abbe 8f74 ac3e 5dae 60bd 88df 4cbe
00000020: caa7 c6bd eb08 40bd 9cff 58bc 1e96 173e
00000030: 66ef cebd 5f60 ac3e ab2c b43e 5515 553e
00000040: 03f3 c63e a7f1 8abe 819a 113e 2c90 5cbe
00000050: 96d3 65be 2a1a a5be d23b 333e 4dd1 fabc
00000060: d9fc e63d a24f 5cbd 37a1 363e 7e62 d03d
00000070: 53d0 4e3e 1c2d 7cbb aee4 bfbe f46e 9dbd
00000080: b0a5 a9be 6c74 e93d cb19 8cbe f7e0 88be
00000090: b909 76be 3c20 b73e 16b3 4dbe e18c 9dbe
000000a0: a92d cbba 5829 8d3e 2191 a3bc 01f7 2b3e
000000b0: 085f d33d a3d1 88be f84a 3abd ce00 0a3f
000000c0: edfd 113e 2af2 443e 9e50 a5be 7822 ac3d
000000d0: 9a59 73be 1b9f 9bbe 0c2f d3bd d0ca 9a3e
000000e0: 67ae a73e 62d0 213f 9fc5 db3d afcb 9cbe
000000f0: 91b1 73be a4b2 24bd 0617 03bd 728c 89be
00000100: 40fa b83e 2369 15bc ad93 e63d 649b a63c
00000110: 8741 cebd 9fbd 0a3d 031e a9be ed3b 60be
00000120: 9922 29bd ee46 54be a4ff 173e d605 90be
00000130: 51cc 39bd 4fc1 0e3f e89f 93be 5994 cabd
00000140: bbc1 88be 2227 7b3d b127 c6bc ec57 a03e
00000150: 3dda 013e b8d4 52bd 5470 9dbc 8c58 8cbe
00000160: 1b5d 5e3d e1a0 753e 62f6 2a3d dfd2 bdbe
00000170: d544 d73c 2b45 8bbe cf73 c3bd ad34 b03e
00000180: 9954 2cbe 7c37 9abe 35d0 4abe 9510 81be
00000190: 3e2c 243d ce54 e73d f2a5 a3be 6c81 d5bd
000001a0: 2378 b33e d7ac 9e3e ecf3 173e fbd6 babd
000001b0: ae99 01be ffdf 71bc a8bd 823e 459b 813d
000001c0: 52ea 4bbe 0fc5 50be 8fee a6be 3fb7 30be
000001d0: 67f0 4cbe 4ec5 72be 2ebd 90be fdfb 28be
000001e0: 7c42 aebe 8bd5 613d 3336 aabe 7dc9 123f
000001f0: f4a6 95be e2b5 a03e 17e4 c3bd 4d0b fd3d

generator.2.weight f4 [64, 128]
-0.2706287 -0.031473123 -0.5858384 -0.03176769 -0.23315372 0.14110658 -0.02377834 -0.33694917
-0.13548826 -0.47509405 -0.0073631117 0.02427575 -0.38521394 0.22693533 0.08434648 -0.114813894
0.051506225 -0.27665725 -0.50300556 -0.2859995 0.020011093 -0.0105539095 -0.07335184 -0.091284595
-0.5958203 0.06107072 -0.14251477 -0.35283512 0.13214448 -0.19876708 -0.030247223 0.16617712
-0.22743744 -0.031426698 -0.13068387 0.02745242 -0.035335027 0.16203293 -0.037216816 -0.045873575
0.19783701 -0.6330908 -0.071111254 0.019962188 -0.12749726 -0.23536734 0.18634067 0.08197762
0.015087406 -0.020007502 -0.015885504 0.062987275 0.032028172 -0.117260285 -0.42970186 0.007385856
0.10533846 0.1386414 -0.58396024 -0.22186571 -0.07161151 -0.050275788 -0.2798048 -0.06813437
0.21609542 -0.42914432 0.00061132427 -0.46677902 -0.32633823 -0.24547441 0.012080376 -0.35576224
0.19429836 -0.29175508 -0.04414858 -0.11461692 0.17245004 0.14345063 0.02454063 -0.28631115
-0.24679375 0.003320958 -0.16226257 -0.06680343 0.020535981 -0.11364231 0.23409632 -0.1534381
-0.15503648 -0.08564252 -0.22423093 0.012788997 0.19889112 -0.027480438 -0.44423133 0.14734322
-0.25957793 -0.042905003 -0.05342867 0.05880435 -0.05678636 -0.45905188 -0.09151187 0.07547886
0.13330927 0.059551243 -0.020101015 -0.16738781 -0.32854444 -0.1276295 0.31947154 -0.39598587
-0.102980256 -0.14619438 0.01111908 -0.37955463 -0.35774484 -0.2817769 0.015268646 -0.40333778
-0.084501654 -0.3925637 -0.027769351 0.08599155 -0.23099916 -0.09095163 -0.35855633 0.2056728
0.024133932 0.013850431 0.20804371 0.05591425 0.015983017 0.10551601 0.20017721 -0.07095611
0.1002215 0.048686005 0.047201682 -0.07117575 0.019455794 -0.089984715 -0.09822851 0.07967961
-0.01912413 -0.09858327 0.058880385 -0.04941651 0.03256735 0.014384279 -0.0045390627 -0.05581557
0.007498721 0.17337489 0.030957218 -0.0453938 -0.03487958 0.04976717 0.027216153 0.13669123
-0.03472942 0.016915018 -0.07257526 0.034419525 0.08875172 -0.021788197 0.032589767 0.046823807
0.08777673 0.3271988 -0.0038093145 -0.11521764 -0.0029420287 0.1746803 0.09538767 0.01370563
-0.00984261 -0.050419252 0.06662152 -0.025781171 0.006571286 0.04010147 0.03299235 -0.24698573
0.05551813 0.1337778 0.08062395 0.07051387 -4.7268117e-05 0.10582866 0.04211213 0.06926894
0.06778133 0.1211156 0.059708726 0.051267352 0.06860147 -0.048904065 0.07655894 0.012348233
0.16041529 0.006301461 0.06978999 0.03503003 0.24045521 -0.17235516 0.049072184 0.09722321
0.013577751 0.03092463 0.1814385 0.082905054 -0.18260473 0.16519724 0.13141869 0.07697874
0.040937226 0.00012311913 0.14805298 0.033317007 0.119085155 0.098713286 0.04207353 -0.063112006
-0.06417547 -0.011064582 0.10999346 0.021448355 -0.012093246 0.092872344 0.017027514 0.114339024
0.023871385 -0.07659675 -0.061835665 -0.04669922 0.0613905 0.21713138 0.102146216 0.1545386
-0.029756341 0.042419784 0.12920377 0.014074891 -0.0126669565 0.019530695 0.18437657 0.11035266
0.0015251506 0.0638574 0.11780838 -0.1160011 0.0093548875 0.0003792712 0.07461277 0.055477645
00000000: d88f 8abe f6e9 00bd 81f9 15bf d61e 02bd
00000010: d9bf 6ebe 3e7e 103e cbca c2bc 9a84 acbe
00000020: 6fbd 0abe 873f f3be 4246 f1bb f0dd c63c
00000030: c33a c5be bc61 683e d9bd ac3d 8c23 ebbd
00000040: 31f8 523d 05a6 8dbe f9c4 00bf 876e 92be
00000050: 4eee a33c 4eea 2cbc 7d39 96bd 6bf3 babd
00000060: ae87 18bf 4b25 7a3d 64ef 11be cea6 b4be
00000070: e250 073e 9989 4bbe 06c9 f7bc 562a 2a3e
00000080: 5ce5 68be 48b9 00bd fed1 05be e6e3 e03c
00000090: 76bb 10bd f6eb 253e a970 18bd eee5 3bbd
000000a0: c995 4a3e 3d12 22bf c7a2 91bd be87 a33c
000000b0: a48e 02be 2304 71be 17d0 3e3e e2e3 a73d
000000c0: 2b31 773c c6e6 a3bc 5122 82bc 79ff 803d
000000d0: f92f 033d 2926 f0bd e201 dcbe 0d05 f23b
000000e0: b1bb d73d 03f8 0d3e 6b7e 15bf c430 63be
000000f0: 0ea9 92bd fced 4dbd 9342 8fbe 088a 8bbd
00000100: 1e48 5d3e ceb8 dbbe 4741 203a a9fd eebe
00000110: ce15 a7be a55d 7bbe c5ec 453c 7826 b6be
00000120: 26f6 463e ec60 95be 24d5 34bd 47bc eabd
00000130: be96 303e b9e4 123e 6e09 c93c 6097 92be
00000140: 80b7 7cbe 6ea4 593b 2928 26be 3dd0 88bd
00000150: 133b a83c 4dbd e8bd f2b6 6f3e e11e 1dbe
00000160: e2c1 1ebe 5865 afbd cb9c 65be f188 513c
00000170: 1daa 4b3e a81e e1bc 4a72 e3be 24e1 163e
00000180: 66e7 84be 28bd 2fbd 05d8 5abd d5dc 703d
00000190: d098 68bd d908 ebbe 936a bbbd a994 9a3d
000001a0: 3a82 083e 01ec 733d e2aa a4bc b667 2bbe
000001b0: fa36 a8be 4fb1 02be c691 a33e a9be cabe
000001c0: 50e7 d2bd fbb3 15be cd2c 363c fc54 c2be
000001d0: 552a b7be 1045 90be 5829 7a3c 4a82 cebe
000001e0: 340f adbd 1cfe c8be 8d7c e3bc 561c b03d
000001f0: 0b8b 6cbe d944 babd b294 b7be e49b 523e
00000200: 86b4 c53c ebec 623c 6909 553e 5706 653d
00000210: d1ee 823c c718 d83d 41fb 4c3e 7051 91bd
00000220: ee40 cd3d fa6a 473d 8d56 413d 97c4 91bd
00000230: c261 9f3c e849 b8bd 072c c9bd 102f a33d
00000240: 35aa 9cbc 07e6 c9bd 8f2c 713d f768 4abd
00000250: 5765 053d 0aac 6b3c 6bbc 94bb de9e 64bd
00000260: d5b7 f53b 3089 313e fe99 fd3c d9ee 39bd
00000270: e4dd 0ebd a9d8 4b3d 69f4 de3c c9f8 0b3e
00000280: 7040 0ebd 5d91 8a3c 57a2 94bd 7dfb 0c3d
00000290: 76c3 b53d 297d b2bc d97c 053d 52ca 3f3d
000002a0: 49c4 b33d 9a86 a73e b1a5 79bb 3af7 ebbd
000002b0: 0dcf 40bb 64df 323e 9c5a c33d 948d 603c
000002c0: e642 21bc 6b84 4ebd dd70 883d 0933 d3bc
000002d0: f153 d73b 7041 243d fd22 073d d4e9 7cbe
000002e0: fb66 633d 0cfd 083e 2b1e a53d 9369 903d
000002f0: c141 46b8 b2bc d83d c57d 2c3d e0dc 8d3d
00000300: f0d0 8a3d 750b f83d 2391 743d b7fd 513d
00000310: ed7e 8c3d a14f 48bd efca 9c3d 3e50 4a3c
00000320: e843 243e 7c7c ce3b 0eee 8e3d a67b 0f3d
00000330: e439 763e df7d 30be eaff 483d f61c c73d
00000340: 3775 5e3c a655 fd3c 04cb 393e 20ca a93d
00000350: bcfc 3abe 7729 293e 9f92 063e 08a7 9d3d
00000360: cbad 273d 8a19 0139 339b 173e 6a77 083d
00000370: ebe2 f33d 312a ca3d 4b55 2c3d de40 81bd
00000380: 6e6e 83bd 3848 35bc 4044 e13d 76b4 af3c
00000390: c022 46bc db33 be3d 497d 8b3c 942a ea3d
000003a0: ec8d c33c c2de 9cbd 6547 7dbd ae47 3fbd
000003b0: 9b74 7b3d b057 5e3e 0932 d13d 5e3f 1e3e
000003c0: 92c3 f3bc 5ec0 2d3d fe4d 043e 5f9a 663c
000003d0: 1189 4fbc d6fe 9f3c 36cd 3c3e 9300 e23d
000003e0: 90e7 c73a abc7 823d 8545 f13d fc91 edbd
000003f0: 3e45 193c ebd8 c639 94ce 983d 873c 633d

generator.2.bias f4 [64]
0.06347438 0.14260386 0.26519993 0.17977586 -0.07596596 -0.030168341 -0.004912137 0.24134053
0.16163945 0.54788536 -0.21309647 -0.014663961 0.021762248 0.11011185 0.0026439084 -0.049341965
0.14246629 -0.101200655 0.3668691 -0.0016164045 0.15602238 0.05174041 0.1569646 0.028710974
0.05062128 0.02969013 -0.02046431 0.09567238 -0.06948619 0.44078177 0.1605477 -0.110889
-0.037736326 0.1233216 0.055290733 -0.021822678 0.23340325 0.009108268 -0.021427445 0.040735636
0.31589454 0.39753488 0.024928853 -0.08142504 -0.13650618 0.37091908 0.49535784 0.1072124
0.10640599 0.069009975 -0.096192256 0.054507457 -0.08276876 0.24677025 0.11093182 0.18869594
0.08033369 0.18819171 0.00568141 -0.026615953 0.40274864 0.33749148 -0.09926121 0.22934844
00000000: dbfe 813d bf06 123e 49c8 873e 2a17 383e
00000010: 0b94 9bbd 9923 f7bc fef5 a0bb f921 773e
00000020: d084 253e 3742 0c3f f635 5abe 1c41 70bc
00000030: be46 b23c 5282 e13d 6c45 2d3b cd1a 4abd
00000040: afe2 113e 4a42 cfbd 44d6 bb3e 89dd d3ba
00000050: 55c4 1f3e c1ed 533d 54bb 203e 4733 eb3c
00000060: 4258 4f3d b738 f33c c5a4 a7bc e1ef c33d
00000070: c74e 8ebd 26ae e13e 9e66 243e c619 e3bd
00000080: 6891 1abd 0990 fc3d 8978 623d 79c5 b2bc
00000090: 4301 6f3e d83a 153c 9c88 afbc 69da 263d
000000a0: eebc a13e b189 cb3e 9837 cc3c 2cc2 a6bd
000000b0: 47c8 0bbe 1be9 bd3e 8b9f fd3e 2d92 db3d
000000c0: 62eb d93d 1a55 8d3d 7200 c5bd 3643 5f3d
000000d0: ab82 a9bd 57b1 7c3e 3930 e33d 8239 413e
000000e0: fd85 a43d 54b5 403e 1f2b ba3b b309 dabc
000000f0: 1235 ce3e afcb ac3e 7649 cbbd 51da 6a3e

generator.4.weight f4 [37, 64]
-0.062393527 -0.11046878 -0.14091639 0.11994393 0.06475016 -0.16630945 0.0053084996 -0.19929226
-0.22370394 -0.1515727 -0.09737448 -0.016260749 0.05728724 0.082499236 -0.09543815 -0.06372646
-0.07957279 -0.09018715 -0.31046692 -0.040945712 -0.16516039 0.08752109 -0.027093431 0.027299456
-0.092724904 0.03622922 -0.0942135 -0.048763435 0.08576584 -0.2790235 0.08394017 -0.07343083
0.05383566 -0.013737797 0.07865845 0.011237886 -0.019380037 -0.1065903 -0.038237907 0.05871849
-0.19073121 -0.33295262 0.18326034 0.12619697 -0.0063816397 -0.2749326 -0.12322561 -0.05282346
-0.0648072 0.18415275 0.023307187 0.05749452 0.18253191 -0.066869356 -0.03353337 -0.092068866
-0.007992966 0.03367122 0.2114496 0.042293083 0.082608126 -0.15312606 0.017812507 -0.111750826
0.2683771 -0.031805914 -0.3864686 -0.0039154743 -0.037269834 -0.15106949 -0.0958916 -0.08726569
-0.28710946 -0.4630629 0.06316111 -0.07340418 0.15590884 0.048836473 -0.028023701 -0.098899975
-0.18515141 0.044283696 -0.04350897 -0.14874075 0.07810989 0.30177176 0.16878656 0.15369807
-0.10262369 -0.2083617 0.044094156 -0.0037822796 -0.026235877 -0.084058724 0.09224898 -0.06467036
-0.06273866 -0.19753423 0.027958024 -0.021269603 -0.044147268 0.05826353 -0.031961508 0.18654197
-0.20393474 -0.3455593 0.12533773 0.06825241 -0.044959497 -0.23209074 -0.032180946 0.2204221
0.1933973 0.009542209 -0.08957128 0.33012912 0.17268988 0.17069416 0.09161571 -0.19493605
-0.04609197 -0.00425837 0.20746045 -0.12525953 -0.41795823 -0.15686998 0.042026617 -0.15449429
0.11259012 -0.16883212 0.33462167 -0.14257331 -0.058580138 0.11062057 0.41889095 0.09473345
0.048581626 0.10360955 0.0800392 0.06474502 -0.05931903 -0.027572826 0.21527408 0.024824979
0.28669694 0.06942485 0.16893344 -0.06295499 0.018665185 0.13844937 -0.24267001 -0.17125852
0.0073522693 0.117788546 -0.026347337 0.12664174 0.0672543 -0.06622867 0.2711886 0.15181166
0.013626785 0.1662015 -0.032979902 0.268912 -0.057768993 -0.040925268 0.037496436 -0.050002202
0.49140418 -0.1092813 -0.0019818505 0.087128006 0.050949793 -0.12831613 -0.16711743 -0.23863904
-0.115298495 0.015346439 0.1546296 0.14094874 0.041519213 -0.32244933 -0.24519971 0.29081854
0.24077605 0.14473066 -0.07626008 0.03791721 0.46046153 0.08858615 -0.10412967 0.1290915
0.38766372 0.0035168817 -0.035773274 -0.026925638 -0.08044964 -0.027539887 -0.09443086 -0.11248829
0.18410592 0.041999537 -0.004710167 -0.10432332 -0.01438663 -0.059179235 0.048542615 -0.061256874
0.032908708 0.03439043 -0.08347428 -0.05309257 -0.16553962 0.23786849 0.20213921 -0.024381435
0.12510021 -0.04522882 0.10617854 0.33948925 -0.031203803 -0.08368325 0.24823022 -0.037152205
0.07465131 0.010621696 0.04452045 0.1423317 -0.13103054 0.16284834 0.056626353 -0.059720747
-0.2864164 -0.11201281 0.14402898 -0.11096923 -0.12864643 -0.2889589 -0.48631018 -0.002503584
-0.10450766 0.36361647 0.15776184 0.56972605 0.046253137 -0.25961202 0.00071982335 -0.22891077
-0.22944745 -0.068909265 -0.051292352 0.08559202 0.32308927 -0.18428634 0.022266155 -0.08010954
00000000: 5b90 7fbd 753d e2bd 634c 10be 2aa5 f53d
00000010: bb9b 843d 064d 2abe ecf2 ad3b 4513 4cbe
00000020: a512 65be e035 1bbe 456c c7bd 4335 85bc
00000030: 06a6 6a3d 5cf5 a83d 1475 c3bd 0583 82bd
00000040: 0ff7 a2bd 0ab4 b8bd 85f5 9ebe b1b6 27bd
00000050: ce1f 29be 423e b33d 0bf3 ddbc 1ca3 df3c
00000060: 8ee6 bdbd 1765 143d 02f3 c0bd 2bbc 47bd
00000070: 00a6 af3d 2bdc 8ebe d3e8 ab3d e762 96bd
00000080: c882 5c3d 7f14 61bc ae17 a13d 1c1f 383c
00000090: e2c2 9ebc 044c dabd 5a9f 1cbd cd82 703d
000000a0: 0b4f 43be c478 aabe 99a8 3b3e c739 013e
000000b0: 131d d1bb f7c3 8cbe b55d fcbd 6a5d 58bd
000000c0: a3b9 84bd 8a92 3c3e b7ee be3c 607f 6b3d
000000d0: a5e9 3a3e cdf2 88bd 495a 09bd 9a8e bcbd
000000e0: eef4 02bc d5ea 093d 3e86 583e 833b 2d3d
000000f0: 732e a93d 14cd 1cbe 89eb 913c 9edd e4bd
00000100: b968 893e eb46 02bd 36df c5be 614d 80bb
00000110: 41a8 18bd f6b1 1abe d162 c4bd 5bb8 b2bd
00000120: 0300 93be 9516 edbe 9d5a 813d ee54 96bd
00000130: 91a6 1f3e c108 483d f691 e5bc 128c cabd
00000140: 5598 3dbe d262 353d 7636 32bd 7f4f 18be
00000150: 14f8 9f3d d481 9a3e 62d6 2c3e 0763 1d3e
00000160: 5f2c d2bd c55c 55be 139c 343d 1fe0 77bb
00000170: 9fec d6bc fb26 acbd 09ed bc3d e571 84bd
00000180: 207d 80bd 6a46 4abe 3a08 e53c 973d aebc
00000190: c4d3 34bd bda5 6e3d 12ea 02bd dc04 3f3e
000001a0: 45d4 50be 26ed b0be 8958 003e ebc7 8b3d
000001b0: 7327 38bd 32a9 6dbe 2bd0 03bd 55b6 613e
000001c0: f109 463e ed56 1c3c 2671 b7bd af06 a93e
000001d0: 9ed5 303e 73ca 2e3e 04a1 bb3d 519d 47be
000001e0: efca 3cbd cc89 8bbb 8370 543e 0944 00be
000001f0: 9ffe d5be 86a2 20be 1a24 2c3d c033 1ebe
00000200: a695 e63d 54e2 2cbe 8853 ab3e bdfe 11be
00000210: baf1 6fbd 0a8d e23d e078 d63e 9c03 c23d
00000220: 87fd 463d 3e31 d43d 98eb a33d 0999 843d
00000230: 83f8 72bd 68e0 e1bc cf70 5c3e c15d cb3c
00000240: f1c9 923e 9e2e 8e3d e3fc 2c3e 8cee 80bd
00000250: bbe7 983c acc5 0d3e 7d7e 78be 655e 2fbe
00000260: 4eeb f03b 1f3b f13d 5fd6 d7bc 5fae 013e
00000270: 9fbc 893d e6a2 87bd 3bd9 8a3e 8474 1b3e
00000280: e142 5f3c ba30 2a3e ef15 07bd d5ae 893e
00000290: 2e9f 6cbd 41a1 27bd dd95 193d 1ccf 4cbd
000002a0: 5499 fb3e e0ce dfbd efe1 01bb 2b70 b23d
000002b0: bbb0 503d 4e65 03be d520 2bbe cb5d 74be
000002c0: 9e21 ecbd a16f 7b3c 3957 1e3e de54 103e
000002d0: 0d10 2a3d 1418 a5be a215 7bbe 2be6 943e
000002e0: ff8d 763e 4634 143e 3f2e 9cbd 144f 1b3d
000002f0: 9dc1 eb3e a86c b53d f041 d5bd 9030 043e
00000300: dc7b c63e 7c7b 663b ff86 12bd 2893 dcbc
00000310: c8c2 a4bd 549b e1bc f764 c1bd 4360 e6bd
00000320: 4386 3c3e b507 2c3d bf57 9abb 77a7 d5bd
00000330: e6b5 6bbc ed65 72bd 9fd4 463d 7de8 7abd
00000340: 48cb 063d fbdc 0c3d 90f4 aabd 9877 59bd
00000350: 3883 29be cc93 733e 95fd 4e3e 93bb c7bc
00000360: 451a 003e db41 39bd 2274 d93d 89d1 ad3e
00000370: 1e9f ffbc 2062 abbd 1030 7e3e e92c 18bd
00000380: c9e2 983d 9f06 2e3c 135b 363d 67bf 113e
00000390: df2c 06be b7c1 263e 09f1 673d be9d 74bd
000003a0: 2ca5 92be f966 e5bd 557c 133e d643 e3bd
000003b0: e4bb 03be 6cf2 93be a6fd f8be 2b13 24bb
000003c0: 1d08 d6bd f02b ba3e 528c 213e 91d9 113f
000003d0: ee73 3d3d deeb 84be 87b2 3c3a 9667 6abe
000003e0: 46f4 6abe 4d20 8dbd ee17 52bd de4a af3d
000003f0: f56b a53e 8fb5 3cbe 8367 b63c 7810 a4bd

generator.4.bias f4 [37]
-0.08798434 -0.14822716 0.008558723 -0.111483805 -0.027041027 -0.230336 -0.20066991 -0.2500885
0.09721305 -0.08164535 -0.14387494 -0.12567553 -0.025332969 0.023205828 -0.21174993 -0.071197756
-0.018363167 0.02671168 -0.22847283 -0.23574077 -0.24740678 -0.077500835 -0.08148379 -0.05185913
-0.24290806 -0.06757403 -0.083836615 -0.21814112 -0.1634788 -0.012269891 -0.23709884 -0.06064633
-0.1795115 -0.05716876 0.0020307896 -0.11655664 -0.12597476
00000000: 2231 b4bd dcc8 17be e339 0c3c 9f51 e4bd
00000010: 2585 ddbc 33dd 6bbe 6a7c 4dbe 9a0b 80be
00000020: a317 c73d ad35 a7bd f453 13be 16b1 00be
00000030: 1687 cfbc 261a be3c f9d4 58be 21d0 91bd
00000040: 5a6e 96bc 74d2 da3c c8f4 69be 0766 71be
00000050: 3458 7dbe c2b8 9ebd f9e0 a6bd 3d6a 54bd
00000060: e4bc 78be 4164 8abd 88b2 abbd 6360 5fbe
00000070: fd66 27be a707 49bc 0aca 72be 4968 78bd
00000080: ddd1 37be ca29 6abd ff16 053b 3fb5 eebd
00000090: 87ff 00be

discriminator.0.weight f4 [64, 37]
0.16305968 0.23585574 -0.22271748 -0.08106083 -0.44277638 0.51816833 -0.10250308 -0.08640138
-0.13674462 -0.34027344 -0.028781492 0.045142855 0.21204174 0.18675222 -0.3536141 0.16005541
0.31433427 -0.18067175 0.100606404 -0.071457446 0.23035243 0.03901371 0.10526949 0.2857568
0.13478561 0.17258906 0.056478027 0.06975366 0.06775845 -0.1762492 0.2200641 0.15926345
0.2229399 0.30952698 -0.1420439 -0.26105738 0.24018066 0.3286537 -0.07643209 -0.23101902
0.006113743 -0.24414356 0.14775896 -0.13378766 -0.21016882 -0.23119323 0.031015333 0.05606551
0.20941456 0.03825579 0.16756338 0.14319254 0.11619135 0.2354839 0.61370623 0.16278312
0.3298299 0.32536224 0.5137225 0.40217638 0.007539437 0.21935178 0.07093203 0.14563668
-0.1680099 0.11776736 -0.066889495 0.16063708 0.09951824 -0.05806535 0.013413668 -0.014758808
-0.25381127 -0.14689997 -0.028016493 -0.0038206712 -0.16260962 -0.31048766 0.27514687 -0.14402607
0.013749834 -0.26944938 0.19873035 0.52551097 -0.20947656 -0.21324249 0.14238073 0.08275951
-0.22255293 0.3387796 -0.31719986 0.099908836 -0.0015152509 0.028645756 0.23124732 -0.04479524
-0.31910485 0.014046713 -0.09073646 -0.08001931 0.20443057 0.049599744 0.021845771 0.06619009
-0.0736914 -0.12850569 -0.26978758 -0.044901323 -0.07400606 -0.3568371 0.06722457 -0.070459105
-0.27065927 -0.19117157 -0.112201184 -0.12402285 0.034243908 -0.07776388 -0.09939417 -0.03641233
-0.1166594 -0.049331512 0.18167664 0.09927185 -0.17036293 -0.24555646 -0.08516802 -0.25345597
0.20700315 0.13561048 -0.010092148 -0.09287053 0.008372804 0.022451531 0.079783544 0.09387503
-0.14779563 -0.09865202 0.0009291413 -0.16077311 0.088102676 -0.14624697 -0.0052266587 -0.023678362
-0.038823605 -0.0027528184 -0.22334605 -0.12627643 -0.13374633 -0.027329419 -0.16392767 -0.20452903
-0.1918346 0.02798021 -0.15039262 -0.21892935 0.056195904 -0.19432603 0.4135429 0.06364097
0.09843254 0.32033086 -0.121602625 -0.32719702 0.071929276 0.41636735 0.25242102 -0.1836523
-0.036124494 0.20608974 -0.31045842 -0.028854556 -0.032925483 0.08011425 0.4717762 -0.17469524
0.2191601 -0.09655549 -0.09258711 0.028782304 0.039822623 -0.11427978 0.06558609 0.083861366
-0.043551847 -0.16998154 0.13529071 -0.1336773 0.30323467 0.12793493 -0.11585099 0.021975778
-0.10155907 0.036747485 -0.02321571 -0.18475536 0.22421767 -0.0075415038 -0.06519719 -0.10078186
-0.01344548 0.11870948 -0.4291336 -0.056704663 -0.56007683 -0.32554343 0.0324267 0.019037852
0.006645397 -0.07228866 -0.14026658 -0.013983017 -0.051987514 -0.13193567 0.2551584 0.17194514
-0.15227957 0.08351801 0.035616655 -0.13053761 -0.24920467 -0.08241854 0.22403163 -0.21183152
0.43844658 0.14341512 0.040892947 0.3509619 0.0603422 -0.14611228 0.26957312 0.102346845
0.32598433 0.20192587 0.2827388 -0.12973325 0.27237424 -0.042016618 0.043613475 -0.067279495
0.3492998 -0.06384226 0.28386784 0.49195844 -0.12793307 0.43835697 0.008593811 0.037925582
-0.29505387 0.33153167 0.29560503 0.10228648 0.3395442 -0.28060043 -0.08123153 -0.04548591
00000000: 1ef9 263e 2b84 713e 0d10 64be 3803 a6bd
00000010: 96b3 e2be aea6 043f 23ed d1bd 35f3 b0bd
00000020: c806 0cbe 5238 aebe 2ac7 ebbc b7e7 383d
00000030: 7821 593e f93b 3f3e e80c b5be 91e5 233e
00000040: 6cf0 a03e 0402 39be bb0a ce3d 4858 92bd
00000050: 82e1 6b3e d7cc 1f3d 8897 d73d b74e 923e
00000060: 3d05 0a3e 30bb 303e 8155 673d 02db 8e3d
00000070: f1c4 8a3d ac7a 34be 7c58 613e f515 233e
00000080: 5b4a 643e 527a 9e3e f573 11be 50a9 85be
00000090: ebf1 753e 4c45 a83e 6d88 9cbd 4090 6cbe
000000a0: cb55 c83b c500 7abe 204e 173e a2ff 08be
000000b0: 7f36 57be ebbd 6cbe de13 fe3c f3a4 653d
000000c0: c570 563e 1ab2 1c3d bc95 2b3e 11a1 123e
000000d0: bbf5 ed3d b122 713e da1b 1d3f 9eb0 263e
000000e0: 77df a83e e195 a63e 5183 033f 10ea cd3e
000000f0: 620d f73b c19d 603e d044 913d c821 153e
00000100: ca0a 2cbe 0330 f13d 5cfd 88bd 0c7e 243e
00000110: 38d0 cb3d efd5 6dbd 00c5 5b3c edce 71bc
00000120: 8df3 81be f26c 16be d882 e5bc 3a64 7abb
00000130: 2383 26be 3df8 9ebe 0de0 8c3e 927b 13be
00000140: fc46 613c 45f5 89be f87f 4b3e e387 063f
00000150: 0681 56be 3d5c 5abe 41cc 113e d17d a93d
00000160: eae4 63be 8574 ad3e 0568 a2be 019d cc3d
00000170: 629b c6ba 81aa ea3c 19cc 6c3e 377b 37bd
00000180: b661 a3be 2f24 663c 0ad4 b9bd 2ae1 a3bd
00000190: 3f56 513e 1a29 4b3d e7f5 b23c ab8e 873d
000001a0: 84eb 96bd ff96 03be 9921 8abe 73ea 37bd
000001b0: 7d90 97bd 5ab3 b6be 09ad 893d dd4c 90bd
000001c0: da93 8abe 7bc2 43be bcc9 e5bd b1ff fdbd
000001d0: 5743 0c3d ab42 9fbd 2c8f cbbd 1825 15bd
000001e0: 20eb eebd d70f 4abd 7109 3a3e 0a4f cb3d
000001f0: 9f73 2ebe 2773 7bbe 926c aebd fbc4 81be
00000200: a2f8 533e 79dd 0a3e 8959 25bc e832 bebd
00000210: 162e 093c 46ec b73c 8e65 a33d 8d41 c03d
00000220: bd57 17be 120a cabd 9e91 733a b5a1 24be
00000230: 2d6f b43d c4c1 15be 6444 abbb 20f9 c1bc
00000240: 8005 1fbd a168 34bb d4b4 64be 9c4e 01be
00000250: ccf4 08be f2e1 dfbc a8dc 27be 0f70 51be
00000260: 4a70 44be c136 e53c 8600 1abe 042f 60be
00000270: ad2d 663d 67fd 46be e5bb d33e 3256 823d
00000280: 0097 c93d 6802 a43e cc0a f9bd 5e86 a7be
00000290: a84f 933d 1a2e d53e 543d 813e 590f 3cbe
000002a0: 47f7 13bd 3009 533e 68f4 9ebe 6460 ecbc
000002b0: dfdc 06bd f112 a43d a68c f13e 4fe3 32be
000002c0: 816b 603e e2be c5bd 509e bdbd dec8 eb3c
000002d0: 0c1d 233d 840b eabd 0052 863d 82bf ab3d
000002e0: 6c63 32bd a40f 2ebe a689 0a3e b4e2 08be
000002f0: 9341 9b3e 6001 033e 4943 edbd 8c06 b43c
00000300: 34fe cfbd 8884 163d df2e bebc 8230 3dbe
00000310: 5199 653e b81e f7bb 1b86 85bd b866 cebd
00000320: 6e4a 5cbc f51d f33d 66b7 dbbe 2643 68bd
00000330: 3261 0fbf a1ad a6be dcd1 043d 45f5 9b3c
00000340: a1c1 d93b 140c 94bd 0ba2 0fbe 0619 65bc
00000350: dcf0 54bd 251a 07be 1fa4 823e 6312 303e
00000360: 2def 1bbe 7e0b ab3d c5e2 113d a7ab 05be
00000370: 822f 7fbe 0dcb a8bd 8c68 653e 5dea 58be
00000380: 127c e03e 6adb 123e 5d7f 273d 47b1 b33e
00000390: 6229 773d 759e 15be 7d05 8a3e 399b d13d
000003a0: 6be7 a63e a8c5 4e3e 24c3 903e cbd8 04be
000003b0: a374 8b3e 9e19 2cbd 0ba4 323d d5c9 89bd
000003c0: 6cd7 b23e bbbf 82bd 2057 913e fae1 fb3e
000003d0: e300 03be 5370 e03e 0ecd 0c3c db57 1b3d
000003e0: 4d11 97be 85be a93e 8b59 973e 937b d13d
000003f0: bdd8 ad3e dcaa 8fbe b75c a6bd 6f4f 3abd

discriminator.0.bias f4 [64]
0.07355768 0.10989536 -0.123792395 -0.15742806 -0.03085028 0.27532125 -0.03803036 0.078392036
0.3150894 -0.04820126 -0.048166413 0.15512383 -0.01966875 0.013189278 -0.04699318 0.32867366
-0.027001493 0.076742485 0.27029127 0.024600461 -0.053595643 0.33244997 -0.100096494 0.29494855
-0.39816514 0.25798434 -0.014534175 0.23632231 0.32802284 0.31233168 0.0043410165 0.040063415
-0.04492177 0.11957522 0.38928896 -0.08368012 0.024850126 -0.003962596 0.0035614686 -0.0142068695
0.15397729 -0.45148033 0.26125324 -0.010295144 0.06401511 0.053778272 -0.10351999 0.2911079
-0.4163545 -0.039518427 0.13106659 -0.060840383 0.23449159 0.15597677 -0.104796946 0.27837834
-0.28056514 -0.037802014 -0.024104923 -0.041968662 -0.0025448836 -0.20653157 0.3471026 -0.17740099
00000000: 69a5 963d d210 e13d de86 fdbd d234 21be
00000010: bab9 fcbc e8f6 8c3e b9c5 1bbd 018c a03d
00000020: 6653 a13e af6e 45bd 254a 45bd c8d8 1e3e
00000030: 5c20 a1bc d717 583c ec7b 40bd ea47 a83e
00000040: 3c32 ddbc 2a2b 9d3d 9e63 8a3e e886 c93c
00000050: 1b87 5bbd e236 aa3e 64ff ccbd 7f03 973e
00000060: 4ddc cbbe 8616 843e c020 6ebc 7afe 713e
00000070: 9cf2 a73e f0e9 9f3e 163f 8e3b 8919 243d
00000080: e4ff 37bd dae3 f43d e250 c73e 7c60 abbd
00000090: 7e92 cb3c aad8 81bb 8767 693b eec3 68bc
000000a0: 39ac 1d3e 6e28 e7be fcc2 853e f7ac 28bc
000000b0: 5b1a 833d 9b46 5c3d 4a02 d4bd 180c 953e
000000c0: 6b2c d5be 13de 21bd 5236 063e c433 79bd
000000d0: 901e 703e 60b8 1f3e c89f d6bd 9b87 8e3e
000000e0: 3ca6 8fbe 49d6 1abd b077 c5bc 55e7 2bbd
000000f0: 10c8 26bb 037d 53be 6fb7 b13e 9ba8 35be

discriminator.2.weight f4 [32, 64]
0.3791678 0.29962012 0.26287228 0.12978865 0.41539752 -0.17692155 0.33099058 -0.08666919
0.06919022 0.07261608 0.36062855 0.14384238 0.35614142 0.0008694892 0.27164927 -0.07325347
0.35137445 0.0015543831 0.0024054167 -0.036291502 -0.0844119 -0.20882358 0.43420085 -0.0790444
-0.14858192 0.036276978 0.16132626 -0.046687394 -0.067642264 -0.21083091 0.10152391 0.2773062
0.3706971 0.21126162 -0.10273188 0.17997107 0.43282205 0.33051163 0.19342634 0.15623042
0.2878237 -0.15229154 -0.1703107 0.16112177 0.6130644 0.33090192 0.17806043 -0.020964684
-0.25610358 0.019276168 0.14305766 0.54196435 0.20760627 0.14047012 -0.008325542 -0.15692064
-0.04028629 0.37552857 -0.070863776 0.46170896 0.39658844 -0.110754386 -0.039861515 -0.1190599
0.39576745 0.49732807 0.6472509 -0.010488705 0.56403875 0.050568987 0.5466489 -0.110033326
-0.04441871 -0.04975753 0.52146745 -0.0691305 0.61259 0.0599159 0.42010072 0.044170875
0.63770163 0.19578065 0.013415284 -0.08613016 -0.18543392 -0.15499738 0.5747311 0.02420301
-0.3100517 -0.015780954 -0.028131466 0.062268168 0.022497445 -0.070189275 -0.066639505 0.46047664
0.16985217 0.45692632 -0.2376618 0.19767849 0.44946137 0.68340945 -0.06153981 0.39034545
0.4443213 -0.2962828 -0.079028025 0.22894673 0.38108546 0.2514543 0.6120557 -0.18447487
-0.40478793 0.39352858 -0.0339266 0.44985265 -0.09212093 0.08066658 -0.0640137 -0.23228881
-0.15538959 0.5341077 0.26887044 0.27470294 0.56117386 -0.20325615 -0.1971759 -0.11870253
0.31428865 0.14488003 0.36656672 0.031256992 0.40505582 -0.24527171 0.51149905 -0.11007095
0.014364421 -0.04472018 0.27397498 -0.24207225 0.36414924 -0.25293002 0.24120933 -0.017117763
0.45284596 -0.012147286 0.00510185 -0.22277908 0.014001328 -0.12236507 0.3850331 0.009482097
-0.14314462 -0.058943376 0.06594169 -0.10708258 -0.14387624 -0.31067574 -0.048324298 0.1272652
0.3182241 0.19779667 0.007886853 0.13744791 0.32570967 0.5329112 0.20801644 0.12648615
0.5033976 -0.18375859 -0.1680399 0.23642886 0.26276186 0.25478595 0.3980363 -0.013902575
-0.17833732 0.25322664 -0.06533866 0.39132497 0.06266913 -0.15537159 0.17343713 -0.2008591
-0.045402467 0.23338798 0.22401544 0.18879032 0.1701826 -0.24947816 -0.11082267 0.018796414
-0.30897832 -0.29886815 -0.27299523 0.028937975 -0.52192086 0.2493858 -0.37800846 0.21063691
0.11466941 0.04264673 -0.22986211 0.33604342 -0.36977488 0.14699765 -0.18696636 0.1317951
-0.45632473 0.15046924 0.15280716 0.17641173 0.2813546 0.12892781 -0.36540315 0.23650597
0.34305692 0.1089136 -0.03983608 0.24667537 0.14908586 0.3619744 0.02896109 -0.37858447
-0.21047783 -0.52729565 0.3871044 -0.21807343 -0.14328639 -0.5828094 -0.2137459 -0.31406692
-0.36776876 0.09034451 0.24589404 -0.089841954 -0.5294415 -0.18524088 -0.49926293 0.18316673
0.23636113 -0.09120986 0.28146133 -0.38354406 0.22749929 0.1754672 -0.14367846 0.2542328
0.29656607 -0.5189697 -0.067275114 -0.2986171 -0.4398592 0.13279015 0.44499797 0.33409595
00000000: 4822 c23e cf67 993e 3297 863e 51e7 043e
00000010: fcae d43e ec2a 35be 9977 a93e 9e7f b1bd
00000020: 9ab3 8d3d bdb7 943d 4ea4 b83e 6b4b 133e
00000030: 2b58 b63e 6fee 633a 9d15 8b3e ea05 96bd
00000040: 5ae7 b33e 71bc cb3a 32a4 1d3b 66a6 14bd
00000050: 25e0 acbd d9d5 55be 934f de3e 08e2 a1bd
00000060: dc25 18be 2b97 143d b632 253e 483b 3fbd
00000070: 0788 8abd 0fe4 57be c5eb cf3d 14fb 8d3e
00000080: 03cc bd3e f754 583e 1865 d2bd 564a 383e
00000090: da9a dd3e d238 a93e 8e11 463e defa 1f3e
000000a0: a15d 933e 50f2 1bbe ee65 2ebe 1bfd 243e
000000b0: caf1 1c3f fa6b a93e 7955 363e 21be abbc
000000c0: 0220 83be 0ee9 9d3c b57d 123e 2dbe 0a3f
000000d0: bd96 543e 66d7 0f3e db67 08bc ceaf 20be
000000e0: 3d03 25bd 4845 c03e 0721 91bd 1e65 ec3e
000000f0: a40d cb3e 32d3 e2bd d445 23bd add5 f3bd
00000100: 08a2 ca3e c9a1 fe3e 3cb2 253f d1d8 2bbc
00000110: d864 103f 6d21 4f3d 2ff1 0b3f 2759 e1bd
00000120: 65f0 35bd 8dce 4bbd e47e 053f 4b94 8dbd
00000130: b3d2 1c3f 606a 753d 7117 d73e 85ec 343d
00000140: 6a40 233f b97a 483e c8cb 5b3c 0265 b0bd
00000150: 64e2 3dbe a2b7 1ebe 9421 133f 6445 c63c
00000160: 19bf 9ebe 0f47 81bc f673 e6bc e80c 7f3d
00000170: 904c b83c 65bf 8fbd 4b7a 88bd 98c3 eb3e
00000180: baed 2d3e 3ff2 e93e 9d5d 73be 3b6c 4a3e
00000190: cd1f e63e ecf3 2e3f 2b11 7cbd 5cdb c73e
000001a0: 157e e33e 61b2 97be 72d9 a1bd 0371 6a3e
000001b0: a21d c33e 9ebe 803e afaf 1c3f fbe6 3cbe
000001c0: 5d40 cfbe 947c c93e 9ef6 0abd 1653 e63e
000001d0: e6a9 bcbd 8534 a53d 9d19 83bd 1edd 6dbe
000001e0: 731e 1fbe 48bb 083f 63a9 893e dda5 8c3e
000001f0: 17a9 0f3f 6122 50be 7be8 49be 501a f3bd
00000200: 71ea a03e 6e5b 143e a2ae bb3e 5507 003d
00000210: 7a63 cf3e 8228 7bbe 9af1 023f e16c e1bd
00000220: c058 6b3c 822c 37bd 7346 8c3e cae1 77be
00000230: c571 ba3e 0b80 81be 94ff 763e 8d3a 8cbc
00000240: 6ddb e73e 6905 47bc 6b2d a73b 3320 64be
00000250: d365 653c 8a9a fabd 0f23 c53e cc5a 1b3c
00000260: 8194 12be 9c6e 71bd 700c 873d 1d4e dbbd
00000270: 4b54 13be e410 9fbe b3ef 45bd cf51 023e
00000280: 45ee a23e 368b 4a3e dc37 013c 25bf 0c3e
00000290: 6bc3 a63e de6c 083f 4302 553e 9685 013e
000002a0: aade 003f 362b 3cbe a712 2cbe 681a 723e
000002b0: b988 863e 4e73 823e 6acb cb3e a0c7 63bc
000002c0: 0f9e 36be eca6 813e 46d0 85bd bf5b c83e
000002d0: ac58 803d bb19 1fbe 8199 313e 02ae 4dbe
000002e0: f0f7 39bd 42fd 6e3e 4e64 653e 4052 413e
000002f0: 5944 2e3e 3477 7fbe fff6 e2bd f0fa 993c
00000300: 6832 9ebe 3f05 99be 08c6 8bbe 550f ed3c
00000310: 9b9c 05bf fe5e 7f3e 538a c1be 34b1 573e
00000320: ccd7 ea3d 56ae 2e3d f960 6bbe e20d ac3e
00000330: 2253 bdbe 8d86 163e 1c74 3fbe 4bf5 063e
00000340: 65a3 e9be 9c14 1a3e 7b79 1c3e 47a5 343e
00000350: b60d 903e a705 043e 1f16 bbbe 9f2e 723e
00000360: 28a5 af3e 180e df3d 282b 23bd 7898 7c3e
00000370: f7a9 183e b554 b93e cf3f ed3c d3d5 c1be
00000380: 8087 57be d9fc 06bf 8c32 c63e a44e 5fbe
00000390: abb9 12be ff32 15bf 35e0 5abe 61cd a0be
000003a0: 304c bcbe 8b06 b93d a6cb 7b3e 0fff b7bd
000003b0: 7a89 07bf c9af 3dbe 649f ffbe 0f90 3b3e
000003c0: a708 723e 3ccc babd b31b 903e e35f c4be
000003d0: 93f5 683e acad 333e 7220 13be cd2a 823e
000003e0: 82d7 973e 33db 04bf 89c7 89bd 57e4 98be
000003f0: 3a35 e1be 24fa 073e c6d6 e33e a00e ab3e

discriminator.2.bias f4 [32]
-0.092273295 -0.16407141 0.008395202 0.15710491 -0.039288323 -0.08517361 0.24143314 -0.045240704
0.3924588 -0.17737804 -0.053249866 0.096921176 -0.08345246 0.31232473 -0.024202071 0.499251
0.25197926 0.024892738 -0.06754094 -0.030825993 -0.049590405 0.1269315 -0.040467415 -0.14209372
-0.08267161 -0.10800534 0.06296724 -0.05890742 -0.17815161 -0.11244253 -0.0011107096 0.029060757
00000000: c8f9 bcbd 5602 28be 088c 093c 1ce0 203e
00000010: cbec 20bd 806f aebd 403a 773e 514e 39bd
00000020: 5cf0 c83e 97a2 35be 881c 5abd 9c7e c63d
00000030: 20e9 aabd 07e9 9f3e 6c43 c6bc d49d ff3e
00000040: 6d03 813e dbeb cb3c e852 8abd cb86 fcbc
00000050: 4f1f 4bbd 55fa 013e 29c1 25bd 0481 11be
00000060: bc4f a9bd e731 ddbd f8f4 803d e848 71bd
00000070: 606d 36be 4548 e6bd 3b95 91ba d310 ee3c

discriminator.4.weight f4 [1, 32]
0.4337064 0.39896265 0.36115506 -0.32888833 -0.14147063 -0.12659644 -0.4460729 0.24787116
-0.57406133 0.52039254 0.34629112 -0.47912607 0.33763495 -0.361111 0.31220493 -0.90096986
-0.38864964 0.5617654 0.34714144 -0.15954156 0.42196324 -0.37756142 0.5015905 0.71256626
0.31102324 0.47189277 -0.41629246 0.413161 0.44697642 0.3945172 -0.096321076 0.4651628
00000000: c40e de3e d544 cc3e 51e9 b83e 0d64 a8be
00000010: addd 10be 7fa2 01be ab63 e4be f0d1 7d3e
00000020: aff5 12bf 7238 053f 124d b13e 0350 f5be
00000030: 7dde ac3e 8ae3 b8be 53d9 9f3e f6a5 66bf
00000040: 16fd c6be dbcf 0f3f 86bc b13e dd5e 23be
00000050: 910b d83e bb4f c1be 3c68 003f be6a 363f
00000060: 703e 9f3e ee9b f13e 4924 d5be d789 d33e
00000070: 18da e43e 29fe c93e fc43 c5bd d229 ee3e
