models/2023-05-12/lstm_model.onnx (onnx, 468420 bytes, 6 tensors)

fc.weight f4 [7, 256]
00000000: 9b8e 7e3d c758 453d 131f 303d 4c2e 24bd
00000010: 3838 c33d 7e34 603d 32f7 69bd 2e57 2fbd
00000020: bcab 973d cb28 b0bb 1bfe acbd 7a22 b8bd
00000030: 125d 023d 5f14 aa3c 583a ba3d 8349 683d
00000040: 3889 53bd 870a 0fbc cff4 03be 7218 dbbd
00000050: 10d5 ad3d ade3 5bbd e0e4 3f3d 3f0f debc
00000060: b319 f2bd 97ae 133d 6d52 c8bd 638f 1e3d
00000070: 2d67 2bbd 3230 ffbb 7543 0f3d b4d8 213e
00000080: a99c 393c 6b2f bc3c ac9c 7e3d e98e 4d3d
00000090: 4807 24bd 610b 31bd c633 bf3d 03f3 e13d
000000a0: 2bd5 7f3c 664a 8f3b cb79 34bc 8a92 e7bc
000000b0: 6118 c43d f63b ef3c a900 e6bd 1b8f 973c
000000c0: b618 efbc f109 023d fa06 a4bb 989e 0abe
000000d0: c101 8d3c 9b19 4c3d 1671 a13d fa08 5d3d
000000e0: be1a 4a3d 71b8 d0bd 0d40 dabd c367 f5bd
000000f0: 3cc6 683d c6cb fb3b 657a ad3c 3432 bbbc
00000100: 3372 2e3c 1cfd eeba cdc8 913c a2d9 a1bd
00000110: 6ecf e93d ec3e 89bc df25 40bd d10a 523a
00000120: cb17 8abc 555c 4e3d d3d7 953d 657f 15bd
00000130: df50 0ebe 8e94 42bc e6ee 973c 7fb5 b4bd
00000140: deff 82b9 75ab 4abd 72ba 8c3c d610 583d
00000150: fa32 a93c d52e 9fbc 091f eabd 6376 de3d
00000160: fd1a 04bc 7eec 9a3d 5a5c 65bd 6a99 65bb
00000170: f7af c8bb 2d1a c93c 0d3f 5c3d de55 81bc
00000180: 827c 08bc 90e0 8c3d bf10 973d 2612 1a3d
00000190: 242d 963d 73eb 52bd 3bed 463b 8263 92bd
000001a0: a49d 053c d99b 293d e52e f33b 2b97 93bd
000001b0: ec76 81bc 6dc5 f23c 657e e83d 00fa 10bc
000001c0: fe91 abbd e4e3 78bd 8e96 553c 4dd5 13bd
000001d0: 0ecb d0bc 8293 08bd 7ff9 3d3d 7c6a b23c
000001e0: 83ce 02be ec9a 6ebd d443 b1bd 7d9a 66bd
000001f0: 27fb 943d 69bf a03d 2523 ba3c b334 e0bd
00000200: 8927 d13c 6b2b 753c 2c64 1bbd 5b1c 463d
00000210: bb15 263c 59a2 8b3d 9d03 c8bb d674 123b
00000220: 76b7 11bd 0da8 60bc 1315 1b3c 4603 67bd
00000230: 1d70 d5bc e2f2 f43a 4950 3b3b 3219 a7bc
00000240: 196e 30bd 3248 babd 5cf0 c63d 4f4d 463c
00000250: 95d7 c33c 25db 813d 4c01 67bd 81e9 bbbd
00000260: 25ee 953c 1d7f 593c caed f43c c2bd e73d
00000270: c7eb 63bd b8a2 ee3c 5a27 b83d dffe e63c
00000280: 1723 21bd f397 413d e988 1dbd fb56 8f3c
00000290: 687a a6bc 4012 21be e5a4 423d e2ec 10bd
000002a0: 4b76 2bbc 0428 b1bd c4fc 4f3e 917f 823b
000002b0: c81d bd3c 1432 893d 3570 fcbb 760b 7bbd
000002c0: 1456 533d 6910 2a3e ee2e e43c 7bc6 1cbd
000002d0: 4dc4 c13d 34da 403d da04 a0bb 3fdd b83d
000002e0: 2017 003e 4e37 9c3d 6e4e 8f3d e1db 793d
000002f0: 7e29 62bd 4ae8 c23b c8ea 9bbd 4eec b6bc
00000300: 4326 3c3c 80d5 c9bc d79f 22bd a857 063d
00000310: 4ee7 1dbc 82e8 3ebc bb1f ef3c 7fcb 22bd
00000320: 3022 083d f4a1 caba 5fce 28bd cc11 1ebc
00000330: 06e0 a03d 0377 a23d aecf babd 4808 3abc
00000340: 2608 cebd 1b13 a73d 751a 12be ec59 d13d
00000350: bc73 c63d e895 8dbc deff 343e 69aa bd3c
00000360: 8bd7 36bd c9ff 9f3d cae6 dd3a b7a1 dc3b
00000370: 5920 b33c 5e9a 43bd 6cdf d7bc 49f6 e1bc
00000380: 60ce fcbd d731 30bd a237 743d 3b8e 6dbd
00000390: 513d 67bc 9825 0ebd 4cc2 a93d 25b0 ac3c
000003a0: 6704 0b3c 1868 073d 59f1 35bd c891 493d
000003b0: d18e 973b 965e b43d 24fa a33d d427 953d
000003c0: b122 083d fa87 f73c 112f 68bd b990 bd3d
000003d0: 6d9a 7b3d 613e c83d f390 9f3c 0501 293c
000003e0: 3daa e1bb 9c7f 7dbd 7f95 ba3b ba93 a53d
000003f0: c66a 84bc cf85 05be 07cb fabd 25f0 ecbc
0.062147718 0.048180368 0.042998385 -0.040083215 0.09532207 0.05473756 -0.05712051 -0.04280775
0.074058026 -0.0053759567 -0.08446904 -0.08990951 0.03182704 0.020761667 0.090931594 0.05671073
-0.051644534 -0.008730537 -0.12886356 -0.10698022 0.08487904 -0.053683925 0.04684913 -0.02710688
-0.11821308 0.036055174 -0.097813465 0.038710963 -0.041846443 -0.0077877278 0.03497644 0.15805322
0.011328855 0.02297183 0.062161133 0.050185118 -0.040046006 -0.043223742 0.09336047 0.11032679
0.015614788 0.0043728827 -0.011015366 -0.028268117 0.095749624 0.029203396 -0.11230595 0.018500855
-0.029186588 0.031747762 -0.0050057145 -0.13537061 0.01721275 0.049829107 0.078828976 0.05396364
0.04934191 -0.101914294 -0.10656748 -0.119826816 0.056829676 0.007684204 0.021176526 -0.022851087
0.010647344 -0.0018233391 0.017795945 -0.07902838 0.11416517 -0.016753636 -0.046911117 0.0008012476
-0.016857048 0.050381023 0.07316556 -0.036498446 -0.13898037 -0.0118762385 0.018546533 -0.0882368
-0.00024986168 -0.04947992 0.017178748 0.05275043 0.02065419 -0.019431511 -0.11431701 0.10862424
-0.008063075 0.075646386 -0.055996276 -0.003503407 -0.0061244923 0.024548614 0.053771067 -0.015788015
-0.008330466 0.068787694 0.07376241 0.037614964 0.07332829 -0.051494073 0.0030353803 -0.07147886
0.00815526 0.041408394 0.0074213617 -0.072065674 -0.015803777 0.029635156 0.11352233 -0.008848667
-0.08377455 -0.06076421 0.013036383 -0.03609209 -0.025487449 -0.0333438 0.046380516 0.021779291
-0.1277409 -0.058253214 -0.08655515 -0.056299675 0.07274466 0.078490086 0.022721836 -0.109475516
0.025531547 0.014963965 -0.03793733 0.048366886 0.010137017 0.06818075 -0.0061039464 0.0022347472
-0.035575353 -0.013711941 0.009465474 -0.056399606 -0.026054436 0.0018688107 0.002858179 -0.020397756
-0.043073747 -0.090958014 0.09713814 0.012103393 0.023906508 0.063406266 -0.05639772 -0.09175397
0.018302033 0.013274935 0.029898543 0.1131549 -0.055644777 0.029130325 0.08991881 0.028197704
-0.039340105 0.04726405 -0.038460646 0.01749753 -0.02032204 -0.15729618 0.047520537 -0.03538216
-0.010465215 -0.086502105 0.20311266 0.0039824923 0.02308549 0.06699005 -0.007703806 -0.061290227
0.051595762 0.16607822 0.02785441 -0.038275223 0.094612695 0.047083095 -0.004883391 0.09026574
0.12508821 0.07627736 0.06997381 0.06100071 -0.05521535 0.005948101 -0.0761314 -0.022329476
0.011483732 -0.024637938 -0.039703216 0.03279844 -0.009637667 -0.011652114 0.029189935 -0.03974485
0.03323573 -0.0015459643 -0.041212436 -0.009647798 0.07855229 0.07932856 -0.09121643 -0.0113545135
-0.10060148 0.08157941 -0.14267905 0.10222229 0.09690043 -0.017283395 0.1767573 0.023152547
-0.04463915 0.07812459 0.0016929742 0.006733145 0.02186601 -0.047754638 -0.026351653 -0.027583258
-0.123440504 -0.04301628 0.059623368 -0.05799697 -0.01411374 -0.03470382 0.08289012 0.021080086
0.008484936 0.033058256 -0.04441962 0.049211293 0.0046251793 0.08807103 0.08006695 0.07282987
0.03323621 0.030216206 -0.05668551 0.09256119 0.06142657 0.09777523 0.019478297 0.0103151845
-0.006886749 -0.061889276 0.005694091 0.08084817 -0.016164195 -0.13039325 -0.12245756 -0.028923104

fc.bias f4 [7]
00000000: 72ac 273d b119 273d d552 ac3d 3777 8c3d
00000010: 64d4 9f3d a4ab cc3d 0f54 e03d
0.04093594 0.040795986 0.084142365 0.06858676 0.07804182 0.09993675 0.10953533

onnx::GRU_197 f4 [2, 768]
00000000: 0661 e8bd 3662 13be 9831 e3bd d202 efbd
00000010: c00a 9abd fabf 0bbe 2e4c 64bd eec7 4cbe
00000020: 1211 debd 2d89 afbd 8047 7dbe 4a08 b3bd
00000030: ced5 17be add9 a0bd ca04 d4bd 79ec 1fbe
00000040: 6794 85bd 630e 57be 127c 68be 84c3 29be
00000050: e4fc 51be 3595 9cbd fae9 11be e7a0 e5bd
00000060: 7b84 4abe 5d3a bdbd c3da d9bd 40b1 6dbe
00000070: f74c 4fbe 6a70 4dbe ccb0 d9bd 39f6 74bd
00000080: 201e 4fbe fea0 d0bd 12e5 68be 71d3 34be
00000090: 34f3 8fbd a6b8 41be 798c 99bd 9054 1fbe
000000a0: 3841 96bd 3d57 c9bd 6b57 d5bd e92c 69be
000000b0: c6d7 f8bd 80f2 67be 5610 21be 2175 d8bd
000000c0: c903 f9bd f090 41be ca5f 4abd 1b4d 04be
000000d0: 7270 72bd 16b5 54be 43e4 0cbe 0511 34be
000000e0: 2d35 32be a087 35be 2ef5 1abe 0f3e 69bd
000000f0: 01fb fbbd e186 2dbe 86c8 2fbe d6f3 55bd
00000100: 21fc ddbd 78fa 6abe 54e3 1abe b83a 25be
00000110: 2995 3cbe 38eb 04be bfac 1bbe 9d67 dabd
00000120: 8477 84bd d277 38be 1b81 bebd 3c85 6bbe
00000130: 56e2 67be c58e 85bd 979f e5bd 16b5 bdbd
00000140: 7ab4 0bbe 1978 61bd 118b 37be 27c8 50be
00000150: 049c 85bd 3e51 4abe 38c3 25be d2bc c8bd
00000160: fd90 32be 1e3c f1bd 502c b9bd 5d4e c7bd
00000170: ff3c 1abe fdb5 9fbd 1d9f efbd c45b a5bd
00000180: 89ed 00be f0d2 18be 0278 9bbd b6ac 43be
00000190: 1b1d 51be 9235 d2bd bd11 6cbe aef0 8cbd
000001a0: a4ce 0cbe e59a cbbd 31df 48be 4638 8fbd
000001b0: b272 2fbe 4f8b 06be 6ab0 e5bd ab15 53bd
000001c0: cfbc 46be 09fc 3abe b33e 50be 5edc 10bd
000001d0: 11cf 1dbe 0331 1abe 18d9 dcbd 2df1 19be
000001e0: 4557 3abe f713 52be 6e9e f7bd 3e55 6ebe
000001f0: 9117 0dbe d38f 9abd 2f31 12be b04c 8dbd
00000200: b928 af3c 26d0 fd3d 68ba 1d3e d6a9 be3d
00000210: 9723 093d 16a8 893d 1e79 e53c bd15 343d
00000220: cd04 b83d 44e0 76bb 04e8 e6bd 4218 d13d
00000230: efb5 993d 94ca 9fbb db52 ab3d 280d 183e
00000240: cb77 4bbd 49ce 153e c106 63bd a60c d4bc
00000250: 1f2c cd3c 1c8f f73c 032b 773c 3192 ad3d
00000260: 12e8 63bd 7187 a5bd 5f68 ec3d 3be3 6dbd
00000270: ccb7 3c3e 6f81 053e 0240 ae3d 93e3 a8bc
00000280: 24c6 d13d 267e 003e d793 4a3e 7e73 523e
00000290: 22ce 2e3e 9536 c33c ab64 113e 5e7e 9c3d
000002a0: ec12 063d 5d0d efbc 8f8f 5d3d ee6f d33c
000002b0: ace3 cb3d 4a18 453e e4f5 4fbd 4a6b 973c
000002c0: 845f bfbd b160 1a3d b54a 87bd e042 bb3d
000002d0: fd06 333c 0827 73bd 3645 a63d 98c0 353d
000002e0: 4e37 cf3d 2bc3 fdbd a6b0 533d d413 10bc
000002f0: 4e94 fd3c ae8b 28bd 079d b63d 5bc0 e2bd
00000300: 299d dbbc d9bd 953d 2fcf 0b3e a80e 063e
00000310: a4a8 be3d 8949 97bd 89e1 003e 6582 c9bd
00000320: fc85 0c3e 17f8 863c f341 a939 2121 333e
00000330: 232c 62bd 106b cc3c ad6b 293e 4d2e 9cbd
00000340: 9d0e 363b edf1 eb3a 8b5a b7bb 9641 073e
00000350: 8577 863d dee7 8a3d e4d5 003e 1231 b9bc
00000360: 5a59 883d 3c05 be3d 82ae 8fbc cbd1 ef3d
00000370: c1e9 4e3d 77dd 7e3d 88b4 883c 8601 4b3c
00000380: d6c0 c03d e223 143e 78e2 403e 82bc 493e
00000390: 07b4 1e3e fa5e 603d b246 85bc fbcc bb3d
000003a0: 1853 b3bc 311b 783d 94af ba3d 49b9 263e
000003b0: 3f1b 3e3d 5435 343e de02 4a3a 3df4 e23d
000003c0: c701 60bd 311b ca3c 7c15 dcbc 4bcd 033e
000003d0: 49ec 86bd b271 8a3c d621 e83d fcd5 9a3c
000003e0: 5591 84bd 10d0 a03d 4e89 783d 6ae9 9fbd
000003f0: 812c 5f3d 5b7f 8cbc f669 d1bd b517 e83d
-0.11346631 -0.14392933 -0.11093444 -0.1167046 -0.07521582 -0.13647452 -0.055736713 -0.19998142
-0.108431 -0.08571086 -0.24734306 -0.087418154 -0.14827654 -0.07854018 -0.10352476 -0.15617551
-0.06522446 -0.21001582 -0.22703579 -0.1657849 -0.20506626 -0.076456465 -0.14249411 -0.1121233
-0.197771 -0.092396475 -0.106374286 -0.23212147 -0.20244204 -0.20062414 -0.106294245 -0.05980513
-0.20226336 -0.10186957 -0.22743633 -0.17658783 -0.07028809 -0.18918094 -0.07497496 -0.15559602
-0.07336658 -0.098310925 -0.10417064 -0.22771038 -0.121505305 -0.226511 -0.15728888 -0.105692156
-0.12158925 -0.18902946 -0.049407758 -0.12920038 -0.059189267 -0.20772204 -0.1375895 -0.17584617
-0.17403097 -0.17727518 -0.15132591 -0.05694395 -0.123037346 -0.16945983 -0.17166337 -0.052234493
-0.108391054 -0.22947109 -0.15125781 -0.1613568 -0.18416275 -0.12980354 -0.15202616 -0.10664294
-0.06468108 -0.18014458 -0.09301969 -0.23000044 -0.22644934 -0.06521372 -0.1121208 -0.09263055
-0.13643065 -0.055046175 -0.17924143 -0.20388852 -0.06523898 -0.19757554 -0.16187751 -0.098016396
-0.17438121 -0.117790446 -0.09041655 -0.097317435 -0.1506233 -0.077983834 -0.1170027 -0.080741435
-0.12590612 -0.14924216 -0.07591249 -0.19108853 -0.20421259 -0.10264124 -0.23053642 -0.068818435
-0.13750702 -0.09941653 -0.19616391 -0.06993155 -0.17133597 -0.1313908 -0.11215289 -0.051534336
-0.19407962 -0.18260206 -0.20336418 -0.03536641 -0.15411021 -0.15057759 -0.10783595 -0.15033408
-0.18197353 -0.20515428 -0.12090765 -0.23274705 -0.13778521 -0.075469635 -0.14276575 -0.068993926
0.021381723 0.12393217 0.1540314 0.093097374 0.033481207 0.06721513 0.028011855 0.043966044
0.08985291 -0.0037670294 -0.11274722 0.10209705 0.07505404 -0.004876444 0.08365413 0.14848769
-0.04967479 0.14629473 -0.055426363 -0.025884937 0.025045453 0.030219607 0.015085938 0.084751494
-0.05564124 -0.08082474 0.11543345 -0.058078032 0.18429488 0.13037656 0.08508302 -0.020616328
0.102428705 0.12548122 0.19782959 0.2055187 0.17070821 0.023829738 0.14198558 0.0764129
0.03273289 -0.029181177 0.054091986 0.025810208 0.09955534 0.19247547 -0.05077161 0.018483777
-0.0934439 0.03768987 -0.06606046 0.09143615 0.010926959 -0.059363395 0.0811867 0.044373125
0.101179704 -0.12390741 0.051682137 -0.00879379 0.030954506 -0.041148834 0.08916669 -0.11071845
-0.026808338 0.07311601 0.13653253 0.13091528 0.093095094 -0.073870726 0.12586035 -0.09839324
0.13722986 0.01647572 0.00032283328 0.17493106 -0.055217873 0.024953395 0.16544981 -0.07626019
0.0027779706 0.0018001177 -0.0055955104 0.13208613 0.06565765 0.067825064 0.12581593 -0.022606406
0.066576675 0.09278342 -0.017539266 0.11709937 0.050515894 0.062222924 0.016687647 0.0123905
0.094117805 0.14466813 0.18836391 0.19700816 0.15498362 0.054778077 -0.016269062 0.09169956
-0.021890208 0.060572807 0.0911552 0.16281618 0.046412703 0.17598468 0.0007706116 0.11081741
-0.054689195 0.024671169 -0.026865713 0.12871282 -0.065880366 0.016899917 0.11334579 0.018900864
-0.064730324 0.07852185 0.06067782 -0.07808192 0.0544858 -0.017150572 -0.102252886 0.11332647

onnx::GRU_198 f4 [2, 384, 19]
00000000: 39e9 bebd 3927 b6bd e51d a2be 7526 9fbd
00000010: 4650 0abe ce32 09be 9f46 5bbc 73dd 17be
00000020: a2ae efbd 75fd 0fbe 9fa9 91bd e6b6 b3be
00000030: 1748 cabd d8c3 91be 56a3 02be 327a 9ebd
00000040: 618a fabd d1d0 9ebd e734 06be b287 a83c
00000050: e98d bfbd f4ae 84be 132a 4fbe 1711 46be
00000060: c19e 94bd 97c5 dcbc 3cdc 47bd 29ff 17be
00000070: 53c5 e7bd 6bcc debd 81e7 55be e075 41bd
00000080: 7527 71be 077e 28be 7331 66bd c63d 2fbe
00000090: b5b3 2bbd 2e43 53be f0f8 c5bc 00f3 53be
000000a0: 1e47 97be 391a d7bd 0053 5ebe 6eed 5fbe
000000b0: ef02 8ebb 2891 d8bc 3bf4 b4bd 56e9 49be
000000c0: 6e23 fcbd 52a1 91be 5750 80bd a490 84be
000000d0: a45e 18be 3b6e 37be 93de 05be 9533 e93a
000000e0: 389a 45bd 3ecc a8bd 8a55 37be 6114 4abe
000000f0: 02f0 e6bd e9d2 25be e479 2bbe ed39 d8bd
00000100: b1b8 91bd 6f27 b1bd 3fdf c4bd 29de bfbd
00000110: 3f27 56be 0b7c 25be 1719 9abe 3591 27be
00000120: 0421 73be bafd 50be f7ba 56be 44ca 06be
00000130: 6a5c 7cbd fa0b 23be f1c3 b8be b586 12bd
00000140: b974 16be 16f9 b8bd e80b d0bb fb26 18be
00000150: 16f6 dbbd 0be6 d5bd a466 c33c 5b8c 9fbe
00000160: 9436 44bd dcd8 abbe db64 33be d992 93bd
00000170: 8977 10be e1c2 c1bc 1d36 d3bd 6658 aabd
00000180: 1ebb a4bd 7992 41be 7d22 19be e672 53be
00000190: 918f 2fbe 44a8 20be 6f96 6abd 6674 f9bd
000001a0: 948a 1abe 275e 84bd 9bbd 72be e5b6 4dbe
000001b0: e2cb 2abe ba94 cabd d10c 56be 23e0 8bbd
000001c0: 1993 9cbd 713b 23be 50f3 fe3d 0822 1fbe
000001d0: 58a0 adbe 47a9 24be d5d6 23be 5a75 61be
000001e0: e25b 273d afb7 66bd 11bf 8cbc 7782 4bbe
000001f0: 4f0c 1dbe 19ed 5dbe c5d6 b8bd dd9c 56be
00000200: d2c7 4bbe c225 7fb9 31be 983d 598b 023e
00000210: 1a98 07be 5d8e 413c e982 20be debe 11be
00000220: 6657 27be 6475 32be 98e7 2abe 7bfb 8abd
00000230: ee38 e5bd fc9f 21bd 3ee9 e4bd 2368 5abe
00000240: c06f 64be 4015 66be 08d4 88be 3bfd 0fbe
00000250: e3d3 e8bd 45d2 e4bd e8e2 d33c 9a07 3ebe
00000260: c77f 95bd b22d 30be 9ef2 74be 7a37 2dbe
00000270: 49ef b2bd 454d 51be d1b2 22be afcf dfbd
00000280: 587d 82bd c4ac 02be 05b9 acbd a4f9 63be
00000290: f038 93bd 831f 27be d00b b9bd 2f68 20be
000002a0: f802 47be 6b5d fdbd 8bdd dfbd 417b b23c
000002b0: 12e0 36be 3ef0 48be 1bfc 07be d97c 17be
000002c0: 05d2 11be afa2 e3bd b51a bdbc b2c8 e1bd
000002d0: 7a4c c9bd 98b0 3bbe e23a a1be 29e3 fbbd
000002e0: 8e0c 39be dff1 bebd 8478 fabd 1f4b 53be
000002f0: b287 b1bd df09 3dbe 9a41 833e 461b 1dbe
00000300: 3c9c 8cbe 5173 62be 4101 c7be ad9f 6dbe
00000310: 7dbd 443b cca7 8fbd 9aa2 9cbb f245 eebd
00000320: 5094 55be 845d 08be f2bb 62be 3285 61be
00000330: 0404 0dbe 8c7e cdbc 2f50 b13d 4afa a13e
00000340: b48e 20be d199 f1bd e4d8 9abd a44b 84be
00000350: 6b73 2bbe 62ae acbd 7fdf 43be 413c 05be
00000360: 5923 4abd 93e6 08be 7b94 4fbe 9890 71bd
00000370: 31ec 8abe cdf4 2dbe db49 a8be 28c0 4bbe
00000380: cf4c 07be 8299 56be 2d4f 0dbe 2620 0cbe
00000390: 6eb8 983d fab8 1fbe bd94 c4be 7cdb 53be
000003a0: 194e 38be bb63 73be 926a b7bd 0d62 3d3d
000003b0: ce94 04bd 7871 39be 6244 a4bd 103c 80be
000003c0: 9fd7 36be 42a9 a0be 73bd 40be cecb babd
000003d0: d252 e4bc 7c3b 66bc 9d80 8bbc 9e06 dbbd
000003e0: f2e5 9dbd 2ced a4be 358b 2bbe 1b06 06be
000003f0: 7307 50be 9b1c f4bc 065d 30be 0a99 eebd
-0.093218274 -0.088942 -0.31663433 -0.07771007 -0.13507184 -0.13398287 -0.013383537 -0.1483057
-0.117032304 -0.1406153 -0.07112431 -0.35100478 -0.09877031 -0.2846973 -0.1275762 -0.07738151
-0.12233425 -0.07754672 -0.13106118 0.020572517 -0.09353239 -0.2591473 -0.20230894 -0.19342457
-0.072568424 -0.026949687 -0.048794016 -0.1484343 -0.113169335 -0.108788334 -0.20889093 -0.047231555
-0.23550208 -0.16454326 -0.056199502 -0.17113408 -0.04191943 -0.20631096 -0.024166554 -0.20698166
-0.29546446 -0.105030484 -0.2171135 -0.21867916 -0.004333846 -0.026436403 -0.08835646 -0.19717917
-0.12311445 -0.2844339 -0.062653236 -0.25891602 -0.14879853 -0.17913143 -0.13073187 0.0017791862
-0.048242778 -0.08242081 -0.17903724 -0.19734336 -0.112762466 -0.16193737 -0.16745716 -0.105579235
-0.07115305 -0.086500995 -0.09612893 -0.093685456 -0.20913409 -0.161606 -0.30097267 -0.16363986
-0.23743063 -0.20409289 -0.20969759 -0.13163096 -0.06161157 -0.15922537 -0.3608699 -0.035772998
-0.14692964 -0.09031884 -0.0063490756 -0.1485862 -0.107402965 -0.10444268 0.023852654 -0.3116177
-0.047903612 -0.33563888 -0.17518942 -0.07205743 -0.14108099 -0.023652496 -0.10313056 -0.08317642
-0.08043502 -0.18903531 -0.14954562 -0.20649299 -0.1714461 -0.15689188 -0.05727237 -0.12180404
-0.15091926 -0.06463271 -0.23705141 -0.200893 -0.16679338 -0.098916486 -0.20903327 -0.0682986
-0.07645244 -0.15940644 0.12448752 -0.15540326 -0.33911395 -0.16080199 -0.1599992 -0.22017422
0.04085911 -0.056327518 -0.017180951 -0.19873987 -0.15336727 -0.21672477 -0.09025339 -0.20958276
-0.19900444 -0.00024332761 0.07458151 0.1274847 -0.13241616 0.011813727 -0.15674938 -0.14232966
-0.16341934 -0.17427593 -0.16689909 -0.06786247 -0.11192499 -0.039459214 -0.111773 -0.21328788
-0.22308254 -0.22469044 -0.26724267 -0.14061444 -0.11368539 -0.11172918 0.025865033 -0.18557587
-0.07299762 -0.17204931 -0.23920676 -0.16915694 -0.08737046 -0.20439632 -0.15888526 -0.109282844
-0.06371564 -0.12761217 -0.08433727 -0.22263199 -0.07188594 -0.16320615 -0.09035456 -0.15664743
-0.19434726 -0.12371334 -0.10930928 0.021787288 -0.17858914 -0.19622895 -0.13279764 -0.1479372
-0.14240272 -0.11115014 -0.023084024 -0.11024608 -0.0982904 -0.18329084 -0.31490237 -0.12299187
-0.18071195 -0.09323477 -0.12230018 -0.20634125 -0.0866846 -0.18460797 0.25635988 -0.15342435
-0.27462947 -0.22114302 -0.38868144 -0.23205443 0.003002017 -0.070144266 -0.004780126 -0.11634435
-0.20857358 -0.13316923 -0.22142008 -0.22023466 -0.13771063 -0.025084756 0.08657872 0.31636268
-0.15679437 -0.11796916 -0.075609 -0.2583896 -0.16743247 -0.084316984 -0.19128226 -0.13011266
-0.049350116 -0.13369207 -0.20271485 -0.058975786 -0.27133325 -0.16987915 -0.32868847 -0.1989752
-0.13212894 -0.20956996 -0.13799734 -0.13684139 0.07457052 -0.15597907 -0.38394728 -0.20689195
-0.17998542 -0.23768513 -0.089558735 0.046236087 -0.032368474 -0.18109691 -0.080208555 -0.25045824
-0.1785569 -0.31379133 -0.18822269 -0.09120904 -0.027871523 -0.014052268 -0.017029101 -0.106946215
-0.07709874 -0.32212198 -0.16752322 -0.13088267 -0.20315342 -0.029798796 -0.17222986 -0.11650284

onnx::GRU_199 f4 [2, 384, 128]
00000000: 8803 80bd b850 013d 97fd ab3d e8c2 1ebd
00000010: de91 b3bd 7ec8 6fbd ab6f 093d 9c94 7b3d
00000020: f189 8dbc e19d 213b 488f 83bd efa3 25bd
00000030: 1631 70bd 29b0 6b3d 24ac 8ebc b579 16bd
00000040: 36e5 1cbc d247 233d 5ab7 48bd 952b 4dbc
00000050: 1b8d 193d b12f 2bbc 469d ea3c 9b3a 73bd
00000060: a14d a4bb 05a3 2fbd 14aa a63d 38ce b4bd
00000070: 0026 36bd 4bf1 0ebd 80ce 1f3d 028d 21bd
00000080: 7541 64bd d8e7 a8bb 29ef e7bc a2cd af3d
00000090: 8ab2 5e3d 3795 8d3d 93aa 97bd c9c1 babc
000000a0: 85bb 8abd e158 a33d 62b4 563d e5c3 8dbd
000000b0: facc 85bd 94e0 323d 8ab5 37bd 7c53 e73c
000000c0: 3df7 9ebd 9f79 90bd 8780 f6bc 0a9a 8dbd
000000d0: 039e 5e3d ec3e 8abd f6f1 ecbc 1e1a b1bd
000000e0: 4818 a63d f054 6c3c aaf9 5bbd ef9a 9ebc
000000f0: 2f18 d93c cdc8 f7bc e178 903d d287 a6bc
00000100: e56f a93d 9092 453d f570 7f3d 26ad 183b
00000110: 16cb d0bc 5807 1a3d 9974 633d f210 463c
00000120: ff80 903c ffa5 9b3d fa8e 44bd d72b 9cbc
00000130: 3861 dc3b e4f9 29bc 4c14 50bd 8630 e83c
00000140: a423 8b3c 821b 5bbd 9b75 a3bb bc09 263c
00000150: a221 13bc ffe8 de3c 3366 a6bd 9ad6 47bc
00000160: d290 853d 4b2a 203b 2a37 2bbc e1f9 c5bc
00000170: a392 5fbc ad5a 2abc b46d 30bd f950 81bd
00000180: feaa f7bb 357f b33d d082 883d 3c86 8c3b
00000190: 23cb 1c3d 373d 9f3c 69ba 39bd f6b3 023d
000001a0: aa67 253d 50ed bfbb 3ce1 573d 890e 103d
000001b0: c89d 2bbd eafe d23c 0540 253d 1b01 8f3d
000001c0: 50c6 76bd 0bef a6bd 50d7 0dbd 7d79 f43b
000001d0: a0cd 8ebd bbf6 b2bc 8f6a 84bd 9f03 89bd
000001e0: 94c7 db3c 97c6 303d 6b1e 433c ab24 7b3d
000001f0: 0387 adbc fa50 3b3c d480 853d dff1 953d
00000200: ca4b cf3c a58c 9abd 8122 af3c ec71 823d
00000210: 77a7 f63c 764b b2bd 34a4 ecbc 8a7c 39bd
00000220: 24ec a2bd 0c9b 96bd d203 6a3d acf0 67bd
00000230: d938 5abd c58d 1dbd 0c09 1abc 943a 573d
00000240: 6056 b2bd 40e5 21bd 111f 6cbc 77e9 c83c
00000250: d5e1 48bd 8adc c4bc b4ab 42bd b687 a2bc
00000260: 2329 3b3d 2b14 19bd 7f9f 42bc 8127 6dbd
00000270: 6e41 ca3c b684 68bd 89d4 a73c e837 b4bd
00000280: cd5f 0d3d 6a52 023d 374f 89bd d658 38bc
00000290: 9c36 59bd f8e3 2cbd ccbb 273d 16bb 4ebd
000002a0: 8465 4c3d 21fb 363d 1d4d a23d 327a 07bd
000002b0: 9c8b a0bd 9e5a 6a3d f55f aabc c984 0ebd
000002c0: 2791 2bbd a157 a83d 04d9 8cbd 3544 9d3c
000002d0: 2fe6 8f3c 9925 0dbd d6f9 4d3d 1477 513d
000002e0: bf8d 733d b41b c33c b460 c03c 8715 cd3c
000002f0: bdd0 e6bc 26a3 90bd 029b 293b 3ae0 053c
00000300: 9aae 5f3d 9af7 733c adf4 213b ac47 00bd
00000310: c088 973d b40d a03d 4a0b b23d 7c57 b9bb
00000320: e5b4 31bd 428d 92bd f923 b2bd abe0 90bd
00000330: 3a89 e7bc 8e09 8d3d cddd a6bd 3186 d7bc
00000340: aa66 113d f20d 2a3d fea0 7e3b 1eb1 a2bc
00000350: a6ad 893b dedc 62bd 1155 323d de8e 533d
00000360: 62e0 723c 4e19 7e3d f42c 553d 1c90 a9bd
00000370: 5154 0ebd e21e 9abd 77db 033d 8667 a2bd
00000380: cdf8 ab3c bc1e 93bd 6fb7 383d fcf2 77bd
00000390: 7bfd a2bd b242 12bd 865c ef3c 96b6 1abd
000003a0: 9b29 073d c600 393b 7eea 44bd 35d7 9fbb
000003b0: 38b1 653d afc6 5dbd d60f 9e3d 2536 c93c
000003c0: 9831 3c3d e772 8bbc 4dca 863d 030b 87bd
000003d0: d41f 12bd 2134 633d d5a0 42bd 7a5e 973d
000003e0: 9a3f 03bd 5c72 abbd 23cd aa3d 16c0 933d
000003f0: 4342 153d 8e0d 9bbd 708e 9c3c 34fc abbc
-0.062506735 0.03157112 0.08397978 -0.038760096 -0.08768056 -0.058540814 0.03355376 0.06142102
-0.01727769 0.0024660754 -0.06423813 -0.040439542 -0.058640562 0.057541046 -0.017416067 -0.036737163
-0.0095761325 0.039863415 -0.049002983 -0.012522598 0.037488084 -0.010448382 0.028639447 -0.059382062
-0.005014137 -0.042880077 0.081379086 -0.088283956 -0.044469833 -0.034898084 0.039015293 -0.039441116
-0.055726487 -0.005154591 -0.028312283 0.08584143 0.054369487 0.06913226 -0.07405581 -0.022797482
-0.06774048 0.07975937 0.05241812 -0.069221295 -0.06533237 0.043671206 -0.044850864 0.02823805
-0.07762001 -0.070544474 -0.030090583 -0.06914146 0.05434991 -0.06750283 -0.02892397 -0.086475596
0.081101 0.014424548 -0.053704895 -0.019360987 0.02650079 -0.030247116 0.07054306 -0.020328436
0.08273295 0.048235476 0.062363584 0.0023296564 -0.025487464 0.03760466 0.055531118 0.012089001
0.017639635 0.076000206 -0.047987916 -0.019063873 0.0067254566 -0.01037452 -0.050800607 0.02834345
0.016984768 -0.05349303 -0.004988385 0.010134157 -0.008980187 0.02721071 -0.08124962 -0.012197161
0.06521763 0.002443927 -0.010450164 -0.024167003 -0.013645801 -0.010397595 -0.04307337 -0.063142724
-0.0075582257 0.08764497 0.066655755 0.004288463 0.038279664 0.01943837 -0.04534379 0.031909905
0.040382065 -0.0058571473 0.052705035 0.03517011 -0.04189852 0.025756318 0.040344257 0.06982633
-0.06024772 -0.081510626 -0.034629166 0.0074607716 -0.069728136 -0.021846166 -0.06465637 -0.06690144
0.026828565 0.04315814 0.011909108 0.061314266 -0.021182543 0.011432881 0.06518713 0.07321524
0.025304694 -0.07546357 0.021378757 0.06369385 0.03010915 -0.08705799 -0.028886892 -0.045284785
-0.079551965 -0.073537916 0.05713255 -0.056626007 -0.05327687 -0.03846528 -0.009401571 0.0525461
-0.08707881 -0.03952527 -0.014411704 0.024525387 -0.049043495 -0.024030942 -0.04752703 -0.019840103
0.045693528 -0.03737275 -0.011878847 -0.057899002 0.024689402 -0.056767188 0.020487087 -0.08799726
0.03451519 0.031816877 -0.06704562 -0.011251649 -0.053030595 -0.042209595 0.04095058 -0.050471388
0.0499015 0.04467309 0.079248644 -0.03307552 -0.078391284 0.057215326 -0.020797709 -0.034794603
-0.041886475 0.08219839 -0.0687733 0.019197563 0.017565815 -0.034459684 0.05028709 0.051138952
0.05946135 0.02381692 0.023483612 0.02503468 -0.028175706 -0.07062368 0.0025879745 0.008171136
0.054609872 0.014890576 0.0024712489 -0.03131835 0.0739913 0.07815114 0.086935595 -0.005656181
-0.043385405 -0.07155849 -0.086982675 -0.07074102 -0.028263677 0.06886588 -0.08147774 -0.026309105
0.0354983 0.041517206 0.0038853283 -0.019859847 0.0042016087 -0.055386417 0.043538157 0.05164992
0.014824005 0.06203585 0.052044824 -0.0827944 -0.03474838 -0.07525422 0.03219172 -0.07929902
0.02099266 -0.071835965 0.04509681 -0.060534462 -0.07958504 -0.035708137 0.029218923 -0.037771784
0.032998662 0.002822922 -0.04807519 -0.0048779496 0.056077212 -0.054144558 0.07717864 0.024561951
0.045945734 -0.017022563 0.065815546 -0.06593897 -0.035674885 0.055469636 -0.047516663 0.07391067
-0.032043077 -0.08371422 0.08339908 0.07214372 0.036440145 -0.07570945 0.019110888 -0.020994283

onnx::MatMul_200 f4 [256, 1]
00000000: 986f 64bc d003 763d 1064 dabc e0e7 cb3c
00000010: 9c78 753d 6897 1e3c 2435 7abd 60ac efbb
00000020: da08 353d 90b6 9a3b 084e 28bc 5624 333d
00000030: 98bf 673c d0f0 bf3b 3053 633d b418 203d
00000040: 00ee c039 b0d2 b53b 103b 82bc 0246 1f3d
00000050: e439 543d 60c8 7fbd 642f 4bbd 9818 8fbc
00000060: d83f fa3c 6e1d 26bd f4e7 ab3c 50fd 733c
00000070: b4fb f43c 1086 013d e0b5 053c 0061 273a
00000080: 90c6 86bb 00de 5f3c 28c5 293c 7672 08bd
00000090: 0817 2c3d 8638 453d 847d 373d 60c7 3d3c
000000a0: 3a8d 0e3d 3a46 70bd b04e 293c 0c4f bbbc
000000b0: e83d d8bc 6487 683d 10f6 8abb 2c8b 7ebd
000000c0: dcb2 c5bc e050 debb e455 2c3d 0019 813a
000000d0: c0c9 323d ce85 19bd 5877 d0bc 28f5 39bd
000000e0: e8a9 6f3c 7886 d33c 8c88 c2bc 407d 35bb
000000f0: 7e1c 163d 4880 65bd 8e86 513d 94f6 4abd
00000100: c475 b8bc ee4c 143d f0d9 44bd f423 85bc
00000110: 5c78 14bd 40bb 57bb 5642 6e3d 50ca 713d
00000120: 40af aebb 96e4 383d 70a8 3abd d4c1 9abc
00000130: 2e6a 783d f4ff f43c a26f 1abd 6006 1e3c
00000140: 10d3 613c c221 62bd 005b 9eb9 9a67 783d
00000150: 7ef0 2fbd 40ed c93a d8a1 4cbd 8805 aebc
00000160: 049b eebc c0ec fc3a 78c5 d5bc e091 033b
00000170: 64e5 b8bc b2b0 4e3d 4a64 0e3d 20c1 a4bc
00000180: 04ee 5a3d e09a 7ebc 74c6 bcbc 50fe a13b
00000190: e01f 6fbb 56d0 05bd fc55 35bd 3213 35bd
000001a0: 7035 353c b84c 58bc 489e f8bc 9c02 d2bc
000001b0: 342c 233d f85e 813c 4a5c 1b3d ac0a 923c
000001c0: f247 38bd a8ff f9bc 28b4 463c 40d3 78bc
000001d0: 302e 59bc 7053 703d 72d8 543d 0272 26bd
000001e0: e250 39bd c838 133c c8aa 80bc 3410 d8bc
000001f0: 48b5 c3bc 42a7 31bd b264 35bd 4852 bb3c
00000200: 34c7 c83c 1880 b8bc 3036 e3bc de05 363d
00000210: 563b 323d 3ce5 29bd 38eb 54bc 6642 473d
00000220: 4873 5b3d 988e 033d 5cc2 583d 72fa 56bd
00000230: 30df 9bbb 3239 753d a49f 59bd b817 733c
00000240: ba24 483d c827 eb3c 6484 c6bc c0e5 a7ba
00000250: 18bf 643d c6a5 643d 1407 523d 08d8 7f3c
00000260: 7462 fb3c 1cad 48bd 4867 72bc 0a90 50bd
00000270: e831 573d 8872 4c3c a8a7 cdbc e8f0 363d
00000280: 8ac0 2b3d da16 7e3d 887f 5b3c 94c8 433d
00000290: f47e 73bd 5cbf 773d 800b a03c f2b6 0e3d
000002a0: 70f7 9dbb a80e 2f3d 70ca 7cbd ec1e 273d
000002b0: e82c 063c 78ad 423c bc23 833c 402f 1fbc
000002c0: a0fc e1bc 40d2 d8bc d201 64bd 5860 163c
000002d0: 18f3 9f3c f4b3 723d 109a 9d3b fcfc 14bd
000002e0: 0a29 7b3d 8cd5 05bd ccf8 66bd 5c9b 41bd
000002f0: e452 e7bc 46c0 173d 78c6 4c3d cc6d 1f3d
00000300: e8cc 2cbc 7891 7ebc 602c ab3b eeef 293d
00000310: 8019 7c3d 08fb 723d 48d5 503c 1aa9 143d
00000320: 12ce 0abd 806d 00bd ea53 15bd a4e5 6a3d
00000330: fcc9 f9bc 8079 4aba e02b d9bb 702c 60bc
00000340: c49e 093d 80b9 743b 4060 a6bc f87a a0bc
00000350: cc0b 93bc 103a f33b 408d f6bb e06d c0bc
00000360: 12eb 173d 0ed7 253d c832 14bd 884f 45bd
00000370: 2c61 cdbc c074 6d3b d0bf 923b 801c 853c
00000380: d4e8 12bd 8e32 483d f8ad 853c 64dd fabc
00000390: 366d 02bd a827 a5bc 184f aebc 9e04 2dbd
000003a0: 3a69 5abd 82b0 50bd 6e4e 2b3d ac7a 67bd
000003b0: fcfe 343d 4c61 ef3c ee51 743d 9033 c93b
000003c0: bc57 d63c 0668 36bd 02e1 13bd eaa4 68bd
000003d0: d0c5 99bb e050 dbbc 003c 713b 148a f73c
000003e0: 848b ddbc 80de 26bd 8a12 6abd 960c 50bd
000003f0: 1abc 07bd b884 513c 8053 343b 203f 19bb
-0.013942622 0.06006223 -0.026659042 0.02489084 0.059929475 0.009679653 -0.061085835 -0.00731425
0.044197895 0.00472147 -0.01027251 0.043735825 0.014144801 0.0058575645 0.055499256 0.03908606
0.00036798418 0.0055487975 -0.015897304 0.038885124 0.05181302 -0.062446952 -0.049605742 -0.017467782
0.030548021 -0.04055541 0.020984627 0.014891937 0.029905178 0.031621993 0.008161038 0.00063849986
-0.004113026 0.013663769 0.010361947 -0.033312283 0.04201415 0.048149608 0.044797435 0.011583179
0.034802653 -0.058660723 0.010333702 -0.02286484 -0.026396707 0.056769744 -0.0042407587 -0.062144443
-0.024133138 -0.0067845434 0.0420741 0.000984937 0.043649435 -0.03748112 -0.025447533 -0.045399815
0.014627911 0.025820956 -0.023746751 -0.0027693063 0.036648266 -0.05603054 0.051153712 -0.04955156
-0.022517093 0.03620618 -0.048059404 -0.016252495 -0.036247596 -0.0032918006 0.05816873 0.05903083
-0.00533095 0.04513987 -0.04557079 -0.018891253 0.060648136 0.029907204 -0.037704118 0.009645075
0.013783231 -0.055207975 -0.0003020391 0.060645677 -0.04295396 0.0015405789 -0.049959034 -0.021242872
-0.029126652 0.0019296631 -0.026095137 0.0020075962 -0.02257032 0.05046148 0.03476361 -0.02011162
0.053449646 -0.015539855 -0.023043849 0.0049436465 -0.0036487505 -0.032669388 -0.044271454 -0.04420776
0.011060104 -0.013201885 -0.030348912 -0.02563601 0.039837077 0.015792355 0.03792981 0.017827354
-0.044990487 -0.030517414 0.012127914 -0.015187085 -0.013255641 0.058673322 0.05196423 -0.04063607
-0.04524315 0.008985706 -0.015706435 -0.026374914 -0.023890153 -0.0433724 -0.044285484 0.022866383
0.02450905 -0.022522017 -0.0277358 0.04443919 0.04351362 -0.04147838 -0.012995534 0.048647307
0.053576738 0.03211841 0.05291973 -0.052484937 -0.0047568306 0.059869 -0.05313076 0.014837198
0.04886315 0.028705493 -0.02423305 -0.001280956 0.055846304 0.055822156 0.05127628 0.015615471
0.030686595 -0.048993215 -0.014795132 -0.050918616 0.05253783 0.012478478 -0.025104359 0.04466334
0.041931666 0.06203351 0.013397105 0.047798708 -0.059447244 0.06048523 0.019536734 0.03484244
-0.0048207566 0.042738587 -0.061716497 0.040800974 0.008189417 0.0118821785 0.01600825 -0.009715855
-0.027586281 -0.026467443 -0.0556658 0.009178244 0.019525096 0.059253648 0.0048096254 -0.036374077
0.061318435 -0.032674357 -0.056389615 -0.047267303 -0.028237768 0.0370486 0.049993962 0.03892307
-0.0105469 -0.015537612 0.005223796 0.04148858 0.061547756 0.059321433 0.012746163 0.03629408
-0.03388793 -0.031354427 -0.03645698 0.05734791 -0.030491821 -0.00077237934 -0.0066275448 -0.01368247
0.033598676 0.0037342012 -0.020309567 -0.019589886 -0.017949961 0.007422693 -0.0075241625 -0.023489892
0.037089415 0.040488295 -0.03618124 -0.04817155 -0.02507075 0.0036232919 0.0044784322 0.016248941
-0.035866573 0.048876338 0.016318306 -0.030623145 -0.031842433 -0.020160511 -0.02127795 -0.04224073
-0.053323008 -0.05094958 0.041822843 -0.056513473 0.044188485 0.0292212 0.059648447 0.00614018
0.026164882 -0.0445328 -0.036103256 -0.0567979 -0.0046927705 -0.026771963 0.0036809444 0.030217208
-0.027044065 -0.040739536 -0.057146586 -0.050793253 -0.033138372 0.01278799 0.002751559 -0.0023383573
