models/2024-03-22/gnn_model.pth (torch, 12192 bytes, 4 tensors)

fc1.weight f4 [64, 1]
000000 1d 34 29 3e bf ab 99 be ef c7 d2 3e 3e e1 b8 be
       0.16523786 -0.30013844 0.41168162 -0.36109346
000010 24 37 48 3f c3 5f 39 bf 44 1e de be 20 d3 e7 3e
       0.7820914 -0.72411746 -0.43382466 0.45278263
000020 6a 78 cc be ea 16 63 3f 68 6d 3e 3e 00 d8 2b 3e
       -0.3993562 0.8870684 0.18596423 0.16781616
000030 e3 0b 19 3f 65 fe 4f 3f b5 02 56 3f 60 ce 21 3d
       0.5978376 0.8124755 0.8359788 0.039503455
000040 04 1f b4 be fc 0e fd 3e f7 75 5b be 6c da 66 bf
       -0.35179913 0.49425495 -0.21431719 -0.90177035
000050 71 15 70 bf f0 22 03 bf ad 7a 19 3f 12 37 4c bf
       -0.93782717 -0.51225185 0.59952813 -0.7977153
000060 14 9f 54 3f e0 5c b0 3d 36 cc 53 bf 70 bd 8d 3d
       0.83055234 0.086114645 -0.82733476 0.06920898
000070 32 29 55 3f 78 08 53 3f 5b 48 eb 3d 07 42 67 3f
       0.83265984 0.824348 0.1148841 0.90335125
000080 bc b6 28 bf e0 8a 21 bc 00 03 93 3d 64 58 37 bf
       -0.6590383 -0.009859771 0.071783066 -0.7161925
000090 07 04 82 3d 5c 10 ff 3e b2 d1 7d bf 54 0e 63 bf
       0.063484244 0.4981717 -0.99148095 -0.8869374
0000a0 34 9d 9e be 06 7b 22 be a0 c2 5b 3f e6 73 58 3f
       -0.3097931 -0.15867242 0.8584385 0.84551847
0000b0 0e 48 7d bf 16 af a1 bc 39 e9 fd 3c f3 01 f9 3e
       -0.9893807 -0.019736808 0.030994998 0.486343
0000c0 86 6a 03 3f 18 89 c3 3e cc e2 29 bf f8 0a 59 3e
       0.51334417 0.38190532 -0.6636169 0.2119559
0000d0 ad 4c 82 3d b8 f6 2a 3f 56 9b 4a bf 24 13 c5 bd
       0.06362281 0.6678271 -0.79143274 -0.096227914
0000e0 26 70 0c bf c7 27 04 3c 00 11 60 3d 98 24 cf 3e
       -0.54858625 0.008066124 0.054703712 0.40457606
0000f0 e0 f6 60 bf dc 29 2a 3f 06 8c 0b bf 70 36 10 3f
       -0.878767 0.6647012 -0.54510534 0.56333065

fc1.bias f4 [64]
000000 47 a2 45 be e2 92 11 3f a2 ff 46 be 2d bb 0c 3e
       -0.19300185 0.5686475 -0.19433454 0.13743277
000010 68 69 7b bf 05 34 23 3f 64 5e 8c be ef 4c 9c be
       -0.9820771 0.6375125 -0.27415764 -0.30527446
000020 de 1c 2b 3f 07 7c 1b bf 4c 18 ad be 90 1e e7 be
       0.6684092 -0.60736126 -0.338076 -0.45140505
000030 e2 49 ab be d8 7a 2e 3e 84 cf 1a 3f 9c 1e 7b bf
       -0.33454806 0.17039049 0.60472894 -0.9809358
000040 a0 44 0d bf a4 43 37 bf 4f 7f fd 3e c8 5e 55 be
       -0.5518284 -0.71587586 0.4951119 -0.20836937
000050 2a 86 0d 3f 24 c2 7f bf 26 b1 0b bd 80 25 10 bf
       0.55282843 -0.9990561 -0.03410449 -0.5630722
000060 da 58 22 3e e0 46 5e be 80 e1 0f 3d 26 36 29 bf
       0.15854207 -0.21706724 0.035127163 -0.6609825
000070 8b 30 6b 3e 62 58 34 3f e6 33 47 3f 03 72 a1 3e
       0.22967736 0.7044736 0.77813566 0.31532297
000080 00 71 06 3c 08 a1 d8 bd 50 ea bb be 00 70 a0 be
       0.008205652 -0.10577589 -0.36702204 -0.3133545
000090 46 42 d7 3e ec a4 4a bf 84 af 77 bf a0 5d af 3d
       0.4204275 -0.791579 -0.9675219 0.085627794
0000a0 c6 4d 42 3f 4e 0e 06 3f 33 e8 60 bf 18 ad 75 bf
       0.7589992 0.5236558 -0.8785431 -0.95967245
0000b0 64 94 8f 3e 17 d5 16 3f 8c 34 2a 3f 68 61 19 be
       0.280429 0.589189 0.6648643 -0.14978564
0000c0 ca dc 22 bf fa a1 30 bf cc 76 30 bf 20 9a 61 be
       -0.6361815 -0.68997157 -0.6893127 -0.2203145
0000d0 1e 81 05 3f 1e f2 01 3f b8 a7 7b bf 30 ec 89 3c
       0.5215014 0.50760067 -0.98302794 0.016836256
0000e0 20 2a 8e 3e f3 46 d8 3e 00 d7 0b be ee 42 3e bf
       0.27766514 0.4224163 -0.13656235 -0.74320877
0000f0 80 0c 37 3d 53 b4 17 bd 2c 1e d0 be d6 9e 61 3f
       0.044689655 -0.037037205 -0.4064802 0.8813299

fc2.weight f4 [37, 64]
000000 28 c4 fd 3c db 43 20 3d 53 2a 0b bd fa cb 1e be
       0.030977324 0.039127212 -0.03397591 -0.15507498
000010 b6 33 a2 bd 1d 9c a6 bc 60 06 22 bd 74 30 2c 3b
       -0.07920019 -0.020338112 -0.03955686 0.0026273998
000020 d2 29 43 3c c1 a0 8c 3e d8 62 de bc e0 1a f8 3d
       0.011911826 0.27466395 -0.027146742 0.12114501
000030 7d 5d a7 3d 7c 56 21 3e e9 02 79 bd 38 9e dc 3c
       0.08172128 0.15755647 -0.06079379 0.026930913
000040 b6 41 a5 bd 44 b6 0f bd 15 de 4d bd b0 1d 16 bd
       -0.08069174 -0.03508593 -0.050260622 -0.036649406
000050 21 60 de 3c fc 14 ba bd 7a 76 e1 3d 38 dd 39 bd
       0.027145447 -0.09086034 0.11008926 -0.045376986
000060 af 7c d6 3b 60 8d 5c bc c0 97 d1 bd 70 fb 4f bc
       0.006545625 -0.013461441 -0.10234022 -0.012694225
000070 e1 06 0f 3e a1 d8 6a 3c c8 c2 9c 3d 62 e5 a0 3d
       0.13967468 0.014333875 0.07654339 0.07856251
000080 a0 d6 cd bc e4 c1 94 3d 2e 97 81 3d 80 24 ef 3b
       -0.025126755 0.07263544 0.06327663 0.0072980523
000090 6c e8 8e 3d 90 ce c4 bc e0 fa 89 bb 40 6b 3b bc
       0.06977925 -0.024024278 -0.004210815 -0.011439145
0000a0 bc d1 61 bd 54 84 b0 bd 99 1a 09 bd 68 21 fb 3c
       -0.05513166 -0.086189896 -0.03347263 0.030655578
0000b0 14 a9 23 3d 49 d7 b9 3d 58 a3 a3 3d 24 fb 59 bc
       0.039956167 0.090742655 0.0799014 -0.0133045055
0000c0 ea 63 ab bd fc f7 7a bd b0 c9 45 3d 74 18 ee 3d
       -0.083686665 -0.061271653 0.048288047 0.11625758
0000d0 9f 92 5e 3c 98 a7 a6 3d e0 7a ee bd 13 64 52 bd
       0.013584762 0.08137435 -0.1164453 -0.05136497
0000e0 c0 1f c5 bd 6f 91 52 bd 60 91 8c bb 00 da be 3c
       -0.096251965 -0.051408228 -0.004289791 0.02329731
0000f0 40 2e ab bb 92 af c9 3c 70 06 5f bd ad a3 1e 3e
       -0.0052240193 0.024619851 -0.0544495 0.15492125
000100 28 a1 e1 3d a8 60 35 bb 7d ff 0c 3d 82 cb e0 bd
       0.11017066 -0.002767602 0.03442334 -0.10976316
000110 b6 18 8e bd d2 72 36 be 78 68 5b bd 2c 2d 8d 3d
       -0.06938307 -0.17817238 -0.053566426 0.068933815
000120 62 5d 91 bc 15 d8 38 3e a2 82 fc bd 02 80 a5 3d
       -0.017744724 0.18051179 -0.12329604 0.08081056
000130 4a 8a 3c 3e a2 a6 46 3d 32 6a 2a bd 9c ae c9 bd
       0.18412128 0.048498757 -0.041605182 -0.09847757
000140 30 3c 6a bd 48 b8 22 3d ed 3c c9 3d c8 79 ea bc
       -0.057186306 0.039726526 0.09826074 -0.028622523
000150 43 37 0a 3d 18 c4 83 bc 0f 9d 3c 3d 0c ea 74 bd
       0.033744108 -0.016084716 0.04604822 -0.059793517
000160 c9 8f fe 3d 9e 89 84 3d e8 35 dd 3d 90 c7 3b 3c
       0.124297686 0.06471561 0.108012974 0.011461154
000170 0f dd 81 bd b5 e4 77 3d bb 5c dc 3c a6 a6 08 3e
       -0.06340992 0.060520846 0.026899686 0.13344821
000180 ba 6d d0 3d 4d 9b 0f 3e f8 76 bf 3c 78 15 bf 3c
       0.10177179 0.14024086 0.023372158 0.023325667
000190 64 7f b0 3c cc ee f4 3d ee 35 c5 bd 20 a5 26 bc
       0.02154512 0.119596094 -0.09629427 -0.010171205
0001a0 61 c5 ba 3d 00 95 cf 3c 67 6d b9 bd 80 63 9a 3c
       0.09119678 0.025339603 -0.0905407 0.018846273
0001b0 68 a2 69 3d fb 61 40 bd 22 19 08 3e 3c 05 a6 bc
       0.05703965 -0.04696844 0.13290837 -0.020266168
0001c0 be 89 bb 3d 74 dd b5 3d 02 26 cf bd d0 61 fd bd
       0.091571316 0.088801295 -0.10114671 -0.12372172
0001d0 f6 63 cc 3d 4f c5 17 3e 5a af c9 3d d6 6c dc bd
       0.099800035 0.14821361 0.09847899 -0.10762946
0001e0 e6 db a6 bd 24 42 2c 3d d4 89 e9 3d 60 6d d0 bd
       -0.08147411 0.042055264 0.11403242 -0.101771116
0001f0 58 23 b4 bc 50 53 38 3e f6 bb b3 3d 3a ba 0e bd
       -0.02198951 0.18000531 0.08776085 -0.03484557
000200 fc 69 f9 bc 34 ea ec 3c 64 ce 1c bd 9b be e4 bd
       -0.030446045 0.02892027 -0.038282767 -0.111691676
000210 e0 53 db 3c 5f 51 39 be 58 35 85 bc 1a f0 18 bd
       0.026773393 -0.18097447 -0.016260788 -0.037338354
000220 02 48 c1 3d 6f ed 13 3e 20 66 ee 3d 1a b2 8c 3d
       0.094375625 0.14446042 0.116405725 0.06869908
000230 d1 95 01 3e 91 61 e6 3d 4f da 84 3d 9c 6c af 3d
       0.12654807 0.11249078 0.064869516 0.085656375
000240 a0 9f 39 bc 2a f6 b1 bd 53 bd f4 3d d4 f3 07 3d
       -0.0113295615 -0.0868953 0.11950173 0.033191517
000250 9d 73 8c 3d f2 79 a1 bd c2 d1 9c 3d 20 17 fa 3b
       0.06857989 -0.07884587 0.07657196 0.0076321512
000260 d4 fb 57 bc 8a ed a0 bd 94 2e 2c bd 14 95 3a 3d
       -0.013182599 -0.07857807 -0.042036608 0.04555233
000270 9f 59 7b bd 14 f8 e2 3b 76 bd 67 bd 24 3b 93 3d
       -0.061364766 0.006926546 -0.05657717 0.071890146
000280 a4 5b 14 bd 7e 31 0a 3e a0 d3 b4 bc e0 93 c6 3d
       -0.036220208 0.13495442 -0.022073567 0.09696174
000290 91 ab bf bd 82 37 a8 3d 66 5b 83 bd 80 4e 3b bb
       -0.093588956 0.08213712 -0.06413917 -0.0028580725
0002a0 3f 48 c2 bd 2f c3 92 3d 6a e7 04 bd f0 95 5f 3d
       -0.09486436 0.071661346 -0.032447256 0.05458635
0002b0 30 11 dc bc e4 79 9c bc d9 84 37 bd 30 1f 28 3e
       -0.026863664 -0.01910109 -0.044804428 0.16418147
0002c0 00 84 39 3c a6 74 cd 3d ac 84 1d bd ce d7 86 3d
       0.011322975 0.100320145 -0.038456604 0.0658413
0002d0 0a df a6 3d be 63 ea 3d 88 c5 27 3d 44 f3 12 3d
       0.0814801 0.114448056 0.040959865 0.035876527
0002e0 9a ba f8 bd dc e4 83 3d 34 f4 0d 3d 80 7b f2 3b
       -0.121449664 0.06440136 0.03465672 0.0073999763
0002f0 32 4f ea 3d 1e ff 1d 3e c0 ad 4d bc e0 8d 2d 3e
       0.114408866 0.1542935 -0.012553632 0.16948652
000300 9f 4c 41 3e 7c 2b 26 3c 49 38 06 3d d8 84 46 3b
       0.18876885 0.010142203 0.03276852 0.0030291583
000310 4a 3f d0 3d 77 c0 28 3d 60 49 8f 3b a8 12 c7 3a
       0.101683214 0.041199174 0.0043727607 0.0015188055
000320 8e 71 c0 3d 1a fc b6 3d 2e 2f d7 3d 50 c8 4b bd
       0.09396659 0.08934803 0.10507046 -0.04975158
000330 18 c2 d2 3d c2 9f d2 3d 72 04 67 3d c0 55 84 bb
       0.10290927 0.10284378 0.056400724 -0.0040385425
000340 38 b0 80 bd 64 7c 6f bd 5c da 48 3d 58 96 8d bc
       -0.06283611 -0.058468238 0.04903637 -0.017283604
000350 1e 5e ec 3c 10 49 9d bc 5a 65 6d 3d a2 17 e8 bd
       0.028853472 -0.019199878 0.057957985 -0.113326326
000360 b0 e6 29 3e 24 b4 82 3d da 26 df 3d 24 a2 cf bd
       0.16591907 0.06382015 0.10896082 -0.10138348
000370 c4 c2 ca bc 6a bc 07 3e ee 05 98 bc 99 df c2 3d
       -0.024751075 0.13255468 -0.018557515 0.09515304
000380 00 95 ac 3b ab 48 d2 3d 8a ec c5 bd 7c fb 5f 3d
       0.0052667856 0.102677666 -0.09664257 0.054683194
000390 8e 74 af bb d0 ef f1 3d b0 11 b0 3d 6c be c4 3d
       -0.0053544706 0.11813319 0.085971236 0.096066326
0003a0 79 24 bf 3d cb 30 0e bd 60 7f 49 bd 50 33 20 bc
       0.093331285 -0.0347145 -0.04919374 -0.009777859
0003b0 48 57 91 bc 30 d8 f0 3c 95 df 1d bd 95 63 fa 3c
       -0.017741814 0.029399961 -0.038543303 0.030565063
0003c0 ee 1c c7 3d 60 ad 57 3d 90 cb 8f 3c 0e 1a cf 3d
       0.09722315 0.052655578 0.01755312 0.101123914
0003d0 0a f7 2d 3e 7b 14 81 3c c4 b0 d6 3d c8 81 73 bd
       0.16988769 0.015756836 0.10482934 -0.05944994
0003e0 72 7b 8b 3d e5 4e 60 bd 3a 93 df 3d 30 b0 fe bc
       0.06810655 -0.05476274 0.10916753 -0.031089872
0003f0 a6 88 81 bd 4a 94 32 3e 90 05 19 bd 15 ec 33 bd
       -0.06324892 0.1743938 -0.03735882 -0.043926317

fc2.bias f4 [37]
000000 79 cf 52 3c d0 3b 41 3d 3d 17 e5 3d c4 a6 fd 3c
       0.012866848 0.047176182 0.11186073 0.03096331
000010 cb 97 aa 3d ac bd 8c 3d 87 f0 0f 3e ab 59 50 3d
       0.083297335 0.068721145 0.14056598 0.050866764
000020 d2 4e 8b 3d b0 61 4b 3d a6 af 30 3d 19 40 ea 3d
       0.06802143 0.04965371 0.04313626 0.11438007
000030 2d b0 19 bd d9 31 14 bd 4b 5b 09 3e a4 c1 fb 3d
       -0.03752153 -0.03618035 0.13413732 0.122927934
000040 50 99 b6 bd 5c 26 48 bd 0b 57 02 3e f1 df 59 3d
       -0.08915961 -0.048864707 0.12728517 0.053192083
000050 4d 57 ce 3d 76 ec 05 3e 00 6c 11 3d 6f c8 86 3d
       0.10075245 0.13078484 0.035503387 0.065811984
000060 2c 1f cd bc 7e 18 9c 3a 63 b9 1b bd d4 54 c0 3d
       -0.025039278 0.0011909155 -0.038018595 0.0939118
000070 8a fc cf 3d 3d 5a a0 3d 36 74 d7 3d ae ec 95 3c
       0.1015559 0.078297116 0.10520212 0.018301334
000080 f4 f4 ee 3d 2d bc d9 bc 6f 43 23 3d 9b 48 41 3c
       0.11667815 -0.026578987 0.03985923 0.011797096
000090 e7 cd aa bd
       -0.08340054
