models/2023-08-11/gan_model.pth (torch, 117138 bytes, 11 tensors)

generator.0.weight f4 [128, 100]
0.2026237 0.0017548021 -0.09802183 -0.083595924 -0.081853345 -0.092001274 0.063602716 0.047138676
-0.044985753 -0.18492514 0.038359854 -0.015847996 -0.10667108 0.1793176 0.06966699 -0.1507675
0.2298845 -0.061562013 0.14538944 0.037866715 -0.19825543 -0.12340859 -0.114971794 0.15375113
-0.127727 -0.0656343 -0.110330395 0.03166271 -0.051622238 0.21522072 0.13663116 -0.03038312
-0.16432957 -0.15724371 -0.24441122 0.11468563 -0.08714042 -0.073357895 -0.25230843 -0.04788504
0.16125259 -0.074159 0.026149357 0.06279867 0.024209706 0.07426745 -0.022627056 -0.046279304
0.13470344 -0.13670783 -0.1774084 0.27713516 -0.19429511 0.07069251 0.05875997 0.1790028
-0.08200112 0.0366909 0.06042061 -0.008104392 0.032363616 -0.035765097 0.16911048 0.07224077
-0.09716602 -0.1620866 -0.14838038 0.15912974 0.085692786 0.09487761 0.045649983 0.11522578
0.13847508 0.1546704 -0.02781172 0.07028433 -0.08943312 0.105969764 0.043103453 -0.08211893
0.0031688951 0.011280857 -0.111043 -0.07643734 0.046342786 0.15293714 -0.123123474 -0.15458544
-0.09618763 -0.130793 -0.22089659 -0.03507452 0.008657133 -0.20665169 -0.011241804 0.022240235
-0.26618505 -0.114712164 0.106751435 -0.09684253 -0.022730883 -0.11862742 -0.009600203 0.09407894
0.049086567 0.09090745 0.0145534575 -0.027215438 -0.03697171 0.04677239 -0.062566966 0.032490585
0.0046029002 0.11355264 0.05061984 -0.038589276 -0.14552161 -0.032126054 -0.03881818 -0.046453938
-0.012530306 0.12088966 0.033317294 -0.023375854 -0.012569714 -0.059437055 -0.0012465334 0.04523647
-0.11413141 -0.082390435 -0.014217041 0.1329214 -0.015338367 0.101845436 0.13241333 0.01816285
0.16539757 0.02141769 -0.03586356 0.00063503673 -0.06628107 0.036260817 -0.0048703267 -0.004268098
0.009302856 -0.05700532 -0.059811547 -0.08346564 -0.14367492 -0.0673333 0.0048387474 0.0150441965
-0.15332118 -0.02522614 0.040596828 -0.14322256 -0.12504433 -0.0314165 0.090379804 0.04341032
-0.081037045 -0.098326206 0.038423818 -0.09860651 -0.07662472 0.21516588 0.007451019 -0.06448019
-0.13235953 -0.19483003 -0.14074348 -0.051692363 0.052864473 0.059285976 -0.059479047 0.043145113
-0.0010079327 -0.17718509 0.049082566 -0.008664718 -0.06353565 -0.06645954 -0.036415253 0.028107366
-0.075264975 -0.17074135 -0.045812633 0.069748215 0.048400313 0.083270565 0.055582453 0.07818351
-0.16919574 0.18591452 -0.110426314 -0.12503654 0.11495021 -0.008671119 -0.03156826 0.027882777
0.1926486 0.06930512 -0.09362285 -0.05622939 0.09080149 -0.09315942 0.016997408 0.10850684
0.034403402 -0.07738423 0.051399745 0.08398502 -0.1582875 0.07560098 0.13285244 -0.12647913
0.14603685 -0.049073048 0.028217198 -0.004480075 0.04681858 -0.18151775 -0.013537049 0.12573461
0.0071268133 0.02649268 0.05925333 0.086054154 -0.09772491 0.16189663 -0.010243634 -0.010036193
-0.050726227 -0.09392791 -0.14076069 0.12825762 -0.028076695 -0.049291853 -0.27422673 0.0026911485
0.14118724 0.09367766 -0.009480115 0.040316537 0.07970372 0.14048246 -0.04454055 -0.085901454
0.104408816 -0.03493492 -0.12452901 0.25782794 -0.038673528 0.053900283 0.061370477 0.07312543
00000000: 967c 4f3e 6301 e63a abbf c8bd 5734 abbd
00000010: baa2 a7bd 2a6b bcbd 2442 823d 7c14 413d
00000020: fb42 38bd 045d 3dbe 391f 1d3d a8d3 81bc
00000030: 5e76 dabd 089f 373e 91ad 8e3d cc62 1abe
00000040: d866 6b3e 7328 7cbd f8e0 143e 211a 1b3d
00000050: 7903 4bbe a5bd fcbd 5576 ebbd f070 1d3e
00000060: deca 02be 476b 86bd e7f4 e1bd c2b0 013d
00000070: d771 53bd d262 5c3e 0ae9 0b3e 05e6 f8bc
00000080: 0346 28be 7f04 21be ef46 7abe 4de0 ea3d
00000090: ad76 b2bd aa3c 96bd 922e 81be 1b23 44bd
000000a0: 661f 253e ace0 97bd 2d37 d63c 979c 803d
000000b0: 6f53 c63c 8819 983d 605c b9bc 5e8f 3dbd
000000c0: b3ef 093e 23fd 0bbe 8caa 35be a9e4 8d3e
000000d0: 4cf5 46be 3cc7 903d 4bae 703d 834c 373e
000000e0: 34f0 a7bd 3249 163d 9a7b 773d 49c8 04bc
000000f0: b68f 043d 6c7e 12bd 4c2b 2d3e f8f2 933d
00000100: fafe c6bd 08fa 25be 07f1 17be e8f2 223e
00000110: b37f af3d 314f c23d 7afb 3a3d 7efb eb3d
00000120: 69cc 0d3e eb61 1e3e 67d5 e3bc 3bf1 8f3d
00000130: b628 b7bd ad06 d93d 3f8d 303d f82d a8bd
00000140: 3dad 4f3b 58d3 383c 836a e3bd 2e8b 9cbd
00000150: efd1 3d3d 8e9b 1c3e 2928 fcbd a54b 1ebe
00000160: 05fe c4bd 9aee 05be b732 62be 4daa 0fbd
00000170: a6d6 0d3c 809c 53be 8b2f 38bc 2731 b63c
00000180: 6849 88be 36ee eabd 7fa0 da3d 6055 c6bd
00000190: 1e36 babc eff2 f2bd 2b4a 1dbc 76ac c03d
000001a0: ff0e 493d af2d ba3d a071 6e3c e9f2 debc
000001b0: a66f 17bd 6894 3f3d 1c23 80bd d914 053d
000001c0: edd3 963b 498e e83d c056 4f3d ca0f 1ebd
000001d0: 9e03 15be 9c96 03bd d0ff 1ebd 7c46 3ebd
000001e0: ea4b 4dbc 0095 f73d b777 083d b87e bfbc
000001f0: 34f1 4dbc 4574 73bd b862 a3ba e049 393d
00000200: bbbd e9bd 51bc a8bd 98ee 68bc 8c1c 083e
00000210: c64d 7bbc 5794 d03d 5c97 073e 42ca 943c
00000220: fb5d 293e 2774 af3c abe5 12bd 9878 263a
00000230: 5fbe 87bd 3986 143d 4397 9fbb 67db 8bbb
00000240: 026b 183c 697e 69bd f4fc 74bd 09f0 aabd
00000250: 851f 13be 0be6 89bd 5b8e 9e3b ef7b 763c
00000260: 3a00 1dbe 0da7 cebc dc48 263d efa8 12be
00000270: 9f0b 00be 97ae 00bd 0c19 b93d 05cf 313d
00000280: c0f6 a5bd 405f c9bd 4b62 1d3d 36f2 c9bd
00000290: 6ced 9cbd 7254 5c3e ad27 f43b 310e 84bd
000002a0: 4289 07be 8681 47be 0f1f 10be 5fbb 53bd
000002b0: 6b88 583d dad5 723d 4da0 73bd eeb8 303d
000002c0: 9c1c 84ba 0270 35be cd0a 493d 76f6 0dbc
000002d0: fb1e 82bd f01b 88bd 2928 15bd 6b41 e63c
000002e0: 8624 9abd d2d6 2ebe 07a6 3bbd 27d8 8e3d
000002f0: 683f 463d c289 aa3d 6daa 633d ad1e a03d
00000300: a641 2dbe 6060 3e3e 3127 e2bd 9409 00be
00000310: 046b eb3d 4f11 0ebc b84d 01bd 6c6a e43c
00000320: ad45 453e d8ef 8d3d 56bd bfbd ca50 66bd
00000330: 22f6 b93d 5eca bebd 263e 8b3c d638 de3d
00000340: 95ea 0c3d a07b 9ebd 8a88 523d 5700 ac3d
00000350: 1e16 22be b0d4 9a3d 780a 083e bf83 01be
00000360: af8a 153e d200 49bd c127 e73c 98cd 92bb
00000370: d7c4 3f3d cadf 39be 80ca 5dbc 93c0 003e
00000380: 0b88 e93b 2d07 d93c 9fb3 723d 293d b03d
00000390: ff23 c8bd 3bc8 253e ead4 27bc d86e 24bc
000003a0: 4ec6 4fbd 475d c0bd 9223 10be f755 033e
000003b0: 1901 e6bc 41e6 49bd 7267 8cbe fb5d 303b
000003c0: 6393 103e 13da bf3d 7c52 1bbc f422 253d
000003d0: b43b a33d a2da 0f3e 2770 36bd 1aed afbd
000003e0: 4ad4 d53d eb17 0fbd 1109 ffbd 0602 843e
000003f0: 2268 1ebd 8bc6 5c3d 9c5f 7b3d c9c2 953d

generator.0.bias f4 [128]
-0.026617963 -0.17937244 -0.19744845 -0.3619611 -0.32592422 -0.36193866 -0.38538444 -0.32409415
-0.3252579 0.11968011 -0.117714494 0.022591177 -0.27966186 -0.01536748 -0.49820232 -0.0045287237
-0.18975276 -0.20113316 0.734318 -0.2635232 -0.16093558 -0.3167848 0.19619252 -0.29476655
0.572185 -0.29460832 -0.25790414 -0.358492 -0.26517192 -0.052584857 -0.38576645 0.038491227
-0.23863631 -0.38036618 -0.2844732 0.39218506 -0.34487742 0.05869004 0.082677834 0.13241524
-0.33934528 -0.02272373 -0.16862999 -0.16339797 0.13790661 -0.3505705 -0.12774901 -0.29756954
0.07740236 -0.38307083 -0.016345423 -0.22179398 -0.093603924 0.3159063 0.07200345 -0.38786024
-0.23387964 -0.35730904 -0.46481198 -0.052732546 -0.02496515 0.5555024 0.075260766 -0.14263274
-0.15056834 -0.25768998 -0.31167415 0.0020507856 -0.023445498 -0.26354423 0.23202258 0.016746463
-0.332214 -0.21392943 -0.14574993 -0.16011609 0.42097253 -0.34480605 0.06599114 -0.24867158
0.11242892 -0.049411524 -0.07690077 -0.26563656 -0.34835538 0.12625945 0.45712066 0.18668164
-0.45062584 -0.46043056 -0.49465844 -0.16420223 -0.025255037 -0.25133505 -0.18432675 0.4692024
-0.264581 0.21806128 0.4695171 -0.37268096 0.3100795 -0.2925162 -0.30301312 0.050286043
-0.3575488 -0.45515347 -0.29973742 -0.02551227 0.41885868 0.4865795 0.18563475 -0.2391227
-0.42895678 -0.28029308 -0.19342579 -0.06466892 -0.03438169 -0.23704588 -0.30509037 -0.05753428
-0.45457625 -0.037911043 -0.43245184 -0.08712194 -0.21700907 0.39067513 0.0007071393 0.063123405
00000000: ea0d dabc 69ad 37be ed2f 4abe f752 b9be
00000010: 8adf a6be 0650 b9be 1c51 c5be abef a5be
00000020: 3488 a6be d81a f53d 4c14 f1bd 2211 b93c
00000030: d72f 8fbe e2c7 7bbc 6014 ffbe b065 94bb
00000040: 8c4e 42be daf5 4dbe 44fc 3b3f 83ec 86be
00000050: 4ccc 24be 9e31 a2be b1e6 483e a4eb 96be
00000060: b77a 123f e7d6 96be 030c 84be 438c b7be
00000070: 9dc4 87be 3863 57bd 2e83 c5be faa8 1d3d
00000080: 145d 74be 5bbf c2be 79a6 91be 7bcc c83e
00000090: c693 b0be f864 703d ff52 a93d dc97 073e
000000a0: aabe adbe 1e27 babc 57ad 2cbe cc51 27be
000000b0: 6437 0d3e fa7d b3be a3d0 02be 095b 98be
000000c0: 2185 9e3d dc21 c4be d6e6 85bc f61d 63be
000000d0: 6ab3 bfbd 78be a13e 8b76 933d 9e95 c6be
000000e0: 257e 6fbe 36f1 b6be d6fb edbe 15fe 57bd
000000f0: b783 ccbc 6835 0e3f 5122 9a3d 510e 12be
00000100: 962e 1abe f1ef 83be c193 9fbe 7966 063b
00000110: c610 c0bc 45ef 86be 5497 6d3e e12f 893c
00000120: f417 aabe 5110 5bbe 783f 15be 79f5 23be
00000130: b689 d73e 6b8a b0be 5d26 873d c3a3 7ebe
00000140: 2241 e63d bd63 4abd 277e 9dbd 8401 88be
00000150: a35b b2be 284a 013e b80b ea3e 7929 3f3e
00000160: 6eb8 e6be 8ebd ebbe df43 fdbe a124 28be
00000170: a7e3 cebc fdae 80be 27c0 3cbe 4c3b f03e
00000180: 2977 87be 754b 5f3e 8c64 f03e 0ad0 bebe
00000190: bdc2 9e3e afc4 95be 8924 9bbe bdf8 4d3d
000001a0: a310 b7be e009 e9be 2f77 99be 1cff d0bc
000001b0: a574 d63e f320 f93e 0917 3e3e 95dc 74be
000001c0: 39a0 dbbe 9382 8fbe 6911 46be 2471 84bd
000001d0: d1d3 0cbd 28bc 72be ce34 9cbe 11a9 6bbd
000001e0: 38be e8be 9c48 1bbd 546a ddbe fd6c b2bd
000001f0: a037 5ebe 9206 c83e 515f 393a d846 813d

generator.2.weight f4 [64, 128]
-0.264326 -0.09144906 -0.19960093 -0.17575634 0.0026453026 -0.0006706129 -0.06674151 -0.05074662
-0.012627136 -0.36694145 -0.15482403 -0.15725306 -0.18589218 -0.16850252 -0.007536765 -0.08572745
-0.15522456 0.012587205 -0.26563066 -0.14605844 -0.14655292 -0.119313695 -0.023013175 -0.0037045851
-0.13952176 0.036917564 -0.09973748 -0.10460864 -0.1170857 -0.29159206 -0.19101761 -0.22669335
0.05976006 -0.09572987 -0.012144115 -0.11481786 -0.20922697 0.08020993 -0.18339701 -0.046981197
-0.041443743 -0.045743927 -0.091983244 -0.12730227 -0.00956874 -0.039859463 -0.10197398 -0.097145475
0.017778017 -0.1710453 -0.019649548 0.08614544 0.017004639 0.21592993 -0.29817674 0.006547707
0.048156492 -0.044173952 -0.011178922 -0.018027408 -0.09513698 0.07205095 0.14900984 -0.105632156
-0.18204859 -0.093530014 0.020362236 -0.022363143 -0.015978614 -0.0014149944 0.07902411 -0.23354526
-0.16781743 -0.05441662 -0.09329246 -0.12794797 -0.03291861 -0.0132196825 -0.038493257 0.016146572
-0.20682809 -0.13836445 -0.08615486 -0.05503915 -0.12901579 -0.09822005 -0.16741605 -0.18843783
-0.0726706 -0.06260373 0.03475459 -0.012244394 -0.1131233 -0.13326424 -0.10258309 0.10637243
-0.11478373 -0.33932364 0.24883153 -0.101027034 -0.111771874 -0.05702341 0.017178424 -0.046030506
0.014743777 0.011032689 -0.09725612 -0.1095969 -0.03753616 0.09682908 -0.11476097 -0.049660154
-0.011346797 -0.09670779 -0.027123334 -0.049905393 -0.26620182 -0.046499748 0.01075909 -0.026356835
-0.037346162 0.0127661275 0.04839834 -0.014657015 -0.086878926 0.0916592 0.033447288 -0.106131315
-0.06320153 0.2068172 -0.10811784 0.09977438 0.040634587 0.07947097 0.14081202 -0.07067082
-0.040651098 0.030111669 0.12751806 -0.043117754 -0.05374651 0.19385472 0.027633244 0.20711581
-0.08145196 0.011718151 0.5483421 -0.036953192 -0.18950222 0.025863497 0.2753869 -0.049102664
0.43820414 -0.008636867 0.046827596 0.10112336 0.1958962 -0.090369515 0.022181032 -0.05574869
0.1208969 0.069808565 0.10112295 0.4985994 -0.17693478 0.3086226 0.23362978 0.49764863
0.03036902 0.09582645 -0.1623847 0.13984834 0.20479484 0.084732786 0.13205901 0.26379457
0.26647198 0.05836871 0.37349275 0.0442737 -0.07344369 0.60973775 0.06150713 -0.007921789
0.21448156 0.07801394 -0.11260209 0.35273927 0.3107006 0.6044368 0.2656782 0.16322479
0.0147473 0.07333301 0.012519024 0.23512301 0.16614196 -0.0020510892 0.532568 0.22239755
-0.19856004 0.055620145 0.19476406 0.15516993 0.27881753 -0.050106652 -0.19520137 0.026052903
-0.15541746 -0.12707224 0.1855618 -0.12092199 -0.11109685 0.41685736 0.4848029 0.24518126
-0.078565985 0.040305074 -0.049694877 0.13356158 0.1923014 -0.018351875 0.20958816 0.49209237
0.07678375 0.040617976 0.8033066 -0.010723547 0.29963183 0.023885788 -0.030819356 0.2617461
0.0018633761 0.08490753 0.122322574 -0.17606398 0.3705776 0.8180637 -0.043876067 0.17819786
-0.020216009 0.057141524 0.11927886 0.089063175 0.039626684 0.035482004 0.019988738 0.2526494
0.1565479 0.12860094 -0.07543408 0.26434365 0.16847275 0.28932476 0.21941501 -0.14144239
00000000: bd55 87be a549 bbbd 3064 4cbe 78f9 33be
00000010: d05c 2d3b 12cc 2fba c6af 88bd b0db 4fbd
00000020: 0ce2 4ebc c0df bbbe 318a 1ebe f206 21be
00000030: 855a 3ebe ed8b 2cbe f8f6 f6bb e091 afbd
00000040: 30f3 1ebe 903a 4e3c be00 88be 5890 15be
00000050: f811 16be bd5a f4bd 2086 bcbc a0c8 72bb
00000060: cbde 0ebe df36 173d 2a43 ccbd 0e3d d6bd
00000070: a1ca efbd 8e4b 95be 1f9a 43be 4d22 68be
00000080: f7c6 743d 060e c4bd 1cf8 46bc a025 ebbd
00000090: 983f 56be 1b45 a43d 6dcc 3bbe 5b6f 40bd
000000a0: eac0 29bd fc5d 3bbd b661 bcbd 875b 02be
000000b0: 34c6 1cbc ad43 23bd bcd7 d0bd 35f4 c6bd
000000c0: 34a3 913c 8026 2fbe 17f8 a0bc 056d b03d
000000d0: 504d 8b3c bc1c 5d3e 9faa 98be 268e d63b
000000e0: be3f 453d bfef 34bd cc27 37bc 37ae 93bc
000000f0: 2dd7 c2bd 738f 933d 0996 183e ac55 d8bd
00000100: f26a 3abe aa8c bfbd b4ce a63c e932 b7bc
00000110: 95e5 82bc 5577 b9ba 65d7 a13d 7d26 6fbe
00000120: 55d8 2bbe f6e3 5ebd 1e10 bfbd cb04 03be
00000130: aad5 06bd 5e97 58bc 1bab 1dbd d145 843c
00000140: beca 53be 69af 0dbe f671 b0bd bb70 61bd
00000150: b71c 04be 9827 c9bd 1d6f 2bbe d9f5 40be
00000160: 53d4 94bd 6236 80bd d45a 0e3d b69c 48bc
00000170: 30ad e7bd 6c76 08be 1517 d2bd cad9 d93d
00000180: bb13 ebbd d4bb adbe b1cd 7e3e 43e7 cebd
00000190: a7e8 e4bd 6191 69bd c4b9 8c3c 7c8a 3cbd
000001a0: e28f 713c 74c2 343c 372e c7bd 5774 e0bd
000001b0: 84bf 19bd 534e c63d cd07 ebbd 7268 4bbd
000001c0: ebe7 39bc bc0e c6bd c131 debc 9969 4cbd
000001d0: 9b4b 88be 8576 3ebd e546 303c 4aea d7bc
000001e0: 4af8 18bd 0529 513c 563d 463d fa23 70bc
000001f0: 94ed b1bd d2b7 bb3d 0600 093d 605b d9bd
00000200: ce6f 81bd e3c7 533e e36c ddbd 8356 cc3d
00000210: 7470 263d adc1 a23d 0731 103e ddbb 90bd
00000220: c481 26bd bfac f63c 1894 023e 3e9c 30bd
00000230: 4d25 5cbd da81 463e 1d5f e23c 2b16 543e
00000240: 49d0 a6bd 7dfd 3f3c 2660 0c3f 3b5c 17bd
00000250: df0c 42be afdf d33c 83ff 8c3e e01f 49bd
00000260: 4b5c e03e a581 0dbc 4bce 3f3d c419 cf3d
00000270: 0399 483e a713 b9bd ffb4 b53c bd58 64bd
00000280: cb98 f73d cbf7 8e3d 8d19 cf3d 6c48 ff3e
00000290: 642e 35be c803 9e3e a53c 6f3e cdcb fe3e
000002a0: 73c8 f83c a840 c43d 2d48 26be 6734 0f3e
000002b0: bdb5 513e 6288 ad3d 7a3a 073e 1510 873e
000002c0: 046f 883e 0714 6f3d 713a bf3e 5758 353d
000002d0: a569 96bd c617 1c3f e6ee 7b3d 64ca 01bc
000002e0: 0ea1 5b3e c6c5 9f3d ed9b e6bd 3e9a b43e
000002f0: 2614 9f3e 5fbc 1a3f f906 883e 6624 273e
00000300: a99e 713c 9e2f 963d 981c 4d3c 16c4 703e
00000310: 1e21 2a3e 916b 06bb 6056 083f 2fbc 633e
00000320: 5353 4bbe f3d1 633d 3b70 473e dee4 1e3e
00000330: 2cc1 8e3e a23c 4dbd dee2 47be e66c d53c
00000340: c125 1fbe 3a1f 02be ea03 3e3e f3a5 f7bd
00000350: bf86 e3bd 546e d53e 1638 f83e cc10 7b3e
00000360: 34e7 a0bd ef16 253d db8c 4bbd 5ec4 083e
00000370: a8ea 443e ac56 96bc 479e 563e 88f3 fb3e
00000380: cc40 9d3d 095f 263d 80a5 4d3f d1b1 2fbc
00000390: 5869 993e 21ac c33c e078 fcbc 9603 863e
000003a0: 873c f43a 00e4 ad3d 4284 fa3d 1e4a 34be
000003b0: 59bc bd3e 9f6c 513f 64b7 33bd 8079 363e
000003c0: 0b9c a5bc 3b0d 6a3d 7a48 f43d c166 b63d
000003d0: 974f 223d 9455 113d 6cbf a33c 435b 813e
000003e0: 184e 203e f7af 033e 2f7d 9abd 0d58 873e
000003f0: 1f84 2c3e 6022 943e 54ae 603e 46d6 10be

generator.2.bias f4 [64]
-0.13781236 0.2599274 0.05839367 0.24781178 -0.03882319 0.5360482 0.09881735 0.014248585
-0.056908064 0.6253284 -0.06958205 0.39832756 0.017827215 -0.1151948 -0.09788432 0.061796177
0.2115498 -0.042518135 0.2854029 0.11489496 0.07544904 -0.031903394 0.015188311 0.32938996
0.32729694 0.39450544 0.11258211 0.06111244 0.28574845 0.22223821 0.03543628 0.291575
0.4155769 0.42737517 0.06467701 0.1404735 0.10041084 -0.15069598 0.12286514 0.23920082
0.15722151 0.25348902 0.3477414 -0.0478276 0.014512584 0.2906643 0.059315126 -0.08737999
0.07351317 0.21024267 0.04980984 0.045515917 -0.040614426 0.09314268 0.3703031 0.1769711
0.10609747 0.2636482 -0.04891054 0.79243726 -0.02657736 0.2523428 0.23609795 0.27395338
00000000: af1e 0dbe 3415 853e 332e 6f3d 5fc2 7d3e
00000010: 1105 1fbd 743a 093f c060 ca3d e672 693c
00000020: 6e18 69bd 8615 203f 0981 8ebd 97f1 cb3e
00000030: 610a 923c 40eb ebbd 9377 c8bd fd1d 7d3d
00000040: 83a0 583e 7f27 2ebd 5420 923e 0c4e eb3d
00000050: 0785 9a3d 22ad 02bd 65d8 783c cda5 a83e
00000060: 7793 a73e 9efc c93e 7391 e63d 0a51 7a3d
00000070: 9f4d 923e 6a92 633e a225 113d 5249 953e
00000080: 7fc6 d43e ebd0 da3e 6175 843d 49d8 0f3e
00000090: 33a4 cd3d 0c50 1abe b8a0 fb3d 0ff1 743e
000000a0: adfe 203e 50c9 813e 290b b23e e0e6 43bd
000000b0: 30c6 6d3c f3d1 943e 6bf4 723d 48f4 b2bd
000000c0: 138e 963d db49 573e 6705 4c3d e66e 3a3d
000000d0: 505b 26bd 97c1 be3d 5e98 bd3e e937 353e
000000e0: a149 d93d e6fc 863e 6b56 48bd 2bdd 4a3f
000000f0: c4b8 d9bc 1333 813e a9c3 713e 9e43 8c3e

generator.4.weight f4 [37, 64]
0.11454791 0.09373292 -0.049213044 -0.11808362 0.07480265 -0.54976505 -0.32179037 -0.25483173
0.12487499 -0.41988048 -0.045960013 -0.19730338 -0.07702373 -0.10361254 0.090971865 0.16230975
0.083418675 0.11727075 -0.50779825 -0.09927393 -0.10319149 -0.10297306 -0.069250256 -0.48432335
-0.1082668 -0.35390532 0.091691315 -0.21301277 -0.15019394 0.1828403 -0.14316061 -0.20718695
-0.62317216 -0.3309197 0.088447735 -0.21605869 0.03341619 0.07729975 0.03205528 0.11551964
-0.08277043 -0.26834407 -0.17881542 -0.19786404 0.0444244 -0.1658119 -0.13651557 0.070552334
-0.19946535 -0.35196424 -0.20614168 -0.10053982 -0.21766053 -0.10950704 -0.14109872 -0.10892366
0.04687203 0.15231013 -0.054040503 0.27976042 -0.09095303 -0.11495301 -0.09860875 -0.32338288
-0.24170235 0.109375075 0.3109279 0.006633309 -0.006562118 0.28271824 -0.042426053 0.103121325
-0.04929217 0.48734742 0.01719126 0.15544595 -0.022121204 -0.13151869 0.11456546 -0.057672597
0.13959411 0.04660052 -0.11179089 0.08394043 0.061117392 -0.21838593 0.009708753 -0.28506747
0.31925014 -0.3243182 0.10091051 0.05863951 -0.08858706 0.10117658 -0.035688676 0.1224449
-0.12060282 0.2856355 -0.044044856 0.011714072 -0.058508437 -0.060845368 -0.18605322 0.17476988
-0.17844005 0.1843753 -0.09218267 -0.11710962 0.07229824 0.119442195 -0.09042194 -0.09641479
-0.22919834 0.14174838 -0.032807674 -0.014919136 -0.19559091 -0.034068443 0.0031765266 -0.044782843
-0.06355186 -0.06021111 -0.06564029 0.045786552 -0.07941174 -0.09154711 0.09601769 -0.22289118
-0.21202327 0.20614259 0.14698069 -0.07352271 0.06952221 0.192383 0.05424111 0.25555325
0.08297933 0.51154125 -0.007051695 0.20971337 0.06444232 -0.20657653 0.042905584 -0.019514352
0.07061449 0.18715562 -0.052915912 0.11549408 -0.014449026 -0.2625916 -0.031550527 -0.14078996
0.32039848 -0.13354988 0.24020322 0.19571155 0.08504274 0.05075507 -0.012479215 0.07844681
-0.15751238 0.3852393 0.12240937 -0.18169595 0.23758349 0.13169031 -0.020394273 0.21310307
0.12664433 0.3645124 -0.10339482 -0.01532478 0.24552089 0.21360172 -0.14424412 -0.14527717
-0.06933239 -0.057096653 -0.03809093 -0.13803011 -0.16864248 0.14069982 0.12686703 -0.088008136
0.07043383 -0.12759751 -0.13807678 -0.053796943 0.025763972 0.2164535 0.20508447 -0.054297842
-0.065671906 -0.034969732 -0.26996738 -0.21934357 0.06931398 0.5686764 -0.1438299 0.15473251
0.1276426 0.50332856 -0.05055737 0.07870746 -0.030667424 -0.22536744 -0.046301935 -0.119360305
-0.028791325 0.0014127351 0.13879219 0.15769993 -0.105780065 -0.117291056 -0.00253617 -0.0059582144
0.04144841 0.024379844 0.1294751 -0.020911258 -0.014836876 0.1898265 -0.075918175 0.02605938
-0.0838317 -0.20198871 0.093474776 -0.26751226 0.14699362 -0.0053285463 -0.031073341 0.2743495
0.09153828 -0.06809081 -0.02794982 0.08664912 -0.017377017 0.16076115 0.1710048 0.115951106
-0.040574133 -0.110813275 -0.12257191 -0.11783511 0.12777966 0.10469782 0.3432261 -0.08562507
-0.053510357 -0.27077705 -0.14609817 0.465929 -0.10811657 0.2513912 0.0838101 -0.024931956
00000000: 1898 ea3d 0cf7 bf3d 9e93 49bd d3d5 f1bd
00000010: 2232 993d 67bd 0cbf b5c1 a4be 4e79 82be
00000020: 75be ff3d 93fa d6be 9140 3cbd e609 4abe
00000030: 9ebe 9dbd d032 d4bd 754f ba3d 8734 263e
00000040: 69d7 aa3d a62b f03d 11ff 01bf 2150 cbbd
00000050: 0f56 d3bd 8ae3 d2bd 14d3 8dbd 3bf9 f7be
00000060: fcba ddbd 1433 b5be a8c8 bb3d 0520 5abe
00000070: 71cc 19be 7d3a 3b3e b298 12be d128 54be
00000080: 3688 1fbf 4f6e a9be 1624 b53d 7d3e 5dbe
00000090: 6adf 083d 554f 9e3d 664c 033d 9095 ec3d
000000a0: 8b83 a9bd 6564 89be 641b 37be df9c 4abe
000000b0: 5cf6 353d 98ca 29be bdca 0bbe be7d 903d
000000c0: a540 4cbe a834 b4be ce16 53be d2e7 cdbd
000000d0: 67e2 5ebe 3a45 e0bd 2f7c 10be 5e13 dfbd
000000e0: e3fc 3f3d 30f7 1b3e 9359 5dbd c23c 8f3e
000000f0: 9545 babd 7c6c ebbd 62f3 c9bd 7192 a5be
00000100: d280 77be 0a00 e03d f131 9f3e 3b5c d93b
00000110: 0907 d7bb 72c0 903e f1c6 2dbd 4631 d33d
00000120: 96e6 49bd 9a85 f93e afd4 8c3c 392d 1f3e
00000130: 8737 b5bc d6ac 06be 4ca1 ea3d 1a3a 6cbd
00000140: c2f1 0e3e 30e0 3e3d 9ff2 e4bd f6e8 ab3d
00000150: 3b56 7a3d 90a0 5fbe 7611 1f3c 5df4 91be
00000160: c174 a33e 090d a6be 2baa ce3d fc2f 703d
00000170: 226d b5bd ab35 cf3d 4a2e 12bd 64c4 fa3d
00000180: 9cfe f6bd d13e 923e 6168 34bd 61ec 3f3c
00000190: 8ba6 6fbd fe38 79bd bc84 3ebe e0f6 323e
000001a0: fdb8 36be e1cc 3c3e 45ca bcbd 2bd7 efbd
000001b0: 1a11 943d 1c9e f43d 232f b9bd 1e75 c5bd
000001c0: f8b2 6abe 7d26 113e 5761 06bd 646f 74bc
000001d0: fc48 48be 5a8b 0bbd 462d 503b 376e 37bd
000001e0: 7a27 82bd ed9f 76bd 6b6e 86bd ae8a 3b3d
000001f0: 9fa2 a2bd 0d7d bbbd eca4 c43d 963d 64be
00000200: a11c 59be 0b17 533e 1b82 163e 1393 96bd
00000210: a961 8e3d 0d00 453e ed2b 5e3d e0d7 823e
00000220: 11f1 a93d 5ef4 023f e811 e7bb 1abf 563e
00000230: 56fa 833d cc88 53be c4bd 2f3d 90dc 9fbc
00000240: 549e 903d b9a5 3f3e 5bbe 58bd 2988 ec3d
00000250: 9cbb 6cbc 6872 86be 203b 01bd 3e2b 10be
00000260: 450b a43e 4dc1 08be d5f7 753e 9c68 483e
00000270: e32a ae3d 8ce4 4f3d 9f75 4cbc b9a8 a03d
00000280: ed4a 21be 163e c53e c4b1 fa3d 810e 3abe
00000290: 1649 733e d3d9 063e e411 a7bc b137 5a3e
000002a0: 0daf 013e 5fa1 ba3e aac0 d3bd c914 7bbc
000002b0: d469 7b3e 69ba 5a3e bbb4 13be 8ac3 14be
000002c0: 24fe 8dbd 2ede 69bd 3c05 1cbd c457 0dbe
000002d0: 9db0 2cbe 9d13 103e 6ee9 013e 9c3d b4bd
000002e0: 9d3f 903d eca8 02be 0064 0dbe 2f5a 5cbd
000002f0: f70e d33c fca5 5d3e aa01 523e 6a67 5ebd
00000300: fe7e 86bd 6c3c 0fbd 2a39 8abe 9a9b 60be
00000310: 7df4 8d3d c794 113f 2548 13be 3372 1e3e
00000320: beb4 023e 24da 003f 3f15 4fbd 6031 a13d
00000330: 403a fbbc b9c6 66be 19a7 3dbd 2d73 f4bd
00000340: c9db ebbc 862b b93a 8a1f 0e3e 177c 213e
00000350: 38a3 d8bd 4b36 f0bd df35 26bb 203d c3bb
00000360: cfc5 293d 3db8 c73c 1f95 043e 164e abbc
00000370: 5e16 73bc e161 423e fd7a 9bbd 7b7a d53c
00000380: f4af abbd 21d6 4ebe b46f bf3d 5ef7 88be
00000390: 7f85 163e 169b aebb 858d febc 8a77 8c3e
000003a0: 6c78 bb3d 3273 8bbd 05f7 e4bc 1875 b13d
000003b0: 3f5a 8ebc 929e 243e e21b 2f3e c677 ed3d
000003c0: 1031 26bd 12f2 e2bd fb06 fbbd 8953 f1bd
000003d0: acd8 023e d06b d63d 55bb af3e 325c afbd
000003e0: ad2d 5bbd 4aa3 8abe c29a 15be 3f8e ee3e
000003f0: 386c ddbd 59b6 803e a1a4 ab3d 1a3e ccbc

generator.4.bias f4 [37]
-0.23174948 -0.038711544 -0.11760864 0.099629834 -0.119709946 -0.01988008 0.008616628 -0.23710918
-0.072460346 0.083137 0.07176099 0.044076238 0.074721366 0.097711906 -0.18807355 0.03141975
-0.120157786 -0.2891771 -0.08772036 -0.04128044 -0.017178489 0.046716534 -0.31108105 0.16215007
-0.10064061 -0.11831669 0.07059657 -0.12302578 0.07809282 0.13736986 -0.2892626 -0.13173942
-0.018393809 -0.10227448 -0.085196406 -0.08827761 -0.046330106
00000000: bc4f 6dbe ff8f 1ebd ccdc f0bd ba0a cc3d
00000010: 7d2a f5bd 8ddb a2bc c22c 0d3c c0cc 72be
00000020: 1766 94bd bb43 aa3d 6df7 923d 4989 343d
00000030: 8407 993d 2e1d c83d 5a96 40be ffb1 003d
00000040: 4915 f6bd 050f 94be bba6 b3bd ae15 29bd
00000050: e7b9 8cbc d659 3f3d 0446 9fbe ab0a 263e
00000060: aa1c cebd 0550 f2bd ef94 903d f1f4 fbbd
00000070: 21ef 9f3d afaa 0c3e 3a1a 94be b3e6 06be
00000080: 9dae 96bc 4875 d1bd 747b aebd e4ca b4bd
00000090: a3c4 3dbd

discriminator.0.weight f4 [64, 37]
0.17863604 0.11206455 -0.20127206 -0.19735174 0.0055613457 0.37921447 -0.08595381 0.11471416
-0.15302049 -0.027904233 0.037891705 0.21572678 0.3621622 0.20148966 -0.05232206 -0.028292987
-0.33486432 -0.0665376 0.3309797 -0.098839894 -0.2914243 0.056386057 0.41033977 -0.39456508
0.54203147 -0.3092373 -0.1850069 0.21445933 -0.0538517 -0.033881295 0.48634666 0.3199038
0.16728783 -0.090756536 0.08778698 0.25582543 0.09531875 0.24086322 -0.5098151 0.32938913
0.10687924 -0.20247796 -0.10288028 -0.037885096 -0.36537442 -0.10212114 -0.36831623 0.24585967
0.32659543 0.059367307 0.15793313 0.21676311 -0.21302003 -0.24558592 0.34144005 0.08456813
-0.12271613 -0.057393063 -0.21863084 0.07461567 -0.14032505 0.23548003 0.43094626 0.16205381
0.31271857 -0.22760291 0.276496 0.1839849 0.0924772 -0.36564204 -0.17646103 0.22425638
-0.14081924 -0.15513217 -0.062220067 -0.2252484 -0.03965771 -0.012378091 -0.06734015 -0.14707737
0.024520658 -0.28789738 0.051166117 0.102663316 -0.068793364 -0.20458692 -0.048975013 -0.10759608
-0.06260046 -0.11948534 0.011546901 0.01313139 -0.06746717 -0.13218696 -0.09801906 -0.30607525
-0.029028768 -0.0190259 -0.32364073 0.23635253 0.19773777 -0.18238139 -0.28105208 0.0025257259
0.14558524 -0.15359275 -0.021101475 0.030951018 0.18946548 0.0141409105 -0.09189697 0.09582432
0.26329872 0.14512254 -0.3595979 0.19619468 0.14845376 0.1547151 -0.013066838 0.2604585
0.04563057 0.15659146 0.33708945 0.2369215 0.109637074 0.06720771 0.07518608 0.29522774
-0.09761924 0.30133092 0.26083115 0.016273836 0.3937563 0.10187525 -0.05082782 -0.29691443
-0.07322659 0.17676379 0.0726065 0.26488364 0.1608028 0.1957216 -0.1692084 -0.011012368
-0.19303773 0.0024002348 0.083443545 -0.03639707 0.27871642 0.19853991 -0.11900006 0.31455225
0.31526548 -0.20184594 -0.50304055 0.23410457 -0.2996655 0.27631572 0.29367065 0.14874114
0.16596778 -0.34929022 0.37974513 -0.071805194 -0.39458552 0.057979327 -0.12520133 -0.0820163
0.055807747 -0.15865389 -0.112373695 -0.012258216 0.0691882 0.14252678 0.034517422 0.16093844
0.34590617 0.05529319 -0.14481047 0.23329017 -0.014922164 -0.028512105 0.08441293 -0.3316832
0.2300302 0.12309637 -0.058497936 -0.01486507 0.04158762 0.14662404 0.37477368 0.16945417
0.05991186 0.11317956 0.21101068 0.17645393 0.16307257 -0.07389313 0.1013659 0.10074307
-0.013598873 0.29225367 0.04167779 0.015018172 0.1597524 0.21479805 0.2237224 0.039700896
0.041630078 -0.04368685 -0.07350379 0.1424741 -0.072284065 0.2865034 0.22617117 0.23603392
0.3090757 0.12978604 0.059921905 -0.06329036 0.061437167 -0.046921812 0.18336076 -0.1380274
-0.20343027 -0.10021698 -0.021372259 0.21817851 -0.034585457 0.062548995 0.2001292 0.19852936
-0.06631049 0.24396507 0.12446597 0.18258335 0.101506636 -0.085546 0.17597401 -0.19375063
0.079207905 0.34449923 -0.2195441 0.050177675 -0.3677506 0.306508 0.015558756 0.28041917
-0.04901387 -0.035472948 -0.32084453 0.14290142 -0.07036312 -0.19109482 0.16776319 0.10887587
00000000: 5eec 363e 1982 e53d 431a 4ebe 9316 4abe
00000010: f33b b63b 6628 c23e 8d08 b0bd 42ef ea3d
00000020: 67b1 1cbe 6b97 e4bc 5534 1b3d 7be7 5c3e
00000030: 536d b93e 4e53 4e3e a84f 56bd b2c6 e7bc
00000040: 5673 abbe dd44 88bd 2c76 a93e 926c cabd
00000050: 9135 95be 11f5 663d 0e18 d23e 6f04 cabe
00000060: 93c2 0a3f 5a54 9ebe 7372 3dbe 3a9b 5b3e
00000070: 9a93 5cbd 1dc7 0abd 6e02 f93e 6eca a33e
00000080: 804d 2b3e 90de b9bd a9c9 b33d 8dfb 823e
00000090: 7a36 c33d d9a4 763e 3e83 02bf b1a5 a83e
000000a0: 81e3 da3d 6256 4fbe e5b2 d2bd 672d 1bbd
000000b0: 5b12 bbbe e324 d1bd f293 bcbe a3c2 7b3e
000000c0: 8437 a73e 222b 733d 39b9 213e 26f7 5d3e
000000d0: ec21 5abe e07a 7bbe 3bd1 ae3e 0e32 ad3d
000000e0: 9852 fbbd fd14 6bbd c3e0 5fbe 1ad0 983d
000000f0: 5fb1 0fbe ad21 713e fda4 dc3e 6ff1 253e
00000100: a61c a03e bd10 69be e290 8d3e 8a66 3c3e
00000110: b064 bd3d 6f35 bbbe 33b2 34be 77a3 653e
00000120: eb32 10be f8da 1ebe 78da 7ebd 84a7 66be
00000130: 1f70 22bd 7acd 4abc a2e9 89bd 739b 16be
00000140: 8cdf c83c 4967 93be 9093 513d 2541 d23d
00000150: 89e3 8cbd 3c7f 51be 069a 48bd 555b dcbd
00000160: ac34 80bd bbb4 f4bd 372f 3d3c 0b25 573c
00000170: 3a2c 8abd 055c 07be 38be c8bd e5b5 9cbe
00000180: bdcd edbc 34dc 9bbc 3db4 a5be 6606 723e
00000190: c57b 4a3e 30c2 3abe 0fe6 8fbe a686 253b
000001a0: 4c14 153e 6b47 1dbe 00dd acbc fd8c fd3c
000001b0: 3d03 423e 47af 673c 7b34 bcbd 8b3f c43d
000001c0: 17cf 863e 019b 143e 371d b8be 42e7 483e
000001d0: 4304 183e a36d 1e3e 4a16 56bc d15a 853e
000001e0: 1fe7 3a3d 8359 203e fd96 ac3e 8d9b 723e
000001f0: 6789 e03d 32a4 893d 29fb 993d 1728 973e
00000200: 99ec c7bd 0c48 9a3e a98b 853e b550 853c
00000210: 6d9a c93e f9a3 d03d d530 50bd 2b05 98be
00000220: d3f7 95bd 9101 353e b7b2 943d d49e 873e
00000230: 7da9 243e 3e6b 483e f844 2dbe 386d 34bc
00000240: afab 45be 424d 1d3b 73e4 aa3d 1815 15bd
00000250: ebb3 8e3e 0c4e 4b3e 4eb6 f3bd fe0c a13e
00000260: 7a6a a13e b4b0 4ebe 44c7 00bf 1cb9 6f3e
00000270: c26d 99be 4179 8d3e 005c 963e 994f 183e
00000280: 75f3 293e 2bd6 b2be f46d c23e 9a0e 93bd
00000290: 1d07 cabe bb7b 6d3d c734 00be 29f8 a7bd
000002a0: aa96 643d 2a76 22be 2e24 e6bd afd6 48bc
000002b0: 8bb2 8d3d 8af2 113e 2462 0d3d 0ccd 243e
000002c0: 9d1a b13e 1d7b 623d 3249 14be 9ee3 6e3e
000002d0: 187c 74bc 3892 e9bc b0e0 ac3d 61d2 a9be
000002e0: 098d 6b3e f319 fc3d 889b 6fbd 9f8c 73bc
000002f0: c857 2a3d 9d24 163e 56e2 bf3e 6585 2d3e
00000300: 2366 753d afca e73d 2f13 583e 57b0 343e
00000310: 7ffc 263e 4855 97bd ed98 cf3d 6252 ce3d
00000320: cfcd 5ebc 46a2 953e 55b6 2a3d c70e 763c
00000330: 2296 233e 05f4 5b3e 7c17 653e 689d 223d
00000340: 4d84 2a3d fcf0 32bd 2889 96bd bbe4 113e
00000350: ab09 94bd 93b0 923e 6a99 673e e0b2 713e
00000360: 2c3f 9e3e a2e6 043e ac70 753d 609e 81bd
00000370: 8aa5 7b3d 1631 40bd ecc2 3b3e 0e57 0dbe
00000380: 0650 50be 8f3e cdbd e014 afbc 306a 5f3e
00000390: 7ba9 0dbd b019 803d abee 4c3e 484b 4b3e
000003a0: cbcd 87bd fbd1 793e 04e8 fe3d 21f7 3a3e
000003b0: b6e2 cf3d be32 afbd 8832 343e 9166 46be
000003c0: c137 a23d 3462 b03e 2bd0 60be 1b87 4d3d
000003d0: cf49 bcbe 9eee 9c3e 27ea 7e3c 1a93 8f3e
000003e0: c5c2 48bd 154c 11bd bc45 a4be c054 123e
000003f0: 8a1a 90bd 5cae 43be 1dca 2b3e 50fa de3d

discriminator.0.bias f4 [64]
0.086215526 -0.09330519 -0.0073273475 -0.09761875 -0.043263335 0.17799053 0.35505876 0.23937851
-0.42530817 0.10190288 -0.024700083 0.00079303596 0.24875863 0.040303998 -0.04796428 0.054542247
0.48206478 -0.13320969 -0.017651243 -0.18940887 0.0021529181 0.015727855 0.037567414 -0.053270333
0.007067694 0.24901743 0.05616351 0.09977147 -0.0687783 0.024610117 0.0001943399 0.19392914
-0.08148702 0.14375982 0.10790555 -0.005793612 0.009597596 -0.058140393 0.07820116 0.17077683
0.11757861 -0.031165695 0.08241927 -0.12086875 0.12492508 -0.008322645 0.480503 0.05754118
0.124197595 0.04759687 0.10330986 0.008115728 0.27255583 0.2247412 0.37236944 -0.023579618
-0.27757916 -0.050763816 0.2858563 0.17964499 0.1425449 0.5770871 -0.0018728718 0.0349592
00000000: c491 b03d cb16 bfbd 3f1a f0bb 57ec c7bd
00000010: e534 31bd 2643 363e 43ca b53e a41f 753e
00000020: fec1 d9be 75b2 d03d d457 cabc bee3 4f3a
00000030: 95ba 7e3e ce15 253d 3176 44bd b167 5f3d
00000040: 32d1 f63e 1f68 08be 5799 90bc 66f4 41be
00000050: f917 0d3b b4d7 803c 4ae0 193d fe31 5abd
00000060: 1d98 e73b 6dfe 7e3e b50b 663d fc54 cc3d
00000070: a3db 8cbd 289b c93c b8c7 4b39 5c95 463e
00000080: abe2 a6bd c635 133e 96fd dc3d 57d8 bdbb
00000090: 3c3f 1d3c 9f24 6ebd ee27 a03d 1fe0 2e3e
000000a0: 0ecd f03d 334f ffbc 6fcb a83d 098a f7bd
000000b0: b8d8 ff3d b45b 08bc 7d04 f63e 4db0 6b3d
000000c0: 4f5b fe3d f0f4 423d 1f94 d33d d5f7 043c
000000d0: 708c 8b3e 8f22 663e 35a7 be3e 0b2a c1bc
000000e0: db1e 8ebe b8ed 4fbd c25b 923e dbf4 373e
000000f0: 4af7 113e fbbb 133f 267b f5ba 6131 0f3d

discriminator.2.weight f4 [32, 64]
-0.44172034 -0.4811545 -0.01816431 0.33479035 -0.29466233 0.18881959 0.21491517 0.20223573
0.33713585 0.19985393 0.21042976 0.20374024 0.23436701 -0.2424811 -0.13154377 0.10535263
0.45524985 -0.049287826 -0.37258348 0.42116958 -0.25579023 -0.55216265 -0.20800672 0.0047356836
-0.24001531 0.23867005 -0.17181008 -0.2664781 -0.49733204 0.13989535 -0.14129564 0.081016816
-0.35902315 0.41581085 -0.31030476 -0.39304078 -0.061083235 -0.19703147 0.091729656 -0.04847893
0.22550318 -0.34408498 -0.17972676 -0.23493673 -0.33580208 0.20215875 0.42200512 -0.5837983
0.022378216 -0.4559809 -0.21909589 -0.34769288 0.25881615 -0.4399349 0.24235319 -0.49645922
0.20581017 0.008082391 0.2724965 0.17057924 -0.15214698 0.56624514 0.17546041 -0.12934761
-0.39950597 -0.551854 0.15431026 0.12765075 -0.15040818 0.12017181 0.1958047 0.1530862
0.119548954 0.027017236 0.25876638 0.18792349 0.23788285 -0.3272573 -0.3001913 0.20444414
0.458983 -0.039994664 -0.30144486 0.4954247 -0.31562892 -0.3896456 -0.23813652 0.010699526
-0.18508336 0.14520985 -0.13536038 -0.23260976 -0.40992412 0.11017404 0.016280599 0.22857182
-0.47005945 0.3243974 -0.3614091 -0.19504175 -0.14536043 -0.11584196 0.078719266 0.13479969
0.24383108 -0.21997249 -0.07181643 -0.07628856 -0.20304456 0.18756588 0.36049506 -0.53925425
0.19968706 -0.37289435 -0.3501979 -0.40059742 0.419768 -0.35603073 0.3826987 -0.67021924
0.06411238 -0.06985034 0.37676594 0.24473177 -0.26596645 0.5442103 -0.020056693 -0.33252844
0.1535511 0.29271165 -0.00051504205 -0.078392185 0.117859915 0.01920399 -0.23005196 0.020105924
-0.101362504 -0.011967888 -0.29103437 -0.09361516 -0.042787578 0.44140187 0.2268422 6.3649815e-05
-0.38855448 -0.0441214 0.19849421 -0.2276556 0.0957654 0.56573147 0.18744498 -0.09691596
0.289784 0.048518825 0.13910252 0.10787834 0.425879 0.19113028 0.1632081 -0.12253213
0.53932947 -0.12665772 0.3871798 0.29013348 0.23916419 0.030404804 -0.13452072 -0.046991587
-0.076369986 0.33597213 0.17652006 0.13315728 0.34997767 -0.10860054 -0.066819854 0.30445313
0.07909221 0.2996961 0.29323584 0.32006136 -0.25930154 0.19125195 -0.23484285 0.5995695
-0.08634944 0.31525162 -0.10724283 -0.08399393 0.4101082 -0.38374737 0.21015015 0.26110592
0.48922226 0.21534045 -0.109847054 0.06292775 0.009331038 -0.13830787 -0.39567658 -0.1727616
-0.055901047 -0.11541673 -0.23300862 -0.03592603 -0.27510467 0.0685512 0.32695845 0.382714
-0.08779595 -0.20246029 0.1903878 0.03737122 0.21834297 0.46267378 0.260325 0.2108084
0.073051326 0.09459406 0.15512745 0.17069183 0.12554389 -0.065064274 0.13964675 -0.04223882
0.39157164 -0.4156821 0.042653155 -0.057553634 0.07244114 -0.004084867 -0.20169137 0.00019191389
0.2024483 0.3510677 -0.011837225 0.22034594 0.33819735 -0.0831057 -0.07163616 0.22215573
-0.12541127 0.19512174 0.087231964 0.15919805 -0.20149672 0.39985716 -0.0054686097 0.23049296
-0.009611546 0.26714915 0.07401041 -0.30144775 0.41220707 -0.28171197 0.015338381 0.35019273
00000000: 2b29 e2be e259 f6be 52cd 94bc a469 ab3e
00000010: fbdd 96be ec59 413e b912 5c3e e216 4f3e
00000020: 129d ac3e 82a6 4c3e e67a 573e 48a1 503e
00000030: e8fd 6f3e f74c 78be 69b3 06be 1fc3 d73d
00000040: 8216 e93e 08e2 49bd 43c3 bebe 8aa3 d73e
00000050: f0f6 82be 885a 0dbf b7ff 54be cb2d 9b3b
00000060: 93c6 75be ec65 743e fbee 2fbe d16f 88be
00000070: 4ea2 febe ba40 0f3e ceaf 10be 25ec a53d
00000080: e2d1 b7be 29e5 d43e 44e0 9ebe a43c c9be
00000090: 6a32 7abd 9ec2 49be c2dc bb3d d891 46bd
000000a0: 4eea 663e e82b b0be 4b0a 38be 4193 70be
000000b0: 40ee abbe b402 4f3e 0e11 d83e ce73 15bf
000000c0: 8552 b73c 5476 e9be ac5a 60be cd04 b2be
000000d0: 8d83 843e 263f e1be 6f2b 783e e72f febe
000000e0: e7bf 523e 016c 043c a984 8b3e 53ac 2e3e
000000f0: 6bcc 1bbe 71f5 103f e5ab 333e b373 04be
00000100: 0c8c ccbe 4e46 0dbf 8203 1e3e e1b6 023e
00000110: 9a04 1abe a31c f63d 0781 483e a1c2 1c3e
00000120: 15d6 f43d 4053 dd3c 077d 843e 046f 403e
00000130: 9097 733e 458e a7be adb2 99be ce59 513e
00000140: d2ff ea3e 72d1 23bd fb56 9abe 4ea8 fd3e
00000150: 1d9a a1be a17f c7be 0fda 73be 114d 2f3c
00000160: 7e86 3dbe e4b1 143e e99b 0abe 4131 6ebe
00000170: 93e1 d1be eda2 e13d e45e 853c bb0e 6a3e
00000180: a2ab f0be 6a17 a63e 9d0a b9be 06b9 47be
00000190: 5dd9 14be 8d3e edbd 9137 a13d ee08 0a3e
000001a0: dbae 793e 7840 61be 7e14 93bd 2d3d 9cbd
000001b0: eaea 4fbe 4511 403e cf92 b83e 910c 0abf
000001c0: c47a 4c3e 02ec bebe 244d b3be 1b1b cdbe
000001d0: d5eb d63e a949 b6be 16f1 c33e 7d93 2bbf
000001e0: 5a4d 833d b20d 8fbd 77e7 c03e f79a 7a3e
000001f0: c12c 88be 5e51 0b3f ef4d a4bc 2b41 aabe
00000200: 803c 1d3e 4dde 953e e303 07ba 158c a0bd
00000210: 8a60 f13d b051 9d3c be92 6bbe 2eb5 a43c
00000220: 2597 cfbd f614 44bc 7502 95be 4eb9 bfbd
00000230: 0742 2fbd 6dff e13e 5249 683e bc7b 8538
00000240: 9df0 c6be a4b8 34bd 1142 4b3e 8d1e 69be
00000250: a620 c43d c7d3 103f 94f1 3f3e e07b c6bd
00000260: 925e 943e adbb 463d e470 0e3e 52ef dc3d
00000270: d00c da3e a8b7 433e 0620 273e 20f2 fabd
00000280: 7f11 0a3f 90b2 01be 6e3c c63e 608c 943e
00000290: 75e7 743e 7f13 f93c cdbf 09be 407a 40bd
000002a0: de67 9cbd 8a04 ac3e adc1 343e 625a 083e
000002b0: 4630 b33e f669 debd d9d8 88bd 48e1 9b3e
000002c0: 19fb a13d c471 993e 0223 963e 15df a33e
000002d0: 2cc3 84be 8dd7 433e a57a 70be 637d 193f
000002e0: fad7 b0bd a968 a13e 21a2 dbbd 0205 acbd
000002f0: b4f9 d13e 897a c4be 9a31 573e adaf 853e
00000300: 577b fa3e 3582 5c3e 7ef7 e0bd 44e0 803d
00000310: 36e1 183c 94a0 0dbe 1f96 cabe 6be8 30be
00000320: 7ff8 64bd 9b5f ecbd d099 6ebe 2c27 13bd
00000330: 85da 8cbe 9264 8c3d 1967 a73e 17f3 c33e
00000340: 5dce b3bd c051 4fbe 05f5 423e 9012 193d
00000350: 4d95 5f3e 94e3 ec3e 5249 853e 28de 573e
00000360: ef9b 953d 88ba c13d bbd9 1e3e d7c9 2e3e
00000370: 948e 003e 6b40 85bd 8fff 0e3e 9d02 2dbd
00000380: 147c c83e 49d4 d4be 13b5 2e3d 5cbd 6bbd
00000390: 055c 943d 59da 85bb 2f88 4ebe 7e3c 4939
000003a0: 9b4e 4f3e 25bf b33e ecf0 41bc 5ea2 613e
000003b0: 3428 ad3e 5233 aabd fbb5 92bd cb7c 633e
000003c0: d06b 00be fecd 473e aca6 b23d d004 233e
000003d0: 2855 4ebe 14ba cc3e 0632 b3bb 5906 6c3e
000003e0: bf79 1dbc c6c7 883e c592 973d 5c57 9abe
000003f0: ce0c d33e 8d3c 90be d54d 7b3c 764c b33e

discriminator.2.bias f4 [32]
0.19009979 0.12926024 0.074733436 0.05406468 -0.21331778 -0.13814317 -0.10597518 -0.16098315
-0.036235612 -0.055990044 0.019608235 -0.03629836 -0.040787205 -0.101439185 0.031322457 -0.061133523
0.19376193 0.17633186 -0.061802033 -0.05923169 -0.0436203 -0.15603709 -0.15256566 -0.01607184
-0.07442619 0.0026347467 -0.12946784 -0.024198497 0.19697252 0.2792246 -0.048518647 -0.1491039
00000000: 85a9 423e cc5c 043e d80d 993d ed72 5d3d
00000010: fa6f 5abe 6775 0dbe 8409 d9bd c4d8 24be
00000020: cb6b 14bd d155 65bd 73a1 a03c 97ad 14bd
00000030: 7c10 27bd 59bf cfbd fa4b 003d 2567 7abd
00000040: 8769 463e 5790 343e 2124 7dbd ee9c 72bd
00000050: 33ab 32bd 30c8 1fbe 2c3a 1cbe 17a9 83bc
00000060: c26c 98bd b7ab 2c3b 3893 04be ed3b c6bc
00000070: 2ab3 493e 87f6 8e3e 7dbb 46bd b1ae 18be

discriminator.4.weight f4 [1, 32]
-0.44811654 -0.5591745 0.31233957 0.3416019 0.16513494 0.34888297 0.5379061 0.58080435
-0.04359034 0.42877966 -0.11566429 0.3233946 -0.07036018 0.26038912 0.39652434 -0.056958277
-0.39382115 -0.5029357 0.35265377 0.16124669 0.26847565 0.293219 0.24679543 -0.14579861
0.310145 -0.15194711 0.38902426 0.21870331 -0.54674137 -0.4196398 0.43289176 0.40610322
00000000: 886f e5be 0f26 0fbf f9ea 9f3e 72e6 ae3e
00000010: 2219 293e caa0 b23e 37b4 093f 98af 143f
00000020: c98b 32bd 0289 db3e 66e1 ecbd fa93 a53e
00000030: 0019 90bd b951 853e 3d05 cb3e 154d 69bd
00000040: eda2 c9be 65c0 00bf 098f b43e da1d 253e
00000050: a475 893e cd20 963e f1b7 7c3e 3b4c 15be
00000060: 53cb 9e3e 0698 1bbe 302e c73e c3f3 5f3e
00000070: 3ef7 0bbf 07db d6be fda3 dd3e c3ec cf3e
