models/2024-09-20/gnn_model.pth (torch, 12192 bytes, 4 tensors)

fc1.weight f4 [64, 1]
00000000: 5ecf 1a3f 58f7 203e 58bd 78be 8800 9c3e
00000010: 0c4a 493f 76e8 2cbf f844 1dbe e1e1 b4bd
00000020: c405 6e3f 08c8 73bf 9061 febd e9fe 353f
00000030: b9c5 c53e a83f 17bf 651f 5e3e da3b de3e
00000040: bb20 2cbe fd0a 6a3d b009 8abe 0065 d2be
00000050: ece5 7abf 8050 e4bd b71e e73e b707 ce3e
00000060: 1812 cebe c42b ccbe 8cc6 533f 726b d8be
00000070: 02b2 5abf def6 30bf 9b27 51bf 28a8 2abf
00000080: 52dc 67bf e607 083f 937d 063f d745 503f
00000090: 2738 debe 938c 3c3f fac9 36bf f8f2 6f3e
000000a0: 1610 52bf 48d1 05be 403a dfbc a012 4ebe
000000b0: dd65 5b3f 882f 75bf d64f 38bf 2435 50bf
000000c0: 9cc1 263f 8258 30be 60e3 b83e 2003 11be
000000d0: 5b86 ec3e c89f 033f 68f9 81be ebfc 1d3f
000000e0: 38c1 65bf 78a5 7cbf dbde d23e 9beb cabe
000000f0: e6a3 403e f817 57be aa17 3cbf f66e 55bf
0.6047267 0.15719354 -0.24290979 0.30469155 0.7862861 -0.6754221 -0.1535834 -0.088321455
0.9297755 -0.952271 -0.12420952 0.7109209 0.38627413 -0.59081507 0.21691664 0.43405038
-0.1680936 0.057139385 -0.26960516 -0.41092682 -0.9800708 -0.11148167 0.4514062 0.4024026
-0.4024818 -0.3987714 0.82724833 -0.42269474 -0.8542787 -0.6912669 -0.8170106 -0.66662836
-0.9057056 0.5313705 0.5253536 0.8135657 -0.43402216 0.73652 -0.7140194 0.23432529
-0.82055795 -0.13068116 -0.027249455 -0.20124292 0.85702306 -0.9577565 -0.7199682 -0.81331086
0.65139174 -0.17221263 0.36110973 -0.14161348 0.46196255 0.5141568 -0.25385594 0.6171405
-0.89747953 -0.98689985 0.4118565 -0.39632878 0.18812522 -0.21005237 -0.7347361 -0.8337244

fc1.bias f4 [64]
00000000: d0e6 31bf 2ed0 61bf 4088 a9be 36f9 5fbf
00000010: 82f9 35be 286b 9bbe 0040 39bd 3dea ff3e
00000020: 8c4e 263f 40be b1bd 680e 43bf 909b a53e
00000030: d623 873d ec2c b73e c14d 143f b046 59be
00000040: 9742 533e 1bc9 13be f2a5 4bbf 8e69 0abf
00000050: e80d 113f ea24 31bf 8757 0bbf 0c43 8bbe
00000060: 3812 46bf ae6e 24bf 30a7 6abf 452a 413f
00000070: 4a40 3fbf cc36 77bf 6c67 4a3f d4ce 61bf
00000080: 0814 8ebe cb1f 1cbf 2ea8 813e 88f3 92be
00000090: 40d5 3d3f a170 bdbe 839f e83e a08d c8be
000000a0: 4fbd 043f 9a6a 07bf 30f0 b4be 3077 89bd
000000b0: 1761 a63e 4811 cc3e ceb0 0cbf 203e 583d
000000c0: bee4 39bf bd4d 3f3f f647 53bf 603a d2be
000000d0: d9f0 603e 205f 01be 9824 68be b1a2 9cbe
000000e0: e8e1 273f e0a0 593e 815d 4fbb 9a46 893e
000000f0: dafd 603f 4cec 1dbf e816 47bf 003d eebe
-0.69492817 -0.8820828 -0.33111763 -0.8748964 -0.17770961 -0.3035519 -0.04522705 0.49983397
0.64963603 -0.086788654 -0.7619386 0.32345247 0.06598632 0.3577646 0.57931143 -0.21218371
0.20630871 -0.14432184 -0.7955009 -0.54067314 0.56661844 -0.6919695 -0.5443043 -0.2719959
-0.7737155 -0.64231384 -0.9166136 0.75455123 -0.7470747 -0.9656799 0.7906406 -0.8820622
-0.27749658 -0.6098601 0.25323623 -0.28701425 0.7415352 -0.36999992 0.45434198 -0.3917055
0.5185136 -0.52897036 -0.353395 -0.06712186 0.3249595 0.39856935 -0.5495728 0.052793622
-0.7261466 0.74727994 -0.8253168 -0.41060162 0.21966876 -0.12633944 -0.2267021 -0.30592874
0.6557908 0.21252775 -0.0031641426 0.26811677 0.87887347 -0.61688685 -0.7776933 -0.46530914

fc2.weight f4 [37, 64]
00000000: 58f0 0ebd 1053 b9bc 5422 21bd 2c9f 943d
00000010: 1461 363e 2087 9c3d a4e0 e2bd b9c6 5b3d
00000020: 0baa 3d3e 1ab3 90bd 2497 db3d eb0e 5ebc
00000030: 2312 613d 06f0 e0bd 2447 b33c 281e 5e3c
00000040: 6606 593d e559 203d 2678 cb3d 0443 4a3d
00000050: 9b69 11bd 788d babc 38a1 113e d5f2 983d
00000060: 5467 f53d 56a4 e63d 6840 4a3d 7729 1dbd
00000070: 0e45 d43d 80be bf3b 578b d1bc fca3 763d
00000080: a013 66bd 34c0 d5bc 78bb ad3c a0f1 4d3d
00000090: 913a 883d 37e2 2f3e 0a6d dc3d a001 b7bc
000000a0: e3b9 64bd c887 ce3d dcf8 bcbd c815 823d
000000b0: ebae 4e3d 2496 963d b4e3 ddbd da85 92bd
000000c0: 5dd5 94bd a0ee 0a3e 1caa 20bd c072 c4bb
000000d0: 92e2 4f3d 8321 743d e010 61bc 6fff a93d
000000e0: fc83 6e3d aa50 ac3d 627b 6f3c 9f90 1a3e
000000f0: bd87 62bb d007 d8bc 601d 28bd 8086 f03b
00000100: 0860 c93a a2c2 b13d 8073 10bb e699 9b3d
00000110: cca0 46bc f827 eb3c fc24 80bd 4e13 143e
00000120: f6db 0f3e 0a4f bebd 60c9 c1bc 59ea 8dbc
00000130: 6bbb 84bc d036 e53c 6f6e 5b3d e42c 75bb
00000140: 7449 6cbd a32b 763c d8c8 ae3c 1424 023d
00000150: 4ca4 a7bd 2a7c b2bd 3b48 61bd e666 b53d
00000160: 3648 ec3d 7ae1 ca3d b876 dcbd 768c 573c
00000170: 200c ad3b 9474 e73d ab2b 4abe f4c4 31bd
00000180: 00e0 1bb9 fb94 12be 2591 42bd ad22 523e
00000190: c266 bc3d f7f7 633e d592 5b3d d60f e6bd
000001a0: 21b1 48be 5883 c2bd eec2 c93d 9835 293d
000001b0: 11a6 2d3e d09a 7fbc 002e a63d f0c0 653d
000001c0: f797 953d 6f7e 703d 4013 f93b 30e2 18bc
000001d0: d07f 0e3e 44a3 9d3d 08f6 303d e3ca adbc
000001e0: 86d9 9a3b 34d4 693d 67fe 1f3d 1c40 e33d
000001f0: e50f 023e 6c0b 9c3d 78d2 ff3c 00e5 63bc
00000200: e2b6 22be f0ce f23c 00ba 183c 7c3a 4fbd
00000210: f37e 0e3d 78af 22bd 3477 983d 68b0 08bd
00000220: e31f b33d b021 f1bd 04d1 583d 859d 343e
00000230: 3626 f23d 4c4b c33d ecd5 df3d 0222 2b3e
00000240: 858d e7bd 2e42 04be 6afd 9c3d e0a7 fe3d
00000250: 502e 8fbc fc1f 22bd d483 04bd 79e4 cf3d
00000260: f4d7 19bd e0ca a8bd 688e 0fbd 6b1c 8cbd
00000270: fa92 b03d 8a43 b13d 3a99 20be a86b ce3d
00000280: faea 80bd 2646 293d 8d95 953d a27f 803c
00000290: 61eb 2d3c c8e8 893d 1ccb fe3c ae8a 833d
000002a0: 94d4 7abd f052 0c3c 8095 c7bc a8eb 273d
000002b0: 7a75 cc3d b8d3 8dbd b6ff 9f3d 5cc5 de3d
000002c0: 3eef 06bd 0fa2 5d3d 3467 a43d d074 febd
000002d0: 5e3a 093d cfa8 c33c 720e c23d 5e58 3a3d
000002e0: 0c67 a0bc 887d 86bc a950 d23d f89e a53d
000002f0: 148a b83d faa1 cfbd c480 8bbd d841 b3bc
00000300: d3ae 953d 54dc d73d 8c2f e33d cebb efbd
00000310: da2c cebc 905c 013d b637 ab3d 02b1 ad3c
00000320: 9abf c43d 0e29 f43d 8677 b23d 6ed2 843d
00000330: 7711 7fbc c0ca 29bd 3135 973d fdbb 2c3c
00000340: e8fb 983d c597 d6bd b861 0d3d 7a19 a33d
00000350: 8d23 9b3c 1420 0c3d f5dd d1bc c9b6 663e
00000360: 2c7d 7ebd ba22 983d 14c2 7b3d 861d 96bd
00000370: 1e54 a33d 1456 0ebd 0ad1 2ebe 7a2e a63d
00000380: b84a f93d 2d34 d5ba 9d36 103e 0d34 c53d
00000390: c647 14bc 1264 103e dd24 32bb 9e58 e6bd
000003a0: 2835 ccbb 649d 8cbd 9ccd d2bd 5021 b73c
000003b0: 3a34 083e a099 7e3c 80e7 103d cec8 be3d
000003c0: a97a 2f3d 5a69 0b3e a048 1f3c 8285 e43d
000003d0: ad3d d73d 3d08 c6bb 40dc 71bd d1c0 523e
000003e0: 7ff1 68bc e03e b93b 198f 6bbd 5e84 93bd
000003f0: 0768 9d3d 5881 353d 12d4 b0bd 40b8 8f3c
-0.03489718 -0.022622615 -0.03933938 0.07256922 0.1781047 0.076429605 -0.11078003 0.053656314
0.18521897 -0.07065411 0.10722187 -0.013553361 0.054948937 -0.10983281 0.021884508 0.0135569945
0.052984618 0.03914823 0.09935026 0.049380317 -0.035501104 -0.022772536 0.14221656 0.074681915
0.11982599 0.11261813 0.04937783 -0.038369622 0.10364734 0.005851567 -0.025579138 0.06021498
-0.05617106 -0.026092626 0.021207556 0.05027926 0.06651796 0.17176138 0.10762985 -0.022339642
-0.055841338 0.10084492 -0.09227154 0.06351811 0.050459784 0.07352856 -0.108344465 -0.071544364
-0.07267258 0.1356759 -0.03922473 -0.0059951246 0.050753184 0.05960227 -0.0137369335 0.08300673
0.05823134 0.08413823 0.014616819 0.15094231 -0.003456577 -0.026370913 -0.04104364 0.0073402524
0.0015363703 0.086797014 -0.00220415 0.07597713 -0.012123298 0.028705582 -0.06257054 0.14460489
0.14048752 -0.09292419 -0.023655593 -0.01732366 -0.01620265 0.027980238 0.053572115 -0.003741079
-0.057687238 0.015025052 0.021336004 0.031772688 -0.08185634 -0.08715089 -0.055000525 0.08857517
0.11537211 0.099062875 -0.10764831 0.013156047 0.0052809864 0.113015324 -0.1974322 -0.04340072
-0.00014865398 -0.14314644 -0.0475017 0.2052104 0.09199287 0.2226256 0.053606827 -0.11233489
-0.1959882 -0.09497708 0.09851633 0.041310877 0.1695788 -0.015600875 0.081142426 0.056092203
0.073043756 0.058714326 0.0076011717 -0.009331271 0.13915944 0.07697156 0.043203384 -0.021214908
0.004725638 0.05708714 0.039060976 0.11096212 0.12701376 0.07619366 0.031228289 -0.013909578
-0.15890077 0.029639691 0.00932169 -0.050592884 0.034789037 -0.03971812 0.07444611 -0.03337136
0.08746316 -0.117740035 0.052933708 0.17638214 0.118236944 0.09535846 0.10929474 0.16712192
-0.113062896 -0.1291587 0.076655224 0.12434363 -0.017478138 -0.039581284 -0.032352284 0.101509996
-0.037559465 -0.0824182 -0.03504792 -0.06841358 0.086217836 0.0865546 -0.15683451 0.100791276
-0.06294818 0.041326664 0.07303915 0.01568586 0.010615201 0.067338526 0.03110271 0.064229354
-0.061237887 0.008564696 -0.02436328 0.040996224 0.099833444 -0.06925148 0.07812445 0.10877487
-0.032943003 0.05410963 0.08027497 -0.12424624 0.03350293 0.023884205 0.094754115 0.04549443
-0.019580387 -0.01641728 0.10269291 0.080869615 0.09010711 -0.101383165 -0.068116695 -0.021881983
0.07308736 0.10540071 0.11093053 -0.11705743 -0.025167871 0.031582415 0.083602354 0.021202568
0.096068576 0.11921893 0.087142035 0.06485449 -0.015568129 -0.041453123 0.07383192 0.010542867
0.07469922 -0.104781665 0.03451702 0.07963844 0.01893785 0.03421028 -0.025618533 0.22530665
-0.062131092 0.074284986 0.061464384 -0.0732985 0.079750285 -0.03475006 -0.1707193 0.081143335
0.121724546 -0.001626616 0.14083333 0.096290685 -0.009050315 0.14100674 -0.0027182617 -0.11247371
-0.0062319227 -0.068659574 -0.10293123 0.022354752 0.13301173 0.015539557 0.035377026 0.09315644
0.042841587 0.13614407 0.009721905 0.11158277 0.105098106 -0.0060434625 -0.059047937 0.20581366
-0.014217733 0.0056532472 -0.057509515 -0.072029814 0.07685857 0.044312805 -0.08634199 0.017543912

fc2.bias f4 [37]
00000000: c6e8 173e 155c 94bc fe81 793d 68bb 8d3d
00000010: 76e1 453d 33d7 0bbc 2926 b83d 7039 a83b
00000020: bb7f fa3c bc7e fd3d d529 663d 26e2 73bd
00000030: b892 dd3d 374f e43d 44d3 b53d dcd6 033e
00000040: 33e7 dd3d b3cc 44bc 0cd5 3a3e ae2d 563a
00000050: f525 ae3d 0eb2 47bd b6e7 92bd 1858 d93d
00000060: 3b05 cb3d ed9b ca3d 3f23 133e eb7b c6bb
00000070: 7cd3 ca3d bcc4 be3c a6ea 12bd 44b8 9c3c
00000080: cf4b 243d 8016 0e3e 3a7c c9bc 8900 92bc
00000090: 2a00 753d
0.1483489 -0.018110314 0.060914986 0.069205105 0.04831072 -0.008535194 0.089916535 0.0051338
0.030578485 0.12377688 0.056192238 -0.059541844 0.10819 0.111479215 0.08878186 0.12874931
0.108351134 -0.012011695 0.18245333 0.0008170259 0.085033335 -0.04875379 -0.071731016 0.10612506
0.09913107 0.09893022 0.14368914 -0.0060572526 0.09903619 0.02328717 -0.03586831 0.019130833
0.04011136 0.1387577 -0.024595369 -0.01782252 0.05981461
