models/2015-11-20/lstm_model.onnx (onnx, 465348 bytes, 6 tensors)

fc.weight f4 [7, 256]
000000 7f 12 45 3d 39 ec a5 3d ad 7b 92 3d 77 e4 73 3d
       0.048113342 0.081016965 0.071524955 0.059544053
000010 7a a4 aa 3c 00 62 5b 3d 46 84 91 3d e4 16 ba bd
       0.020830382 0.053560257 0.07105307 -0.09086397
000020 a9 86 9e bd da d9 be bd fd 10 cf 3c 5c ca 46 bb
       -0.07740528 -0.09318896 0.025276655 -0.0030333018
000030 cb 55 8d 3d 96 8d 06 3c ff 5a b7 3c f3 99 89 bd
       0.06901129 0.008212468 0.022382258 -0.067188166
000040 24 9d 28 bd 1f 15 7f 3c f7 c8 51 bb 45 8f fa 3b
       -0.041165486 0.0155690005 -0.0032010654 0.0076464736
000050 5e cd 8b bc cf 52 3e 3d f8 0a 15 3d 90 c2 84 bd
       -0.0170657 0.04646569 0.036387414 -0.06482422
000060 2a ec 86 bd 42 ce 3c 3c 5a 0c 85 bd 71 7e 6f 3d
       -0.065880135 0.011523785 -0.064964965 0.058470193
000070 35 3f 6a bd 03 c7 8a 3d 94 a7 fb bb 08 78 3f 3c
       -0.057189185 0.0677624 -0.007679889 0.0116863325
000080 7e d7 b7 3c b0 3e 44 3b a3 b5 87 3d 52 80 eb 3c
       0.022441622 0.0029944591 0.06626441 0.028747711
000090 52 b1 f6 ba 65 05 16 bd 4c 8b dd 3b 90 d1 a5 bd
       -0.0018821156 -0.03662624 0.0067609902 -0.080966115
0000a0 86 35 60 bd 34 3e 2e 3c 7b d7 76 3d 1f af 10 3c
       -0.054738544 0.010634948 0.060264092 0.008830815
0000b0 39 db d1 ba 62 ce ed bc 0a 1e e9 bc 24 46 c5 bc
       -0.0016010768 -0.029029075 -0.028456707 -0.024081297
0000c0 43 13 ad 3d 93 9e 18 bd 64 ab be 3d c3 8c 95 3d
       0.084509395 -0.037260603 0.09310034 0.07302239
0000d0 db cb 25 bc 18 40 6f 3d 3e f2 6a bc 73 7d 8b bb
       -0.010119404 0.058410734 -0.014339982 -0.004256898
0000e0 bf 77 94 3d c4 5c 9b 3b 4a a6 12 bd 8b 33 1d bb
       0.07249402 0.004741283 -0.035803117 -0.002398702
0000f0 8d c8 03 3c b8 4e 39 38 42 5a b9 bd 87 e5 9a 3d
       0.0080434205 4.418075e-05 -0.090504184 0.0756331
000100 b2 ab 0b 3d 8c 1a 1a bd 5b 55 a3 3d 59 a6 d9 bc
       0.03409929 -0.037622973 0.07975265 -0.026568579
000110 4e 66 91 3c c6 75 66 3d b0 c1 9d ba 88 f3 80 bd
       0.017748978 0.05626466 -0.0012035873 -0.0629645
000120 f3 e0 5d bc ec c4 58 bc 27 45 84 3d 4b 05 05 3d
       -0.013542402 -0.013230544 0.06458502 0.03247575
000130 42 47 9c 3c 62 08 8f bd 31 32 b5 bd 27 1d 02 3c
       0.019076947 -0.06984021 -0.08847464 0.007941521
000140 48 23 85 bc 76 9d 44 3c ef 29 69 bd f8 5b 8a 3d
       -0.016252175 0.012000432 -0.056924757 0.06755823
000150 7e 63 be ba aa 84 ba bd 4c 4a aa bd 7c 23 a6 3d
       -0.0014525501 -0.09107335 -0.08314952 0.08112237
000160 41 55 b4 bc 6e 12 59 bd 97 40 ba bc e4 98 e9 bc
       -0.022013308 -0.05299609 -0.022735877 -0.028515287
000170 2b 55 8c 3d 44 6a c6 3c d4 36 60 3d a8 14 0d 3c
       0.06852182 0.024220593 0.05473979 0.008610882
000180 2f 2f b6 bc b5 2a d0 bc f7 47 bf 3b b0 a2 0c 3d
       -0.022239296 -0.02541099 0.0058374363 0.03433484
000190 2a 7b ae bc 07 f9 86 3d 50 5e a3 3d b1 c5 e9 3c
       -0.021298964 0.06590467 0.07976973 0.02853665
0001a0 a5 9a d1 3c 98 59 bb bc c8 b2 9c bc 60 dc 99 bc
       0.025586436 -0.02286987 -0.019128218 -0.01878184
0001b0 04 fc 47 3b 1a 55 e9 bb a4 2b b6 3d 44 f9 8e bd
       0.0030515203 -0.0071207406 0.088950425 -0.069811374
0001c0 18 ad b2 3d a2 e2 36 bd 51 e7 91 bc ed 0e 43 bd
       0.08724421 -0.044649728 -0.017810496 -0.047621656
0001d0 86 40 b7 bc 06 e9 f6 3c 8d 93 89 3d 30 e7 a3 3d
       -0.022369634 0.030140411 0.06717596 0.0800308
0001e0 cd 16 77 bd 77 90 ad 3d ce 49 7d 3d f7 f3 64 bc
       -0.06032448 0.0847482 0.061837964 -0.013974181
0001f0 da a6 5e bb 0a 28 9f 3b f2 ee a9 bd 4a 5a 92 bd
       -0.0033973963 0.004857068 -0.08297528 -0.071461275
000200 05 07 e0 3c 37 9b 11 3d c7 d6 2c 3c 62 03 94 3c
       0.027347097 0.035548415 0.010549254 0.01806802
000210 d2 24 85 bd 3a 94 c6 bd 4e 26 9c bd f5 01 44 bd
       -0.065011635 -0.09696241 -0.076244935 -0.04785343
000220 0f 1c 68 3d 1d 54 47 3d 09 64 27 3b 39 20 93 bd
       0.056667384 0.0486642 0.0025541803 -0.0718388
000230 0d d5 6b bc cd 99 bb bd 32 0f a7 b8 5d cf 83 bd
       -0.014394057 -0.091601945 -7.966011e-05 -0.06436036
000240 4a 58 bb bc c2 21 8f bd 8f b5 fa ba f7 87 ab bd
       -0.022869248 -0.06988861 -0.0019127595 -0.083755426
000250 25 ea ab 3d d7 53 5c 3c 4c 6a ba 3c dd ad 01 bd
       0.08394269 0.013447723 0.022755764 -0.03165995
000260 d5 51 94 3d 5e fc a3 bd a8 5d 84 bd 49 78 ea 3c
       0.07242171 -0.080071196 -0.06463176 0.02862181
000270 5b ca 9b bc 78 14 ac bd 64 82 9a 3c cd 4c 8e 3d
       -0.019017389 -0.084023416 0.018861003 0.06948242
000280 5f 5f 0a bd 5d 91 54 3d e3 11 9a bd 1e 9b 53 bd
       -0.03378236 0.05189644 -0.07522943 -0.051661603
000290 9c 7d 29 bd 8d 2e eb bc 43 7a 1e bd 06 af af 3d
       -0.041379556 -0.02870872 -0.038690817 0.08578305
0002a0 cb 6b 50 bd 16 7f 9d b9 94 fe d4 3c 6f dd d1 3c
       -0.05088405 -0.0003004006 0.026000299 0.025618283
0002b0 2e cb 46 39 f5 6d 5d 3d 08 70 89 bb f7 ae d9 3b
       0.00018958442 0.05405994 -0.0041942634 0.006643172
0002c0 23 ac 9f 3b e1 d8 2c 3d 00 09 d9 bb bf 96 8f bc
       0.004872815 0.04219902 -0.0066233873 -0.017527936
0002d0 be 08 30 3c 74 15 2e 3d 56 28 8d bc 46 27 34 3d
       0.010744272 0.042500928 -0.017231148 0.043982767
0002e0 ac 3c 47 bc 52 36 5d 3d 9a 68 ee bc 57 01 72 bd
       -0.012160461 0.054006882 -0.029102612 -0.05908331
0002f0 31 3a 57 3d b5 d7 89 bc 29 0b 03 3c 5e db bb 3c
       0.05254573 -0.01682649 0.007998266 0.02293175
000300 d6 0d c1 3d 24 dd 9a bd e4 48 9c bc 57 a6 9f 3d
       0.09426467 -0.075617105 -0.019077726 0.07795399
000310 71 ec 6a bd 92 33 00 bd 01 07 a7 bc 90 b1 cb 3d
       -0.057354394 -0.03129918 -0.020389082 0.09945977
000320 27 27 0f bc 64 08 79 3d 20 88 45 bd 27 5b 87 3c
       -0.008737362 0.060799018 -0.048225522 0.016522957
000330 a2 fd 31 3c 5e 7b 39 bc bd 08 1d bd 84 2f 78 bd
       0.010863693 -0.011320917 -0.03833841 -0.06059219
000340 bc 27 67 bc 0b 6a 4b 3d bf 4e 7f bd d9 7a 0a bd
       -0.0141085945 0.049661677 -0.062330958 -0.033808563
000350 1f c7 3c bc 78 aa ad bc ca 0d 74 3d 24 16 cc 3c
       -0.011522084 -0.02119945 0.059583463 0.024912901
000360 53 4c ec bb 13 e8 a2 3c 08 67 8d bd 14 c9 b0 3d
       -0.007211247 0.019886052 -0.06904417 0.086321026
000370 e4 97 0a 3d d8 1c 7a 3d ed 31 91 bc 48 69 aa 3d
       0.03383626 0.061062664 -0.017724002 0.08320862
000380 e8 45 af bd a9 a5 9f bc 31 e5 10 bc 9d 4e ea bc
       -0.085582554 -0.019488173 -0.008843706 -0.028601939
000390 35 0d 83 bc 86 41 3a bd 7c 56 c4 bc d3 82 bb bc
       -0.015997509 -0.045472644 -0.02396702 -0.02288953
0003a0 5b 3e 1c bd 86 ad 98 3d 62 c3 91 bd 1d f1 a9 3d
       -0.038145404 0.07454972 -0.071173444 0.08297942
0003b0 50 40 5a 3d 63 20 ae 3d eb 0d ce bb c5 07 90 3d
       0.05328399 0.08502271 -0.0062882802 0.07032732
0003c0 39 05 43 bd 89 e6 fe bb bf 07 e4 3c b9 85 5b bd
       -0.047612403 -0.007778947 0.027835725 -0.053594325
0003d0 6a e0 51 3d d8 66 4a 3c d2 14 1d bd 6c c0 8b bd
       0.05123941 0.012353621 -0.038349934 -0.06823811
0003e0 d3 e9 a7 bd d8 25 b8 bd 98 c5 b5 bd f1 4d 2d bd
       -0.08198895 -0.08991593 -0.08875579 -0.04231066
0003f0 9d ee dd bc 39 40 7b bd ae 75 c2 bd 8d a2 65 bb
       -0.027091319 -0.061340544 -0.09495102 -0.0035039515

fc.bias f4 [7]
000000 a3 a5 ae 3d 10 9c c3 3c b4 26 e4 3d e1 13 1c 3d
       0.085276864 0.023878127 0.111401945 0.038104896
000010 83 b0 03 3e ba 2e e9 3d 1f 0d 1c 3e
       0.12860303 0.113858655 0.1523938

onnx::GRU_197 f4 [2, 768]
000000 ea 81 4e be 3e 69 ec bd 4a a3 bc bd 0b 97 79 bd
       -0.20166746 -0.11543511 -0.092108324 -0.06093506
000010 ec 85 2e be ec ab 66 be 20 08 32 be c3 75 5f be
       -0.17043275 -0.2252652 -0.17385912 -0.21822266
000020 eb 5b 91 bd 7e 78 6c be a6 28 9a bd 3d 35 2f be
       -0.0709761 -0.23092839 -0.07527284 -0.17110153
000030 8f 24 6b be d5 f8 bd bd 71 63 70 be b7 6e 9a bd
       -0.22963165 -0.092759766 -0.23475434 -0.075406484
000040 7c 83 3d be 9e 33 72 be a6 65 99 bd 87 51 bd bd
       -0.18507189 -0.23652503 -0.07490091 -0.09244066
000050 09 cb d6 bd 48 b5 3c be c8 a9 8b bd 13 32 75 be
       -0.10487945 -0.18428528 -0.068194926 -0.23944883
000060 69 b7 1f be 7f 11 72 be 26 77 c8 bd 75 f7 01 be
       -0.15597309 -0.23639487 -0.09788351 -0.12692054
000070 b2 db 72 be 8f f2 da bd 9a 67 0d be dc 18 c0 bd
       -0.2371662 -0.10690796 -0.13809052 -0.093797415
000080 4e ee 2b be 49 1a ad bd 75 44 0f be d6 d8 54 be
       -0.16790125 -0.08452279 -0.13990958 -0.20785841
000090 45 c7 f9 bd 30 3a 13 be c1 48 00 be db 53 34 be
       -0.12196211 -0.14377666 -0.12527753 -0.17610113
0000a0 8d a2 f6 bd a3 84 d4 bd 15 ee 62 be b8 54 f9 bd
       -0.12042723 -0.10376861 -0.22161134 -0.12174362
0000b0 10 cb 01 be 8a 40 5c be c8 7a 32 be 5a 15 29 be
       -0.12675118 -0.21508995 -0.1742965 -0.16512051
0000c0 3b 84 67 be 5a 11 41 be 64 56 39 be 7f 2a 31 be
       -0.22609036 -0.18854275 -0.18099362 -0.17301367
0000d0 96 d3 d8 bd de a9 57 be ed e5 1e be e0 1d 07 be
       -0.10587232 -0.21060893 -0.15517397 -0.1319499
0000e0 fd 35 14 be 68 35 11 be e2 82 55 be ef 2c 10 be
       -0.1447372 -0.14180529 -0.20850709 -0.14079641
0000f0 6f ca f7 bd 56 95 0b be f6 a5 df bd 01 aa 48 be
       -0.12099158 -0.13631186 -0.109203264 -0.19596101
000100 98 71 1c be 64 1e 08 be ab dd 12 be cf 0f b1 bd
       -0.15277708 -0.13292843 -0.14342372 -0.086455934
000110 4a ec 5e be cd 59 af bd 56 08 fe bd 19 9b 4c be
       -0.21769825 -0.0856205 -0.12403934 -0.1998104
000120 9a a4 43 be ef ab 4b be 88 b5 4c be 31 1f 89 bd
       -0.1910576 -0.19889806 -0.19991124 -0.066954024
000130 fb 69 0e be 07 bf 38 be 0c 09 fb bd 1b e8 2a be
       -0.13907616 -0.18041621 -0.12257585 -0.16690104
000140 e6 dd 57 be 60 19 3f be ec 72 01 be 26 75 d8 bd
       -0.21080741 -0.18662024 -0.12641495 -0.10569219
000150 cb bb 73 be 34 d5 25 be 56 42 b2 bd a5 8a 72 be
       -0.23802106 -0.16194612 -0.08704059 -0.23685701
000160 ee 89 af bd e1 51 8b bd 9d 32 31 be 75 f1 1e be
       -0.0857123 -0.068027265 -0.17304464 -0.15521796
000170 ea 0f 48 be f3 fe 3b be c8 88 21 be ee 94 67 be
       -0.1953732 -0.18358974 -0.15774834 -0.22615406
000180 de fd ed bd 54 aa 5e be b9 21 65 be bf ce 87 bd
       -0.11620687 -0.21744663 -0.22376145 -0.066312306
000190 9e 4b 35 be be f3 85 bd b9 55 2c be bb 10 5b be
       -0.17704627 -0.06540631 -0.16829576 -0.21393101
0001a0 72 4f 6b be c0 b5 08 be ed 35 16 be 58 ff 6d be
       -0.22979525 -0.13350582 -0.14669009 -0.23241937
0001b0 3a b1 b9 bd e3 da e9 bd 1b 97 4e be 98 ce 43 be
       -0.090670064 -0.114187025 -0.2017483 -0.19121778
0001c0 5b ce d7 bd cf c7 09 be 92 dc 17 be 89 0b 5b be
       -0.10537406 -0.13455127 -0.14830235 -0.21391119
0001d0 b9 e3 3c be 79 6a 18 be 3c a3 b5 bd 34 07 6c be
       -0.18446244 -0.14884366 -0.08869025 -0.23049623
0001e0 40 a8 ee bd 6c 10 9c bd 2e 7e fd bd 4f aa 27 be
       -0.11653185 -0.0762032 -0.123775825 -0.16373561
0001f0 07 19 f8 bd 92 30 35 be cd d1 3c be b5 41 2a be
       -0.121141486 -0.1769431 -0.18439408 -0.16626628
000200 df 60 75 3e 6a 15 4b bd e8 61 0f bc 35 14 3f 3d
       0.23962735 -0.04958097 -0.00875137 0.04665013
000210 bb 7d 1b 3e bd 45 0d 3e 6d 94 d8 3d f6 ba 0c 3e
       0.15184681 0.13796134 0.10575185 0.13743195
000220 5e 96 5a 3d 63 25 0c 3e 6c 37 86 bd 92 14 4e bd
       0.053366058 0.13686137 -0.0655354 -0.050312586
000230 f5 dc 8a 3d d1 e4 b4 3d b4 07 f2 bb dd 68 fb 3d
       0.067804255 0.08832706 -0.007386172 0.122758605
000240 f9 49 65 3e 65 c9 ca 3d 5c 83 fa 3d 6c 6b 71 3d
       0.223915 0.09901694 0.12232086 0.058940336
000250 de 1d 56 3e a2 bf db 3d 79 83 b8 bc 46 36 0b 3e
       0.20909831 0.107299104 -0.022523629 0.13594922
000260 ac 19 51 3e dd b7 a6 bd c3 89 23 3e be 2d 5d 3e
       0.2041995 -0.08140538 0.1597052 0.2159948
000270 0b 0d 4f 3d df e6 bb 3d 51 34 43 3d de 90 87 3d
       0.050549548 0.091748945 0.047657315 0.06619428
000280 69 a5 9d 3d 73 3d aa 3d 4b 1d be 3d 29 82 15 3e
       0.07697565 0.08312502 0.09282931 0.14600433
000290 5c 10 9a 3d 6a d3 99 3d b5 86 a8 3d f2 fe 11 3e
       0.075226516 0.07511027 0.08228818 0.1425741
0002a0 ae ca be bd a0 c3 3f 3e d4 e7 42 bc ee b3 29 bb
       -0.09316002 0.18726969 -0.011896092 -0.00258946
0002b0 14 68 e2 3d f5 1f e0 3d 98 3d 2f 3e 34 8f 51 3e
       0.110550076 0.10943595 0.1711334 0.20464784
0002c0 77 b4 03 3e 8c 57 1f 3e b0 6b 94 3d b3 64 f9 3d
       0.1286181 0.1556074 0.07247102 0.1217741
0002d0 b4 cb a2 3d 7c 59 90 3d 4a 12 58 3e 82 79 42 3e
       0.079490095 0.07048318 0.21100727 0.18991664
0002e0 a1 56 2d 3e ce 50 4a 3e c0 42 00 3e 31 b4 0d be
       0.16927578 0.19757387 0.12525463 -0.13838269
0002f0 09 56 2a 3e 0f f3 7e 3d 95 35 58 3e 12 81 19 3e
       0.16634382 0.062243517 0.2111419 0.14990643
000300 c0 38 b3 3d f4 6b 1b 3c a4 95 6e 3e ec 59 1b 3d
       0.087510586 0.009486187 0.23299271 0.037927553
000310 28 e2 cc 3d 99 48 7a 3d 5e 67 e0 3d 68 21 2c 3e
       0.100040734 0.06110439 0.10957216 0.16809618
000320 89 ec 42 3e 97 00 19 3e 05 85 e6 3d 57 9d cc 3d
       0.19035544 0.14941631 0.1125584 0.09990948
000330 16 60 7e 3d cf 97 7c 3d 0a cb 0c 3e d7 39 12 3e
       0.062103353 0.061668213 0.13749328 0.14279877
000340 9e 66 de 3c 66 5b 8b 3d 47 67 48 3e ce 95 19 3d
       0.027148541 0.06804542 0.19570647 0.03749638
000350 9b 20 2d 3e fc ac a0 bd 6b 76 da 3d 12 28 70 3d
       0.16906969 -0.07845494 0.10667118 0.058631964
000360 e0 e6 41 3e 65 6b 2b 3e 79 a1 09 3e 86 20 55 3d
       0.18935728 0.16740187 0.13440503 0.05203297
000370 c5 29 2b bc 7e 16 c0 3d cf 20 bb 3d bd 8e 4f bd
       -0.01044697 0.0937929 0.09137117 -0.050673235
000380 c8 dc 21 3e 9f 9e d7 3d 42 c2 b4 3d 4c dd c3 3d
       0.15806878 0.105283014 0.08826114 0.095636934
000390 ac 32 1f 3e d9 98 5f bc f5 48 a1 3d 67 f3 a6 3d
       0.15546674 -0.013647282 0.078752436 0.08151894
0003a0 d0 88 51 3e 1a ae 0c 3e a8 0b 1b 3d bc 9a 4c 3e
       0.20462346 0.1373829 0.037852913 0.19980901
0003b0 d4 4d 07 3e 65 06 fe 3d 5a bf 91 3d 16 26 c7 bd
       0.13213283 0.124035634 0.071165755 -0.09724061
0003c0 ce 39 ef bd 71 93 b0 bc de 35 32 3e b3 98 23 3e
       -0.11680947 -0.02155468 0.17403361 0.15976219
0003d0 a8 82 da 3d 59 ab 20 3e e9 13 0a 3e f1 46 70 3d
       0.10669452 0.15690364 0.13484158 0.058661405
0003e0 00 c8 61 3e ac d9 0c 3e 86 c3 d1 3d 09 ed 56 3c
       0.2204895 0.1375491 0.10242371 0.013118037
0003f0 76 ba 5a 3e 91 75 fe 3d a7 24 f6 ba 6b 83 1c bd
       0.21360192 0.12424768 -0.0018779234 -0.038211267

onnx::GRU_198 f4 [2, 384, 18]
000000 a1 4d 0c be 5a 1d 63 be 5d 41 5c be ee 4d 61 be
       -0.13701488 -0.22179165 -0.21509309 -0.22002384
000010 ab 34 c4 bc 08 72 88 bd ce e4 d8 bd 47 9d 1c be
       -0.023950895 -0.06662375 -0.10590516 -0.15294372
000020 70 2b 04 be 7d 17 e7 bd 05 bf 1a be 12 db 5e be
       -0.12907195 -0.11283777 -0.1511193 -0.21763256
000030 27 bd 50 be 6d 12 55 be 2b 32 15 be 3d 6b 63 be
       -0.20384656 -0.2080781 -0.14569919 -0.22208877
000040 3b 73 20 be 27 e4 33 be 08 26 51 bd 80 1c 8c bd
       -0.15668957 -0.17567502 -0.05106166 -0.068413734
000050 65 29 b0 bd 05 89 08 be c1 6f ea bc db 5d dd bd
       -0.086016454 -0.13333519 -0.028617742 -0.10808917
000060 15 97 49 be 30 8e 2b be 2a de 1e be 7d d1 20 be
       -0.1968654 -0.16753459 -0.15514436 -0.15704913
000070 37 5d 65 be 61 0b cb bd 2a a7 85 bd 1a 05 3c be
       -0.2239884 -0.0991428 -0.06526025 -0.18361321
000080 70 4a e2 bd 19 dd 10 be 1e 48 07 be 53 41 05 be
       -0.11049354 -0.14146842 -0.13211104 -0.130132
000090 b4 fd 9e bd ee 92 17 be 54 aa 53 be e6 4a 3a be
       -0.07763234 -0.14802143 -0.20670444 -0.18192634
0000a0 a3 dd 30 3d fd 61 fd bd 63 06 1a be a7 f2 26 be
       0.04318012 -0.123722054 -0.15041499 -0.16303502
0000b0 fb 97 3b be 02 3a 38 be a7 71 53 be b2 20 0e be
       -0.18319695 -0.17990878 -0.20648824 -0.1387966
0000c0 51 55 09 be bb 88 b0 bd 46 e9 2e be 14 48 11 be
       -0.13411452 -0.08619829 -0.17081174 -0.14187652
0000d0 21 c2 b8 bd 65 ce e8 bd 84 4d 05 be f3 5d 04 be
       -0.09021402 -0.11367492 -0.13017851 -0.12926464
0000e0 00 e3 06 be 3d d5 56 be d1 4f 5f 3b f2 27 23 be
       -0.13172531 -0.20979781 0.0034074674 -0.15933207
0000f0 8e 3d 77 bd 7e da 71 bd 07 77 fb bd be 0f 5e bd
       -0.060361437 -0.05904626 -0.12278562 -0.05421423
000100 f7 ca 4e be ff f3 87 bd 02 b3 a3 bd 0d a2 14 be
       -0.20194612 -0.066383354 -0.079931274 -0.14514942
000110 a8 40 56 be e7 d6 27 be 08 9e 21 be a6 85 0e be
       -0.20923102 -0.16390572 -0.1578294 -0.1391817
000120 df c0 6f be 86 0a 12 be b9 a0 40 be a3 c1 31 be
       -0.23413418 -0.14261827 -0.18811311 -0.17359023
000130 7b fd 3a bd 2b a2 2d be e6 a3 6f be e7 d2 4c be
       -0.045651894 -0.16956393 -0.23402366 -0.20002328
000140 4e ec 0d be 1c 93 bc bd f5 20 a1 bd b5 a1 61 be
       -0.13859674 -0.092077464 -0.07867614 -0.22034343
000150 a0 89 f7 bd 75 55 50 be 4e 57 61 be 40 40 1d be
       -0.12086797 -0.203451 -0.2200596 -0.1535654
000160 7f 94 4c be 74 c1 69 be 59 64 6f be 34 30 5e be
       -0.19978522 -0.22827703 -0.23378123 -0.21698076
000170 03 e9 99 bd 7c ab c8 bd dc 4f 0f bd 24 0b 55 be
       -0.075151466 -0.09798333 -0.03498827 -0.20805031
000180 47 29 5d be de 44 4e be 18 c9 3a be 78 8c bd bd
       -0.21597777 -0.20143458 -0.18240774 -0.09255308
000190 69 fc 03 be 61 bf 3d be 34 8f c4 bd 7d bc 52 be
       -0.12889256 -0.18530037 -0.09597626 -0.20579715
0001a0 7b 10 62 be 37 1f 02 be d3 3d 47 be 9b bd fe bd
       -0.220766 -0.1270722 -0.19457178 -0.12438508
0001b0 de 12 9f bd bd 70 4d be ba 33 57 be 10 d9 ea bd
       -0.077672705 -0.20062537 -0.21015826 -0.11467183
0001c0 b2 7c a3 bd 11 f7 8f bd c6 42 45 be 3c 20 dd bd
       -0.07982768 -0.07029546 -0.19263753 -0.10797164
0001d0 76 00 5e be a8 d7 52 be f8 aa 18 be a5 76 f6 bd
       -0.21679863 -0.20590079 -0.1490897 -0.120343484
0001e0 d9 73 b6 bd f3 fb a0 bd 6f b8 1d be 5c 38 21 be
       -0.08908815 -0.078605555 -0.15402387 -0.15744156
0001f0 99 e5 05 be e9 8c 2e be 47 00 17 be 66 cf 73 be
       -0.13075866 -0.1704594 -0.147462 -0.23809585
000200 d1 a9 61 be 79 12 b2 bd 49 8f 53 bd d2 db 9e bd
       -0.22037436 -0.0869493 -0.05165032 -0.07756771
000210 16 27 0f be a1 09 01 be c2 4c 84 bd 6b 7f 47 be
       -0.13979754 -0.1260133 -0.06459953 -0.194822
000220 7b 61 2c be 29 40 09 be fa aa fc bd be ce 71 be
       -0.16834061 -0.13403381 -0.12337299 -0.23614022
000230 3c ad ee bd 28 a8 4a be a8 b7 08 be d5 84 b6 bd
       -0.116541356 -0.19790709 -0.1335131 -0.089120544
000240 29 9d 28 be 00 e9 26 be df 83 24 be 89 d9 a6 bd
       -0.16466202 -0.1629982 -0.1606593 -0.0814696
000250 da c1 4d 3d 7f 05 09 be 2a 80 57 be 23 9d 54 be
       0.0502337 -0.13381003 -0.21044984 -0.20763068
000260 81 b8 99 bd 2b 53 bb bd 21 48 df bd 47 6c 66 be
       -0.075058945 -0.091467224 -0.10902429 -0.22502242
000270 38 c9 b7 bd c8 36 28 be 21 84 b8 bd 68 b5 9b bd
       -0.08973926 -0.16427147 -0.090095766 -0.0760296
000280 3c 65 11 be 47 6b 43 be bd 49 86 bd 89 0c 4e be
       -0.14198774 -0.19083892 -0.06557033 -0.2012197
000290 f9 5d b4 bd e3 87 6b be 4c bb e3 bc 62 80 64 be
       -0.08806986 -0.23001055 -0.027799271 -0.22314599
0002a0 72 77 3f be 15 f2 e2 bd c0 d3 52 be fe 0a 62 be
       -0.18697909 -0.1108133 -0.20588589 -0.22074506
0002b0 83 54 bc bd be 13 d1 bd 9b cb 1e be 2d 46 58 be
       -0.09195807 -0.10208844 -0.15507357 -0.2112052
0002c0 e8 c0 2d be 95 9b 30 be 2a aa b5 bd 16 65 34 be
       -0.16968119 -0.1724685 -0.08870347 -0.17616686
0002d0 41 57 33 be e5 0c 5e be c4 02 41 be 96 0b c9 bd
       -0.17513753 -0.21684606 -0.18848711 -0.09816663
0002e0 9c 41 69 3d b2 45 09 be 7f e8 38 be a8 4d 7d bd
       0.056947336 -0.13405493 -0.1805744 -0.061841637
0002f0 04 12 04 be 94 e4 34 be 1b 43 3d be ee 93 25 be
       -0.12897497 -0.1766532 -0.1848263 -0.16169712
000300 4c a1 e4 bd 6c 1f f0 bd 11 a6 a8 bd 03 71 17 be
       -0.111635774 -0.11724743 -0.082348 -0.14789204
000310 91 dd 8e bd 09 17 3c be 39 f4 fc bd f2 1a dc bd
       -0.06975854 -0.18368162 -0.12351269 -0.10747327
000320 1a 41 2d be 15 a9 15 be c2 cc a3 bd e6 c5 a3 bd
       -0.16919366 -0.14615281 -0.07998039 -0.079967305
000330 6e 7c b1 bd da cb da bd a6 63 03 be 03 a9 c4 bb
       -0.08666311 -0.10683413 -0.12830982 -0.006001593
000340 f8 3b d5 bd 9d 93 25 bd b1 ff 41 bc 9e 2f 0f be
       -0.10411829 -0.040423978 -0.011840747 -0.13983008
000350 86 53 c1 bd 02 99 f6 bc 77 96 ce 3b b8 23 c0 bd
       -0.09439759 -0.030102257 0.006304558 -0.09381813
000360 30 e0 b7 bd dd 84 6b be 00 a8 55 be 7b 70 9f bd
       -0.08978307 -0.22999902 -0.20864868 -0.07785126
000370 57 1c 09 bc 93 2f 86 bd cd 39 13 be 04 09 3e be
       -0.008368573 -0.06552043 -0.14377518 -0.18558127
000380 5e 1f 8a bd 7f 0e 92 bd c7 14 1c be 77 9f 54 be
       -0.06744264 -0.07131671 -0.15242301 -0.20763956
000390 25 8c 27 be 92 40 49 be 41 d3 b0 bd 33 7a 13 be
       -0.16362055 -0.19653538 -0.086340435 -0.14402084
0003a0 5e 7d 03 be 0c 52 ca bd 9d e0 f6 bd 08 47 59 be
       -0.12840793 -0.098789304 -0.1205456 -0.21218503
0003b0 51 8a 95 bd 98 77 bb bd e6 7f 5f bd 3d dc a2 bd
       -0.073017724 -0.0915367 -0.054565333 -0.07952163
0003c0 ab ed fc bd ff 3a 29 be 4e 02 55 be 01 b0 22 be
       -0.12350019 -0.16526411 -0.2080166 -0.15887453
0003d0 d6 83 79 be 6b c0 ca bd 59 01 bc bd 15 0f 33 be
       -0.24366698 -0.09899982 -0.091799445 -0.17486222
0003e0 58 7e 85 bd 60 9e 35 be 2b d2 03 be 83 99 56 be
       -0.06518239 -0.17736197 -0.12873141 -0.20956998
0003f0 5c 22 20 be 5f 22 fc bd 18 26 e4 bd 88 79 1b be
       -0.15638107 -0.12311243 -0.11140078 -0.15183079

onnx::GRU_199 f4 [2, 384, 128]
000000 89 f6 40 bd 6e 1d 2b bd d3 43 7b 3c df 3c 0c 3c
       -0.047110114 -0.041776113 0.015335995 0.008559435
000010 3e 30 a4 3d 96 a4 96 3c de 1f 7c 3c ee 09 3c bd
       0.08017014 0.018389028 0.015388457 -0.045907907
000020 3c 55 9d 3d 7b 18 98 ba 65 a2 58 3d 50 e6 90 bd
       0.07682273 -0.0011603975 0.052889246 -0.070751786
000030 e1 69 3d 3d 20 11 93 3d 5d 9b 6a 3d 14 3d 97 3d
       0.046243552 0.07181001 0.057277072 0.073846966
000040 cc 91 24 bd b8 df 81 bd 0e 57 02 3d b6 df 1c 3d
       -0.040178105 -0.06341499 0.031821303 0.038299285
000050 88 fb 5b bd 9b 87 e8 bc 5d a6 94 ba 8e f5 f2 bb
       -0.053706676 -0.028384974 -0.0011341084 -0.0074145263
000060 b5 29 2d 3d 47 93 80 3d 56 4b d1 3c 88 54 0f bd
       0.042276103 0.06278091 0.025548618 -0.034992725
000070 a1 cc 61 bd f9 57 9c 3d 0c 44 22 3c 79 6b 3d bd
       -0.05512679 0.07633967 0.009903919 -0.046245072
000080 dd 0f 87 bd ea f7 75 bd 51 0f a9 3d f6 03 64 bd
       -0.065948226 -0.060050882 0.082548745 -0.05566784
000090 f7 3b b0 bd 75 9f 87 bd c3 e9 2b bd 93 fc 30 bb
       -0.086051874 -0.06622211 -0.04197098 -0.0027006015
0000a0 60 3f 78 bd a4 6f 1f 3d 4d ad 6d bc 6e b6 16 bd
       -0.060607314 0.03892483 -0.01450665 -0.036795072
0000b0 04 a6 5b bd 03 43 e5 bc c5 de af 3d 82 ea 91 3b
       -0.05362512 -0.027986055 0.08587412 0.0044530043
0000c0 bc 05 cc 3c c7 5b af bd c3 10 5d 3d 01 bf 64 3c
       0.024905078 -0.08562427 0.053971063 0.0139615545
0000d0 af 37 20 bc c3 42 d1 3a 3e 46 27 bd 3d 88 8c bd
       -0.009778901 0.0015965331 -0.040838473 -0.06861923
0000e0 51 32 35 bd 92 2c e3 3c a1 e5 98 3d db 1d 7c bd
       -0.04423744 0.027731214 0.07465673 -0.06155191
0000f0 9c 8f 26 3d c1 fa 2f bd 0c 7c 88 3d b0 b5 30 3c
       0.0406643 -0.042963747 0.06664285 0.010785505
000100 50 78 a4 bd af 26 9c bd c7 35 ae 3c 15 34 4a 3d
       -0.0803076 -0.07624566 0.021265877 0.049366076
000110 45 b9 d5 3c e9 41 c7 3c 0c 52 63 bc 90 a4 34 bd
       0.02608932 0.02432342 -0.013874542 -0.04410225
000120 7d c7 79 3c a5 7f 8f bd e0 a7 34 3d d3 de 09 bd
       0.015245316 -0.07006768 0.04410541 -0.033659767
000130 db 45 a2 bd 5c 5c 1d 3c 22 2b 0b 3d 7d 24 8a bd
       -0.0792348 0.00960454 0.03397668 -0.06745241
000140 0f 86 64 bd 8f b1 81 bc 90 c3 15 bd cd aa 92 3d
       -0.05579191 -0.015831737 -0.036563456 0.07161484
000150 31 95 5c 3c d3 0c e2 bc 08 0d 8d bd 70 de 85 bd
       0.013463304 -0.027594006 -0.06887251 -0.06536567
000160 56 b1 f7 3c b7 45 ad bc 1b 6e 4b 3c 31 20 83 3c
       0.030235928 -0.021151407 0.012416388 0.016006561
000170 6f 60 7c 3d b6 1a 21 3a 79 be 21 3d 24 ba a9 bd
       0.061615404 0.0006145643 0.03948829 -0.08287457
000180 16 06 7f 3d 39 a8 9a bd 4c 6f cf bc 3f 80 b4 bd
       0.062261663 -0.07551617 -0.025321625 -0.088135235
000190 16 aa 38 3d 3e 12 bf bc 9b d1 b1 bd be 07 48 bd
       0.04508408 -0.023324128 -0.08682557 -0.04883551
0001a0 32 6c 46 3d 2d d9 73 3d ec ad 7d 3d 3d 75 ac bd
       0.048443027 0.059533287 0.061933443 -0.08420799
0001b0 f4 c5 14 bd af ee 69 3c 02 49 b5 bb 1b c7 37 bd
       -0.036321595 0.014278098 -0.005532385 -0.044867616
0001c0 4c 30 b0 3d e4 ff 60 bd d0 49 6c 3d b5 b8 68 3d
       0.08602962 -0.054931536 0.05768758 0.056816775
0001d0 33 60 9b bd 64 d0 6f bd c5 66 73 bd d9 33 84 3d
       -0.07586708 -0.058548346 -0.05942418 0.06455202
0001e0 a0 ab 9e bd c0 6e 8b 3a 48 3a dd bc 37 44 a8 bc
       -0.077475786 0.0010637864 -0.02700533 -0.02054034
0001f0 66 f3 55 bd e9 24 9c bd 49 92 9b bd 9f 4c 1a bc
       -0.052234076 -0.076242276 -0.07596261 -0.009417682
000200 89 06 a5 3b f0 92 bb 3c 02 77 ed 3c 53 2f 19 bd
       0.0050361794 0.022897214 0.028987411 -0.037398648
000210 ca f9 45 3d fc 0b 55 3d 49 08 8f bd b7 b5 9a 3d
       0.04833392 0.052013382 -0.06984002 0.075541906
000220 47 e1 1c bc 22 e2 9d bb 59 3f ac bd 99 34 40 3d
       -0.009575195 -0.004818217 -0.0841052 0.04692516
000230 5d 5a 12 3d 2a d4 b7 3c 4e 2f 1f 3d af 31 9f bd
       0.03573071 0.022440035 0.038863473 -0.07773148
000240 84 dd b3 3d 63 29 72 3d cd 43 d5 bc e6 b7 3e 3d
       0.08782485 0.0591215 -0.026033306 0.046562098
000250 c9 13 01 bd 64 ef e5 bc ad 16 b0 bb 07 96 5f 3d
       -0.03151301 -0.028068252 -0.005373797 0.054586437
000260 ad f3 46 3d bb db f9 bc 2e cc 95 bd 69 22 8a 3a
       0.04857223 -0.030500283 -0.07314335 0.001053882
000270 86 c0 19 bd 74 76 bb bb 80 e7 37 3d 98 ac 71 3d
       -0.03753712 -0.005720908 0.04489851 0.05900249
000280 b6 f2 98 3b e0 57 14 3d 26 c8 84 3c 0d c7 24 bd
       0.0046676053 0.036216617 0.01620872 -0.040228892
000290 e9 24 57 3d e2 df 7d bd f4 82 da bb e7 3e 1d bd
       0.052525435 -0.06198109 -0.006668443 -0.038390066
0002a0 44 ee c3 3b fb 2f 96 3d 9b 24 e5 3c 53 4b be bb
       0.005979331 0.0733337 0.027971556 -0.005807319
0002b0 a1 bb a8 bd 2c 10 81 bd e3 3c 96 bc 67 fa 2d bd
       -0.082389124 -0.06301913 -0.01833958 -0.04247513
0002c0 ed b2 8e 3c 17 85 b2 bd ca 7f a8 3d 2b dd db bc
       0.017419303 -0.08716791 0.08227499 -0.02683886
0002d0 67 b5 57 3d 4f ed 81 3d d6 05 94 3d ba e5 6f bc
       0.052663233 0.06344091 0.072276756 -0.014642173
0002e0 76 bf 48 3b 2a d1 38 3d 1b e3 86 bd 03 d7 cd bb
       0.0030631698 0.04512135 -0.06586286 -0.006281735
0002f0 eb 48 18 3d aa e0 02 bb 14 da 80 bd fc 4c 57 3c
       0.037178915 -0.0019970336 -0.06291595 0.013140913
000300 49 bc 94 bc 3b 15 5e 3d 97 44 7c bd a2 03 f2 3b
       -0.018156188 0.054219466 -0.06158885 0.007385687
000310 3f a6 44 bc da 1c d4 ba 30 d4 a3 3d cc 6e 3d 3a
       -0.012002527 -0.0016182915 0.07999456 0.0007226288
000320 b3 e4 64 bb ca 92 ab bd 72 d0 2e bd d0 02 92 bd
       -0.0034926354 -0.08377607 -0.042679258 -0.07129443
000330 b5 2d c8 3b 9b b2 9d bc 41 8e d4 3c 7e f6 92 3d
       0.0061089643 -0.019250205 0.025946738 0.07175921
000340 14 7b 9c 3c 07 a2 80 bd 9a 2d 5c bd 00 e1 23 bd
       0.019101657 -0.06280904 -0.053754427 -0.0400095
000350 24 4d 4a bd 0a 8a 70 3c 6a 72 ad bd 0d b5 8a bd
       -0.049389973 0.014681349 -0.084690884 -0.06772814
000360 a1 da 7c bc 8c c8 77 bd 11 2e 64 3d 5c 4f ee 3c
       -0.015432985 -0.06049399 0.055707995 0.029090576
000370 0b 6e 8c 3d d4 64 26 3d fd ea c0 bc 1a 08 58 bc
       0.068569265 0.0406235 -0.023549551 -0.013185525
000380 59 ad 29 3d c6 70 a4 bd 03 13 af 3c 95 52 a5 bd
       0.041425083 -0.08029322 0.02137137 -0.08072392
000390 d0 ee 1a 3d 2c 19 eb bc 44 18 ef 3c fd 88 0b 3d
       0.037825406 -0.028698526 0.029186375 0.03406619
0003a0 f7 2a 62 3b 46 6d 34 3c 98 8e 04 bd 8b bb 3c 3b
       0.0034510472 0.011012381 -0.03236255 0.0028798308
0003b0 dd d2 50 3d c4 ce 94 3d ae a5 cb bc 5c 82 a7 3c
       0.050982345 0.07266 -0.024859276 0.020447902
0003c0 ba 95 ad 3c 72 3e 11 3d f4 4c fa 3c d4 9f f0 3c
       0.02118956 0.035459943 0.030554272 0.029373087
0003d0 44 3a 83 bd 56 57 77 bc 55 5f 34 bd ae 0b 96 3d
       -0.06407598 -0.015096506 -0.04403623 0.073264465
0003e0 d5 37 0a bd d8 0f 1e 3d b3 2e c0 3c 6a bf ff 3c
       -0.03374465 0.03858933 0.023459768 0.031219203
0003f0 33 ac ad 3c 91 20 03 bc d8 3b eb bc cb 63 b1 3d
       0.021200275 -0.00800337 -0.02871506 0.08661612

onnx::MatMul_200 f4 [256, 1]
000000 d4 d5 92 3c 28 7f 55 3c 98 c4 b8 3c 0c 26 b1 bc
       0.017924227 0.013030805 0.02255468 -0.021624587
000010 70 9d a4 bb 38 1b 97 bc 3c c3 fe bc 4a e5 72 bd
       -0.005023651 -0.018445596 -0.031098954 -0.0593007
000020 30 dd 53 bd f4 1b c4 3c fc 8e c3 bc 50 af 23 3d
       -0.051724613 0.02393911 -0.023871891 0.039962113
000030 90 a3 84 3b 40 b0 2b bb 18 50 64 3c b0 b8 62 bc
       0.0040478185 -0.0026197582 0.013935111 -0.013837978
000040 a0 6c 6f bd 04 63 0d 3d 3e a8 20 3d 1c 50 fe bc
       -0.058453202 0.034518257 0.03922295 -0.031044059
000050 48 a5 ee bc 18 ce 0f bc 3e ee 71 bd 1e b1 0e 3d
       -0.029131547 -0.008777164 -0.059065096 0.03483688
000060 18 2e 4b 3c de 4f 68 bd 60 5b 11 3b d2 35 76 3d
       0.012401126 -0.056716792 0.0022179708 0.06010992
000070 14 56 99 3c a0 2e b8 3b 5c da fa bc 80 9d 0a bd
       0.018717803 0.0056207925 -0.0306217 -0.03384161
000080 62 2b 0b bd 20 69 27 3c e0 1e f1 bc 84 50 55 bd
       -0.03397692 0.010217935 -0.029433668 -0.05207874
000090 a0 26 18 3d 60 0c 1b 3b f8 50 2e bc fe 21 23 3d
       0.03714621 0.00236585 -0.010639422 0.03982734
0000a0 30 56 23 bc 78 8d d1 3c e0 eb 7a bb b8 ad 42 bd
       -0.009969279 0.025580153 -0.0038287565 -0.047528952
0000b0 80 af 1f ba 58 1f 3e 3d 00 d9 ae 3a 00 a6 c2 bc
       -0.000609152 0.04641661 0.0013339818 -0.023760796
0000c0 30 2b c4 bc c0 ef fd 3b 60 38 71 bb e4 e6 19 bd
       -0.023946375 0.0077495277 -0.0036807284 -0.03757371
0000d0 f0 c6 72 3c 9c 4d 02 bd cc 3f c1 bc d6 7e 28 3d
       0.014817938 -0.031812295 -0.023589991 0.041136585
0000e0 3e b3 54 bd c0 b8 77 bb 34 0d 83 bc 00 b8 a1 3c
       -0.05192875 -0.0037799329 -0.015997507 0.019741058
0000f0 3c 1e 18 bd 6c 94 1e bd 20 b1 31 3d 92 e1 27 bd
       -0.03713821 -0.038715765 0.04338181 -0.040986605
000100 08 6d 04 3d e0 4a 28 bd 22 46 23 3d a0 42 b5 bc
       0.032330543 -0.04108703 0.039861806 -0.022126496
000110 28 f3 df bc 3c cc 6f bd 5c cc 50 3d c4 44 f0 bc
       -0.027337626 -0.058544382 0.050976142 -0.029329665
000120 24 02 5b bd 40 79 b4 bc 3c 5c d2 bc a0 46 fe bb
       -0.05346884 -0.022030473 -0.025678746 -0.007759884
000130 32 2b 0c bd 28 a2 5a 3d c8 62 03 bd 76 e9 36 3d
       -0.03422088 0.0533773 -0.032076627 0.04465624
000140 4c d5 d1 bc c6 b0 00 3d ee 9b 30 bd 68 9d 02 bc
       -0.025614403 0.031418584 -0.043117456 -0.007972099
000150 68 28 14 3d 08 0e 86 bc c0 50 2c 3b 3a 4a 4f 3d
       0.036171347 -0.016364112 0.0026293248 0.050607897
000160 90 e2 d8 bc 94 9f 6d bd e6 55 53 3d 80 5b 17 bd
       -0.02647522 -0.058013514 0.05159559 -0.036952496
000170 00 0a 0a 3a 40 9f 08 bb ac 74 92 3c 18 9a 55 3c
       0.00052657723 -0.0020846874 0.0178779 0.013037227
000180 98 65 a4 3c ee bd 5c 3d c8 7d df bc 3e db 17 bd
       0.020067975 0.05389207 -0.027281657 -0.03707432
000190 fe c7 05 bd e0 74 0e bc f0 eb 29 bc a2 c2 3c bd
       -0.03266143 -0.008694857 -0.010371193 -0.046084054
0001a0 86 93 75 3d 40 fa 3d bb 20 2a 57 bd 54 c3 62 3d
       0.059955142 -0.0028988272 -0.052530408 0.05536206
0001b0 8c 0d 9c 3c 00 0d 63 3a f4 d1 d7 bc 00 46 6c 39
       0.019049428 0.00086613 -0.02634523 0.00022532791
0001c0 5c a9 1a bd f0 49 89 bb 9e d6 01 3d 98 55 04 3c
       -0.03775917 -0.0041897222 0.031698816 0.008077048
0001d0 50 b1 df bc 9c 67 9b 3c 64 4c 74 3d ac 0a 88 bc
       -0.027306229 0.018970303 0.059643164 -0.016606651
0001e0 80 4f 69 3a 04 ec c1 3c e0 7b 47 bd d4 e5 5b bd
       0.0008900091 0.023672111 -0.04870212 -0.053685978
0001f0 54 1d ed bc a6 25 20 bd a8 d3 2a bc 2c b7 a3 bc
       -0.028944649 -0.039098404 -0.010426439 -0.019984804
000200 18 44 6c 3d 48 76 2d 3c 7a b8 16 bd 74 95 29 bd
       0.057682127 0.0105872825 -0.036797024 -0.041402295
000210 a8 d7 18 3c 04 87 8f 3c 1c c6 23 3d 8c 1b aa 3c
       0.00932876 0.017520435 0.039983854 0.020765088
000220 f4 a0 c5 3c 90 c9 5b 3d d2 4a 14 bd 76 97 7e bd
       0.0241246 0.05365902 -0.036204167 -0.062156163
000230 88 12 79 bd c0 07 e9 3c 74 69 59 bd 62 be 26 bd
       -0.06080869 0.028446078 -0.053079084 -0.040708907
000240 60 d4 37 bd 74 17 99 3c 1c a7 9f 3c 20 48 a3 3b
       -0.04488027 0.018687941 0.019488864 0.004982963
000250 40 71 30 bc 70 aa b5 3c 28 7a 40 3d 6a 30 02 3d
       -0.010769188 0.022175997 0.046991497 0.031784452
000260 cc 1b a4 3c d8 d3 14 bc 00 6f 64 3b 58 63 a4 3c
       0.020032786 -0.009083711 0.00348562 0.020066902
000270 e2 4f 21 3d ec 1f 4c bd a0 38 41 3b 00 33 17 ba
       0.039382823 -0.04983513 0.0029483214 -0.00057677925
000280 98 54 d0 bc 40 93 99 bb f8 9e 4e 3d a0 08 06 bb
       -0.025430962 -0.004686743 0.050444573 -0.0020451918
000290 80 ec 9a 3b c8 2d 04 bc 40 f9 f6 bb cc 7f 7a bd
       0.0047279 -0.008067556 -0.007537037 -0.061157033
0002a0 3e 8b 0b 3d 00 57 de 3a 4c f0 9c bc 40 4a 1b 3d
       0.03406834 0.0016963184 -0.019157551 0.037912607
0002b0 f8 0b 5f bd 6c 48 f9 bc 20 b4 96 3c 1a 78 38 bd
       -0.054454774 -0.030430041 0.018396437 -0.045036413
0002c0 d0 65 f8 bc 40 ae 71 bd ba b2 73 3d ea 2e 6a 3d
       -0.030321985 -0.05900407 0.05949662 0.057173647
0002d0 00 8b 06 3b 28 d4 7e 3c 98 d1 d0 3c 24 85 d8 3c
       0.0020529628 0.015553512 0.025490567 0.026430674
0002e0 ba d0 5b bd 08 97 0b bd 62 1f 22 3d e0 5d 4a 3c
       -0.053665854 -0.03407958 0.03958071 0.012351483
0002f0 10 2d 99 bb a4 b0 76 3d d8 bb d8 bc e0 04 70 bd
       -0.0046745613 0.06022705 -0.026456758 -0.0585984
000300 04 36 ef 3c 0c 5e 53 3d 80 56 df 3b 70 28 58 3d
       0.029200561 0.051603362 0.0068157315 0.05277294
000310 00 1e 9b 39 f0 5a 01 3d 74 11 6f 3d 20 62 c5 bb
       0.00029586256 0.031580865 0.058366254 -0.0060236603
000320 5a 55 4f 3d 60 c5 14 bd 70 3a 2a 3c 0c dd 72 3d
       0.050618507 -0.036321044 0.010389909 0.059292838
000330 e8 62 65 3c 68 a8 e5 bc e6 ac 6d bd 44 99 61 bd
       0.014000632 -0.028034404 -0.058026217 -0.055077806
000340 e0 37 d4 bc 20 98 d8 3c e0 b0 16 3d 38 7c 64 bc
       -0.02590555 0.026439726 0.036789775 -0.013945632
000350 e8 2f 11 3d 08 8c 7b 3c a8 0c 48 bc aa 9a 4c 3d
       0.035446078 0.01535321 -0.012210049 0.049952187
000360 88 67 38 bc 04 7c a8 3c e0 dc e1 3b 76 62 2d bd
       -0.0112551525 0.020566948 0.0068927854 -0.042330228
000370 2c 87 41 3d fa d2 02 3d d4 39 d9 3c ca be 3a bd
       0.04724805 0.031939484 0.026516832 -0.045592107
000380 fe d8 4a 3d ac 27 13 bd 84 73 3b bd 10 5a b1 bc
       0.049523346 -0.035926506 -0.04576446 -0.02164939
000390 00 2e 6b bb 46 cf 11 3d 90 68 23 3c 08 53 4f 3d
       -0.0035885572 0.035598062 0.00997366 0.050616294
0003a0 b0 20 7c 3c b0 f6 84 3b dc 59 3e bd fe 5a 5a 3d
       0.015388653 0.0040577278 -0.046472415 0.053309433
0003b0 00 0e eb bc cc e4 5b bd 54 4e 17 3d d0 25 41 bd
       -0.0286932 -0.053684995 0.036939934 -0.0471552
0003c0 a8 65 7f 3c f6 c1 51 bd 3a fe 5c bd e8 5b e7 3c
       0.015588202 -0.051210366 -0.053953387 0.028242067
0003d0 a0 98 15 3d a8 ad 6d bc a0 cb 91 bc 24 cb ce 3c
       0.036522508 -0.014506735 -0.017797291 0.02524335
0003e0 14 cb 33 bd 28 a8 3b bc c8 d3 39 3c 5a c1 23 3d
       -0.043894842 -0.011453666 0.0113419965 0.039979316
0003f0 68 8a bc bc 80 71 b0 ba 14 75 0a bd 28 8f aa bc
       -0.023015216 -0.001346156 -0.03380306 -0.020820215
