models/2022-09-23/lstm_model.onnx (onnx, 465348 bytes, 6 tensors)

fc.weight f4 [7, 256]
000000 62 96 98 3d ec 25 c0 3d 27 17 8c 3d cb 00 a9 3d
       0.07450558 0.09382233 0.068403535 0.08252104
000010 9f b6 12 3d 12 7d 46 3d b4 d9 87 3d d8 44 cc bd
       0.035818692 0.04845912 0.066333205 -0.099740684
000020 0e df 9d bd b8 76 a9 bd bb 2d 97 3c 0c d7 f7 3d
       -0.0770856 -0.08274597 0.018454423 0.12101564
000030 23 d0 d9 3d 46 77 5f 3c ec f9 a5 3c fc ce 83 bd
       0.10635402 0.013639277 0.020260774 -0.064359635
000040 f9 69 fa bb ea 5a ba 3c f0 a0 c5 bc 75 4f 18 3d
       -0.0076420275 0.02274843 -0.024124593 0.03718515
000050 55 16 0b bd 70 81 98 b7 e0 7b 96 3c 65 e4 91 bd
       -0.033956844 -1.8180086e-05 0.018369615 -0.07123641
000060 af b3 a3 bd 5d 1c a8 3c 2d ef 83 bd 93 c8 af 3d
       -0.07993256 0.020521337 -0.064421035 0.08583178
000070 30 42 60 bd 7a d6 98 3d 1e 30 c4 3b 22 14 b4 3b
       -0.05475062 0.07462783 0.0059871813 0.005495564
000080 4e a9 d7 3b 48 49 9f 3c 17 2d 6e 3d 33 86 1f 3d
       0.006581462 0.019444123 0.05814847 0.03894634
000090 ef 5e 91 3c 85 0f 1e bd 89 f6 43 3c bc f6 b2 bd
       0.017745463 -0.03858902 0.011960634 -0.08738467
0000a0 f4 22 9f bd 58 0f b3 bb 3a 76 bb 3d ca 53 4f 3c
       -0.07770339 -0.0054644756 0.09153409 0.012654254
0000b0 67 4a 54 3c 36 99 a1 bc cd 00 f4 bb b9 69 7c bc
       0.012957192 -0.019726377 -0.0074463845 -0.015406066
0000c0 59 23 b9 3d 8d ed b9 bc 47 6e c2 3d 0e 5d ad 3d
       0.09039945 -0.02269628 0.0949369 0.084650144
0000d0 98 11 8b 3c 62 02 67 3d 43 e7 00 ba 74 96 34 bc
       0.016976163 0.056398757 -0.0004917273 -0.011022199
0000e0 44 e1 a9 3d 9f e6 12 bc 07 c2 ba bc f4 4e 91 bc
       0.08294919 -0.008966117 -0.022797598 -0.017737843
0000f0 79 30 4b 3c 16 9c 44 3b 8b d7 c7 bd 7f e4 88 3d
       0.0124016935 0.003000026 -0.097579084 0.06684207
000100 7d 25 da 3c 81 69 67 bc 18 83 a9 3d f4 fc c6 bc
       0.026629204 -0.014124275 0.08276957 -0.02429054
000110 d7 1f 3c 3c 0c f4 2d 3d 8e a3 a1 3a 4b d0 53 bd
       0.011482201 0.04246907 0.0012332068 -0.051712316
000120 c4 b6 cd ba 12 8e d8 bc 32 dc 84 3d f6 58 19 3d
       -0.0015694727 -0.026434932 0.064873114 0.037438355
000130 54 4a b5 3c 01 40 71 bd 2d f9 97 bd ad eb df bb
       0.022130169 -0.05889893 -0.074205734 -0.0068335147
000140 62 01 45 bd 42 f3 b5 3c 89 8b 82 bd 06 62 83 3d
       -0.048097022 0.02221072 -0.063742705 0.06415181
000150 34 e4 e9 3b 61 30 14 be 4e a6 b7 bd cb 0d aa 3d
       0.0071377996 -0.1447158 -0.08967267 0.08303412
000160 c4 15 a0 bc cd 9b 19 bd be d5 87 bc 91 46 d0 bc
       -0.019541629 -0.0375021 -0.016581412 -0.025424274
000170 a0 f9 a1 3d 78 b1 f5 3c b2 eb 13 3d c4 cb c0 3c
       0.0790894 0.02999185 0.03611345 0.023534663
000180 ab f4 87 bd 03 54 4c bc e9 2d de 3c 3c 36 27 3d
       -0.066384636 -0.012471202 0.027121501 0.040823206
000190 04 eb 0b bd 6e 91 ad 3d 8e a4 cc 3d 03 31 27 3c
       -0.034159675 0.08475004 0.09992324 0.010204556
0001a0 64 9d d4 3c 21 24 31 bd 54 b4 a7 bc b2 cb 1b bd
       0.025953956 -0.043247346 -0.02047173 -0.038036056
0001b0 e4 5c 50 3c e3 40 0f bc 75 50 ce 3d fc ec d8 bd
       0.012717459 -0.008743498 0.1007394 -0.10592076
0001c0 9d 2f fe 3d 95 d5 82 bb 1d 46 af bc 63 15 3f bd
       0.12411425 -0.003992746 -0.021395737 -0.046651255
0001d0 ae 70 0b bd 52 6f 9a 3d 4b 19 81 3d 78 93 7f 3d
       -0.034043007 0.07540764 0.063036524 0.062396497
0001e0 76 f7 41 bd 88 68 91 3d b3 ea 61 3d 62 b8 11 bd
       -0.047355138 0.07100016 0.055155467 -0.03557623
0001f0 e6 09 e1 bb 84 ec 79 3c 9a 50 b8 bd bc fb 8e bd
       -0.006867635 0.015254144 -0.089997485 -0.06981608
000200 cf 8a 1d 3d 41 20 4a 3d f2 cb 2c bc bb 33 36 3c
       0.038462456 0.049347166 -0.010546671 0.011120732
000210 23 02 7b bd e2 6b d1 bd e1 08 c0 bd 29 d7 0b bd
       -0.061281335 -0.10225655 -0.093766935 -0.03414074
000220 94 06 16 3e 3c 65 15 3d 0f 1a a7 bb 09 27 85 bd
       0.14650947 0.036473498 -0.005099542 -0.06501586
000230 82 4e 62 bc 06 30 e4 bd 86 bc 9c bc 62 6e 58 bd
       -0.013812663 -0.11141972 -0.019132864 -0.052839644
000240 e4 6d 3e bc d8 b3 b7 bd dc 3d 9c 3c 4f 39 d8 3c
       -0.01162288 -0.08969849 0.019072466 0.026394514
000250 da b9 ff 3d 87 53 54 3c 57 fe 85 3c 5c 62 2a bd
       0.1248662 0.012959368 0.01635663 -0.04159771
000260 c8 8e 32 3d a8 06 c1 bd fc a4 6e bd b5 a6 fd 3c
       0.043593198 -0.09425098 -0.05826281 0.030963281
000270 07 b2 d8 bc 9d ce b9 bd 20 4b d8 3c 28 32 ab 3d
       -0.026452078 -0.090726115 0.02640301 0.08359176
000280 ac e8 09 bd 06 d4 77 3d 29 e9 9a bd 43 1a 96 bd
       -0.03366916 0.060504936 -0.07564003 -0.07329228
000290 39 b6 9a 3d c7 49 00 bd b4 68 5e bd d0 60 b2 3d
       0.075542875 -0.03132036 -0.05429907 0.08709872
0002a0 d0 8e 6c bd 56 63 bf bb dd a1 b4 3c 80 4c 00 3d
       -0.057753384 -0.005840699 0.022049839 0.031322956
0002b0 3d 06 e9 3b 0c 71 94 3d 3f 03 13 bc 2e 0f 3f 3c
       0.0071113394 0.072481245 -0.008972942 0.011661334
0002c0 bc 9d 90 bc 8a c5 eb 3c f4 3a 49 bc 72 79 38 3d
       -0.017653339 0.028780717 -0.012282122 0.045037694
0002d0 fb 26 a0 3c 71 cd b2 3d 77 43 13 bd 61 1c 45 3d
       0.019549837 0.08730591 -0.03595301 0.048122767
0002e0 78 35 13 bd 66 fc 7c 3d 21 82 b9 bc 65 6d a5 bd
       -0.035939664 0.061764143 -0.022645058 -0.08077506
0002f0 4c f2 20 3d b7 71 9d 3b a2 76 a2 bb 18 64 fb 3c
       0.039293572 0.0048048156 -0.00495799 0.030687377
000300 5c 0d bd 3d 7f 32 a9 bd ce e3 98 bc 12 95 98 3d
       0.09231064 -0.082615845 -0.018663313 0.07450308
000310 38 7e 3f bd 48 5b f6 bb 7b c1 ba bc 58 42 cf 3d
       -0.04675123 -0.007518206 -0.022797337 0.10120076
000320 6b 45 7e bb a1 18 87 3d ae 17 3b bd 49 9c 08 3b
       -0.00387987 0.065964945 -0.04567688 0.0020845106
000330 ad a2 f6 3e 06 5e 14 bc ff 27 3f bd b0 1d bd 3c
       0.48170987 -0.00905562 -0.046669003 0.023085445
000340 b0 a1 87 bc 54 35 03 3d 39 23 82 bd d2 14 1a bd
       -0.01655659 0.03203328 -0.063543744 -0.037617512
000350 84 b6 a3 3b 88 ff bc bc df 83 38 3d 9b e6 35 3d
       0.004996123 -0.023071066 0.045047637 0.044409376
000360 89 21 3f 3c e7 d5 00 3d 38 fa 8e bd bb 1a c9 3d
       0.01166571 0.031453993 -0.06981319 0.098195516
000370 0d b3 73 3d a0 10 71 3d eb ab 34 bc 38 30 44 3c
       0.059496928 0.058853745 -0.011027317 0.011974387
000380 f6 e3 a2 bd 95 ce c6 bc 11 41 ba bc 29 da 37 bd
       -0.07953636 -0.024268428 -0.022736104 -0.044885788
000390 08 d1 be 3a 8c 3f 56 bd 84 25 54 bc 1a b8 30 bd
       0.0014558146 -0.052306697 -0.012948398 -0.043144323
0003a0 06 d5 82 bd e4 54 a7 3d f0 36 ae bd d6 0d b1 3d
       -0.06388287 0.081704885 -0.08506572 0.08645217
0003b0 80 91 35 3d 89 07 a5 3d 0a c4 17 ba 7a 61 9a 3d
       0.044328213 0.08058078 -0.0005789405 0.075381234
0003c0 ec db 83 bd ba 9f 5b 3b 82 22 1e 3d 38 7f 4a bd
       -0.06438431 0.0033511952 0.038607128 -0.04943773
0003d0 c1 10 81 3d 0f b9 b5 3c 81 9f 11 bd d9 b3 8f bd
       0.06302024 0.02218297 -0.035552505 -0.07016725
0003e0 86 70 8b bd 90 43 c5 bd f5 2a db bd 42 f1 19 bd
       -0.068085715 -0.09632027 -0.10701553 -0.037583597
0003f0 c2 5c 17 bc 7d 88 62 bd aa dd ca bd da ce 04 3c
       -0.009238424 -0.055305947 -0.0990556 0.008105958

fc.bias f4 [7]
000000 b4 80 90 3d 54 02 4f 3c 14 84 cd 3d d0 92 e0 3c
       0.07055798 0.012634832 0.100349575 0.027413756
000010 3c d2 fc 3d be e5 ea 3d 28 f2 27 3e
       0.123447865 0.11469601 0.16400969

onnx::GRU_197 f4 [2, 768]
000000 04 a4 4b be 54 dc 00 be dd cd af bd 3c a4 50 bd
       -0.19886786 -0.12584049 -0.08584187 -0.050937876
000010 88 39 31 be b5 ea 5c be e4 45 2a be d4 e3 5b be
       -0.17307103 -0.21573909 -0.16628224 -0.21473628
000020 2e 69 8e bd 09 1e 6a be c4 40 76 bd a4 12 a9 be
       -0.06953655 -0.2286302 -0.06012036 -0.33022034
000030 f4 9e 5e be 5c cd a4 bd 37 59 6a be d2 b6 8c bd
       -0.21740323 -0.08046982 -0.22885595 -0.06870808
000040 41 0f 34 be 05 c9 64 be 3f 9e 7f bd 21 56 a6 bd
       -0.17583944 -0.22342308 -0.062406775 -0.081218965
000050 02 30 c6 bd 67 90 51 be 76 e5 85 bd 1c e5 71 be
       -0.096771255 -0.20465241 -0.06537907 -0.23622555
000060 6f db 10 be ec 3e 70 be 2a d5 b7 bd 70 16 04 be
       -0.14146207 -0.23461503 -0.08976205 -0.12899184
000070 fb 00 67 be 3c 82 d3 bd 59 74 05 be 30 da b7 bd
       -0.22558968 -0.103275746 -0.13032664 -0.08977163
000080 99 93 24 be f8 0d 96 bd 43 98 04 be a2 77 4a be
       -0.16071929 -0.07326883 -0.12948708 -0.19772199
000090 75 45 f9 bd c8 57 08 be 67 f3 f2 bd 3e 5f 36 be
       -0.12171451 -0.13314736 -0.118628316 -0.1780977
0000a0 69 6c e5 bd 3d 2e d2 bd 25 af 5a be b1 93 fa bd
       -0.11202318 -0.102627255 -0.21355875 -0.12235201
0000b0 ce 2d f8 bd a4 05 55 be f2 0e 29 be 24 06 1e be
       -0.121181116 -0.20802933 -0.16509607 -0.1543203
0000c0 67 f3 5c be 6c e2 3f be d2 ee 3a be f7 cf 1e be
       -0.21577226 -0.18738717 -0.18255165 -0.1550902
0000d0 58 ab c7 bd 26 61 4f be 9e bb 16 be 08 19 f2 bd
       -0.09749478 -0.20251903 -0.14720008 -0.118211806
0000e0 85 46 09 be 40 f6 0a be 42 a4 46 be 8f 55 0a be
       -0.13405807 -0.135705 -0.19398597 -0.135092
0000f0 c4 54 e7 bd 79 15 05 be 29 a5 e1 bd 15 05 3f be
       -0.11295465 -0.12996472 -0.1101783 -0.18654282
000100 1d 47 14 be 01 49 09 be 8b 07 05 be b4 13 a5 bd
       -0.14480253 -0.13406755 -0.12991159 -0.08060399
000110 d5 bb 57 be da 51 a4 bd ec 9a d6 bd 41 5f 48 be
       -0.21067746 -0.080234244 -0.10478768 -0.19567586
000120 bc db 36 be 59 4f 4c be 97 68 4b be 51 eb 86 bd
       -0.1785726 -0.19952144 -0.19864117 -0.06587852
000130 c2 aa 0d be c0 8b 32 be 2b 11 f1 bd 6c 94 28 be
       -0.1383467 -0.17436123 -0.11770853 -0.16462868
000140 0b 6c 60 be 53 34 34 be c9 fc 12 be 17 f3 e5 bd
       -0.21916215 -0.17598085 -0.14354242 -0.11228006
000150 4d d5 6d be 33 54 14 be 11 ee a3 bd 22 0e 6c be
       -0.23225899 -0.14485244 -0.08004392 -0.23052266
000160 be a2 a5 bd 6a 62 8b bd cb e4 28 be 91 c3 18 be
       -0.08087681 -0.0680588 -0.16493528 -0.14918353
000170 79 f4 39 be 05 fc 2f be 24 a6 24 be e8 21 65 be
       -0.18159665 -0.17185982 -0.16079003 -0.22376215
000180 46 a3 dc bd 85 48 5a be 42 62 64 be bb e4 7a bd
       -0.107733294 -0.21316727 -0.22303107 -0.06125329
000190 4b ce 2c be 4d 3f 8e bd 53 6e 23 be 28 41 5f be
       -0.1687557 -0.069456674 -0.15960054 -0.21802199
0001a0 01 74 63 be 8a a2 07 be ec fd 16 be 2a 15 69 be
       -0.2221222 -0.13245597 -0.14745301 -0.2276198
0001b0 9e 4c ad bd 74 92 e5 bd 7e 72 47 be ca 5b 3b be
       -0.08461879 -0.11209574 -0.19477269 -0.18296733
0001c0 1c 35 ca bd 9b 7e 09 be 26 64 16 be 11 e6 5c be
       -0.09873411 -0.13427202 -0.14686641 -0.21572138
0001d0 51 30 2c be 5c b2 00 be e1 d3 af bd 08 6c 65 be
       -0.16815306 -0.12568039 -0.085853346 -0.22404492
0001e0 f0 a1 de bd 53 6d a4 bd 1d 45 fe bd 8a 7d 24 be
       -0.10870731 -0.080286644 -0.12415526 -0.16063514
0001f0 0b e1 e6 bd 2a 3a 38 be 45 fc 3c be d1 6f 27 be
       -0.11273392 -0.17990938 -0.18455608 -0.16351248
000200 ec 6b 59 3e 28 7c 9e bd 9f ce 10 bd ee e9 20 bd
       0.21232575 -0.07738525 -0.0353533 -0.039285593
000210 fb 04 05 3e 6a de dc 3d c0 6a 4d 3d 07 f4 c4 3d
       0.12990181 0.107846096 0.050150633 0.09616857
000220 55 10 98 3c 6d 53 01 3e 55 bc 87 bd 1f 5c 2b be
       0.018562475 0.1262948 -0.06627718 -0.1673436
000230 85 c4 16 bc 2c a0 3f 3d da 5d d1 bc 6d a2 d5 3d
       -0.009202127 0.04678361 -0.025557447 0.10431371
000240 fe de 57 3e 27 23 5f 3d 6a 6d cd 3d 4b 02 12 3b
       0.21081159 0.054476883 0.10030635 0.0022279199
000250 02 50 3b 3e 6e 46 71 3c 69 37 f9 bc 48 ba e1 3d
       0.1829224 0.014726264 -0.03042193 0.110218585
000260 fb 74 25 3e e3 ee b3 bd fb e0 0a 3e c4 5f 55 3e
       0.16157906 -0.087857984 0.13562386 0.20837313
000270 cd 75 7c 3c 05 17 79 3d f6 e9 35 b8 82 2f 1e 3d
       0.015408945 0.06081297 -4.3371656e-05 0.038619526
000280 f9 8d a6 3c ff 1c 1a 3c d7 97 7f 3d c0 10 bd 3d
       0.02033137 0.009406327 0.062400665 0.092317104
000290 e5 7c 80 3d 91 62 91 3c a5 64 4d 3d a7 5f c4 3d
       0.06273822 0.017747195 0.05014481 0.09588557
0002a0 49 8f 03 be cf 1e 2b 3e 75 12 36 bd 25 8d e4 bc
       -0.12847628 0.16710971 -0.044451196 -0.027899334
0002b0 1d 12 5a 3d b3 76 bf 3d 25 3e 1e 3e f9 7a 3e 3e
       0.05323993 0.09348812 0.15453394 0.18601598
0002c0 f3 ce b3 3d ab 92 0c 3e 0c 52 42 3d 23 be a1 3d
       0.08779707 0.13727824 0.047441527 0.07897594
0002d0 c1 bb 08 be 3a 79 54 3d 4a a7 50 3e 2e fb 21 3e
       -0.13352872 0.051873423 0.20376316 0.15818474
0002e0 8a ca 0d 3e 97 d9 36 3e fb 01 a4 3d b7 f8 20 be
       0.13846794 0.17856441 0.0800819 -0.15719877
0002f0 5e e3 10 3e b4 92 16 3d ae 8d 20 3e da cf fd 3d
       0.14149234 0.036761 0.15679047 0.1239316
000300 38 ab 86 3d ec 80 0e bc 3a e3 4b 3e 34 67 14 3c
       0.06575626 -0.00869773 0.19910899 0.009057809
000310 69 79 79 3d 2c 8e 43 3d 7e c4 87 3d e6 d4 01 3e
       0.0609068 0.047743008 0.06629275 0.1267887
000320 4c af 29 3e 8f 1a 03 3e bd fb 80 3d 64 13 97 3d
       0.16570777 0.128031 0.06298015 0.07376745
000330 fb 26 1c 3d 11 ac fc 3c e1 da 03 3e 50 e8 9b 3d
       0.038123112 0.030843766 0.12876464 0.076126695
000340 dc 27 89 bb 7a 69 22 3d 4e 62 18 3e cf de a2 3c
       -0.00418566 0.03965137 0.1488125 0.019881634
000350 e1 a2 14 3e b7 d3 c2 bd e1 55 a3 3d 04 93 68 3c
       0.14515258 -0.09513038 0.079753645 0.0141952075
000360 81 f8 25 3e 1a a2 0f 3e 83 54 e5 3d 42 f5 ff 3c
       0.16208078 0.1402668 0.1119776 0.031244878
000370 97 ed 89 bd 29 a9 76 3d 87 3c 82 3d 5a c3 c4 bd
       -0.0673477 0.060219917 0.06359201 -0.09607573
000380 47 40 c8 3d a7 04 9c 3d 94 b5 32 3d 16 00 85 3d
       0.09777885 0.07618075 0.043630198 0.06494157
000390 ff e7 0b 3e 92 85 39 bd a2 f1 b5 3c c9 1d 59 3d
       0.13662718 -0.0452934 0.022209946 0.05300692
0003a0 76 48 23 3e 0d 4a ef 3d 9e e8 b2 3b 26 f2 2f 3e
       0.1594561 0.11684046 0.005459859 0.17182216
0003b0 27 36 e1 3d 5d 56 cf 3d eb c3 1e 3d bb db f4 bd
       0.10996657 0.10123894 0.03876106 -0.11955973
0003c0 14 e1 07 be 7e 61 65 bd ea 89 22 3e 63 db 08 3e
       -0.13269454 -0.05600118 0.15872923 0.1336494
0003d0 c4 12 8e 3d 75 96 a4 3d 2f d3 e6 3d 0a a7 1e 3d
       0.06937173 0.0803651 0.11270749 0.03873352
0003e0 5e 75 52 3e 1c 53 f2 3d 85 64 a7 3d 7a 23 98 bd
       0.20552585 0.11832258 0.081734695 -0.074286416
0003f0 47 fc 40 3e f3 a0 a3 3d c2 b8 56 bd e0 ff 4d bd
       0.18846236 0.07989683 -0.052422293 -0.05029285

onnx::GRU_198 f4 [2, 384, 18]
000000 41 e4 05 be 68 73 94 be d0 2f 76 be b5 33 80 be
       -0.13075353 -0.28994298 -0.24041677 -0.2503945
000010 ab 34 c4 bc a6 b2 67 bc 67 f9 8a bd 4d a4 04 be
       -0.023950895 -0.014141714 -0.06785851 -0.12953301
000020 6b 41 11 be 67 76 ff bd 72 88 60 be 49 bd 5f be
       -0.14185111 -0.12473755 -0.2192705 -0.2184955
000030 1a f4 83 be 65 28 4e be fe 60 01 be ad 4c 4b be
       -0.25772172 -0.20132597 -0.12634656 -0.19853468
000040 8e 11 0c be 27 53 29 be e3 18 5a bd 51 0e 33 be
       -0.13678572 -0.16535626 -0.05324639 -0.1748593
000050 de 9f 1d be 35 33 60 be c1 6f ea bc b7 e3 14 bd
       -0.15393016 -0.21894534 -0.028617742 -0.03634998
000060 5d b9 14 be 0a 04 16 be 4a d7 3c be c7 a1 5d be
       -0.14523835 -0.14649978 -0.18441501 -0.21643744
000070 a8 2e a9 be e4 63 f1 bd e9 61 11 be 87 90 41 be
       -0.33043408 -0.11786631 -0.14197506 -0.18902789
000080 cc 58 bc bd b9 c8 e8 bd 02 0b df bd 2e 6d 02 be
       -0.09196624 -0.1136641 -0.108907714 -0.12736961
000090 52 a2 93 bd 91 3c 77 be 76 95 4a be 6b 3e 30 be
       -0.072086945 -0.24144198 -0.19783577 -0.1721131
0000a0 a3 dd 30 3d cb 83 9b bd 6a 68 f4 bd a8 ce 2b be
       0.04318012 -0.07593497 -0.11933978 -0.16778052
0000b0 ba a4 30 be 0f 74 1d be a2 8d 99 be 1c 01 07 be
       -0.17250338 -0.15376304 -0.2999087 -0.13184017
0000c0 3a 16 5d be 4b 79 97 bd 31 16 21 be 0c 09 ff bd
       -0.2159051 -0.07396182 -0.15731122 -0.124528974
0000d0 09 88 9a bd fe ff cf bd 14 10 ff bd 5f 6e 8e be
       -0.07545478 -0.101562485 -0.124542385 -0.2781858
0000e0 82 46 ca bd c8 e2 31 be d1 4f 5f 3b eb 24 ad bd
       -0.098767295 -0.17371666 0.0034074674 -0.08454307
0000f0 be d9 98 bc d2 40 b5 bd d1 94 9e bd ca 8a aa 3b
       -0.018658515 -0.08850254 -0.07743228 0.005204533
000100 e7 a4 b3 be a9 73 55 bd ed 02 59 be 03 71 fe bd
       -0.35086748 -0.052112255 -0.21192522 -0.12423899
000110 93 9b 46 be 90 9f 10 be 2c fa 0c be 5d fb f7 bd
       -0.19395284 -0.14123368 -0.13767308 -0.121084906
000120 61 4f 72 be 51 21 63 be 3e e7 4b be 29 4a 3d be
       -0.23663093 -0.22180678 -0.1991243 -0.18485321
000130 7b fd 3a bd 5e 11 0b be e8 d0 57 be 00 da 4d be
       -0.045651894 -0.13580844 -0.21075785 -0.20102692
000140 9c b6 11 be dc a2 b9 bd 4d a7 21 be 5d 85 64 be
       -0.14229816 -0.09064266 -0.15786476 -0.22316499
000150 5a 15 3f be 5c 38 4e be 93 d8 5a be b4 7e 12 be
       -0.18660489 -0.20138687 -0.21371679 -0.14306146
000160 05 59 43 be 4f d5 66 be ce f0 67 be 9a 6b a0 be
       -0.19076927 -0.22542308 -0.22650453 -0.31332093
000170 09 fa 71 bd b9 ae ab bd dc 4f 0f bd 0c 42 1d be
       -0.059076343 -0.08382935 -0.03498827 -0.15357226
000180 ad f8 3b be 5c d9 52 be c9 68 28 be 32 49 6b bd
       -0.18356581 -0.20590729 -0.16446222 -0.05744285
000190 5e a3 66 be bf a5 31 be 24 1f 35 be 35 f4 42 be
       -0.22523257 -0.17348383 -0.1768766 -0.1903847
0001a0 9d 97 53 be 32 05 df bd 50 6d 36 be e5 5a de bd
       -0.20663305 -0.10889663 -0.17815137 -0.108571805
0001b0 5c ba 96 bd af 12 9c be 58 1a 44 be 4c 07 c6 bd
       -0.07359764 -0.30483004 -0.19150674 -0.096693605
0001c0 b2 7c a3 bd ef 80 89 bc fe c4 23 be 53 f7 f3 bd
       -0.07982768 -0.016785113 -0.15993115 -0.11912408
0001d0 77 3a 46 be 95 3e 2c be d6 af 81 be 91 1e df bd
       -0.1935824 -0.16820748 -0.25329465 -0.10894502
0001e0 2c 61 31 be 36 e8 80 bd bd 7a 12 be 79 ae 10 be
       -0.17322224 -0.06294291 -0.14304633 -0.14129056
0001f0 24 d6 ec bd d6 c1 20 be 27 f1 13 be 57 37 a4 be
       -0.115642816 -0.15698943 -0.14447461 -0.3207347
000200 3b a8 5e be c0 23 b5 bd 49 8f 53 bd d9 98 12 bd
       -0.21743862 -0.088447094 -0.05165032 -0.035790298
000210 c8 bc e7 bd 37 3a 04 be 0a 08 72 bd ea 08 37 be
       -0.11315304 -0.12912832 -0.059089698 -0.17874494
000220 53 80 80 be 2a 1c 05 be 7f cf 45 be bf c8 68 be
       -0.25097904 -0.12999025 -0.19317435 -0.22732829
000230 9e 97 d9 bd 03 c4 3c be 27 ac fa bd 4e 9b a3 bd
       -0.10624622 -0.18434148 -0.12239867 -0.079886064
000240 35 70 27 be 60 52 84 be f4 7f 26 be b4 33 b8 bd
       -0.16351397 -0.25844097 -0.16259748 -0.089942366
000250 da c1 4d 3d e4 84 ac bd f6 89 36 be b5 80 58 be
       0.0502337 -0.084237844 -0.17826065 -0.21142848
000260 26 65 82 bd ff 1c a3 bd d4 5f 51 be be a5 64 be
       -0.06366949 -0.07964515 -0.20446712 -0.2232885
000270 58 3c 29 be b5 b0 20 be 05 38 a0 bd 03 0f 74 bd
       -0.16526926 -0.15692408 -0.07823185 -0.05958463
000280 3d d7 02 be d1 ed 3a be ff 7e 85 bd 01 77 92 be
       -0.1277742 -0.18254782 -0.06518363 -0.28606418
000290 ad 57 a8 bd 5c c9 63 be 4c bb e3 bc 69 1b 3b be
       -0.08219848 -0.22244781 -0.027799271 -0.18272175
0002a0 62 27 26 be e2 72 f0 bd 60 4c 48 be c7 dd 4a be
       -0.16225961 -0.11740662 -0.19560385 -0.19811164
0002b0 b2 0b 35 be 99 30 c8 bd da 71 65 be 02 47 4f be
       -0.17680243 -0.09774894 -0.22406712 -0.20241931
0002c0 74 35 25 be 6e ee 23 be eb 7e 9f bd 30 20 2d be
       -0.16133672 -0.16008922 -0.077878796 -0.1690681
0002d0 aa d1 24 be a5 11 a1 be 92 ca 2d be 85 0f 9a bd
       -0.16095605 -0.31458774 -0.16971806 -0.07522491
0002e0 9c 41 69 3d 77 62 9e bd cc be 0e be a4 22 6e bd
       0.056947336 -0.077336244 -0.1393997 -0.058138505
0002f0 53 1b dc bd 93 46 10 be c1 ac 90 be 2f 2f 15 be
       -0.10747399 -0.14089422 -0.282568 -0.1456878
000300 af a6 48 be ad 95 c4 bd bf 47 79 bd 8d d1 f9 bd
       -0.19594835 -0.09598861 -0.060859438 -0.12198172
000310 a7 75 3c bd 3a d1 26 be b3 72 90 be 5a 2a f9 be
       -0.04601064 -0.16290751 -0.2821251 -0.48665124
000320 30 ea a0 be 76 c4 94 be c2 cc a3 bd ef a1 a6 bd
       -0.3142867 -0.29056138 -0.07998039 -0.08136355
000330 4f 96 14 be 99 72 8f be 80 bb 70 be 1a 28 c2 bd
       -0.14510463 -0.2801712 -0.23509026 -0.09480305
000340 9a 72 f7 be d2 93 46 be f9 09 bb be 8b 19 89 be
       -0.48329622 -0.19392326 -0.36531046 -0.267773
000350 20 4a 5a be f7 0f fa bd 6b 06 b6 bd 20 9e 67 be
       -0.21317339 -0.12210076 -0.08887943 -0.22618914
000360 3d 13 a7 bd 3a fc b0 be 55 75 36 be a9 57 38 bd
       -0.08157966 -0.34567434 -0.17818196 -0.045005474
000370 57 1c 09 bc c9 1e 6d bb c3 69 dd bd a2 30 4e be
       -0.008368573 -0.003618168 -0.10811188 -0.2013574
000380 4d 39 1b bd 75 8e 82 bc 2f 44 89 be d6 f2 43 be
       -0.037896443 -0.01593707 -0.26809832 -0.19135603
000390 eb c0 86 be fa 70 33 be 56 04 92 bd 9f d9 fd bd
       -0.2631906 -0.17523566 -0.07129733 -0.123950236
0003a0 03 20 e3 bd 8d 9d a3 bd 8c bc e0 bd 41 f3 a3 be
       -0.1109009 -0.07989035 -0.109734625 -0.32021526
0003b0 1c 24 61 bd fd 7c 97 bd e6 7f 5f bd 22 5d ac bc
       -0.054966077 -0.073968865 -0.054565333 -0.021040503
0003c0 62 4a aa bd f5 44 2f be 6d 58 39 be 63 f2 fc bd
       -0.08314969 -0.17116149 -0.18100138 -0.12350919
0003d0 a4 11 b4 be a3 a1 ae bd 68 55 3b be 1f 73 1f be
       -0.3516971 -0.085269235 -0.18294299 -0.15571259
0003e0 b6 46 43 bd e2 06 1e be 1d a5 da bd b9 a0 43 be
       -0.047674857 -0.15432313 -0.10676024 -0.1910428
0003f0 9b cd 19 be f1 15 62 be 8b 15 d6 bd 35 14 14 be
       -0.15019839 -0.22078682 -0.10453328 -0.14460833

onnx::GRU_199 f4 [2, 384, 128]
000000 89 f6 40 bd 6e 1d 2b bd d3 43 7b 3c df 3c 0c 3c
       -0.047110114 -0.041776113 0.015335995 0.008559435
000010 3e 30 a4 3d 96 a4 96 3c de 1f 7c 3c ee 09 3c bd
       0.08017014 0.018389028 0.015388457 -0.045907907
000020 3c 55 9d 3d 7b 18 98 ba 65 a2 58 3d 50 e6 90 bd
       0.07682273 -0.0011603975 0.052889246 -0.070751786
000030 e1 69 3d 3d 20 11 93 3d 5d 9b 6a 3d 14 3d 97 3d
       0.046243552 0.07181001 0.057277072 0.073846966
000040 cc 91 24 bd b8 df 81 bd 0e 57 02 3d b6 df 1c 3d
       -0.040178105 -0.06341499 0.031821303 0.038299285
000050 88 fb 5b bd 9b 87 e8 bc 5d a6 94 ba 8e f5 f2 bb
       -0.053706676 -0.028384974 -0.0011341084 -0.0074145263
000060 b5 29 2d 3d 47 93 80 3d 56 4b d1 3c 88 54 0f bd
       0.042276103 0.06278091 0.025548618 -0.034992725
000070 a1 cc 61 bd f9 57 9c 3d 0c 44 22 3c 79 6b 3d bd
       -0.05512679 0.07633967 0.009903919 -0.046245072
000080 dd 0f 87 bd ea f7 75 bd 51 0f a9 3d f6 03 64 bd
       -0.065948226 -0.060050882 0.082548745 -0.05566784
000090 f7 3b b0 bd 75 9f 87 bd c3 e9 2b bd 93 fc 30 bb
       -0.086051874 -0.06622211 -0.04197098 -0.0027006015
0000a0 60 3f 78 bd a4 6f 1f 3d 4d ad 6d bc 6e b6 16 bd
       -0.060607314 0.03892483 -0.01450665 -0.036795072
0000b0 04 a6 5b bd 03 43 e5 bc c5 de af 3d 82 ea 91 3b
       -0.05362512 -0.027986055 0.08587412 0.0044530043
0000c0 bc 05 cc 3c c7 5b af bd c3 10 5d 3d 01 bf 64 3c
       0.024905078 -0.08562427 0.053971063 0.0139615545
0000d0 af 37 20 bc c3 42 d1 3a 3e 46 27 bd 3d 88 8c bd
       -0.009778901 0.0015965331 -0.040838473 -0.06861923
0000e0 51 32 35 bd 92 2c e3 3c a1 e5 98 3d db 1d 7c bd
       -0.04423744 0.027731214 0.07465673 -0.06155191
0000f0 9c 8f 26 3d c1 fa 2f bd 0c 7c 88 3d b0 b5 30 3c
       0.0406643 -0.042963747 0.06664285 0.010785505
000100 50 78 a4 bd af 26 9c bd c7 35 ae 3c 15 34 4a 3d
       -0.0803076 -0.07624566 0.021265877 0.049366076
000110 45 b9 d5 3c e9 41 c7 3c 0c 52 63 bc 90 a4 34 bd
       0.02608932 0.02432342 -0.013874542 -0.04410225
000120 7d c7 79 3c a5 7f 8f bd e0 a7 34 3d d3 de 09 bd
       0.015245316 -0.07006768 0.04410541 -0.033659767
000130 db 45 a2 bd 5c 5c 1d 3c 22 2b 0b 3d 7d 24 8a bd
       -0.0792348 0.00960454 0.03397668 -0.06745241
000140 0f 86 64 bd 8f b1 81 bc 90 c3 15 bd cd aa 92 3d
       -0.05579191 -0.015831737 -0.036563456 0.07161484
000150 31 95 5c 3c d3 0c e2 bc 08 0d 8d bd 70 de 85 bd
       0.013463304 -0.027594006 -0.06887251 -0.06536567
000160 56 b1 f7 3c b7 45 ad bc 1b 6e 4b 3c 31 20 83 3c
       0.030235928 -0.021151407 0.012416388 0.016006561
000170 6f 60 7c 3d b6 1a 21 3a 79 be 21 3d 24 ba a9 bd
       0.061615404 0.0006145643 0.03948829 -0.08287457
000180 16 06 7f 3d 39 a8 9a bd 4c 6f cf bc 3f 80 b4 bd
       0.062261663 -0.07551617 -0.025321625 -0.088135235
000190 16 aa 38 3d 3e 12 bf bc 9b d1 b1 bd be 07 48 bd
       0.04508408 -0.023324128 -0.08682557 -0.04883551
0001a0 32 6c 46 3d 2d d9 73 3d ec ad 7d 3d 3d 75 ac bd
       0.048443027 0.059533287 0.061933443 -0.08420799
0001b0 f4 c5 14 bd af ee 69 3c 02 49 b5 bb 1b c7 37 bd
       -0.036321595 0.014278098 -0.005532385 -0.044867616
0001c0 4c 30 b0 3d e4 ff 60 bd d0 49 6c 3d b5 b8 68 3d
       0.08602962 -0.054931536 0.05768758 0.056816775
0001d0 33 60 9b bd 64 d0 6f bd c5 66 73 bd d9 33 84 3d
       -0.07586708 -0.058548346 -0.05942418 0.06455202
0001e0 a0 ab 9e bd c0 6e 8b 3a 48 3a dd bc 37 44 a8 bc
       -0.077475786 0.0010637864 -0.02700533 -0.02054034
0001f0 66 f3 55 bd e9 24 9c bd 49 92 9b bd 9f 4c 1a bc
       -0.052234076 -0.076242276 -0.07596261 -0.009417682
000200 89 06 a5 3b f0 92 bb 3c 02 77 ed 3c 53 2f 19 bd
       0.0050361794 0.022897214 0.028987411 -0.037398648
000210 ca f9 45 3d fc 0b 55 3d 49 08 8f bd b7 b5 9a 3d
       0.04833392 0.052013382 -0.06984002 0.075541906
000220 47 e1 1c bc 22 e2 9d bb 59 3f ac bd 99 34 40 3d
       -0.009575195 -0.004818217 -0.0841052 0.04692516
000230 5d 5a 12 3d 2a d4 b7 3c 4e 2f 1f 3d af 31 9f bd
       0.03573071 0.022440035 0.038863473 -0.07773148
000240 84 dd b3 3d 63 29 72 3d cd 43 d5 bc e6 b7 3e 3d
       0.08782485 0.0591215 -0.026033306 0.046562098
000250 c9 13 01 bd 64 ef e5 bc ad 16 b0 bb 07 96 5f 3d
       -0.03151301 -0.028068252 -0.005373797 0.054586437
000260 ad f3 46 3d bb db f9 bc 2e cc 95 bd 69 22 8a 3a
       0.04857223 -0.030500283 -0.07314335 0.001053882
000270 86 c0 19 bd 74 76 bb bb 80 e7 37 3d 98 ac 71 3d
       -0.03753712 -0.005720908 0.04489851 0.05900249
000280 b6 f2 98 3b e0 57 14 3d 26 c8 84 3c 0d c7 24 bd
       0.0046676053 0.036216617 0.01620872 -0.040228892
000290 e9 24 57 3d e2 df 7d bd f4 82 da bb e7 3e 1d bd
       0.052525435 -0.06198109 -0.006668443 -0.038390066
0002a0 44 ee c3 3b fb 2f 96 3d 9b 24 e5 3c 53 4b be bb
       0.005979331 0.0733337 0.027971556 -0.005807319
0002b0 a1 bb a8 bd 2c 10 81 bd e3 3c 96 bc 67 fa 2d bd
       -0.082389124 -0.06301913 -0.01833958 -0.04247513
0002c0 ed b2 8e 3c 17 85 b2 bd ca 7f a8 3d 2b dd db bc
       0.017419303 -0.08716791 0.08227499 -0.02683886
0002d0 67 b5 57 3d 4f ed 81 3d d6 05 94 3d ba e5 6f bc
       0.052663233 0.06344091 0.072276756 -0.014642173
0002e0 76 bf 48 3b 2a d1 38 3d 1b e3 86 bd 03 d7 cd bb
       0.0030631698 0.04512135 -0.06586286 -0.006281735
0002f0 eb 48 18 3d aa e0 02 bb 14 da 80 bd fc 4c 57 3c
       0.037178915 -0.0019970336 -0.06291595 0.013140913
000300 49 bc 94 bc 3b 15 5e 3d 97 44 7c bd a2 03 f2 3b
       -0.018156188 0.054219466 -0.06158885 0.007385687
000310 3f a6 44 bc da 1c d4 ba 30 d4 a3 3d cc 6e 3d 3a
       -0.012002527 -0.0016182915 0.07999456 0.0007226288
000320 b3 e4 64 bb ca 92 ab bd 72 d0 2e bd d0 02 92 bd
       -0.0034926354 -0.08377607 -0.042679258 -0.07129443
000330 b5 2d c8 3b 9b b2 9d bc 41 8e d4 3c 7e f6 92 3d
       0.0061089643 -0.019250205 0.025946738 0.07175921
000340 14 7b 9c 3c 07 a2 80 bd 9a 2d 5c bd 00 e1 23 bd
       0.019101657 -0.06280904 -0.053754427 -0.0400095
000350 24 4d 4a bd 0a 8a 70 3c 6a 72 ad bd 0d b5 8a bd
       -0.049389973 0.014681349 -0.084690884 -0.06772814
000360 a1 da 7c bc 8c c8 77 bd 11 2e 64 3d 5c 4f ee 3c
       -0.015432985 -0.06049399 0.055707995 0.029090576
000370 0b 6e 8c 3d d4 64 26 3d fd ea c0 bc 1a 08 58 bc
       0.068569265 0.0406235 -0.023549551 -0.013185525
000380 59 ad 29 3d c6 70 a4 bd 03 13 af 3c 95 52 a5 bd
       0.041425083 -0.08029322 0.02137137 -0.08072392
000390 d0 ee 1a 3d 2c 19 eb bc 44 18 ef 3c fd 88 0b 3d
       0.037825406 -0.028698526 0.029186375 0.03406619
0003a0 f7 2a 62 3b 46 6d 34 3c 98 8e 04 bd 8b bb 3c 3b
       0.0034510472 0.011012381 -0.03236255 0.0028798308
0003b0 dd d2 50 3d c4 ce 94 3d ae a5 cb bc 5c 82 a7 3c
       0.050982345 0.07266 -0.024859276 0.020447902
0003c0 ba 95 ad 3c 72 3e 11 3d f4 4c fa 3c d4 9f f0 3c
       0.02118956 0.035459943 0.030554272 0.029373087
0003d0 44 3a 83 bd 56 57 77 bc 55 5f 34 bd ae 0b 96 3d
       -0.06407598 -0.015096506 -0.04403623 0.073264465
0003e0 d5 37 0a bd d8 0f 1e 3d b3 2e c0 3c 6a bf ff 3c
       -0.03374465 0.03858933 0.023459768 0.031219203
0003f0 33 ac ad 3c 91 20 03 bc d8 3b eb bc cb 63 b1 3d
       0.021200275 -0.00800337 -0.02871506 0.08661612

onnx::MatMul_200 f4 [256, 1]
000000 d4 d5 92 3c 28 7f 55 3c 98 c4 b8 3c 0c 26 b1 bc
       0.017924227 0.013030805 0.02255468 -0.021624587
000010 70 9d a4 bb 38 1b 97 bc 3c c3 fe bc 4a e5 72 bd
       -0.005023651 -0.018445596 -0.031098954 -0.0593007
000020 30 dd 53 bd f4 1b c4 3c fc 8e c3 bc 50 af 23 3d
       -0.051724613 0.02393911 -0.023871891 0.039962113
000030 90 a3 84 3b 40 b0 2b bb 18 50 64 3c b0 b8 62 bc
       0.0040478185 -0.0026197582 0.013935111 -0.013837978
000040 a0 6c 6f bd 04 63 0d 3d 3e a8 20 3d 1c 50 fe bc
       -0.058453202 0.034518257 0.03922295 -0.031044059
000050 48 a5 ee bc 18 ce 0f bc 3e ee 71 bd 1e b1 0e 3d
       -0.029131547 -0.008777164 -0.059065096 0.03483688
000060 18 2e 4b 3c de 4f 68 bd 60 5b 11 3b d2 35 76 3d
       0.012401126 -0.056716792 0.0022179708 0.06010992
000070 14 56 99 3c a0 2e b8 3b 5c da fa bc 80 9d 0a bd
       0.018717803 0.0056207925 -0.0306217 -0.03384161
000080 62 2b 0b bd 20 69 27 3c e0 1e f1 bc 84 50 55 bd
       -0.03397692 0.010217935 -0.029433668 -0.05207874
000090 a0 26 18 3d 60 0c 1b 3b f8 50 2e bc fe 21 23 3d
       0.03714621 0.00236585 -0.010639422 0.03982734
0000a0 30 56 23 bc 78 8d d1 3c e0 eb 7a bb b8 ad 42 bd
       -0.009969279 0.025580153 -0.0038287565 -0.047528952
0000b0 80 af 1f ba 58 1f 3e 3d 00 d9 ae 3a 00 a6 c2 bc
       -0.000609152 0.04641661 0.0013339818 -0.023760796
0000c0 30 2b c4 bc c0 ef fd 3b 60 38 71 bb e4 e6 19 bd
       -0.023946375 0.0077495277 -0.0036807284 -0.03757371
0000d0 f0 c6 72 3c 9c 4d 02 bd cc 3f c1 bc d6 7e 28 3d
       0.014817938 -0.031812295 -0.023589991 0.041136585
0000e0 3e b3 54 bd c0 b8 77 bb 34 0d 83 bc 00 b8 a1 3c
       -0.05192875 -0.0037799329 -0.015997507 0.019741058
0000f0 3c 1e 18 bd 6c 94 1e bd 20 b1 31 3d 92 e1 27 bd
       -0.03713821 -0.038715765 0.04338181 -0.040986605
000100 08 6d 04 3d e0 4a 28 bd 22 46 23 3d a0 42 b5 bc
       0.032330543 -0.04108703 0.039861806 -0.022126496
000110 28 f3 df bc 3c cc 6f bd 5c cc 50 3d c4 44 f0 bc
       -0.027337626 -0.058544382 0.050976142 -0.029329665
000120 24 02 5b bd 40 79 b4 bc 3c 5c d2 bc a0 46 fe bb
       -0.05346884 -0.022030473 -0.025678746 -0.007759884
000130 32 2b 0c bd 28 a2 5a 3d c8 62 03 bd 76 e9 36 3d
       -0.03422088 0.0533773 -0.032076627 0.04465624
000140 4c d5 d1 bc c6 b0 00 3d ee 9b 30 bd 68 9d 02 bc
       -0.025614403 0.031418584 -0.043117456 -0.007972099
000150 68 28 14 3d 08 0e 86 bc c0 50 2c 3b 3a 4a 4f 3d
       0.036171347 -0.016364112 0.0026293248 0.050607897
000160 90 e2 d8 bc 94 9f 6d bd e6 55 53 3d 80 5b 17 bd
       -0.02647522 -0.058013514 0.05159559 -0.036952496
000170 00 0a 0a 3a 40 9f 08 bb ac 74 92 3c 18 9a 55 3c
       0.00052657723 -0.0020846874 0.0178779 0.013037227
000180 98 65 a4 3c ee bd 5c 3d c8 7d df bc 3e db 17 bd
       0.020067975 0.05389207 -0.027281657 -0.03707432
000190 fe c7 05 bd e0 74 0e bc f0 eb 29 bc a2 c2 3c bd
       -0.03266143 -0.008694857 -0.010371193 -0.046084054
0001a0 86 93 75 3d 40 fa 3d bb 20 2a 57 bd 54 c3 62 3d
       0.059955142 -0.0028988272 -0.052530408 0.05536206
0001b0 8c 0d 9c 3c 00 0d 63 3a f4 d1 d7 bc 00 46 6c 39
       0.019049428 0.00086613 -0.02634523 0.00022532791
0001c0 5c a9 1a bd f0 49 89 bb 9e d6 01 3d 98 55 04 3c
       -0.03775917 -0.0041897222 0.031698816 0.008077048
0001d0 50 b1 df bc 9c 67 9b 3c 64 4c 74 3d ac 0a 88 bc
       -0.027306229 0.018970303 0.059643164 -0.016606651
0001e0 80 4f 69 3a 04 ec c1 3c e0 7b 47 bd d4 e5 5b bd
       0.0008900091 0.023672111 -0.04870212 -0.053685978
0001f0 54 1d ed bc a6 25 20 bd a8 d3 2a bc 2c b7 a3 bc
       -0.028944649 -0.039098404 -0.010426439 -0.019984804
000200 18 44 6c 3d 48 76 2d 3c 7a b8 16 bd 74 95 29 bd
       0.057682127 0.0105872825 -0.036797024 -0.041402295
000210 a8 d7 18 3c 04 87 8f 3c 1c c6 23 3d 8c 1b aa 3c
       0.00932876 0.017520435 0.039983854 0.020765088
000220 f4 a0 c5 3c 90 c9 5b 3d d2 4a 14 bd 76 97 7e bd
       0.0241246 0.05365902 -0.036204167 -0.062156163
000230 88 12 79 bd c0 07 e9 3c 74 69 59 bd 62 be 26 bd
       -0.06080869 0.028446078 -0.053079084 -0.040708907
000240 60 d4 37 bd 74 17 99 3c 1c a7 9f 3c 20 48 a3 3b
       -0.04488027 0.018687941 0.019488864 0.004982963
000250 40 71 30 bc 70 aa b5 3c 28 7a 40 3d 6a 30 02 3d
       -0.010769188 0.022175997 0.046991497 0.031784452
000260 cc 1b a4 3c d8 d3 14 bc 00 6f 64 3b 58 63 a4 3c
       0.020032786 -0.009083711 0.00348562 0.020066902
000270 e2 4f 21 3d ec 1f 4c bd a0 38 41 3b 00 33 17 ba
       0.039382823 -0.04983513 0.0029483214 -0.00057677925
000280 98 54 d0 bc 40 93 99 bb f8 9e 4e 3d a0 08 06 bb
       -0.025430962 -0.004686743 0.050444573 -0.0020451918
000290 80 ec 9a 3b c8 2d 04 bc 40 f9 f6 bb cc 7f 7a bd
       0.0047279 -0.008067556 -0.007537037 -0.061157033
0002a0 3e 8b 0b 3d 00 57 de 3a 4c f0 9c bc 40 4a 1b 3d
       0.03406834 0.0016963184 -0.019157551 0.037912607
0002b0 f8 0b 5f bd 6c 48 f9 bc 20 b4 96 3c 1a 78 38 bd
       -0.054454774 -0.030430041 0.018396437 -0.045036413
0002c0 d0 65 f8 bc 40 ae 71 bd ba b2 73 3d ea 2e 6a 3d
       -0.030321985 -0.05900407 0.05949662 0.057173647
0002d0 00 8b 06 3b 28 d4 7e 3c 98 d1 d0 3c 24 85 d8 3c
       0.0020529628 0.015553512 0.025490567 0.026430674
0002e0 ba d0 5b bd 08 97 0b bd 62 1f 22 3d e0 5d 4a 3c
       -0.053665854 -0.03407958 0.03958071 0.012351483
0002f0 10 2d 99 bb a4 b0 76 3d d8 bb d8 bc e0 04 70 bd
       -0.0046745613 0.06022705 -0.026456758 -0.0585984
000300 04 36 ef 3c 0c 5e 53 3d 80 56 df 3b 70 28 58 3d
       0.029200561 0.051603362 0.0068157315 0.05277294
000310 00 1e 9b 39 f0 5a 01 3d 74 11 6f 3d 20 62 c5 bb
       0.00029586256 0.031580865 0.058366254 -0.0060236603
000320 5a 55 4f 3d 60 c5 14 bd 70 3a 2a 3c 0c dd 72 3d
       0.050618507 -0.036321044 0.010389909 0.059292838
000330 e8 62 65 3c 68 a8 e5 bc e6 ac 6d bd 44 99 61 bd
       0.014000632 -0.028034404 -0.058026217 -0.055077806
000340 e0 37 d4 bc 20 98 d8 3c e0 b0 16 3d 38 7c 64 bc
       -0.02590555 0.026439726 0.036789775 -0.013945632
000350 e8 2f 11 3d 08 8c 7b 3c a8 0c 48 bc aa 9a 4c 3d
       0.035446078 0.01535321 -0.012210049 0.049952187
000360 88 67 38 bc 04 7c a8 3c e0 dc e1 3b 76 62 2d bd
       -0.0112551525 0.020566948 0.0068927854 -0.042330228
000370 2c 87 41 3d fa d2 02 3d d4 39 d9 3c ca be 3a bd
       0.04724805 0.031939484 0.026516832 -0.045592107
000380 fe d8 4a 3d ac 27 13 bd 84 73 3b bd 10 5a b1 bc
       0.049523346 -0.035926506 -0.04576446 -0.02164939
000390 00 2e 6b bb 46 cf 11 3d 90 68 23 3c 08 53 4f 3d
       -0.0035885572 0.035598062 0.00997366 0.050616294
0003a0 b0 20 7c 3c b0 f6 84 3b dc 59 3e bd fe 5a 5a 3d
       0.015388653 0.0040577278 -0.046472415 0.053309433
0003b0 00 0e eb bc cc e4 5b bd 54 4e 17 3d d0 25 41 bd
       -0.0286932 -0.053684995 0.036939934 -0.0471552
0003c0 a8 65 7f 3c f6 c1 51 bd 3a fe 5c bd e8 5b e7 3c
       0.015588202 -0.051210366 -0.053953387 0.028242067
0003d0 a0 98 15 3d a8 ad 6d bc a0 cb 91 bc 24 cb ce 3c
       0.036522508 -0.014506735 -0.017797291 0.02524335
0003e0 14 cb 33 bd 28 a8 3b bc c8 d3 39 3c 5a c1 23 3d
       -0.043894842 -0.011453666 0.0113419965 0.039979316
0003f0 68 8a bc bc 80 71 b0 ba 14 75 0a bd 28 8f aa bc
       -0.023015216 -0.001346156 -0.03380306 -0.020820215
