models/2019-09-20/lstm_model.onnx (onnx, 468420 bytes, 6 tensors)

fc.weight f4 [7, 256]
0.047193207 0.03184995 0.057854816 -0.02772486 0.062279332 0.06923042 -0.03883164 -0.026459381
0.07741251 -0.013061658 0.00865386 -0.057397414 0.05158139 0.028184462 0.098404825 0.07279788
-0.043026723 -0.0033795468 -0.09027466 -0.04980837 0.08320959 -0.0750738 0.05027001 -0.011351248
-0.08643347 0.028764926 -0.09120379 0.060624003 -0.06357221 -0.029931188 0.017712297 0.11284994
-0.006052417 0.051362954 0.08009932 0.0630525 -0.019785337 -0.024830919 0.08203857 0.10376266
0.0056548216 0.0052327747 0.0040815207 -0.039516076 0.09398444 0.02874327 -0.10647736 -0.0073962105
-0.046016715 0.01247056 -0.0016527607 -0.10453803 0.021955663 0.058639493 0.07865904 0.038857736
0.031497847 -0.06512081 -0.10118941 -0.07970545 0.037917305 0.009728726 -0.00064538035 -0.014651437
0.052699734 0.0157863 0.010947617 -0.07625164 0.10623655 -0.021174148 -0.050993763 0.012985263
-0.02394257 0.030977665 0.06723925 -0.058433324 -0.0034358567 -0.02094783 0.012317775 -0.07436201
0.0066129295 -0.042016122 0.016080368 0.03543737 0.024855455 -0.033197034 -0.10389397 0.07719752
0.009240669 0.068786785 -0.057588927 0.009361588 0.012592566 0.040834174 0.04389331 -0.0536277
-0.010152562 0.059569832 0.086951494 0.015824478 0.07847754 -0.059748776 -0.00085144 -0.04526778
0.015763137 0.041452993 -0.032600988 -0.07047166 -0.0026151591 0.06008245 0.10282945 -0.012363836
-0.07492677 -0.06202128 -0.0023396148 -0.032626502 -0.01619665 -0.033729706 0.04850839 0.03136188
-0.1032268 -0.07535285 -0.090181515 -0.068802334 0.074495725 0.06968488 0.022265242 -0.091403134
0.024729852 0.027017629 -0.0325364 0.038305853 0.02805606 0.066943474 -0.017815474 0.012262756
-0.0275524 -0.01803725 0.0015114241 -0.061070845 -0.027079029 0.00641499 0.031127408 -0.003939238
-0.03325334 -0.09062819 0.087402396 0.028689507 0.033482134 0.033745423 -0.04930715 -0.09655007
0.027314207 0.021674015 0.036329757 0.107035406 -0.026512466 0.044364903 0.07988445 0.022099312
-0.023185506 0.04915042 -0.035720523 0.039791565 -0.02747514 -0.0898145 0.020326504 -0.028791863
-0.009497888 -0.07790056 0.10600607 0.0043629254 0.0144531615 0.03802206 -0.004549231 -0.0439157
0.04590309 0.06570483 0.018849665 -0.0028319315 0.09449032 0.034208037 0.015877644 0.082926966
0.09599236 0.084653795 0.004122808 0.06978237 -0.07154459 0.056894638 -0.044805966 -0.027219243
0.00273016 -0.008898631 -0.0446376 0.034383986 -0.004280392 0.003936917 0.030614292 -0.04028302
0.053250413 -0.034952063 -0.042972278 -0.004525511 0.04204889 0.07969146 -0.015580528 -0.01398547
-0.09551779 0.053380497 -0.09791436 0.06411439 0.07275368 -0.008927558 0.113561854 0.018386533
-0.020196166 0.058143098 -0.01671394 0.018502858 0.029078692 -0.050325688 -0.016200768 -0.012631324
-0.09265234 -0.057031058 0.073346205 -0.06429465 -0.010990386 -0.04006714 0.08452137 0.022716478
0.00089182536 0.054872245 -0.02510468 0.03787925 0.007235503 0.08491451 0.08423346 0.08041114
0.04145613 0.044070955 -0.045170315 0.085188776 0.03849645 0.101077795 -0.013318097 0.044577524
-0.016000995 -0.035432532 -0.003372522 0.089524396 -0.0141151855 -0.108705595 -0.11013804 -0.07430699
00000000: aa4d 413d 1875 023d 2cf9 6c3d 3f1f e3bc
00000010: 9d18 7f3d aec8 8d3d ed0d 1fbd 58c1 d8bc
00000020: 738a 9e3d 9000 56bc ebc8 0d3c 8d19 6bbd
00000030: 0247 533d 1ae3 e63c 7888 c93d 0e17 953d
00000040: ca3c 30bd 637b 5dbb ece1 b8bd dd03 4cbd
00000050: ca69 aa3d 4bc0 99bd ede7 4d3d 96fa 39bc
00000060: 0804 b1bd 6ca4 eb3c 0dc9 babd e050 783d
00000070: 2632 82bd 4032 f5bc 6119 913c df1d e73d
00000080: 5b53 c6bb f661 523d 1d0b a43d ab21 813d
00000090: dc14 a2bc 366a cbbc d603 a83d 8481 d43d
000000a0: 154c b93b b277 ab3b 47be 853b 9cdb 21bd
000000b0: ea7a c03d 0277 eb3c cd10 dabd e95b f2bb
000000c0: 067c 3cbd 5251 4c3c 72a1 d8ba 0918 d6bd
000000d0: 5ddc b33c f72f 703d fe17 a13d 4a29 1f3d
000000e0: e303 013d 0f5e 85bd 653c cfbd 9c3c a3bd
000000f0: 2d4f 1b3d 3c65 1f3c be2e 29ba 950c 70bc
00000100: addb 573d 4552 813c a25d 333c d229 9cbd
00000110: 8c92 d93d 6875 adbc d6de 50bd 24c0 543c
00000120: 3523 c4bc dfc4 fd3c bbb4 893d c857 6fbd
00000130: 1c2c 61bb c99a abbc 7ed0 493c 1c4b 98bd
00000140: 46b1 d83b 1919 2cbd faba 833c c726 113d
00000150: ab9d cb3c 9df9 07bd 5dc6 d4bd bc19 9e3d
00000160: 2d66 173c 16e0 8c3d 5ee2 6bbd 5961 193c
00000170: 0d51 4e3c bc41 273d 79c9 333d b8a8 5bbd
00000180: ee56 26bc 7fff 733d a013 b23d 56a2 813c
00000190: d5b8 a03d 22bb 74bd 2c33 5fba b56a 39bd
000001a0: b221 813c 9dca 293d 9d88 05bd 7253 90bd
000001b0: 1763 2bbb 0419 763d 3f98 d23d b091 4abc
000001c0: 3573 99bd 070a 7ebd 3954 19bb 5ea3 05bd
000001d0: d6ae 84bc 2928 0abd bcb0 463d 5175 003d
000001e0: 9368 d3bd 9852 9abd 16b1 b8bd 3de8 8cbd
000001f0: 3791 983d f2b6 8e3d 9965 b63c 9131 bbbd
00000200: 4296 ca3c 1354 dd3c e344 05bd 99e6 1c3d
00000210: d3d5 e53c a919 893d c2f1 91bc bae9 483c
00000220: 92b5 e1bc dbc2 93bc fa1a c63a 6c25 7abd
00000230: d7d4 ddbc d634 d23b e8fe fe3c b914 81bb
00000240: a734 08bd 469b b9bd 0700 b33d 4206 eb3c
00000250: 9024 093d a438 0a3d 4bf6 49bd 0bbc c5bd
00000260: 0bc2 df3c b48d b13c 83ce 143d 6135 db3d
00000270: ac30 d9bc f9b7 353d 759a a33d 9e09 b53c
00000280: 88ef bdbc f351 493d af4f 12bd 7bfc 223d
00000290: 8b13 e1bc aaf0 b7bd c583 a63c eadc ebbc
000002a0: 089d 1bbc 548a 9fbd b619 d93d dff6 8e3b
000002b0: f4cc 6c3c 05bd 1b3d b711 95bb f3e0 33bd
000002c0: e104 3c3d 4190 863d 9d6a 9a3c ed97 39bb
000002d0: 2484 c13d ba1d 0c3d d511 823c 9dd5 a93d
000002e0: a497 c43d f85e ad3d 9f18 873b 0fea 8e3d
000002f0: f885 92bd 5a0a 693d 7686 37bd e4fa debc
00000300: 7cec 323b 90cb 11bc ebd5 36bd 39d6 0c3d
00000310: 8842 8cbb 4101 813b d3ca fa3c cfff 24bd
00000320: 1b1d 5a3d e529 0fbd b303 30bd bd4a 94bb
00000330: 753b 2c3d 4735 a33d 7945 7fbc 5023 65bc
00000340: d59e c3bd 82a5 5a3d 5387 c8bd 684e 833d
00000350: e2ff 943d e444 12bc 1e93 e83d 5b9f 963c
00000360: 6e72 a5bc 7527 6e3d aceb 88bc 4e93 973c
00000370: 7036 ee3c 4f22 4ebd 79b7 84bc 9df3 4ebc
00000380: 83c0 bdbd 6699 69bd 8936 963d eaac 83bd
00000390: 0511 34bc 711d 24bd 8a19 ad3d e817 ba3c
000003a0: 63c9 693a b8c1 603d 54a8 cdbc 4627 1b3d
000003b0: cc17 ed3b a9e7 ad3d 9882 ac3d 99ae a43d
000003c0: e7cd 293d bf83 343d 8204 39bd 7477 ae3d
000003d0: 74ae 1d3d e001 cf3d 2634 5abc ec96 363d
000003e0: 8514 83bc b421 11bd 8805 5dbb 9158 b73d
000003f0: 6143 67bc 0aa1 debd 0d90 e1bd 432e 98bd

fc.bias f4 [7]
0.04707173 0.058075577 0.09558538 0.07665981 0.08201721 0.101006016 0.1053077
00000000: 49ce 403d a8e0 6d3d 45c2 c33d d2ff 9c3d
00000010: a4f8 a73d 3edc ce3d 90ab d73d

onnx::GRU_197 f4 [2, 768]
-0.12287062 -0.15515523 -0.11983149 -0.12453738 -0.086026825 -0.14019054 -0.061174665 -0.20374735
-0.109918766 -0.088960685 -0.21431696 -0.0983471 -0.15896966 -0.087817185 -0.112720504 -0.1589636
-0.078714386 -0.22046869 -0.23282807 -0.17497957 -0.20919207 -0.0825243 -0.15534042 -0.117365114
-0.20125435 -0.0911549 -0.11556013 -0.22795497 -0.21221694 -0.19849093 -0.10845302 -0.06602304
-0.21001369 -0.10939104 -0.23623672 -0.18022181 -0.07396147 -0.1933789 -0.082047105 -0.17161867
-0.07916998 -0.107590795 -0.11291264 -0.23320499 -0.12842226 -0.23404084 -0.16918601 -0.110824004
-0.12698478 -0.20009066 -0.058277167 -0.13965002 -0.06740407 -0.21220098 -0.13934438 -0.1867846
-0.18589422 -0.17968732 -0.16860849 -0.06642832 -0.13287075 -0.17740126 -0.18241502 -0.06538627
-0.11549291 -0.23382734 -0.16403058 -0.16994475 -0.19084516 -0.14302553 -0.15282515 -0.11814705
-0.07240798 -0.18590829 -0.10528338 -0.23027076 -0.16511539 -0.08176159 -0.11958049 -0.09684974
-0.14017294 -0.067140535 -0.18558727 -0.20869957 -0.07196143 -0.2030313 -0.1705201 -0.107976876
-0.18103886 -0.13513409 -0.099464715 -0.11073814 -0.15440606 -0.08940089 -0.12843166 -0.07917322
-0.13319108 -0.15366302 -0.08160047 -0.19734806 -0.21357034 -0.11233355 -0.23764145 -0.08665247
-0.14486896 -0.10436531 -0.19472128 -0.07901895 -0.17926978 -0.11365917 -0.132006 -0.063283004
-0.19739367 -0.18658239 -0.21738493 -0.04756383 -0.15818857 -0.15968409 -0.11246704 -0.15992336
-0.19452468 -0.20938729 -0.12564065 -0.23558323 -0.14382164 -0.09320707 -0.15521193 -0.075509176
0.04881403 0.15590663 0.17377044 0.13024037 0.104070134 0.09054458 0.035301033 0.05582786
0.113376305 0.02568491 -0.11259847 0.15127134 0.13293165 0.021933407 0.094931535 0.16000678
0.013872209 0.1626025 -0.06395995 0.047077525 0.057056792 0.05448865 0.039993536 0.0989321
-0.010127826 -0.054821163 0.14919668 -0.02830189 0.19559859 0.15923083 0.09336975 0.03228848
0.12708634 0.15602121 0.21235777 0.21055911 0.19615263 0.04036033 0.1716367 0.115312904
0.06366202 -0.019771019 0.08355204 0.051559687 0.12861598 0.22046015 -0.027230386 0.035973568
-0.07302641 0.05623194 -0.06428694 0.15449977 0.01699634 -0.03845672 0.093185805 0.09231117
0.14653414 -0.10596332 0.071868666 0.0754148 0.07326791 0.0076024327 0.1451631 -0.08754693
-0.016789969 0.09087799 0.16814058 0.15679172 0.121743694 -0.03567634 0.1466233 -0.07671855
0.15188754 0.027877841 0.031831533 0.19018608 0.11179529 0.0904018 0.18349558 -0.0718194
0.025161784 0.034892336 0.05531701 0.15739346 0.084730506 0.08074499 0.14138736 0.03167587
0.08250042 0.13682592 0.015127616 0.16495709 0.08257595 0.07535306 0.03513549 0.03906672
0.12135642 0.16223137 0.20323305 0.20124166 0.17487748 0.09308104 0.008012458 0.11955007
0.010098219 0.09038615 0.1008105 0.18837596 0.065766126 0.0810286 0.04496618 0.14787677
-0.026833097 0.0416525 0.01712938 0.1644049 -0.055801593 0.047909763 0.14938506 0.04864545
-0.04680598 0.09082779 0.07141617 -0.053099636 0.08653558 0.025986364 -0.09245096 0.14688174
00000000: 97a3 fbbd 03e1 1ebe 366a f5bd 740d ffbd
00000010: d52e b0bd 1c8e 0fbe 4992 7abd 25a3 50be
00000020: 171d e1bd 0531 b6bd e875 5bbe 346a c9bd
00000030: f1c8 22be 7fd9 b3bd 02da e6bd 5bc7 22be
00000040: 0235 a1bd 8bc2 61be 7b6a 6ebe d82d 33be
00000050: 7236 56be 8002 a9bd 8f11 1fbe 1f5d f0bd
00000060: 9f15 4ebe 6caf babd caaa ecbd 076d 69be
00000070: 664f 59be 3541 4bbe 9e1c debd 1637 87bd
00000080: d40d 57be 6908 e0bd 0ae8 71be 118c 38be
00000090: 1c79 97bd 1e05 46be 5008 a8bd cebc 2fbe
000000a0: df23 a2bd 9058 dcbd be3e e7bd 4acd 6ebe
000000b0: 2081 03be 67a8 6fbe 193f 2dbe b2f7 e2bd
000000c0: 4c08 02be 91e4 4cbe 0ab4 6ebd 6a00 0fbe
000000d0: 250b 8abd 374b 59be 4bb0 0ebe 7644 3fbe
000000e0: 0e5b 3ebe f4ff 37be b4a7 2cbe 920b 88bd
000000f0: 450f 08be ada8 35be 01cb 3abe 3de9 85bd
00000100: 8c87 ecbd 6f70 6fbe a2f7 27be ff05 2ebe
00000110: ea6c 43be 4975 12be 327e 1cbe 15f7 f1bd
00000120: a34a 94bd be5e 3ebe d09e d7bd 19cc 6bbe
00000130: 0214 29be 9f72 a7bd 9ee6 f4bd 2859 c6bd
00000140: 7f89 0fbe fa80 89bd 970a 3ebe 57b5 55be
00000150: 8460 93bd 70e7 4fbe d29c 2ebe fb22 ddbd
00000160: 4062 39be 9760 0abe 28b4 cbbd aeca e2bd
00000170: 9f1c 1ebe d017 b7bd 9783 03be 9225 a2bd
00000180: 3e63 08be d759 1dbe 261e a7bd 9c15 4abe
00000190: 2fb2 5abe 220f e6bd 4858 73be da76 b1bd
000001a0: 8758 14be 7bbd d5bd 0465 47be b0d4 a1bd
000001b0: 7f92 37be 24c6 e8bd 952c 07be 859a 81bd
000001c0: 9121 4abe 740f 3fbe 289a 5ebe 4ad2 42bd
000001d0: 2ffc 21be 3a84 23be 1f55 e6bd f3c2 23be
000001e0: 7a31 47be 9f69 56be f1a7 00be bb3c 71be
000001f0: fb45 13be 59e3 bebd e0ef 1ebe 8ea4 9abd
00000200: 38f1 473d fda5 1f3e e1f0 313e bb5d 053e
00000210: b922 d53d 706f b93d d197 103d c1ab 643d
00000220: d631 e83d 2969 d23c 079a e6bd e0e6 1a3e
00000230: 3c1f 083e b0ad b33c 776b c23d d1d8 233e
00000240: 4348 633c 4581 263e 6ffd 82bd 5dd4 403d
00000250: 62b4 693d 7e2f 5f3d 43d0 233d ea9c ca3d
00000260: 2eef 25bc 288c 60bd 04c7 183e 5dd9 e7bc
00000270: ff4a 483e 680d 233e a438 bf3d ed40 043d
00000280: ec22 023e 06c4 1f3e 5174 593e cf9c 573e
00000290: 3cdc 483e e050 253d 88c1 2f3e 2c29 ec3d
000002a0: 3c61 823d d5f6 a1bc 551d ab3d 4030 533d
000002b0: e8b3 033e 4ec0 613e 4212 dfbc 0559 133d
000002c0: df8e 95bd 7653 663d dfa8 83bd 3035 1e3e
000002d0: e93b 8b3c cb84 1dbd 33d8 be3d a40d bd3d
000002e0: 0c0d 163e 4c03 d9bd e12f 933d 1373 9a3d
000002f0: 7c0d 963d d41d f93b a3a5 143e ce4b b3bd
00000300: 1e8b 89bc 3d1e ba3d 0b2d 2c3e 028e 203e
00000310: c254 f93d 5b21 12bd 6b24 163e 9d1e 9dbd
00000320: 6888 1b3e 1260 e43c c861 023d 24c0 423e
00000330: eef4 e43d 9424 b93d 44e6 3b3e 0d16 93bd
00000340: 1620 ce3c 44eb 0e3d 1794 623d c02b 213e
00000350: 3087 ad3d a15d a53d d9c7 103e 8fbe 013d
00000360: fbf5 a83d 181c 0c3e d2d9 773c 83ea 283e
00000370: 941d a93d b552 9a3d 3bea 0f3d 6d04 203d
00000380: b789 f83d fb1f 263e 531c 503e 4b12 4e3e
00000390: 1513 333e 46a1 be3d af46 033c abd6 f43d
000003a0: 0073 253c 601c b93d bc75 ce3d a1e5 403e
000003b0: 64b0 863d 53f2 a53d 752e 383d 026d 173e
000003c0: 15d1 dbbc d09b 2a3d ea52 8c3c c259 283e
000003d0: 3690 64bd 073d 443d 66f8 183e 7440 473d
000003e0: a1b7 3fbd ec03 ba3d a442 923d 017f 59bd
000003f0: 9139 b13d 5be1 d43c ee56 bdbd 2b68 163e

onnx::GRU_198 f4 [2, 384, 19]
-0.17343208 -0.098371014 -0.2638821 -0.077581406 -0.13551989 -0.13228744 -0.04228218 -0.17647028
-0.14833927 -0.12636903 -0.09479211 -0.29825246 -0.10726287 -0.24805537 -0.13084704 -0.08547528
-0.14143379 -0.11458189 -0.14782953 -0.041046392 -0.10555898 -0.20277125 -0.19657584 -0.18766862
-0.07105747 -0.056725483 -0.08599244 -0.18824081 -0.08951568 -0.124308944 -0.15251477 -0.056821633
-0.1921442 -0.17100257 -0.06808287 -0.18933198 -0.0657445 -0.2240354 -0.12224384 -0.21894836
-0.24040817 -0.09635519 -0.2015906 -0.21166976 -0.038569763 -0.06762413 -0.11928312 -0.19714184
-0.13574018 -0.22937766 -0.06748115 -0.21705168 -0.14873527 -0.19418456 -0.1634819 -0.05673398
-0.068055585 -0.112153746 -0.18532161 -0.13678563 -0.11826334 -0.16788211 -0.17256585 -0.13226813
-0.09553673 -0.10198116 -0.08908277 -0.11734059 -0.14857651 -0.17270407 -0.24962017 -0.16756462
-0.2344605 -0.20531887 -0.21261844 -0.14484866 -0.10608621 -0.16876131 -0.28275535 -0.04539071
-0.15640996 -0.09315706 -0.03999263 -0.18120599 -0.13197702 -0.09258362 -0.011914056 -0.23350331
-0.059643097 -0.27309957 -0.1826818 -0.06774219 -0.14237887 -0.02914946 -0.12103525 -0.15636313
-0.08329753 -0.14312063 -0.14412886 -0.2022966 -0.16413121 -0.17796323 -0.07883148 -0.1427754
-0.13669373 -0.07849841 -0.19113679 -0.20485507 -0.13264756 -0.095704086 -0.21391705 -0.08341156
-0.105905704 -0.16996826 -0.10586286 -0.16910851 -0.28290617 -0.11499092 -0.105200745 -0.19342607
-0.012215496 -0.11803257 -0.10364947 -0.16685231 -0.14270183 -0.16051725 -0.085873745 -0.1810224
-0.18597859 -0.04995301 -0.024434142 -0.040314324 -0.1605842 -0.07189781 -0.1647027 -0.111808136
-0.15018089 -0.15690511 -0.1623515 -0.08835471 -0.12754188 -0.06586829 -0.09755713 -0.21389912
-0.19256091 -0.2226115 -0.24813491 -0.13923244 -0.12366162 -0.13424756 -0.01968016 -0.19466789
-0.13892606 -0.17588194 -0.19868 -0.16124631 -0.07574296 -0.19759825 -0.17738971 -0.12366716
-0.0775961 -0.12303393 -0.09077273 -0.18210517 -0.06976641 -0.13376886 -0.086408004 -0.1590241
-0.20739512 -0.15589277 -0.11617765 -0.030471766 -0.18994604 -0.13643856 -0.1272646 -0.13910927
-0.1464842 -0.1267788 -0.036402766 -0.120328724 -0.089028396 -0.19112487 -0.25511217 -0.11968513
-0.12883769 -0.09666258 -0.12054755 -0.21404141 -0.104217626 -0.19107638 -0.048217326 -0.14466956
-0.24032563 -0.11035406 -0.25572366 -0.1598554 -0.022232587 -0.12307172 -0.07103866 -0.10759042
-0.12294127 -0.098865286 -0.1629103 -0.20785372 -0.080942914 -0.082067676 -0.04775392 0.076446
-0.15257096 -0.13934101 -0.08228125 -0.19057077 -0.17922121 -0.097729795 -0.19148932 -0.15886606
-0.08364377 -0.15301068 -0.19490418 -0.0917107 -0.20351441 -0.18540862 -0.27129844 -0.20609646
-0.12876832 -0.21101908 -0.13483334 -0.15439036 -0.111081816 -0.17108612 -0.29432225 -0.17752847
-0.13769162 -0.22006215 -0.1564181 -0.020258965 -0.08938762 -0.17146474 -0.08909337 -0.16083324
-0.18438256 -0.24950925 -0.1852703 -0.123045646 -0.09912708 -0.1348385 -0.047232248 -0.17260098
-0.085259095 -0.2767468 -0.16723256 -0.13343711 -0.2044347 -0.054421194 -0.19693783 -0.14520086
00000000: 2e98 31be be76 c9bd 8e1b 87be 00e3 9ebd
00000010: bac5 0abe 5c76 07be 1430 2dbd a0b4 34be
00000020: 40e6 17be e266 01be 5e22 c2bd 8cb4 98be
00000030: a3ac dbbd 3a02 7ebe c4fc 05be aa0d afbd
00000040: 05d4 10be e9a9 eabd a060 17be 4320 28bd
00000050: 4e2f d8bd 44a3 4fbe 2d4b 49be 342c 40be
00000060: 9486 91bd fb58 68bd ce1c b0bd 33c2 40be
00000070: ff53 b7bd b095 febd d52c 1cbe cdbd 68bd
00000080: 73c1 44be 4c1b 2fbe 086f 8bbd 3ee0 41be
00000090: 0da5 86bd 8969 65be fa5a fabd 0034 60be
000000a0: 8f2d 76be df55 c5bd c46d 4ebe f5bf 58be
000000b0: 54fb 1dbd 857e 8abd b54a f4bd 8ddf 49be
000000c0: 79ff 0abe fae1 6abe 8f33 8abd cc42 5ebe
000000d0: 0f4e 18be 51d8 46be cd67 27be e461 68bd
000000e0: ba60 8bbd ddb0 e5bd f3c4 3dbe 8811 0cbe
000000f0: 0d34 f2bd 4ae9 2bbe 1ab5 30be 4c71 07be
00000100: c3a8 c3bd 80db d0bd 0771 b6bd 4350 f0bd
00000110: 7124 18be 56d9 30be 6e9c 7fbe 0f96 2bbe
00000120: 6a16 70be 1c3f 52be a6b8 59be 3553 14be
00000130: ba43 d9bd c4cf 2cbe 4fc5 90be 9ceb 39bd
00000140: ef29 20be 21c9 bebd 50cf 23bd 108e 39be
00000150: fc24 07be 7b9c bdbd 2c33 43bc 7e1b 6fbe
00000160: 524c 74bd b5d3 8bbe f010 3bbe 6bbc 8abd
00000170: c4cb 11be d9ca eebc 54e1 f7bd a81d 20be
00000180: e597 aabd 378e 12be 8496 13be d726 4fbe
00000190: 0312 28be fe3b 36be 6672 a1bd b733 12be
000001a0: 71f9 0bbe c6c3 a0bd 5db9 43be 87c5 51be
000001b0: c3d4 07be 8100 c4bd 120d 5bbe aed3 aabd
000001c0: 17e5 d8bd 290c 2ebe a1ce d8bd c82a 2dbe
000001d0: 14d9 90be 5c80 ebbd 7d73 d7bd 7c11 46be
000001e0: 8123 48bc 0fbb f1bd 2c46 d4bd 55db 2abe
000001f0: 6e20 12be a25e 24be 93de afbd f05d 39be
00000200: 2c71 3ebe 879b 4cbd 1c2a c8bc a220 25bd
00000210: 2f70 24be 293f 93bd d3a7 28be aafb e4bd
00000220: 05c9 19be bcab 20be 793f 26be 50f3 b4bd
00000230: 579a 02be f4e5 86bd 08cc c7bd 5f08 5bbe
00000240: b02e 45be 45f4 63be 1417 7ebe f392 0ebe
00000250: 4e42 fdbd 3178 09be 4938 a1bc 0557 47be
00000260: a242 0ebe 651a 34be c572 4bbe c11d 25be
00000270: 201f 9bbd 3257 4abe a6a5 35be 3545 fdbd
00000280: b4ea 9ebd 37f9 fbbd 0ee7 b9bd c779 3abe
00000290: b1e1 8ebd b4fa 08be aef6 b0bd 37d7 22be
000002a0: 635f 54be 5ba2 1fbe 8cee edbd ed9f f9bc
000002b0: 3781 42be 8db6 0bbe a751 02be a972 0ebe
000002c0: f4ff 15be 4dd2 01be 111b 15bd e86e f6bd
000002d0: 8554 b6bd 3db6 43be 109e 82be 7a1d f5bd
000002e0: 07ee 03be 08f7 c5bd a2e1 f6bd ac2d 5bbe
000002f0: 0d70 d5bd 87a9 43be 887f 45bd 4224 14be
00000300: ec17 76be 4f01 e2bd 36ee 82be 22b1 23be
00000310: 1d21 b6bc 070d fcbd b87c 91bd 5e58 dcbd
00000320: a2c8 fbbd e279 cabd f5d1 26be 9bd7 54be
00000330: 66c5 a5bd 1913 a8bd 9d99 43bd b88f 9c3d
00000340: 903b 1cbe 69af 0ebe 1283 a8bd fc24 43be
00000350: c485 37be 8f26 c8bd c715 44be c9ad 22be
00000360: 6d4d abbd d5ae 1cbe f694 47be d2d2 bbbd
00000370: 1566 50be c2db 3dbe a1e7 8abe f30a 53be
00000380: d8db 03be 6315 58be c011 0abe 8218 1ebe
00000390: dd7e e3bd 3331 2fbe 68b1 96be 06ca 35be
000003a0: 08ff 0cbe f957 61be 112c 20be 21f6 a5bc
000003b0: db10 b7bd 7494 2fbe 9676 b6bd 78b1 24be
000003c0: c8ce 3cbe 5a7f 7fbe 7fb7 3dbe 5bff fbbd
000003d0: 2303 cbbd 1b13 0abe 9a76 41bd 50be 30be
000003e0: 529c aebd c2b1 8dbe 033f 2bbe bda3 08be
000003f0: 5457 51be c2e8 5ebd 12aa 49be 89af 14be

onnx::GRU_199 f4 [2, 384, 128]
-0.062506735 0.03157112 0.08397978 -0.038760096 -0.08768056 -0.058540814 0.03355376 0.06142102
-0.01727769 0.0024660754 -0.06423813 -0.040439542 -0.058640562 0.057541046 -0.017416067 -0.036737163
-0.0095761325 0.039863415 -0.049002983 -0.012522598 0.037488084 -0.010448382 0.028639447 -0.059382062
-0.005014137 -0.042880077 0.081379086 -0.088283956 -0.044469833 -0.034898084 0.039015293 -0.039441116
-0.055726487 -0.005154591 -0.028312283 0.08584143 0.054369487 0.06913226 -0.07405581 -0.022797482
-0.06774048 0.07975937 0.05241812 -0.069221295 -0.06533237 0.043671206 -0.044850864 0.02823805
-0.07762001 -0.070544474 -0.030090583 -0.06914146 0.05434991 -0.06750283 -0.02892397 -0.086475596
0.081101 0.014424548 -0.053704895 -0.019360987 0.02650079 -0.030247116 0.07054306 -0.020328436
0.08273295 0.048235476 0.062363584 0.0023296564 -0.025487464 0.03760466 0.055531118 0.012089001
0.017639635 0.076000206 -0.047987916 -0.019063873 0.0067254566 -0.01037452 -0.050800607 0.02834345
0.016984768 -0.05349303 -0.004988385 0.010134157 -0.008980187 0.02721071 -0.08124962 -0.012197161
0.06521763 0.002443927 -0.010450164 -0.024167003 -0.013645801 -0.010397595 -0.04307337 -0.063142724
-0.0075582257 0.08764497 0.066655755 0.004288463 0.038279664 0.01943837 -0.04534379 0.031909905
0.040382065 -0.0058571473 0.052705035 0.03517011 -0.04189852 0.025756318 0.040344257 0.06982633
-0.06024772 -0.081510626 -0.034629166 0.0074607716 -0.069728136 -0.021846166 -0.06465637 -0.06690144
0.026828565 0.04315814 0.011909108 0.061314266 -0.021182543 0.011432881 0.06518713 0.07321524
0.025304694 -0.07546357 0.021378757 0.06369385 0.03010915 -0.08705799 -0.028886892 -0.045284785
-0.079551965 -0.073537916 0.05713255 -0.056626007 -0.05327687 -0.03846528 -0.009401571 0.0525461
-0.08707881 -0.03952527 -0.014411704 0.024525387 -0.049043495 -0.024030942 -0.04752703 -0.019840103
0.045693528 -0.03737275 -0.011878847 -0.057899002 0.024689402 -0.056767188 0.020487087 -0.08799726
0.03451519 0.031816877 -0.06704562 -0.011251649 -0.053030595 -0.042209595 0.04095058 -0.050471388
0.0499015 0.04467309 0.079248644 -0.03307552 -0.078391284 0.057215326 -0.020797709 -0.034794603
-0.041886475 0.08219839 -0.0687733 0.019197563 0.017565815 -0.034459684 0.05028709 0.051138952
0.05946135 0.02381692 0.023483612 0.02503468 -0.028175706 -0.07062368 0.0025879745 0.008171136
0.054609872 0.014890576 0.0024712489 -0.03131835 0.0739913 0.07815114 0.086935595 -0.005656181
-0.043385405 -0.07155849 -0.086982675 -0.07074102 -0.028263677 0.06886588 -0.08147774 -0.026309105
0.0354983 0.041517206 0.0038853283 -0.019859847 0.0042016087 -0.055386417 0.043538157 0.05164992
0.014824005 0.06203585 0.052044824 -0.0827944 -0.03474838 -0.07525422 0.03219172 -0.07929902
0.02099266 -0.071835965 0.04509681 -0.060534462 -0.07958504 -0.035708137 0.029218923 -0.037771784
0.032998662 0.002822922 -0.04807519 -0.0048779496 0.056077212 -0.054144558 0.07717864 0.024561951
0.045945734 -0.017022563 0.065815546 -0.06593897 -0.035674885 0.055469636 -0.047516663 0.07391067
-0.032043077 -0.08371422 0.08339908 0.07214372 0.036440145 -0.07570945 0.019110888 -0.020994283
00000000: 8803 80bd b850 013d 97fd ab3d e8c2 1ebd
00000010: de91 b3bd 7ec8 6fbd ab6f 093d 9c94 7b3d
00000020: f189 8dbc e19d 213b 488f 83bd efa3 25bd
00000030: 1631 70bd 29b0 6b3d 24ac 8ebc b579 16bd
00000040: 36e5 1cbc d247 233d 5ab7 48bd 952b 4dbc
00000050: 1b8d 193d b12f 2bbc 469d ea3c 9b3a 73bd
00000060: a14d a4bb 05a3 2fbd 14aa a63d 38ce b4bd
00000070: 0026 36bd 4bf1 0ebd 80ce 1f3d 028d 21bd
00000080: 7541 64bd d8e7 a8bb 29ef e7bc a2cd af3d
00000090: 8ab2 5e3d 3795 8d3d 93aa 97bd c9c1 babc
000000a0: 85bb 8abd e158 a33d 62b4 563d e5c3 8dbd
000000b0: facc 85bd 94e0 323d 8ab5 37bd 7c53 e73c
000000c0: 3df7 9ebd 9f79 90bd 8780 f6bc 0a9a 8dbd
000000d0: 039e 5e3d ec3e 8abd f6f1 ecbc 1e1a b1bd
000000e0: 4818 a63d f054 6c3c aaf9 5bbd ef9a 9ebc
000000f0: 2f18 d93c cdc8 f7bc e178 903d d287 a6bc
00000100: e56f a93d 9092 453d f570 7f3d 26ad 183b
00000110: 16cb d0bc 5807 1a3d 9974 633d f210 463c
00000120: ff80 903c ffa5 9b3d fa8e 44bd d72b 9cbc
00000130: 3861 dc3b e4f9 29bc 4c14 50bd 8630 e83c
00000140: a423 8b3c 821b 5bbd 9b75 a3bb bc09 263c
00000150: a221 13bc ffe8 de3c 3366 a6bd 9ad6 47bc
00000160: d290 853d 4b2a 203b 2a37 2bbc e1f9 c5bc
00000170: a392 5fbc ad5a 2abc b46d 30bd f950 81bd
00000180: feaa f7bb 357f b33d d082 883d 3c86 8c3b
00000190: 23cb 1c3d 373d 9f3c 69ba 39bd f6b3 023d
000001a0: aa67 253d 50ed bfbb 3ce1 573d 890e 103d
000001b0: c89d 2bbd eafe d23c 0540 253d 1b01 8f3d
000001c0: 50c6 76bd 0bef a6bd 50d7 0dbd 7d79 f43b
000001d0: a0cd 8ebd bbf6 b2bc 8f6a 84bd 9f03 89bd
000001e0: 94c7 db3c 97c6 303d 6b1e 433c ab24 7b3d
000001f0: 0387 adbc fa50 3b3c d480 853d dff1 953d
00000200: ca4b cf3c a58c 9abd 8122 af3c ec71 823d
00000210: 77a7 f63c 764b b2bd 34a4 ecbc 8a7c 39bd
00000220: 24ec a2bd 0c9b 96bd d203 6a3d acf0 67bd
00000230: d938 5abd c58d 1dbd 0c09 1abc 943a 573d
00000240: 6056 b2bd 40e5 21bd 111f 6cbc 77e9 c83c
00000250: d5e1 48bd 8adc c4bc b4ab 42bd b687 a2bc
00000260: 2329 3b3d 2b14 19bd 7f9f 42bc 8127 6dbd
00000270: 6e41 ca3c b684 68bd 89d4 a73c e837 b4bd
00000280: cd5f 0d3d 6a52 023d 374f 89bd d658 38bc
00000290: 9c36 59bd f8e3 2cbd ccbb 273d 16bb 4ebd
000002a0: 8465 4c3d 21fb 363d 1d4d a23d 327a 07bd
000002b0: 9c8b a0bd 9e5a 6a3d f55f aabc c984 0ebd
000002c0: 2791 2bbd a157 a83d 04d9 8cbd 3544 9d3c
000002d0: 2fe6 8f3c 9925 0dbd d6f9 4d3d 1477 513d
000002e0: bf8d 733d b41b c33c b460 c03c 8715 cd3c
000002f0: bdd0 e6bc 26a3 90bd 029b 293b 3ae0 053c
00000300: 9aae 5f3d 9af7 733c adf4 213b ac47 00bd
00000310: c088 973d b40d a03d 4a0b b23d 7c57 b9bb
00000320: e5b4 31bd 428d 92bd f923 b2bd abe0 90bd
00000330: 3a89 e7bc 8e09 8d3d cddd a6bd 3186 d7bc
00000340: aa66 113d f20d 2a3d fea0 7e3b 1eb1 a2bc
00000350: a6ad 893b dedc 62bd 1155 323d de8e 533d
00000360: 62e0 723c 4e19 7e3d f42c 553d 1c90 a9bd
00000370: 5154 0ebd e21e 9abd 77db 033d 8667 a2bd
00000380: cdf8 ab3c bc1e 93bd 6fb7 383d fcf2 77bd
00000390: 7bfd a2bd b242 12bd 865c ef3c 96b6 1abd
000003a0: 9b29 073d c600 393b 7eea 44bd 35d7 9fbb
000003b0: 38b1 653d afc6 5dbd d60f 9e3d 2536 c93c
000003c0: 9831 3c3d e772 8bbc 4dca 863d 030b 87bd
000003d0: d41f 12bd 2134 633d d5a0 42bd 7a5e 973d
000003e0: 9a3f 03bd 5c72 abbd 23cd aa3d 16c0 933d
000003f0: 4342 153d 8e0d 9bbd 708e 9c3c 34fc abbc

onnx::MatMul_200 f4 [256, 1]
-0.013942622 0.06006223 -0.026659042 0.02489084 0.059929475 0.009679653 -0.061085835 -0.00731425
0.044197895 0.00472147 -0.01027251 0.043735825 0.014144801 0.0058575645 0.055499256 0.03908606
0.00036798418 0.0055487975 -0.015897304 0.038885124 0.05181302 -0.062446952 -0.049605742 -0.017467782
0.030548021 -0.04055541 0.020984627 0.014891937 0.029905178 0.031621993 0.008161038 0.00063849986
-0.004113026 0.013663769 0.010361947 -0.033312283 0.04201415 0.048149608 0.044797435 0.011583179
0.034802653 -0.058660723 0.010333702 -0.02286484 -0.026396707 0.056769744 -0.0042407587 -0.062144443
-0.024133138 -0.0067845434 0.0420741 0.000984937 0.043649435 -0.03748112 -0.025447533 -0.045399815
0.014627911 0.025820956 -0.023746751 -0.0027693063 0.036648266 -0.05603054 0.051153712 -0.04955156
-0.022517093 0.03620618 -0.048059404 -0.016252495 -0.036247596 -0.0032918006 0.05816873 0.05903083
-0.00533095 0.04513987 -0.04557079 -0.018891253 0.060648136 0.029907204 -0.037704118 0.009645075
0.013783231 -0.055207975 -0.0003020391 0.060645677 -0.04295396 0.0015405789 -0.049959034 -0.021242872
-0.029126652 0.0019296631 -0.026095137 0.0020075962 -0.02257032 0.05046148 0.03476361 -0.02011162
0.053449646 -0.015539855 -0.023043849 0.0049436465 -0.0036487505 -0.032669388 -0.044271454 -0.04420776
0.011060104 -0.013201885 -0.030348912 -0.02563601 0.039837077 0.015792355 0.03792981 0.017827354
-0.044990487 -0.030517414 0.012127914 -0.015187085 -0.013255641 0.058673322 0.05196423 -0.04063607
-0.04524315 0.008985706 -0.015706435 -0.026374914 -0.023890153 -0.0433724 -0.044285484 0.022866383
0.02450905 -0.022522017 -0.0277358 0.04443919 0.04351362 -0.04147838 -0.012995534 0.048647307
0.053576738 0.03211841 0.05291973 -0.052484937 -0.0047568306 0.059869 -0.05313076 0.014837198
0.04886315 0.028705493 -0.02423305 -0.001280956 0.055846304 0.055822156 0.05127628 0.015615471
0.030686595 -0.048993215 -0.014795132 -0.050918616 0.05253783 0.012478478 -0.025104359 0.04466334
0.041931666 0.06203351 0.013397105 0.047798708 -0.059447244 0.06048523 0.019536734 0.03484244
-0.0048207566 0.042738587 -0.061716497 0.040800974 0.008189417 0.0118821785 0.01600825 -0.009715855
-0.027586281 -0.026467443 -0.0556658 0.009178244 0.019525096 0.059253648 0.0048096254 -0.036374077
0.061318435 -0.032674357 -0.056389615 -0.047267303 -0.028237768 0.0370486 0.049993962 0.03892307
-0.0105469 -0.015537612 0.005223796 0.04148858 0.061547756 0.059321433 0.012746163 0.03629408
-0.03388793 -0.031354427 -0.03645698 0.05734791 -0.030491821 -0.00077237934 -0.0066275448 -0.01368247
0.033598676 0.0037342012 -0.020309567 -0.019589886 -0.017949961 0.007422693 -0.0075241625 -0.023489892
0.037089415 0.040488295 -0.03618124 -0.04817155 -0.02507075 0.0036232919 0.0044784322 0.016248941
-0.035866573 0.048876338 0.016318306 -0.030623145 -0.031842433 -0.020160511 -0.02127795 -0.04224073
-0.053323008 -0.05094958 0.041822843 -0.056513473 0.044188485 0.0292212 0.059648447 0.00614018
0.026164882 -0.0445328 -0.036103256 -0.0567979 -0.0046927705 -0.026771963 0.0036809444 0.030217208
-0.027044065 -0.040739536 -0.057146586 -0.050793253 -0.033138372 0.01278799 0.002751559 -0.0023383573
00000000: 986f 64bc d003 763d 1064 dabc e0e7 cb3c
00000010: 9c78 753d 6897 1e3c 2435 7abd 60ac efbb
00000020: da08 353d 90b6 9a3b 084e 28bc 5624 333d
00000030: 98bf 673c d0f0 bf3b 3053 633d b418 203d
00000040: 00ee c039 b0d2 b53b 103b 82bc 0246 1f3d
00000050: e439 543d 60c8 7fbd 642f 4bbd 9818 8fbc
00000060: d83f fa3c 6e1d 26bd f4e7 ab3c 50fd 733c
00000070: b4fb f43c 1086 013d e0b5 053c 0061 273a
00000080: 90c6 86bb 00de 5f3c 28c5 293c 7672 08bd
00000090: 0817 2c3d 8638 453d 847d 373d 60c7 3d3c
000000a0: 3a8d 0e3d 3a46 70bd b04e 293c 0c4f bbbc
000000b0: e83d d8bc 6487 683d 10f6 8abb 2c8b 7ebd
000000c0: dcb2 c5bc e050 debb e455 2c3d 0019 813a
000000d0: c0c9 323d ce85 19bd 5877 d0bc 28f5 39bd
000000e0: e8a9 6f3c 7886 d33c 8c88 c2bc 407d 35bb
000000f0: 7e1c 163d 4880 65bd 8e86 513d 94f6 4abd
00000100: c475 b8bc ee4c 143d f0d9 44bd f423 85bc
00000110: 5c78 14bd 40bb 57bb 5642 6e3d 50ca 713d
00000120: 40af aebb 96e4 383d 70a8 3abd d4c1 9abc
00000130: 2e6a 783d f4ff f43c a26f 1abd 6006 1e3c
00000140: 10d3 613c c221 62bd 005b 9eb9 9a67 783d
00000150: 7ef0 2fbd 40ed c93a d8a1 4cbd 8805 aebc
00000160: 049b eebc c0ec fc3a 78c5 d5bc e091 033b
00000170: 64e5 b8bc b2b0 4e3d 4a64 0e3d 20c1 a4bc
00000180: 04ee 5a3d e09a 7ebc 74c6 bcbc 50fe a13b
00000190: e01f 6fbb 56d0 05bd fc55 35bd 3213 35bd
000001a0: 7035 353c b84c 58bc 489e f8bc 9c02 d2bc
000001b0: 342c 233d f85e 813c 4a5c 1b3d ac0a 923c
000001c0: f247 38bd a8ff f9bc 28b4 463c 40d3 78bc
000001d0: 302e 59bc 7053 703d 72d8 543d 0272 26bd
000001e0: e250 39bd c838 133c c8aa 80bc 3410 d8bc
000001f0: 48b5 c3bc 42a7 31bd b264 35bd 4852 bb3c
00000200: 34c7 c83c 1880 b8bc 3036 e3bc de05 363d
00000210: 563b 323d 3ce5 29bd 38eb 54bc 6642 473d
00000220: 4873 5b3d 988e 033d 5cc2 583d 72fa 56bd
00000230: 30df 9bbb 3239 753d a49f 59bd b817 733c
00000240: ba24 483d c827 eb3c 6484 c6bc c0e5 a7ba
00000250: 18bf 643d c6a5 643d 1407 523d 08d8 7f3c
00000260: 7462 fb3c 1cad 48bd 4867 72bc 0a90 50bd
00000270: e831 573d 8872 4c3c a8a7 cdbc e8f0 363d
00000280: 8ac0 2b3d da16 7e3d 887f 5b3c 94c8 433d
00000290: f47e 73bd 5cbf 773d 800b a03c f2b6 0e3d
000002a0: 70f7 9dbb a80e 2f3d 70ca 7cbd ec1e 273d
000002b0: e82c 063c 78ad 423c bc23 833c 402f 1fbc
000002c0: a0fc e1bc 40d2 d8bc d201 64bd 5860 163c
000002d0: 18f3 9f3c f4b3 723d 109a 9d3b fcfc 14bd
000002e0: 0a29 7b3d 8cd5 05bd ccf8 66bd 5c9b 41bd
000002f0: e452 e7bc 46c0 173d 78c6 4c3d cc6d 1f3d
00000300: e8cc 2cbc 7891 7ebc 602c ab3b eeef 293d
00000310: 8019 7c3d 08fb 723d 48d5 503c 1aa9 143d
00000320: 12ce 0abd 806d 00bd ea53 15bd a4e5 6a3d
00000330: fcc9 f9bc 8079 4aba e02b d9bb 702c 60bc
00000340: c49e 093d 80b9 743b 4060 a6bc f87a a0bc
00000350: cc0b 93bc 103a f33b 408d f6bb e06d c0bc
00000360: 12eb 173d 0ed7 253d c832 14bd 884f 45bd
00000370: 2c61 cdbc c074 6d3b d0bf 923b 801c 853c
00000380: d4e8 12bd 8e32 483d f8ad 853c 64dd fabc
00000390: 366d 02bd a827 a5bc 184f aebc 9e04 2dbd
000003a0: 3a69 5abd 82b0 50bd 6e4e 2b3d ac7a 67bd
000003b0: fcfe 343d 4c61 ef3c ee51 743d 9033 c93b
000003c0: bc57 d63c 0668 36bd 02e1 13bd eaa4 68bd
000003d0: d0c5 99bb e050 dbbc 003c 713b 148a f73c
000003e0: 848b ddbc 80de 26bd 8a12 6abd 960c 50bd
000003f0: 1abc 07bd b884 513c 8053 343b 203f 19bb
