models/2019-09-06/lstm_model.onnx (onnx, 468420 bytes, 6 tensors)

fc.weight f4 [7, 256]
0	0x3d516a7e	0.05112695
1	0x3d53da1f	0.05172169
2	0x3d484874	0.04889722
3	0xbc919151	-0.017769488
4	0x3d8278c4	0.063706905
5	0x3d7f11d7	0.062272873
6	0xbd86655d	-0.06562302
7	0xbd0013e9	-0.031268988
8	0x3d8c5e04	0.068538696
9	0xbc172bb8	-0.009226732
10	0xbb6bf6e1	-0.0036005306
11	0xbd63d398	-0.055621713
12	0x3d35a3d6	0.0443457
13	0x3cb96f80	0.022636175
14	0x3dc1dbca	0.094657496
15	0x3d830f03	0.06399348
16	0xbd1cf2a0	-0.038317323
17	0xbc373ccb	-0.011183928
18	0xbdbaad2f	-0.091150634
19	0xbd6d85df	-0.057988998
20	0x3db9db38	0.09075016
21	0xbd7f479a	-0.062324144
22	0x3d1ee751	0.03879482
23	0xbc609cc4	-0.013709251
24	0xbdad5204	-0.08462909
25	0x3ce541cd	0.027985478
26	0xbdbbcb87	-0.09169679
27	0x3d56779f	0.052360173
28	0xbd4fd842	-0.05074335
29	0xbd0646f9	-0.03278253
30	0x3c8ddb67	0.017316533
31	0x3de87803	0.113510154
32	0x3b5091fc	0.0031825295
33	0x3ce6a764	0.02815599
34	0x3d8a0da3	0.06740882
35	0x3d868494	0.06568256
36	0xbcb6f642	-0.022334222
37	0xbcf912ca	-0.030404467
38	0x3da2f616	0.079570934
39	0x3daddc9d	0.08489344
40	0x3c06069c	0.008180287
41	0x3c0042da	0.007828439
42	0x3c0eef61	0.008724065
43	0xbd214730	-0.03937453
44	0x3dc4591d	0.095873095
45	0x3c8f47eb	0.017490348
46	0xbdc47503	-0.09592631
47	0x3c52435f	0.012833445
48	0xbd1c8b30	-0.038218677
49	0x3ce5d895	0.028057376
50	0xbae93258	-0.0017791493
51	0xbdd1ac44	-0.10237935
52	0x3c79c45c	0.01524457
53	0x3d7082c1	0.058718447
54	0x3d865122	0.065584436
55	0x3d2af4c2	0.041737325
56	0x3d36d21f	0.04463398
57	0xbd6368c4	-0.055519834
58	0xbddf87a1	-0.10914541
59	0xbdb4242a	-0.0879596
60	0x3d3bb6da	0.045828678
61	0x3c54a5bc	0.012978967
62	0xbc3dbca8	-0.011580624
63	0xbc84441e	-0.016145762
64	0x3cb73b33	0.022367096
65	0x3c78dcee	0.0151893925
66	0x3c78bbbf	0.015181481
67	0xbd9af391	-0.07565988
68	0x3dc2b94e	0.09508
69	0xbd03ab9b	-0.032146078
70	0xbd2ba8ee	-0.04190915
71	0x3c091c22	0.008368524
72	0xbcb18bcc	-0.021673106
73	0x3d3977bf	0.045280214
74	0x3d80b7f3	0.062850855
75	0xbd35c3df	-0.04437625
76	0x3b2e17ab	0.00265644
77	0xbcd20150	-0.025635391
78	0x3c5da8c4	0.013529006
79	0xbd975240	-0.07388735
80	0xbb8deaba	-0.00433096
81	0xbd12b896	-0.035820566
82	0x3cb2e5e0	0.021838129
83	0x3ceabe36	0.028655153
84	0x3c5fa61c	0.013650443
85	0xbcf9369f	-0.030421553
86	0xbdd25d14	-0.102716595
87	0x3da2bc67	0.07946091
88	0xbaf99418	-0.0019041328
89	0x3d85d0fd	0.06534002
90	0xbd6836d1	-0.056692902
91	0x3c1be3c4	0.009514753
92	0x3b931f8b	0.004489844
93	0x3d17ecc7	0.037091043
94	0x3d2c70a8	0.042099625
95	0xbd156061	-0.036468867
96	0xbb98e2f7	-0.004665728
97	0x3d4d66bd	0.050146807
98	0x3d97ea13	0.07417693
99	0x3c9bbf84	0.01901222
100	0x3d905444	0.070473224
101	0xbd1c572a	-0.038169064
102	0x3c3d147c	0.011540528
103	0xbd70b870	-0.058769643
104	0x3b8ada0c	0.004237419
105	0x3d20adad	0.03922813
106	0xbc9ae030	-0.018905729
107	0xbd61f2cd	-0.055163193
108	0xbc659973	-0.014013636
109	0x3cb73267	0.0223629
110	0x3db5ca38	0.08876461
111	0xbaa4da7e	-0.0012577323
112	0xbdacdd22	-0.08440615
113	0xbd55e90d	-0.052224208
114	0xbc0a55ee	-0.008443339
115	0xbcd01b8f	-0.025403766
116	0xbce571af	-0.02800831
117	0xbcf7bce7	-0.030241443
118	0x3d3db250	0.04631263
119	0x3cdf86c7	0.027285947
120	0xbdb71ebe	-0.089414105
121	0xbd90ceda	-0.07070704
122	0xbdc2913c	-0.095003575
123	0xbd7848e4	-0.06061639
124	0x3d923dc0	0.07140684
125	0x3d6b2c64	0.05741538
126	0x3c71b599	0.014752769
127	0xbd9b462b	-0.07581743
128	0x3ce2d1fe	0.027688023
129	0x3c84d429	0.016214447
130	0xbd250c3c	-0.04029487
131	0x3d231ce0	0.03982246
132	0x3cc041b3	0.023468828
133	0x3d705ba9	0.058681164
134	0xbcd2eb87	-0.025747074
135	0x3c0f8a9c	0.008761074
136	0xbcea05b8	-0.02856718
137	0xbc217921	-0.00985554
138	0xbc7d15a4	-0.015447054
139	0xbd61e43b	-0.0551493
140	0xbcfa482e	-0.030551996
141	0x3b309d77	0.0026949325
142	0xbc56ed6d	-0.01311813
143	0xbc350d72	-0.011050569
144	0xbd14aefa	-0.036299683
145	0xbdb4c06c	-0.08825764
146	0x3da54d7b	0.08071419
147	0x3c7ec5de	0.015550105
148	0x3d03351f	0.032033082
149	0x3d17d832	0.037071414
150	0xbd441c9e	-0.047878854
151	0xbdaaa39e	-0.08331989
152	0x3cf21a34	0.02955351
153	0x3cedc525	0.02902467
154	0x3d0f32ac	0.034960434
155	0x3ddc6edf	0.107633345
156	0xbcea093f	-0.028568862
157	0x3d2cedde	0.042219035
158	0x3d8cc38a	0.068732336
159	0x3c8110a2	0.015755001
160	0xbd087edb	-0.033324104
161	0x3d44bd42	0.048032053
162	0xbcf5c5de	-0.030001577
163	0x3d0014c2	0.031269796
164	0xbcc76677	-0.024340851
165	0xbdafea41	-0.08589602
166	0x3c95f243	0.018303996
167	0xbcc5bf8b	-0.024139186
168	0xbc8e2938	-0.017353639
169	0xbda1fb93	-0.07909312
170	0x3ddcf0c4	0.1078811
171	0xba7b9863	-0.00095975975
172	0x3ce7055f	0.028200803
173	0x3cb622c4	0.022233374
174	0x3c194747	0.009355373
175	0xbd66740d	-0.05626302
176	0x3d3d5c53	0.046230625
177	0x3da68b75	0.08132068
178	0x3cbfebec	0.023427926
179	0xbbc7a06d	-0.0060921223
180	0x3dbda6f3	0.09260359
181	0x3d0955a6	0.033528946
182	0x3c180cc8	0.009280391
183	0x3da4dae4	0.080495626
184	0x3dcaa03a	0.09893842
185	0x3daef413	0.08542647
186	0x3d295eed	0.041350294
187	0x3d87a6e1	0.066236265
188	0xbd909db0	-0.070613265
189	0x3c8cfbb5	0.017209867
190	0xbd2d6b16	-0.042338453
191	0xbcc1b1ed	-0.023644412
192	0xb7d8cd86	-2.584491e-05
193	0xbbb0861a	-0.00538708
194	0xbcf445e5	-0.029818485
195	0x3cbedf73	0.023299908
196	0xbc45b92d	-0.012068075
197	0xbb07ab35	-0.0020701413
198	0x3cda8764	0.026675887
199	0xbd2cd7c0	-0.042197943
200	0x3d0d91b0	0.034562767
201	0xbcab28ea	-0.020893533
202	0xbd154534	-0.03644295
203	0xbbe02565	-0.0068403953
204	0x3d4adef6	0.04952904
205	0x3da891bf	0.08230924
206	0xbd665ce7	-0.056240942
207	0xbc8b32a7	-0.016991926
208	0xbdcc87bf	-0.09986829
209	0x3d3dc113	0.046326708
210	0xbdc98a4e	-0.09840833
211	0x3d8d6498	0.06903952
212	0x3d9b81bb	0.075931035
213	0xbcc35cda	-0.023847986
214	0x3deb69f4	0.11494818
215	0x3c076225	0.008263146
216	0xbce2f45e	-0.027704414
217	0x3d6c3bc5	0.05767419
218	0xbc01efc2	-0.007930698
219	0x3c45436a	0.012039999
220	0x3caab4df	0.0208382
221	0xbcb345e1	-0.021883907
222	0xbcc452d4	-0.023965277
223	0xbc96f024	-0.018425055
224	0xbdca7d74	-0.098872095
225	0xbd12468a	-0.035711803
226	0x3d6ef51a	0.058339216
227	0xbd65148a	-0.05592779
228	0xbc5f5ba8	-0.013632692
229	0xbd28832c	-0.04114072
230	0x3da0be7e	0.078488335
231	0x3cd29ef6	0.025710564
232	0x3bbb8103	0.0057221665
233	0x3d1ce707	0.038306262
234	0xbcec133f	-0.028817771
235	0x3d0ed09d	0.034866918
236	0x3baff069	0.0053692353
237	0x3db2b2ef	0.08725535
238	0x3db399f1	0.08769596
239	0x3da5c90c	0.08094987
240	0x3d094d56	0.03352102
241	0x3d0ed975	0.034875352
242	0xbd394494	-0.045231417
243	0x3d95867b	0.07301041
244	0x3d4081e5	0.046998877
245	0x3dca7f48	0.09887558
246	0x3c75ab3c	0.014994439
247	0x3d08220e	0.033235602
248	0xbc049d91	-0.008094207
249	0xbd305f47	-0.043059614
250	0x3c063c84	0.008193139
251	0x3da10ec3	0.07864144
252	0xbc3cf11a	-0.0115320925
253	0xbdd8cc6b	-0.10585865
254	0xbdd1b539	-0.102396436
255	0xbca4930b	-0.020089647

fc.bias f4 [7]
0	0x3d654638	0.05597517
1	0x3d705cef	0.05868238
2	0x3dc75050	0.09732115
3	0x3da23f4b	0.079222284
4	0x3da72c7d	0.08162782
5	0x3dc9961c	0.09843084
6	0x3dd2c943	0.10292294

onnx::GRU_197 f4 [2, 768]
0	0xbdfca546	-0.12336211
1	0xbe1d4331	-0.15357663
2	0xbdf2e53c	-0.11860129
3	0xbe02915a	-0.1275076
4	0xbdab8403	-0.083747886
5	0xbe0fc434	-0.1403969
6	0xbd742672	-0.059606977
7	0xbe4d613d	-0.20056625
8	0xbddf539b	-0.10904618
9	0xbdbe6c62	-0.09298016
10	0xbe63fc46	-0.22264203
11	0xbdc666e9	-0.09687597
12	0xbe1e7ed5	-0.1547807
13	0xbdae96e4	-0.08524874
14	0xbde39010	-0.11111462
15	0xbe21166f	-0.15731214
16	0xbd895de6	-0.06707363
17	0xbe63028b	-0.22168939
18	0xbe6feb95	-0.23429711
19	0xbe3b9c74	-0.18321401
20	0xbe544480	-0.20729256
21	0xbdac8ae0	-0.08424926
22	0xbe1fc04e	-0.15600702
23	0xbde8aa2f	-0.11360585
24	0xbe4f6f47	-0.20257293
25	0xbdba57eb	-0.090988
26	0xbde805b4	-0.11329213
27	0xbe69e9bc	-0.22843069
28	0xbe56bbfe	-0.20970151
29	0xbe4885d6	-0.19582304
30	0xbdda636d	-0.10663495
31	0xbd92078a	-0.07130344
32	0xbe57a623	-0.2105947
33	0xbde372e7	-0.111059
34	0xbe6f133f	-0.23347186
35	0xbe361260	-0.17780447
36	0xbd8d4d60	-0.06899524
37	0xbe4524fe	-0.19252393
38	0xbda81e7c	-0.082089394
39	0xbe32eb62	-0.17472604
40	0xbda1e81b	-0.07905599
41	0xbde0e542	-0.109812275
42	0xbde8f9dc	-0.11375782
43	0xbe6d253a	-0.23158732
44	0xbe03bcd4	-0.12865001
45	0xbe6df21b	-0.23236887
46	0xbe2e300a	-0.17010513
47	0xbde1b892	-0.11021532
48	0xbe0286c3	-0.1274672
49	0xbe4d2a4a	-0.20035663
50	0xbd6c54ae	-0.057697944
51	0xbe17723c	-0.1478967
52	0xbd8d939d	-0.069129206
53	0xbe59a19c	-0.21253055
54	0xbe0dc1e7	-0.13843499
55	0xbe3d73b1	-0.18501164
56	0xbe3e6f70	-0.18597198
57	0xbe387fec	-0.18017548
58	0xbe2a0af9	-0.16605748
59	0xbd895611	-0.06705869
60	0xbe05d174	-0.13068181
61	0xbe348563	-0.17629008
62	0xbe3cf0dd	-0.18451257
63	0xbd82643f	-0.06366777
64	0xbde20033	-0.11035194
65	0xbe6d5e6f	-0.23180555
66	0xbe24f450	-0.16108823
67	0xbe2e5d8c	-0.17027873
68	0xbe46de25	-0.19420679
69	0xbe114633	-0.14186935
70	0xbe1cc493	-0.15309362
71	0xbdebe866	-0.11518936
72	0xbd8ebd5a	-0.0696971
73	0xbe3d38bf	-0.18478678
74	0xbdd87407	-0.105690055
75	0xbe695982	-0.22788051
76	0xbe1e8197	-0.15479122
77	0xbd9f53d6	-0.07779662
78	0xbdf28365	-0.11841468
79	0xbdc1896c	-0.09450039
80	0xbe103896	-0.14084086
81	0xbd8ba71f	-0.06818985
82	0xbe40b88e	-0.18820402
83	0xbe564626	-0.20925197
84	0xbd8996a7	-0.06718188
85	0xbe4d6389	-0.20057501
86	0xbe2dcd8e	-0.16972944
87	0xbde355c8	-0.11100346
88	0xbe3866ed	-0.18008013
89	0xbe0a0656	-0.1347898
90	0xbdc973e5	-0.09836558
91	0xbddbc040	-0.10730028
92	0xbe1e99fa	-0.15488425
93	0xbdb23f82	-0.087035194
94	0xbe026f55	-0.12737782
95	0xbdad5834	-0.08464089
96	0xbe0a31f4	-0.13495618
97	0xbe1ab51e	-0.15108153
98	0xbdaa604c	-0.083191484
99	0xbe4610c7	-0.19342338
100	0xbe5a189e	-0.21298453
101	0xbde76987	-0.112994246
102	0xbe76ab81	-0.24088861
103	0xbda1184f	-0.078659646
104	0xbe157c3f	-0.14598177
105	0xbdd73b90	-0.105094075
106	0xbe459a1f	-0.19297074
107	0xbda49a65	-0.08037261
108	0xbe36e2dc	-0.17859977
109	0xbe07cb39	-0.13261117
110	0xbe0ca823	-0.13736014
111	0xbd869ea2	-0.065732256
112	0xbe4abc47	-0.19798385
113	0xbe3ffa93	-0.1874793
114	0xbe5a8039	-0.21337976
115	0xbd53f663	-0.051748645
116	0xbe231e9a	-0.15929642
117	0xbe22b71c	-0.15890163
118	0xbde90514	-0.11377922
119	0xbe21895a	-0.15775052
120	0xbe497375	-0.1967295
121	0xbe562e9d	-0.20916219
122	0xbdfd98b0	-0.123826385
123	0xbe7139dc	-0.23557228
124	0xbe1326f5	-0.1437033
125	0xbdb4b781	-0.08824063
126	0xbe1f71f0	-0.15570807
127	0xbd891e6f	-0.06695258
128	0x3d571a31	0.052515212
129	0x3e28da1f	0.16489457
130	0x3e388bf2	0.18022135
131	0x3e0cd965	0.13754804
132	0x3de95579	0.11393256
133	0x3dc30783	0.09522917
134	0x3d12aceb	0.03580944
135	0x3d5fb1fd	0.054613102
136	0x3deead28	0.11654121
137	0x3cd76f6e	0.026298251
138	0xbdf30036	-0.118652746
139	0x3e25ff9a	0.16210786
140	0x3e035987	0.1282712
141	0x3cbec596	0.023287576
142	0x3dcf1a9f	0.101124994
143	0x3e24e06b	0.16101234
144	0x3c8fa93f	0.017536758
145	0x3e2b90aa	0.16754404
146	0xbd7d7a56	-0.061884247
147	0x3d3fcf3d	0.046828497
148	0x3d654924	0.055977955
149	0x3d751fa1	0.059844617
150	0x3d39e04c	0.04537992
151	0x3dca73df	0.09885382
152	0x38837298	6.2679115e-05
153	0xbd68ce25	-0.05683722
154	0x3e1d6f17	0.15374409
155	0xbcd0eff0	-0.025505036
156	0x3e4c0a5f	0.19925831
157	0x3e1ad7c7	0.15121375
158	0x3dbde07c	0.092713326
159	0x3d01557e	0.031575672
160	0x3e03d07e	0.12872502
161	0x3e24c68a	0.16091362
162	0x3e5fc1b4	0.21851236
163	0x3e599e7f	0.21251868
164	0x3e457001	0.19281007
165	0x3d2df9d5	0.042474587
166	0x3e3c6337	0.18397222
167	0x3e0567a4	0.13027817
168	0x3d84aaf7	0.064779215
169	0xbcb37cef	-0.021910159
170	0x3db4d23f	0.08829164
171	0x3d4d3521	0.050099496
172	0x3e04d0d7	0.12970291
173	0x3e6aa342	0.2291384
174	0xbc954164	-0.018219657
175	0x3d25a784	0.04044296
176	0xbd93124a	-0.07181223
177	0x3d7de074	0.061981633
178	0xbd8279c3	-0.063708805
179	0x3e110827	0.14163266
180	0x3c663f94	0.014053244
181	0xbd0fde22	-0.03512395
182	0x3dc97190	0.098361135
183	0x3dbb3ca4	0.09142426
184	0x3e0dd86c	0.1385209
185	0xbdcaf45b	-0.09909888
186	0x3d978e80	0.074002266
187	0x3d8ea71b	0.069654666
188	0x3d9134fe	0.070901856
189	0x3c8e9faf	0.017410127
190	0x3e1aedc9	0.1512977
191	0xbdb5b680	-0.088727
192	0xbc65fe91	-0.014037744
193	0x3db5da6d	0.08879552
194	0x3e31d377	0.17365824
195	0x3e2687ea	0.16262785
196	0x3e09ce00	0.13457489
197	0xbcd6cfaf	-0.026222078
198	0x3e1d13e0	0.15339613
199	0xbd940391	-0.07227243
200	0x3e20daca	0.15708461
201	0x3cff0c5e	0.031133827
202	0x3d2a2897	0.041542616
203	0x3e435ef3	0.19079189
204	0x3df09957	0.11747997
205	0x3dabd004	0.08389285
206	0x3e456133	0.1927536
207	0xbd94d3ff	-0.072669975
208	0x3d09a59f	0.033605214
209	0x3d314459	0.043278072
210	0x3d2d8f09	0.042372737
211	0x3e270a3b	0.16312496
212	0x3da776d5	0.08176962
213	0x3da3d16d	0.07998929
214	0x3e1366a8	0.14394629
215	0x3cd8d61b	0.026469281
216	0x3da9dca6	0.082940385
217	0x3e187c24	0.14891106
218	0x3c9abf0e	0.01888993
219	0x3e2986e6	0.16555366
220	0x3da7aa12	0.08186735
221	0x3d9dc617	0.07703798
222	0x3d3f724c	0.04673986
223	0x3d22f5d8	0.039785236
224	0x3e017996	0.12644038
225	0x3e219975	0.15781195
226	0x3e598553	0.21242265
227	0x3e54cd00	0.20781326
228	0x3e4011a2	0.18756726
229	0x3dcfd645	0.101482905
230	0x3c79bd46	0.01524288
231	0x3df25d99	0.118342586
232	0x3c139b95	0.009009262
233	0x3dbf3e73	0.09338083
234	0x3dcf5207	0.10123067
235	0x3e490a9d	0.19632955
236	0x3d8d082b	0.068863235
237	0x3e441d01	0.19151689
238	0x3d6a7760	0.05724275
239	0x3e1b8625	0.15187891
240	0xbd18cdc3	-0.037305605
241	0x3d466ba8	0.048442513
242	0x3cd05c30	0.025434583
243	0x3e2cf2ea	0.1688954
244	0xbd4a4364	-0.049380675
245	0x3d565eae	0.052336387
246	0x3e133f0f	0.14379524
247	0x3d427463	0.047474276
248	0xbd063975	-0.03276964
249	0x3db87842	0.09007312
250	0x3d90b33b	0.070654355
251	0xbd4fec62	-0.05076254
252	0x3dba492e	0.09095989
253	0x3d184f87	0.03718522
254	0xbdb53d51	-0.08849586
255	0x3e0c4dfc	0.13701624

onnx::GRU_198 f4 [2, 384, 19]
0	0xbde4a039	-0.111633725
1	0xbdc38c17	-0.095482044
2	0xbe8c4088	-0.27392983
3	0xbda27798	-0.07932967
4	0xbe0afeb1	-0.1357372
5	0xbe15d4c9	-0.14631952
6	0xbd42533a	-0.047442652
7	0xbe2555f8	-0.16146076
8	0xbe1859e8	-0.14878047
9	0xbe2133dd	-0.1574244
10	0xbdb33c89	-0.087517805
11	0xbe9dd98a	-0.30830032
12	0xbde59c58	-0.11211461
13	0xbe8775e4	-0.2645713
14	0xbe124bbc	-0.14286703
15	0xbd83414b	-0.06408938
16	0xbdcf8ff9	-0.101348825
17	0xbd6ee563	-0.05832423
18	0xbe1323e3	-0.14369158
19	0x3ceff04d	0.029289389
20	0xbdcc013b	-0.09961172
21	0xbe574fad	-0.21026488
22	0xbe4bb892	-0.19894627
23	0xbe41e218	-0.18933904
24	0xbdb302cf	-0.0874077
25	0xbd7c9290	-0.06166321
26	0xbd841e6f	-0.06451117
27	0xbe3f8fc7	-0.1870719
28	0xbdfcda6f	-0.123463504
29	0xbdefe323	-0.11713245
30	0xbe23d939	-0.16000833
31	0xbd785dd3	-0.060636353
32	0xbe53fdfd	-0.20702358
33	0xbe39bc84	-0.18138319
34	0xbd291801	-0.041282658
35	0xbe108963	-0.14114909
36	0xbabcafdc	-0.0014395672
37	0xbe6023ca	-0.21888652
38	0xbcc017a7	-0.023448778
39	0xbe5caf1a	-0.21551171
40	0xbe826d35	-0.25473943
41	0xbdc8cfe9	-0.09805281
42	0xbe4c5ec3	-0.19958024
43	0xbe6e8015	-0.23291047
44	0xbd2ba992	-0.04190976
45	0xbd0c735a	-0.034289695
46	0xbde28f69	-0.110625096
47	0xbe729690	-0.23690248
48	0xbdf9daff	-0.12199973
49	0xbe798ed2	-0.24370888
50	0xbd8de00e	-0.06927501
51	0xbe74e84f	-0.23916744
52	0xbe29413c	-0.16528791
53	0xbe244cc8	-0.16044915
54	0xbdcb9a43	-0.099415325
55	0x3d170abc	0.03687547
56	0xbd6a93b6	-0.057269774
57	0xbcf14c7d	-0.029455418
58	0xbe3e817f	-0.18604086
59	0xbe17b14b	-0.14813726
60	0xbdfb84c3	-0.12281182
61	0xbe2ed799	-0.17074431
62	0xbe4993e8	-0.19685328
63	0xbe0dde1a	-0.13854256
64	0xbd92625c	-0.07147667
65	0xbdd5b500	-0.10434914
66	0xbdedd38e	-0.116126165
67	0xbde258e0	-0.11052108
68	0xbe23c42d	-0.15992804
69	0xbe36e263	-0.17859797
70	0xbe895820	-0.26825047
71	0xbe3d8d59	-0.18510951
72	0xbe52de0f	-0.20592521
73	0xbe1aac6f	-0.1510484
74	0xbe0c1c51	-0.13682677
75	0xbe0fe6cf	-0.1405289
76	0xbca0a3f3	-0.019609427
77	0xbe25f0f1	-0.16205193
78	0xbe97eaaa	-0.29671222
79	0xbd36935b	-0.044574123
80	0xbe1cd4e5	-0.15315588
81	0xbde5dee1	-0.112241514
82	0xbd30db8b	-0.043178122
83	0xbe1b594c	-0.15170783
84	0xbe03a184	-0.12854582
85	0xbe039048	-0.12848008
86	0x3b5ad200	0.003338933
87	0xbe7d6637	-0.24746023
88	0xbd800dde	-0.06252645
89	0xbe975f64	-0.29564965
90	0xbe48b364	-0.19599682
91	0xbd01d0c0	-0.03169322
92	0xbda48379	-0.08032889
93	0x3d5830a8	0.052780777
94	0xbde35da2	-0.111018434
95	0xbd9c5643	-0.076336406
96	0xbda6be32	-0.081417456
97	0xbe1c833d	-0.15284438
98	0xbe1558b8	-0.14584625
99	0xbe4f327a	-0.20234099
100	0xbe395c3f	-0.18101595
101	0xbe392809	-0.18081678
102	0xbd6c9fa0	-0.057769418
103	0xbe0f3224	-0.13983971
104	0xbe2c46a5	-0.16823824
105	0xbd8dd2bc	-0.0692496
106	0xbe4dae6d	-0.2008607
107	0xbe54cce9	-0.20781292
108	0xbe18c4ba	-0.14918795
109	0xbde0d6f5	-0.109785
110	0xbe408a18	-0.18802679
111	0xbd100ea3	-0.03517021
112	0xbd1aa11e	-0.03775131
113	0xbe27dd37	-0.1639298
114	0xbcf24e7d	-0.029578442
115	0xbe28245e	-0.16420123
116	0xbe90b36b	-0.28261885
117	0xbe01fe54	-0.12694675
118	0xbdf25b4e	-0.11833821
119	0xbe48e241	-0.19617559
120	0xbc6c7e79	-0.01443445
121	0xbdcf4119	-0.10119838
122	0xbdc25175	-0.09488193
123	0xbe5ce1a9	-0.21570458
124	0xbe1af154	-0.15131122
125	0xbe24134c	-0.16022986
126	0xbdb5fceb	-0.08886131
127	0xbe40cc8f	-0.18828033
128	0xbe4a8280	-0.19776344
129	0xbd05846d	-0.032596994
130	0x3c9fa93c	0.019489877
131	0x3cfb2b87	0.030660404
132	0xbe1e7aa6	-0.15476474
133	0xbd2bd4e9	-0.041951094
134	0xbe224155	-0.15845235
135	0xbdf44354	-0.11926904
136	0xbe1785fe	-0.14797208
137	0xbe1d867c	-0.15383333
138	0xbe28b153	-0.16473894
139	0xbdb7958a	-0.08964069
140	0xbdf826cb	-0.12116774
141	0xbd835440	-0.06412554
142	0xbdf7f8eb	-0.12108024
143	0xbe53bcdd	-0.20677514
144	0xbe4cd29e	-0.20002219
145	0xbe653f8d	-0.22387524
146	0xbe85bfbf	-0.26122853
147	0xbe125ed2	-0.14293984
148	0xbde4bb26	-0.11168508
149	0xbde6f900	-0.11277962
150	0x3c14f8ac	0.009092491
151	0xbe429225	-0.19001062
152	0xbdcf16cd	-0.10111771
153	0xbe301039	-0.17193688
154	0xbe53054d	-0.20607491
155	0xbe257a26	-0.16159877
156	0xbd99b6c6	-0.075055644
157	0xbe52cea8	-0.20586646
158	0xbe39718a	-0.18109718
159	0xbdeb6568	-0.11493951
160	0xbd9ff8d0	-0.07811129
161	0xbe13c72e	-0.1443145
162	0xbdaf1fe7	-0.08551007
163	0xbe420c53	-0.18950014
164	0xbd95b0d2	-0.073091164
165	0xbe162182	-0.1466122
166	0xbdc24f53	-0.09487786
167	0xbe13c51b	-0.14430659
168	0xbe38bda8	-0.18041098
169	0xbdf341c4	-0.11877778
170	0xbde60bec	-0.11232743
171	0x3d8c14b4	0.06839886
172	0xbe3e4ce6	-0.18584022
173	0xbe1dfb22	-0.15427831
174	0xbe071d04	-0.13194662
175	0xbe110a2e	-0.1416404
176	0xbe2bc5b2	-0.16774634
177	0xbe0cc428	-0.13746703
178	0xbc85694d	-0.016285563
179	0xbe047634	-0.12935716
180	0xbe001b83	-0.12510495
181	0xbe3c7faa	-0.18408075
182	0xbe8bc05b	-0.27295193
183	0xbe04a6c7	-0.12954246
184	0xbe1dd0b2	-0.15411642
185	0xbde39d81	-0.11114026
186	0xbdc96945	-0.09834532
187	0xbe23fa3e	-0.16013429
188	0xbc943e9c	-0.01809626
189	0xbe420681	-0.18947794
190	0x3de6bc13	0.11266341
191	0xbe2079c3	-0.15671448
192	0xbe8e59e8	-0.27802968
193	0xbe116ab9	-0.14200868
194	0xbe904c9c	-0.28183448
195	0xbe3b4e69	-0.1829163
196	0xbc964ef6	-0.018348198
197	0xbd77c70b	-0.060492557
198	0xbce590bb	-0.028023114
199	0xbe4e200f	-0.20129417
200	0xbdfd2aaf	-0.12361657
201	0xbe0bd8e1	-0.13656951
202	0xbe2aaa6c	-0.16666573
203	0xbe7d5a89	-0.24741568
204	0xbddf6464	-0.1090782
205	0xbd2fd7e4	-0.0429305
206	0x3d722479	0.059116814
207	0x3e73bfce	0.23803636
208	0xbe0fa9a6	-0.1402956
209	0xbd198b79	-0.037486527
210	0xbda30ba5	-0.079612054
211	0xbe4ffaa5	-0.20310457
212	0xbe37d5a9	-0.17952599
213	0xbdc2ae7d	-0.09505937
214	0xbe637741	-0.2221346
215	0xbe235ff3	-0.1595457
216	0xbd371d47	-0.044705655
217	0xbe12eacd	-0.14347382
218	0xbe6e4a8d	-0.23270626
219	0xbd963f69	-0.07336313
220	0xbe5d3bbd	-0.2160482
221	0xbe3ddb98	-0.185408
222	0xbe9578fd	-0.2919387
223	0xbe6520b4	-0.22375757
224	0xbdb0b89a	-0.0862896
225	0xbe0f5513	-0.13997297
226	0xbd24ced8	-0.040236324
227	0xbe10cd9d	-0.14140935
228	0x3cf6e091	0.030136378
229	0xbe259e73	-0.16173725
230	0xbe9f35a1	-0.31095603
231	0xbe360b6e	-0.17777798
232	0xbe0a37bc	-0.13497823
233	0xbe74bea7	-0.23900853
234	0xbe1ff1f6	-0.15619645
235	0x3cd7a1d9	0.026322292
236	0xbda27250	-0.0793196
237	0xbe68b2ce	-0.22724459
238	0xbd8f389a	-0.06993218
239	0xbe35b9eb	-0.17746703
240	0xbe3e68a2	-0.18594602
241	0xbe8f193d	-0.27948943
242	0xbe5167ee	-0.20449802
243	0xbd9453cb	-0.07242545
244	0xbafe67ec	-0.0019409633
245	0x3abc3d62	0.0014361555
246	0xbd042bc1	-0.03226829
247	0xbdd078d5	-0.10179297
248	0xbda400ea	-0.08007987
249	0xbe927174	-0.28602183
250	0xbe2ab563	-0.16670756
251	0xbe066981	-0.13126184
252	0xbe5d6399	-0.21620025
253	0xbd5f857f	-0.05457067
254	0xbe33820c	-0.17530078
255	0xbe0f1035	-0.13971026

onnx::GRU_199 f4 [2, 384, 128]
0	0xbd800388	-0.062506735
1	0x3d0150b8	0.03157112
2	0x3dabfd97	0.08397978
3	0xbd1ec2e8	-0.038760096
4	0xbdb391de	-0.08768056
5	0xbd6fc87e	-0.058540814
6	0x3d096fab	0.03355376
7	0x3d7b949c	0.06142102
8	0xbc8d89f1	-0.01727769
9	0x3b219de1	0.0024660754
10	0xbd838f48	-0.06423813
11	0xbd25a3ef	-0.040439542
12	0xbd703116	-0.058640562
13	0x3d6bb029	0.057541046
14	0xbc8eac24	-0.017416067
15	0xbd1679b5	-0.036737163
16	0xbc1ce536	-0.0095761325
17	0x3d2347d2	0.039863415
18	0xbd48b75a	-0.049002983
19	0xbc4d2b95	-0.012522598
20	0x3d198d1b	0.037488084
21	0xbc2b2fb1	-0.010448382
22	0x3cea9d46	0.028639447
23	0xbd733a9b	-0.059382062
24	0xbba44da1	-0.005014137
25	0xbd2fa305	-0.042880077
26	0x3da6aa14	0.081379086
27	0xbdb4ce38	-0.088283956
28	0xbd362600	-0.044469833
29	0xbd0ef14b	-0.034898084
30	0x3d1fce80	0.039015293
31	0xbd218d02	-0.039441116
32	0xbd644175	-0.055726487
33	0xbba8e7d8	-0.005154591
34	0xbce7ef29	-0.028312283
35	0x3dafcda2	0.08584143
36	0x3d5eb28a	0.054369487
37	0x3d8d9537	0.06913226
38	0xbd97aa93	-0.07405581
39	0xbcbac1c9	-0.022797482
40	0xbd8abb85	-0.06774048
41	0x3da358e1	0.07975937
42	0x3d56b462	0.05241812
43	0xbd8dc3e5	-0.069221295
44	0xbd85ccfa	-0.06533237
45	0x3d32e094	0.043671206
46	0xbd37b58a	-0.044850864
47	0x3ce7537c	0.02823805
48	0xbd9ef73d	-0.07762001
49	0xbd90799f	-0.070544474
50	0xbcf68087	-0.030090583
51	0xbd8d9a0a	-0.06914146
52	0x3d5e9e03	0.05434991
53	0xbd8a3eec	-0.06750283
54	0xbcecf1f6	-0.02892397
55	0xbdb11a1e	-0.086475596
56	0x3da61848	0.081101
57	0x3c6c54f0	0.014424548
58	0xbd5bf9aa	-0.053704895
59	0xbc9e9aef	-0.019360987
60	0x3cd9182f	0.02650079
61	0xbcf7c8cd	-0.030247116
62	0x3d9078e1	0.07054306
63	0xbca687d2	-0.020328436
64	0x3da96fe5	0.08273295
65	0x3d459290	0.048235476
66	0x3d7f70f5	0.062363584
67	0x3b18ad26	0.0023296564
68	0xbcd0cb16	-0.025487464
69	0x3d1a0758	0.03760466
70	0x3d637499	0.055531118
71	0x3c4610f2	0.012089001
72	0x3c9080ff	0.017639635
73	0x3d9ba5ff	0.076000206
74	0xbd448efa	-0.047987916
75	0xbc9c2bd7	-0.019063873
76	0x3bdc6138	0.0067254566
77	0xbc29f9e4	-0.01037452
78	0xbd50144c	-0.050800607
79	0x3ce83086	0.02834345
80	0x3c8b23a4	0.016984768
81	0xbd5b1b82	-0.05349303
82	0xbba3759b	-0.004988385
83	0x3c2609bc	0.010134157
84	0xbc1321a2	-0.008980187
85	0x3cdee8ff	0.02721071
86	0xbda66633	-0.08124962
87	0xbc47d69a	-0.012197161
88	0x3d8590d2	0.06521763
89	0x3b202a4b	0.002443927
90	0xbc2b372a	-0.010450164
91	0xbcc5f9e1	-0.024167003
92	0xbc5f92a3	-0.013645801
93	0xbc2a5aad	-0.010397595
94	0xbd306db4	-0.04307337
95	0xbd8150f9	-0.063142724
96	0xbbf7aafe	-0.0075582257
97	0x3db37f35	0.08764497
98	0x3d8882d0	0.066655755
99	0x3b8c863c	0.004288463
100	0x3d1ccb23	0.038279664
101	0x3c9f3d37	0.01943837
102	0xbd39ba69	-0.04534379
103	0x3d02b3f6	0.031909905
104	0x3d2567aa	0.040382065
105	0xbbbfed50	-0.0058571473
106	0x3d57e13c	0.052705035
107	0x3d100e89	0.03517011
108	0xbd2b9dc8	-0.04189852
109	0x3cd2feea	0.025756318
110	0x3d254005	0.040344257
111	0x3d8f011b	0.06982633
112	0xbd76c650	-0.06024772
113	0xbda6ef0b	-0.081510626
114	0xbd0dd750	-0.034629166
115	0x3bf4797d	0.0074607716
116	0xbd8ecda0	-0.069728136
117	0xbcb2f6bb	-0.021846166
118	0xbd846a8f	-0.06465637
119	0xbd89039f	-0.06690144
120	0x3cdbc794	0.026828565
121	0x3d30c697	0.04315814
122	0x3c431e6b	0.011909108
123	0x3d7b24ab	0.061314266
124	0xbcad8703	-0.021182543
125	0x3c3b50fa	0.011432881
126	0x3d8580d4	0.06518713
127	0x3d95f1df	0.07321524
128	0x3ccf4bca	0.025304694
129	0xbd9a8ca5	-0.07546357
130	0x3caf2281	0.021378757
131	0x3d8271ec	0.06369385
132	0x3cf6a777	0.03010915
133	0xbdb24b76	-0.08705799
134	0xbceca434	-0.028886892
135	0xbd397c8a	-0.045284785
136	0xbda2ec24	-0.079551965
137	0xbd969b0c	-0.073537916
138	0x3d6a03d2	0.05713255
139	0xbd67f0ac	-0.056626007
140	0xbd5a38d9	-0.05327687
141	0xbd1d8dc5	-0.03846528
142	0xbc1a090c	-0.009401571
143	0x3d573a94	0.0525461
144	0xbdb25660	-0.08707881
145	0xbd21e540	-0.03952527
146	0xbc6c1f11	-0.014411704
147	0x3cc8e977	0.024525387
148	0xbd48e1d5	-0.049043495
149	0xbcc4dc8a	-0.024030942
150	0xbd42abb4	-0.04752703
151	0xbca287b6	-0.019840103
152	0x3d3b2923	0.045693528
153	0xbd19142b	-0.03737275
154	0xbc429f7f	-0.011878847
155	0xbd6d2781	-0.057899002
156	0x3cca416e	0.024689402
157	0xbd6884b6	-0.056767188
158	0x3ca7d489	0.020487087
159	0xbdb437e8	-0.08799726
160	0x3d0d5fcd	0.03451519
161	0x3d02526a	0.031816877
162	0xbd894f37	-0.06704562
163	0xbc3858d6	-0.011251649
164	0xbd59369c	-0.053030595
165	0xbd2ce3f8	-0.042209595
166	0x3d27bbcc	0.04095058
167	0xbd4ebb16	-0.050471388
168	0x3d4c6584	0.0499015
169	0x3d36fb21	0.04467309
170	0x3da24d1d	0.079248644
171	0xbd077a32	-0.03307552
172	0xbda08b9c	-0.078391284
173	0x3d6a5a9e	0.057215326
174	0xbcaa5ff5	-0.020797709
175	0xbd0e84c9	-0.034794603
176	0xbd2b9127	-0.041886475
177	0x3da857a1	0.08219839
178	0xbd8cd904	-0.0687733
179	0x3c9d4435	0.019197563
180	0x3c8fe62f	0.017565815
181	0xbd0d2599	-0.034459684
182	0x3d4df9d6	0.05028709
183	0x3d517714	0.051138952
184	0x3d738dbf	0.05946135
185	0x3cc31bb4	0.02381692
186	0x3cc060b4	0.023483612
187	0x3ccd1587	0.02503468
188	0xbce6d0bd	-0.028175706
189	0xbd90a326	-0.07062368
190	0x3b299b02	0.0025879745
191	0x3c05e03a	0.008171136
192	0x3d5fae9a	0.054609872
193	0x3c73f79a	0.014890576
194	0x3b21f4ad	0.0024712489
195	0xbd0047ac	-0.03131835
196	0x3d9788c0	0.0739913
197	0x3da00db4	0.07815114
198	0x3db20b4a	0.086935595
199	0xbbb9577c	-0.005656181
200	0xbd31b4e5	-0.043385405
201	0xbd928d42	-0.07155849
202	0xbdb223f9	-0.086982675
203	0xbd90e0ab	-0.07074102
204	0xbce7893a	-0.028263677
205	0x3d8d098e	0.06886588
206	0xbda6ddcd	-0.08147774
207	0xbcd78631	-0.026309105
208	0x3d1166aa	0.0354983
209	0x3d2a0df2	0.041517206
210	0x3b7ea0fe	0.0038853283
211	0xbca2b11e	-0.019859847
212	0x3b89ada6	0.0042016087
213	0xbd62dcde	-0.055386417
214	0x3d325511	0.043538157
215	0x3d538ede	0.05164992
216	0x3c72e062	0.014824005
217	0x3d7e194e	0.06203585
218	0x3d552cf4	0.052044824
219	0xbda9901c	-0.0827944
220	0xbd0e5451	-0.03474838
221	0xbd9a1ee2	-0.07525422
222	0x3d03db77	0.03219172
223	0xbda26786	-0.07929902
224	0x3cabf8cd	0.02099266
225	0xbd931ebc	-0.071835965
226	0x3d38b76f	0.04509681
227	0xbd77f2fc	-0.060534462
228	0xbda2fd7b	-0.07958504
229	0xbd1242b2	-0.035708137
230	0x3cef5c86	0.029218923
231	0xbd1ab696	-0.037771784
232	0x3d07299b	0.032998662
233	0x3b3900c6	0.002822922
234	0xbd44ea7e	-0.04807519
235	0xbb9fd735	-0.0048779496
236	0x3d65b138	0.056077212
237	0xbd5dc6af	-0.054144558
238	0x3d9e0fd6	0.07717864
239	0x3cc93625	0.024561951
240	0x3d3c3198	0.045945734
241	0xbc8b72e7	-0.017022563
242	0x3d86ca4d	0.065815546
243	0xbd870b03	-0.06593897
244	0xbd121fd4	-0.035674885
245	0x3d633421	0.055469636
246	0xbd42a0d5	-0.047516663
247	0x3d975e7a	0.07391067
248	0xbd033f9a	-0.032043077
249	0xbdab725c	-0.08371422
250	0x3daacd23	0.08339908
251	0x3d93c016	0.07214372
252	0x3d154243	0.036440145
253	0xbd9b0d8e	-0.07570945
254	0x3c9c8e70	0.019110888
255	0xbcabfc34	-0.020994283

onnx::MatMul_200 f4 [256, 1]
0	0xbc646f98	-0.013942622
1	0x3d7603d0	0.06006223
2	0xbcda6410	-0.026659042
3	0x3ccbe7e0	0.02489084
4	0x3d75789c	0.059929475
5	0x3c1e9768	0.009679653
6	0xbd7a3524	-0.061085835
7	0xbbefac60	-0.00731425
8	0x3d3508da	0.044197895
9	0x3b9ab690	0.00472147
10	0xbc284e08	-0.01027251
11	0x3d332456	0.043735825
12	0x3c67bf98	0.014144801
13	0x3bbff0d0	0.0058575645
14	0x3d635330	0.055499256
15	0x3d2018b4	0.03908606
16	0x39c0ee00	0.00036798418
17	0x3bb5d2b0	0.0055487975
18	0xbc823b10	-0.015897304
19	0x3d1f4602	0.038885124
20	0x3d5439e4	0.05181302
21	0xbd7fc860	-0.062446952
22	0xbd4b2f64	-0.049605742
23	0xbc8f1898	-0.017467782
24	0x3cfa3fd8	0.030548021
25	0xbd261d6e	-0.04055541
26	0x3cabe7f4	0.020984627
27	0x3c73fd50	0.014891937
28	0x3cf4fbb4	0.029905178
29	0x3d018610	0.031621993
30	0x3c05b5e0	0.008161038
31	0x3a276100	0.00063849986
32	0xbb86c690	-0.004113026
33	0x3c5fde00	0.013663769
34	0x3c29c528	0.010361947
35	0xbd087276	-0.033312283
36	0x3d2c1708	0.04201415
37	0x3d453886	0.048149608
38	0x3d377d84	0.044797435
39	0x3c3dc760	0.011583179
40	0x3d0e8d3a	0.034802653
41	0xbd70463a	-0.058660723
42	0x3c294eb0	0.010333702
43	0xbcbb4f0c	-0.02286484
44	0xbcd83de8	-0.026396707
45	0x3d688764	0.056769744
46	0xbb8af610	-0.0042407587
47	0xbd7e8b2c	-0.062144443
48	0xbcc5b2dc	-0.024133138
49	0xbbde50e0	-0.0067845434
50	0x3d2c55e4	0.0420741
51	0x3a811900	0.000984937
52	0x3d32c9c0	0.043649435
53	0xbd1985ce	-0.03748112
54	0xbcd07758	-0.025447533
55	0xbd39f528	-0.045399815
56	0x3c6fa9e8	0.014627911
57	0x3cd38678	0.025820956
58	0xbcc2888c	-0.023746751
59	0xbb357d40	-0.0027693063
60	0x3d161c7e	0.036648266
61	0xbd658048	-0.05603054
62	0x3d51868e	0.051153712
63	0xbd4af694	-0.04955156
64	0xbcb875c4	-0.022517093
65	0x3d144cee	0.03620618
66	0xbd44d9f0	-0.048059404
67	0xbc8523f4	-0.016252495
68	0xbd14785c	-0.036247596
69	0xbb57bb40	-0.0032918006
70	0x3d6e4256	0.05816873
71	0x3d71ca50	0.05903083
72	0xbbaeaf40	-0.00533095
73	0x3d38e496	0.04513987
74	0xbd3aa870	-0.04557079
75	0xbc9ac1d4	-0.018891253
76	0x3d786a2e	0.060648136
77	0x3cf4fff4	0.029907204
78	0xbd1a6fa2	-0.037704118
79	0x3c1e0660	0.009645075
80	0x3c61d310	0.013783231
81	0xbd6221c2	-0.055207975
82	0xb99e5b00	-0.0003020391
83	0x3d78679a	0.060645677
84	0xbd2ff07e	-0.04295396
85	0x3ac9ed40	0.0015405789
86	0xbd4ca1d8	-0.049959034
87	0xbcae0588	-0.021242872
88	0xbcee9b04	-0.029126652
89	0x3afcecc0	0.0019296631
90	0xbcd5c578	-0.026095137
91	0x3b0391e0	0.0020075962
92	0xbcb8e564	-0.02257032
93	0x3d4eb0b2	0.05046148
94	0x3d0e644a	0.03476361
95	0xbca4c120	-0.02011162
96	0x3d5aee04	0.053449646
97	0xbc7e9ae0	-0.015539855
98	0xbcbcc674	-0.023043849
99	0x3ba1fe50	0.0049436465
100	0xbb6f1fe0	-0.0036487505
101	0xbd05d056	-0.032669388
102	0xbd3555fc	-0.044271454
103	0xbd351332	-0.04420776
104	0x3c353570	0.011060104
105	0xbc584cb8	-0.013201885
106	0xbcf89e48	-0.030348912
107	0xbcd2029c	-0.02563601
108	0x3d232c34	0.039837077
109	0x3c815ef8	0.015792355
110	0x3d1b5c4a	0.03792981
111	0x3c920aac	0.017827354
112	0xbd3847f2	-0.044990487
113	0xbcf9ffa8	-0.030517414
114	0x3c46b428	0.012127914
115	0xbc78d340	-0.015187085
116	0xbc592e30	-0.013255641
117	0x3d705370	0.058673322
118	0x3d54d872	0.05196423
119	0xbd267202	-0.04063607
120	0xbd3950e2	-0.04524315
121	0x3c1338c8	0.008985706
122	0xbc80aac8	-0.015706435
123	0xbcd81034	-0.026374914
124	0xbcc3b548	-0.023890153
125	0xbd31a742	-0.0433724
126	0xbd3564b2	-0.044285484
127	0x3cbb5248	0.022866383
128	0x3cc8c734	0.02450905
129	0xbcb88018	-0.022522017
130	0xbce33630	-0.0277358
131	0x3d3605de	0.04443919
132	0x3d323b56	0.04351362
133	0xbd29e53c	-0.04147838
134	0xbc54eb38	-0.012995534
135	0x3d474266	0.048647307
136	0x3d5b7348	0.053576738
137	0x3d038e98	0.03211841
138	0x3d58c25c	0.05291973
139	0xbd56fa72	-0.052484937
140	0xbb9bdf30	-0.0047568306
141	0x3d753932	0.059869
142	0xbd599fa4	-0.05313076
143	0x3c7317b8	0.014837198
144	0x3d4824ba	0.04886315
145	0x3ceb27c8	0.028705493
146	0xbcc68464	-0.02423305
147	0xbaa7e5c0	-0.001280956
148	0x3d64bf18	0.055846304
149	0x3d64a5c6	0.055822156
150	0x3d520714	0.05127628
151	0x3c7fd808	0.015615471
152	0x3cfb6274	0.030686595
153	0xbd48ad1c	-0.048993215
154	0xbc726748	-0.014795132
155	0xbd50900a	-0.050918616
156	0x3d5731e8	0.05253783
157	0x3c4c7288	0.012478478
158	0xbccda7a8	-0.025104359
159	0x3d36f0e8	0.04466334
160	0x3d2bc08a	0.041931666
161	0x3d7e16da	0.06203351
162	0x3c5b7f88	0.013397105
163	0x3d43c894	0.047798708
164	0xbd737ef4	-0.059447244
165	0x3d77bf5c	0.06048523
166	0x3ca00b80	0.019536734
167	0x3d0eb6f2	0.03484244
168	0xbb9df770	-0.0048207566
169	0x3d2f0ea8	0.042738587
170	0xbd7cca70	-0.061716497
171	0x3d271eec	0.040800974
172	0x3c062ce8	0.008189417
173	0x3c42ad78	0.0118821785
174	0x3c8323bc	0.01600825
175	0xbc1f2f40	-0.009715855
176	0xbce1fca0	-0.027586281
177	0xbcd8d240	-0.026467443
178	0xbd6401d2	-0.0556658
179	0x3c166058	0.009178244
180	0x3c9ff318	0.019525096
181	0x3d72b3f4	0.059253648
182	0x3b9d9a10	0.0048096254
183	0xbd14fcfc	-0.036374077
184	0x3d7b290a	0.061318435
185	0xbd05d58c	-0.032674357
186	0xbd66f8cc	-0.056389615
187	0xbd419b5c	-0.047267303
188	0xbce752e4	-0.028237768
189	0x3d17c046	0.0370486
190	0x3d4cc678	0.049993962
191	0x3d1f6dcc	0.03892307
192	0xbc2ccce8	-0.0105469
193	0xbc7e9178	-0.015537612
194	0x3bab2c60	0.005223796
195	0x3d29efee	0.04148858
196	0x3d7c1980	0.061547756
197	0x3d72fb08	0.059321433
198	0x3c50d548	0.012746163
199	0x3d14a91a	0.03629408
200	0xbd0ace12	-0.03388793
201	0xbd006d80	-0.031354427
202	0xbd1553ea	-0.03645698
203	0x3d6ae5a4	0.05734791
204	0xbcf9c9fc	-0.030491821
205	0xba4a7980	-0.00077237934
206	0xbbd92be0	-0.0066275448
207	0xbc602c70	-0.01368247
208	0x3d099ec4	0.033598676
209	0x3b74b980	0.0037342012
210	0xbca66040	-0.020309567
211	0xbca07af8	-0.019589886
212	0xbc930bcc	-0.017949961
213	0x3bf33a10	0.007422693
214	0xbbf68d40	-0.0075241625
215	0xbcc06de0	-0.023489892
216	0x3d17eb12	0.037089415
217	0x3d25d70e	0.040488295
218	0xbd1432c8	-0.03618124
219	0xbd454f88	-0.04817155
220	0xbccd612c	-0.02507075
221	0x3b6d74c0	0.0036232919
222	0x3b92bfd0	0.0044784322
223	0x3c851c80	0.016248941
224	0xbd12e8d4	-0.035866573
225	0x3d48328e	0.048876338
226	0x3c85adf8	0.016318306
227	0xbcfadd64	-0.030623145
228	0xbd026d36	-0.031842433
229	0xbca527a8	-0.020160511
230	0xbcae4f18	-0.02127795
231	0xbd2d049e	-0.04224073
232	0xbd5a693a	-0.053323008
233	0xbd50b082	-0.05094958
234	0x3d2b4e6e	0.041822843
235	0xbd677aac	-0.056513473
236	0x3d34fefc	0.044188485
237	0x3cef614c	0.0292212
238	0x3d7451ee	0.059648447
239	0x3bc93390	0.00614018
240	0x3cd657bc	0.026164882
241	0xbd366806	-0.0445328
242	0xbd13e102	-0.036103256
243	0xbd68a4ea	-0.0567979
244	0xbb99c5d0	-0.0046927705
245	0xbcdb50e0	-0.026771963
246	0x3b713c00	0.0036809444
247	0x3cf78a14	0.030217208
248	0xbcdd8b84	-0.027044065
249	0xbd26de80	-0.040739536
250	0xbd6a128a	-0.057146586
251	0xbd500c96	-0.050793253
252	0xbd07bc1a	-0.033138372
253	0x3c5184b8	0.01278799
254	0x3b345380	0.002751559
255	0xbb193f20	-0.0023383573
