models/2025-04-04/lstm_model.onnx (onnx, 468420 bytes, 6 tensors)

fc.weight f4 [7, 256]
000000 ef 23 5e 3d b7 5f 4f 3d 9e f8 4d 3d 82 56 0b bd
       0.054233488 0.05062839 0.050285928 -0.034018047
000010 9a 01 b1 3d 7b 6e 88 3d 89 5a ca bc 38 45 0f bd
       0.086428836 0.066616975 -0.024701374 -0.03497812
000020 0b ce 8d 3d ba 6a bd bc 19 54 f3 bc af fd 9e bd
       0.06924065 -0.02312218 -0.029703187 -0.0776323
000030 7e 0b f4 3d ad 37 85 3c 32 39 c1 3d d6 e2 90 3d
       0.119162545 0.0162619 0.09434737 0.070745155
000040 4f 2c 94 bd 6e de 4d bc 1a 93 fc bd f2 92 ca bd
       -0.07235014 -0.012565238 -0.12332745 -0.09891309
000050 21 b5 ce 3d ee ac 76 bd 75 ca 2b 3d e7 d8 ee bc
       0.10093141 -0.060223512 0.041941125 -0.029156161
000060 9e a8 c8 bd 9c 68 f5 3c ce dc c5 bd 32 47 4a 3d
       -0.09797786 0.029957108 -0.09661256 0.049384303
000070 65 86 4d bd 5c 74 5d bc a2 d9 ba 3c 2d 7e 27 3e
       -0.050176997 -0.013516512 0.022808854 0.16356726
000080 68 fa 65 3b 50 fa 40 3d c3 1d 98 3d e8 07 80 3d
       0.003509188 0.047113717 0.074275516 0.06251508
000090 7c 15 05 bd 26 53 06 bd c6 43 ba 3d da ac d0 3d
       -0.032491192 -0.03279414 0.09094958 0.10189219
0000a0 0b fb 94 3c fe 3b 58 3c 8f 00 d5 39 d7 3d 20 bd
       0.018186113 0.013197897 0.00040626942 -0.039121475
0000b0 68 a7 d1 3d 2b a8 71 3c 9b d0 d2 bd 7e e3 01 3d
       0.10237008 0.014749567 -0.102936946 0.031711094
0000c0 da 74 14 bd 51 cf c9 3c c2 28 a4 b9 aa 79 f8 bd
       -0.03624425 0.024634989 -0.00031310885 -0.121325806
0000d0 fc 41 4c 3b 0c 8d 60 3d a2 cd 91 3d 08 5c 73 3d
       0.003116726 0.054822013 0.071192995 0.05941394
0000e0 ad 60 61 3d 15 d6 90 bd 20 ef bf bd 58 52 05 be
       0.055023838 -0.07072083 -0.09371781 -0.13019693
0000f0 67 c6 78 3d 55 f1 1e 3b be 9c 26 3c b0 42 88 bc
       0.060736086 0.0024252732 0.010169206 -0.016633362
000100 74 32 b2 3d 55 3e 4e 3c 39 31 03 3c e6 d7 a1 bd
       0.087010294 0.012588103 0.008007341 -0.079025075
000110 85 d9 d3 3d dd 04 b0 bc af 45 42 bd 0d bb 13 3a
       0.10344223 -0.021486694 -0.047429737 0.0005635478
000120 67 86 c4 bc 65 e1 0b 3d 05 f8 93 3d 4d 18 45 bd
       -0.02398987 0.0341505 0.0722504 -0.04811888
000130 6f 6c 75 bc 30 d4 2f 3b 8c 56 7b 3c 33 a9 b5 bd
       -0.014979466 0.0026829354 0.015340459 -0.08870163
000140 a1 66 cb ba 99 59 3b bd 6c b3 d9 3c 88 0e 25 3d
       -0.0015518257 -0.045739744 0.026574813 0.04029706
000150 59 f1 fc 3b eb 8d 59 bc 5e 7e e4 bd 77 ed dd 3d
       0.0077192006 -0.013278465 -0.11156915 0.108363084
000160 fe b9 f9 ba ba 6d 8a 3d a9 e8 89 bd 9b a4 69 3c
       -0.0019052622 0.0675921 -0.067338295 0.014260436
000170 ab cb c5 3a a6 9c 10 3d 21 2c 45 3d 3d b9 28 bd
       0.0015090605 0.03530564 0.048137788 -0.041192282
000180 5c d9 92 bb fe 8d 23 3d e1 34 a6 3d d7 33 b3 3c
       -0.0044814777 0.039930336 0.081155546 0.021875305
000190 df 44 9d 3d 32 ab 43 bd 6e 3a c0 3c ca 8d 63 bd
       0.07679152 -0.047770686 0.023465361 -0.055555142
0001a0 46 91 88 bb 3d 0d 23 3d 79 a8 bc bc 21 6f 4d bd
       -0.0041677086 0.039807547 -0.023029553 -0.05015481
0001b0 e9 78 76 bc 3d b6 9b 3d 29 ac e1 3d 5a a6 e4 bb
       -0.015043476 0.076031186 0.11019165 -0.0069778385
0001c0 00 f8 ba bd 1a 38 68 bd 69 2e 80 3c 96 3d fc bc
       -0.091293335 -0.056694128 0.01564713 -0.030791085
0001d0 fe 39 cd bc e0 58 0a bd ca 3a 5a 3d 62 4e 02 3d
       -0.025052067 -0.033776164 0.053278722 0.031813033
0001e0 b2 4d bb bd 86 33 8e bd f4 0d c3 bd 81 3c 7f bd
       -0.091456786 -0.06943421 -0.09524146 -0.06231356
0001f0 07 a5 99 3d 24 5f ad 3d 95 bd 9f 3c 84 81 91 bd
       0.075021796 0.08465412 0.01949958 -0.07104781
000200 4b dd b1 3c fd b0 29 3b 76 2a 4a bd 87 70 35 3d
       0.021711966 0.0025892847 -0.0493569 0.044296768
000210 07 2d cb 3c d3 6f 88 3d 99 62 9a bc da 81 ea 3b
       0.024801744 0.06661954 -0.018845843 0.007156593
000220 09 3a f1 bc 39 6e 2a bc d6 89 9e bc 98 f1 64 bd
       -0.029446619 -0.010402256 -0.019352835 -0.055894464
000230 7e 92 a7 bb 81 37 fd bb 79 8a fa bc fc 70 a7 bc
       -0.005113899 -0.007727564 -0.030583607 -0.020439617
000240 59 aa 33 bd e3 27 c4 bd 97 a5 b9 3d e9 f2 a6 3c
       -0.043863628 -0.0957792 0.09064787 0.0203795
000250 c8 25 01 3d f6 3f 5d 3d 54 49 1b bd 32 e0 b8 bd
       0.03153017 0.054016076 -0.037911728 -0.09027137
000260 88 00 2c 3d 1c 37 d3 3c da 08 01 3d 32 cf e9 3d
       0.041992694 0.025783114 0.031502582 0.114164725
000270 f1 6e a1 bd c3 4d 27 3d d1 ec 98 3d 6c bc f8 3c
       -0.078824885 0.040845644 0.07467044 0.030363284
000280 6b c5 09 bd fd ed 3c 3d 2e 67 34 bd a2 ad d2 3c
       -0.033635538 0.0461254 -0.044043712 0.02571756
000290 2a 89 ce bc 66 1a f0 bd 8d 1b 18 3d 7a 02 d4 bc
       -0.02521189 -0.11723785 0.03713565 -0.025880087
0002a0 14 bd b6 bc 6a ff b2 bd 43 a1 08 3e 0f bd d7 3b
       -0.022306956 -0.087401226 0.13342766 0.006583817
0002b0 b9 d9 2e 3b 7a 0d 30 3d 48 a1 03 3c 9f 0c 87 bd
       0.0026680066 0.042981602 0.008034058 -0.06594204
0002c0 20 1f 2c 3d 77 23 21 3e 6a a5 c3 3c 9c b4 e6 bc
       0.04202187 0.15736185 0.023882587 -0.028162293
0002d0 0c 37 c0 3d fd 94 3b 3d d2 99 f3 3b e9 8a ac 3d
       0.09385499 0.045796383 0.0074341083 0.084249325
0002e0 65 29 e2 3d bf 68 b1 3d d8 3c 2d 3d 94 6f 8c 3d
       0.11043052 0.08662557 0.042294353 0.06857219
0002f0 d9 b9 91 bd 1f 35 81 bb cf c3 9a bd 9a 8b f1 bc
       -0.07115526 -0.0039431 -0.07556879 -0.029485513
000300 c0 1c f4 3a 07 6d d8 bc 38 a1 06 bd 23 1c a5 3c
       0.0018624291 -0.026419176 -0.032868594 0.020155018
000310 10 06 d5 bb da f6 34 bb c4 2c e5 3c 7a 43 39 bd
       -0.006500967 -0.0027612955 0.027975447 -0.045230366
000320 f9 5b 0b 3d 31 2a af bc 72 03 31 bd 88 99 9c bc
       0.03402326 -0.021382423 -0.043216176 -0.019116178
000330 6b 72 d7 3c dd f5 aa 3d 9e e3 c2 bd f5 d1 91 bc
       0.026299676 0.08347676 -0.09516071 -0.01780031
000340 96 23 da bd 07 a7 b5 3d 7a d5 08 be 5d f6 8d 3d
       -0.10651319 0.088697486 -0.13362685 0.06931756
000350 04 34 bc 3d bc f8 98 bc 66 b4 29 3e b6 90 98 bb
       0.09189609 -0.018673293 0.16572723 -0.0046559228
000360 1b 93 40 bd 64 eb a3 3d f8 56 b8 3b bd 67 0b bb
       -0.04701529 0.080038816 0.005625602 -0.002127155
000370 7c 53 0c 3d f0 fe 4f bd ca a9 ed bc e2 a0 0a bc
       0.034259304 -0.050780237 -0.029011626 -0.008461209
000380 1d cc f6 bd a7 e2 50 bc 43 26 74 3d fb 8d 52 bd
       -0.1205065 -0.012749351 0.0596068 -0.051404934
000390 6c cb d2 bc 98 d7 23 bd 60 88 a0 3d 96 3a c4 3c
       -0.025731765 -0.040000528 0.078385115 0.023953717
0003a0 86 04 cc 3b 0d b3 30 3d ee d2 02 bd 57 44 40 3d
       0.006226125 0.043139506 -0.03193944 0.046940174
0003b0 c3 ef 49 bb 8f a1 b9 3d 92 d5 b3 3d d8 a2 a8 3d
       -0.0030813075 0.09064018 0.0878097 0.08234185
0003c0 84 b1 0d 3d a6 54 17 3d b2 0c 5e bd 07 9e a5 3d
       0.03459312 0.03694596 -0.054211326 0.08086782
0003d0 eb 34 61 3d 40 bf d4 3d 66 2c 85 3d 7e a7 04 3d
       0.054982107 0.103880405 0.06502609 0.032386295
0003e0 2d 13 c7 bc 7a 78 90 bd 88 28 34 39 df 81 c1 3d
       -0.024301136 -0.07054229 0.00017181237 0.09448599
0003f0 1e 25 a3 bc 23 48 fb bd 7c 23 e8 bd 85 64 88 bc
       -0.01991516 -0.12269618 -0.11334893 -0.016649494

fc.bias f4 [7]
000000 e5 f0 45 3d 53 0a 36 3d 0b 78 a7 3d 80 67 87 3d
       0.048325438 0.04444344 0.08177193 0.06611538
000010 58 73 9a 3d e6 5f cb 3d d3 36 e1 3d
       0.07541531 0.099304006 0.10996785

onnx::GRU_197 f4 [2, 768]
000000 a8 10 d5 bd 8e 51 0c be 3f 15 d8 bd 2b 6c f2 bd
       -0.104035676 -0.13702986 -0.10550927 -0.11837038
000010 1c fe 90 bd 3f 26 06 be 16 12 48 bd 57 87 46 be
       -0.070797175 -0.13100527 -0.048845373 -0.19387566
000020 49 f6 d4 bd a0 8d 9e bd 93 7a 75 be 14 39 bc bd
       -0.10398538 -0.077418566 -0.2397254 -0.09190574
000030 d2 00 34 be 1f b8 93 bd ec ac c4 bd d0 fe 19 be
       -0.17578438 -0.07212853 -0.09603295 -0.1503861
000040 6c c6 7e bd 25 67 4e be d9 9b 71 be e1 e6 36 be
       -0.06220095 -0.20156534 -0.23594607 -0.17861511
000050 9b 16 4e be 9a 32 94 bd 15 69 07 be 48 d8 d0 bd
       -0.20125811 -0.07236214 -0.1322368 -0.101975024
000060 9a fe 45 be 48 b5 c9 bd 95 7c cd bd 38 49 64 be
       -0.19335404 -0.0984903 -0.10033528 -0.22293556
000070 f8 d5 48 be 75 e4 56 be 7e e0 ca bd b4 e6 a6 bd
       -0.19612873 -0.20985587 -0.099061 -0.08149472
000080 4c 22 48 be d2 14 da bd b8 30 5f be 94 00 30 be
       -0.19544333 -0.106485024 -0.21795928 -0.1718772
000090 0d c2 83 bd 63 a2 39 be 21 ea 8a bd ac 0c 18 be
       -0.064334966 -0.18128352 -0.06782938 -0.14848584
0000a0 86 c3 94 bd 4b 85 c6 bd a0 7c c5 bd 0e fb 65 be
       -0.07263856 -0.09693392 -0.09642911 -0.22459051
0000b0 a8 1a e7 bd 0d 21 63 be c1 49 19 be 1b 38 c4 bd
       -0.11284381 -0.22180577 -0.14969541 -0.09581014
0000c0 fb d6 eb bd be 0c 3d be ba 3c 39 bd 93 17 01 be
       -0.11515614 -0.18461892 -0.04522393 -0.12606649
0000d0 d1 f5 81 bd e8 10 51 be 30 98 05 be 02 4a 2b be
       -0.06345714 -0.20416605 -0.13046336 -0.1672745
0000e0 88 6f 2c be b1 15 33 be 13 49 09 be 92 08 a2 bd
       -0.16839421 -0.17488743 -0.13406782 -0.07911791
0000f0 76 bf f8 bd 93 57 25 be 52 07 29 be 42 3d 39 bd
       -0.12145893 -0.16146688 -0.16506699 -0.045224436
000100 df a5 d2 bd 39 b3 63 be a8 f2 0e be 8a 1f 1e be
       -0.10285544 -0.22236337 -0.13959754 -0.15441719
000110 92 62 36 be c9 34 01 be 22 37 15 be ae f0 c8 bd
       -0.17811039 -0.12617792 -0.14571813 -0.09811531
000120 07 d7 71 bd 91 31 36 be 37 48 ae bd 27 f0 64 be
       -0.059042957 -0.17792346 -0.08509868 -0.22357236
000130 0e 32 27 be 43 01 96 bd 3e 08 d9 bd d8 0f b7 bd
       -0.16327688 -0.073244594 -0.10597275 -0.08938569
000140 e6 63 07 be ab cb 3f bd 3e b2 38 be 75 19 4b be
       -0.13221702 -0.046825092 -0.18036744 -0.1983393
000150 e4 1b 71 bd aa 28 43 be 4e 0f 21 be 2f f5 dc bd
       -0.05886449 -0.19058481 -0.15728495 -0.107889526
000160 28 65 2e be cd 1a dd bd 2b 70 b1 bd f6 ff b8 bd
       -0.17030776 -0.107961275 -0.086639725 -0.09033196
000170 aa 1a 15 be 9f 97 90 bd b2 a2 dd bd fb 09 a6 bd
       -0.14560953 -0.070601694 -0.10822047 -0.081073724
000180 71 39 f5 bd 19 ef 0f be 37 9a 8e bd b8 3d 3b be
       -0.11973847 -0.14056052 -0.06963008 -0.18285263
000190 6c 92 4a be 7a 80 c6 bd 91 39 66 be 12 81 82 bd
       -0.19782418 -0.09692474 -0.22482897 -0.063722745
0001a0 fd 2f 02 be 2c b8 be bd 3a 73 41 be 0c cb 7d bd
       -0.12713619 -0.09312472 -0.18891612 -0.06196122
0001b0 71 04 28 be 20 be b9 bd 21 0a dd bd cf dd 41 bd
       -0.16407944 -0.090694666 -0.107929476 -0.047330674
0001c0 3c 50 3b be f4 c0 37 be 53 a8 46 be 91 44 fc bc
       -0.18292326 -0.179447 -0.19400148 -0.030794414
0001d0 80 63 19 be 24 a3 12 be 0f 33 d7 bd c0 d0 15 be
       -0.14979362 -0.14320046 -0.105077855 -0.14630413
0001e0 1f 8a 30 be 4f 0a 4c be 0d e2 ea bd 6b bf 69 be
       -0.17240189 -0.19925807 -0.11468897 -0.22826926
0001f0 6d 6b 07 be e3 71 7e bd 28 43 0b be b0 6d 84 bd
       -0.13224573 -0.06212033 -0.13599837 -0.06466234
000200 40 5c 6d 39 53 92 d3 3d e5 3e 0a 3e 69 11 67 3d
       0.00022636447 0.103306435 0.13500555 0.056413088
000210 ee be 79 3b 17 2f 53 3d 58 e8 14 bb ec fc f2 3c
       0.0038108188 0.05155858 -0.0022721495 0.029661618
000220 4b 9a 9d 3d b9 fa 59 bc d8 6a f4 bd 28 f7 76 3d
       0.07695445 -0.013304406 -0.11934441 0.0602943
000230 43 53 7c 3d 00 bb 68 bc 08 99 97 3d 95 65 10 3e
       0.061602842 -0.0142047405 0.07402235 0.1410125
000240 ea 98 99 bd 80 fc 0d 3e 43 0f 4c bc b8 1b 66 bd
       -0.07499869 0.13865852 -0.012454811 -0.05617878
000250 b0 ab f2 bb 86 76 72 3c 26 f8 d3 3a 14 15 8f 3d
       -0.0074057207 0.014798766 0.0016171976 0.06986442
000260 0a cb 7d bd c5 8c b5 bd 1d 31 b6 3d 0f 78 a2 bd
       -0.06196121 -0.0886474 0.08896086 -0.079330556
000270 2b 6f 34 3e 6e 6b bd 3d f4 0b 98 3d 9c 95 fe bc
       0.17620532 0.09249006 0.07424155 -0.031077199
000280 91 ce b1 3d c7 06 d5 3c db 17 41 3e be 2b 4b 3e
       0.086819775 0.026004208 0.18856756 0.19840905
000290 24 1e 19 3e a0 94 1d 3c 09 a1 f0 3d bc 5d 50 3d
       0.14952904 0.0096179545 0.11749465 0.050870642
0002a0 e0 2a 94 3b a9 fc d5 bc a4 25 24 3d 91 a6 5b 3b
       0.0045217127 -0.026121454 0.04007496 0.003351603
0002b0 b1 e4 a6 3d 3b 8d 35 3e f9 d8 61 bd 68 b5 8c ba
       0.08149088 0.17729656 -0.055138562 -0.0010735216
0002c0 d6 4f d6 bd d6 52 b4 3c bb 4e 82 bd cd 17 55 3d
       -0.10464446 0.022012156 -0.06362673 0.05202465
0002d0 ce 54 ff 3c 1d cd 99 bd 14 fb 92 3d 26 ec de 3c
       0.031168368 -0.075098254 0.071767956 0.027212214
0002e0 c2 00 a2 3d 4b 2a 00 be da c2 f6 bd 30 a6 4d bd
       0.07910301 -0.12516133 -0.12048884 -0.050207317
0002f0 c0 82 82 3c 25 fe 8b bd fe 5a 87 3d fc 0e f3 bd
       0.015931487 -0.068355836 0.06609152 -0.118680924
000300 56 16 1a 3e b5 ef 6c 3d f9 e1 ea 3d c9 0c e9 3d
       0.15047583 0.05784579 0.11468882 0.11379392
000310 49 5c 9e 3d 90 42 a4 bd 17 e4 e2 3d c9 ad d9 bd
       0.07732446 -0.08020508 0.11078661 -0.1062885
000320 86 f1 f9 3d e6 89 22 3c 2c 64 73 bc f6 96 23 3e
       0.1220427 0.009920573 -0.014855426 0.15975556
000330 d8 68 0f 3c df 46 84 3c fb 88 1d 3e 51 17 98 bd
       0.008753024 0.016147075 0.15384285 -0.07426322
000340 5f 7a f8 bb 07 4d ac bc b9 db 15 bd 92 0e eb 3d
       -0.007582947 -0.021032823 -0.036586497 0.114773884
000350 94 c0 43 3d 1f 26 6a 3d f2 e2 ea 3d 71 84 d6 bc
       0.04779108 0.05716526 0.11469068 -0.0261862
000360 87 48 71 3d c0 5d 9f 3d ad 64 fe bc 23 64 a4 3d
       0.058907058 0.07781553 -0.031053865 0.08026912
000370 ed d5 06 3d 2b 3b 52 3d 2b dd 06 3b e4 09 a2 3c
       0.03291886 0.05132596 0.0020578604 0.019780107
000380 a3 ed 99 3d 40 ad 0b 3e 7f bf 33 3e a4 b2 41 3e
       0.07516029 0.13640308 0.17553519 0.18915802
000390 49 75 12 3e 50 41 2d 3d ef 1c ef bc eb 7b 81 3d
       0.14302553 0.042298615 -0.029188601 0.063224636
0003a0 1e 07 0f bd 8f b5 3c 3d 22 09 ac 3d 8f 1b 15 3e
       -0.034918897 0.046071585 0.084001794 0.14561294
0003b0 ca 11 08 3d c6 9b 96 3c 3d 94 d2 bc c2 8e b1 3d
       0.03322009 0.018384825 -0.025705451 0.08669807
0003c0 df 03 8c bd 45 c4 69 3c 75 ca 36 bd 83 1a d9 3d
       -0.06836676 0.014267986 -0.04462667 0.1060076
0003d0 3f b5 90 bd 94 db cd 3a 32 3d b6 3d 03 a4 c9 b8
       -0.0706582 0.0015705698 0.08898391 -9.6149764e-05
0003e0 b4 2c 8a bd b5 b1 8c 3d 09 1c 4f 3d 53 a3 bf bd
       -0.06746808 0.068698324 0.050563846 -0.093573235
0003f0 19 0f 12 3d db da 09 bd 8c aa d8 bd 9f f2 c2 3d
       0.03565893 -0.033655982 -0.10579404 0.095189326

onnx::GRU_198 f4 [2, 384, 19]
000000 c3 f3 36 be 02 a9 90 bd 98 70 b1 be 77 46 83 bd
       -0.17866425 -0.07063486 -0.34656215 -0.064099245
000010 65 68 01 be 58 5f de bd da 5c 32 3a 09 a6 12 be
       -0.1263748 -0.10858029 0.0006803997 -0.1432115
000020 f7 fe 16 be 9a 37 b7 bd ea 4b 96 bd 98 09 c3 be
       -0.14745699 -0.08946152 -0.07338698 -0.38093257
000030 90 13 c9 bd 0e 9f a0 be 95 de dd bd 1a 2c 35 bd
       -0.098181844 -0.3137135 -0.1083347 -0.04423151
000040 94 1d d9 bd 00 c6 ce bd 77 13 07 be 1a 82 38 bd
       -0.10601345 -0.10096359 -0.13191019 -0.04504595
000050 d8 32 9d bd 4a 2a 92 be 85 53 48 be b5 1d 48 be
       -0.07675713 -0.2854789 -0.1956311 -0.19542582
000060 3a 0c 65 bd 5f f1 55 bc 26 7e 12 bd 59 d1 46 be
       -0.055919863 -0.013058036 -0.035764836 -0.19415797
000070 d9 c1 2b bd 67 c2 f9 bd 1f de 70 be 79 89 4c bd
       -0.041932914 -0.121952824 -0.23522232 -0.04993579
000080 06 61 87 be 37 9e 1a be 20 16 54 bc 9d d9 0a be
       -0.2644121 -0.15099417 -0.012944728 -0.13559575
000090 a9 90 0e bd 98 f6 55 be 7d 1c 21 be a8 d9 45 be
       -0.034805927 -0.2089485 -0.15733524 -0.1932131
0000a0 7e 46 a8 be 8c d4 c8 bd 17 9b 5f be bc 12 46 be
       -0.3286628 -0.09806165 -0.21836506 -0.19343084
0000b0 b5 03 1f 3c 2f 47 c1 bc 26 d4 f2 bd 1d 2d 1e be
       0.009705474 -0.023593513 -0.1185687 -0.15446897
0000c0 04 de 06 be b8 a0 a2 be 6c e8 86 bd 4b b3 96 be
       -0.1317063 -0.31763244 -0.065873 -0.29433665
0000d0 b5 6c 07 be 45 75 15 be 29 3d f5 bd 81 24 12 bd
       -0.13225062 -0.14595516 -0.11974556 -0.035679344
0000e0 b9 e9 63 bd b6 ff dd bd de 45 30 be e1 8b 6c be
       -0.055642817 -0.108397886 -0.17214152 -0.23100235
0000f0 0a d5 d7 bd ab 66 24 be a9 1c 2c be df 83 c8 bd
       -0.10538681 -0.1605479 -0.16807808 -0.097907774
000100 ff 2f 89 bd 1b 5d 0b be 43 ad 8d bc ea ab d9 bd
       -0.06698608 -0.13609736 -0.017294532 -0.10628493
000110 c5 9e 78 be 22 06 32 be 99 8c ae be 0f f2 22 be
       -0.24279316 -0.17385152 -0.34091642 -0.1591265
000120 3f 97 4c be 14 55 2f be b5 00 48 be 54 e7 12 be
       -0.19979571 -0.17122298 -0.1953152 -0.14346057
000130 87 c1 04 be 74 9e 12 be 2e c4 cc be 46 12 94 bc
       -0.1296445 -0.14318258 -0.39993423 -0.01807512
000140 1d 0f 0f be 12 25 9d bd 13 e1 6d 3b 2b 09 0d be
       -0.13970609 -0.07673086 0.0036297485 -0.13773029
000150 c2 23 2e be d5 2c 45 39 3d 17 6d 3c 9d 8c b3 be
       -0.17005828 0.00018804085 0.0144708725 -0.35068217
000160 09 37 63 bd e1 f4 c1 be de 6f 25 be ad a4 c9 bc
       -0.055472407 -0.3788214 -0.16155955 -0.024614656
000170 85 04 cc bd bb 57 9e bb 86 1c e5 bd f5 95 1d be
       -0.099617995 -0.0048322356 -0.11187081 -0.15389235
000180 fd db 88 bd ec b2 5c be 6c 39 0b be 42 36 49 be
       -0.066825844 -0.21552628 -0.13596123 -0.19649604
000190 f3 ab 1c be f9 17 15 be dc fd 70 bd e2 fc 1d be
       -0.15299968 -0.14559926 -0.05883585 -0.15428498
0001a0 f2 09 c2 bd aa 3a 87 bd 09 ef 86 be 05 21 50 be
       -0.09474553 -0.06602986 -0.26354244 -0.20325096
0001b0 03 ee 45 be b9 6b af bd 9a a8 39 be 0a 37 5d bd
       -0.19329076 -0.08565468 -0.18130723 -0.054007567
0001c0 e7 ce c5 bd 0f 02 27 be 34 46 39 be be 52 10 be
       -0.09658604 -0.16309379 -0.18093187 -0.14094064
0001d0 cf 16 c0 be df 2b fe bd c9 26 fc bd 84 f4 1b be
       -0.37517402 -0.124107115 -0.12312085 -0.15229994
0001e0 60 f7 dc 3c 01 66 da bd 3e e8 b2 bd 0a 73 34 be
       0.026973426 -0.10663987 -0.08735703 -0.17622009
0001f0 05 97 15 be 0f 6d 81 be 79 8b ba bd 4e ac 83 be
       -0.1460839 -0.25278518 -0.091086335 -0.25717396
000200 49 7b 27 be 7c c8 ad bc 17 42 85 bc 62 69 85 bd
       -0.16355623 -0.021213762 -0.016266866 -0.06514241
000210 bd 96 21 be b3 88 98 bd 58 49 14 be 52 da 22 be
       -0.15780158 -0.07447948 -0.14481103 -0.15903595
000220 0c fe 23 be ec 67 34 be ee 43 10 be 59 d6 6e bd
       -0.1601488 -0.17617768 -0.14088413 -0.058309887
000230 1f 6c e9 bd 7c a7 5b bd d5 45 cc bd bd 49 63 be
       -0.113975756 -0.053626522 -0.09974257 -0.22196098
000240 2d 8b 75 be 5e e9 64 be 10 d4 90 be e0 00 fd bd
       -0.23978873 -0.22354648 -0.2828679 -0.123536825
000250 0d 52 d1 bd 6a ae ff bd 23 01 15 bd 4d a0 41 be
       -0.10220728 -0.12484439 -0.036378037 -0.18908806
000260 f4 ef 11 be 3f 2b 25 be 9d ba 83 be c1 32 27 be
       -0.14251691 -0.16129778 -0.25728312 -0.16327955
000270 4d 7d b1 bd 69 6d 3d be a3 cb 19 be e1 99 e0 bd
       -0.08666477 -0.18498768 -0.15019087 -0.1096685
000280 34 e6 a9 bd a3 df cf bd bd 03 ba bd 46 7c 76 be
       -0.08295861 -0.10150077 -0.09082744 -0.24070844
000290 d9 b1 95 bd 42 bf 38 be 32 82 9d bd 79 0f 0e be
       -0.073093124 -0.18041709 -0.076908484 -0.1387309
0002a0 8e 9c 48 be f2 28 2b be e0 76 e9 bd 00 3d 87 bd
       -0.19590971 -0.16714838 -0.11399627 -0.06603432
0002b0 8e 84 25 be 1e 69 68 be 52 f6 f1 bd 4c f7 0d be
       -0.16163847 -0.22696349 -0.1181456 -0.13863868
0002c0 80 d7 00 be ad b5 bb bd 12 af 6b bc d4 79 09 be
       -0.12582207 -0.09165511 -0.014385002 -0.1342538
0002d0 e5 85 32 bd 18 b1 36 be 63 f7 b0 be 12 15 fb bd
       -0.043584723 -0.17840993 -0.3456374 -0.12259878
0002e0 4e 8d 5a be 93 c4 a0 bd 21 6e b0 bd ab cd 3d be
       -0.21342966 -0.078499936 -0.086147554 -0.18535487
0002f0 7c 1f cb bd a9 fe 3e be 3f 52 4a be f8 2a 0d be
       -0.099181145 -0.18651833 -0.19757937 -0.13785923
000300 c9 50 9c be 1f 0b 82 be 15 1b dc be 69 73 0c be
       -0.30530384 -0.2539911 -0.42989412 -0.137159
000310 50 a5 dc 3c a3 7d f7 bd 71 b1 1e 3d 99 8b 79 be
       0.026934296 -0.1208451 0.03874344 -0.24369659
000320 c2 28 7f be b1 c6 27 be 73 0a 62 be a7 4a 78 be
       -0.24917892 -0.16384389 -0.22074299 -0.24247228
000330 30 14 c7 bd 32 99 40 bd f7 30 60 bd a8 69 0a 38
       -0.09720647 -0.0470211 -0.054734197 3.3000164e-05
000340 c1 a0 34 be 65 3c 06 be 26 46 8f bd 1f d8 97 be
       -0.17639448 -0.13108976 -0.06995802 -0.29657075
000350 08 3e 25 be 0a a7 ae bd 46 36 49 be 93 30 ff bd
       -0.16136944 -0.08527954 -0.1964961 -0.12460437
000360 9b 90 36 bd 7c f3 44 be a8 42 de bd 3b cd 97 bd
       -0.0445715 -0.19233507 -0.108525574 -0.074121915
000370 ad 78 9e be 46 35 3d be 7e 9a be be b2 79 4d be
       -0.30951443 -0.18477353 -0.37227243 -0.20065954
000380 c0 1e af bd 12 50 25 be ad 91 cc bd 06 91 19 be
       -0.08550787 -0.16143826 -0.09988723 -0.14996728
000390 24 5b 1a be 31 d9 23 be ed 17 86 be 3e 59 b9 be
       -0.1507383 -0.1600082 -0.2619013 -0.362009
0003a0 ea 57 b3 be 65 89 60 be 16 27 f1 bd fe 1e 8a 3c
       -0.3502801 -0.21927412 -0.11775033 0.016860481
0003b0 28 e9 90 3c 02 46 8d be fd 14 92 be 68 7e 03 be
       0.017689303 -0.27592474 -0.28531638 -0.12841189
0003c0 70 2b 6c be 4b ca 55 be 04 07 55 be 63 cf 64 bd
       -0.23063445 -0.2087795 -0.20803457 -0.055861842
0003d0 09 ac 2e bd 02 39 01 be 7e 87 67 bd f7 10 2a be
       -0.042644534 -0.12619403 -0.0565257 -0.16608034
0003e0 a9 86 7b bd b0 08 b1 be ad 58 23 be 1c d9 03 be
       -0.06140772 -0.3457694 -0.15951796 -0.1287579
0003f0 90 37 3a be fa 77 8c bc bf a0 2e be 38 f9 15 be
       -0.18185258 -0.017147053 -0.17053507 -0.1464585

onnx::GRU_199 f4 [2, 384, 128]
000000 88 03 80 bd b8 50 01 3d 97 fd ab 3d e8 c2 1e bd
       -0.062506735 0.03157112 0.08397978 -0.038760096
000010 de 91 b3 bd 7e c8 6f bd ab 6f 09 3d 9c 94 7b 3d
       -0.08768056 -0.058540814 0.03355376 0.06142102
000020 f1 89 8d bc e1 9d 21 3b 48 8f 83 bd ef a3 25 bd
       -0.01727769 0.0024660754 -0.06423813 -0.040439542
000030 16 31 70 bd 29 b0 6b 3d 24 ac 8e bc b5 79 16 bd
       -0.058640562 0.057541046 -0.017416067 -0.036737163
000040 36 e5 1c bc d2 47 23 3d 5a b7 48 bd 95 2b 4d bc
       -0.0095761325 0.039863415 -0.049002983 -0.012522598
000050 1b 8d 19 3d b1 2f 2b bc 46 9d ea 3c 9b 3a 73 bd
       0.037488084 -0.010448382 0.028639447 -0.059382062
000060 a1 4d a4 bb 05 a3 2f bd 14 aa a6 3d 38 ce b4 bd
       -0.005014137 -0.042880077 0.081379086 -0.088283956
000070 00 26 36 bd 4b f1 0e bd 80 ce 1f 3d 02 8d 21 bd
       -0.044469833 -0.034898084 0.039015293 -0.039441116
000080 75 41 64 bd d8 e7 a8 bb 29 ef e7 bc a2 cd af 3d
       -0.055726487 -0.005154591 -0.028312283 0.08584143
000090 8a b2 5e 3d 37 95 8d 3d 93 aa 97 bd c9 c1 ba bc
       0.054369487 0.06913226 -0.07405581 -0.022797482
0000a0 85 bb 8a bd e1 58 a3 3d 62 b4 56 3d e5 c3 8d bd
       -0.06774048 0.07975937 0.05241812 -0.069221295
0000b0 fa cc 85 bd 94 e0 32 3d 8a b5 37 bd 7c 53 e7 3c
       -0.06533237 0.043671206 -0.044850864 0.02823805
0000c0 3d f7 9e bd 9f 79 90 bd 87 80 f6 bc 0a 9a 8d bd
       -0.07762001 -0.070544474 -0.030090583 -0.06914146
0000d0 03 9e 5e 3d ec 3e 8a bd f6 f1 ec bc 1e 1a b1 bd
       0.05434991 -0.06750283 -0.02892397 -0.086475596
0000e0 48 18 a6 3d f0 54 6c 3c aa f9 5b bd ef 9a 9e bc
       0.081101 0.014424548 -0.053704895 -0.019360987
0000f0 2f 18 d9 3c cd c8 f7 bc e1 78 90 3d d2 87 a6 bc
       0.02650079 -0.030247116 0.07054306 -0.020328436
000100 e5 6f a9 3d 90 92 45 3d f5 70 7f 3d 26 ad 18 3b
       0.08273295 0.048235476 0.062363584 0.0023296564
000110 16 cb d0 bc 58 07 1a 3d 99 74 63 3d f2 10 46 3c
       -0.025487464 0.03760466 0.055531118 0.012089001
000120 ff 80 90 3c ff a5 9b 3d fa 8e 44 bd d7 2b 9c bc
       0.017639635 0.076000206 -0.047987916 -0.019063873
000130 38 61 dc 3b e4 f9 29 bc 4c 14 50 bd 86 30 e8 3c
       0.0067254566 -0.01037452 -0.050800607 0.02834345
000140 a4 23 8b 3c 82 1b 5b bd 9b 75 a3 bb bc 09 26 3c
       0.016984768 -0.05349303 -0.004988385 0.010134157
000150 a2 21 13 bc ff e8 de 3c 33 66 a6 bd 9a d6 47 bc
       -0.008980187 0.02721071 -0.08124962 -0.012197161
000160 d2 90 85 3d 4b 2a 20 3b 2a 37 2b bc e1 f9 c5 bc
       0.06521763 0.002443927 -0.010450164 -0.024167003
000170 a3 92 5f bc ad 5a 2a bc b4 6d 30 bd f9 50 81 bd
       -0.013645801 -0.010397595 -0.04307337 -0.063142724
000180 fe aa f7 bb 35 7f b3 3d d0 82 88 3d 3c 86 8c 3b
       -0.0075582257 0.08764497 0.066655755 0.004288463
000190 23 cb 1c 3d 37 3d 9f 3c 69 ba 39 bd f6 b3 02 3d
       0.038279664 0.01943837 -0.04534379 0.031909905
0001a0 aa 67 25 3d 50 ed bf bb 3c e1 57 3d 89 0e 10 3d
       0.040382065 -0.0058571473 0.052705035 0.03517011
0001b0 c8 9d 2b bd ea fe d2 3c 05 40 25 3d 1b 01 8f 3d
       -0.04189852 0.025756318 0.040344257 0.06982633
0001c0 50 c6 76 bd 0b ef a6 bd 50 d7 0d bd 7d 79 f4 3b
       -0.06024772 -0.081510626 -0.034629166 0.0074607716
0001d0 a0 cd 8e bd bb f6 b2 bc 8f 6a 84 bd 9f 03 89 bd
       -0.069728136 -0.021846166 -0.06465637 -0.06690144
0001e0 94 c7 db 3c 97 c6 30 3d 6b 1e 43 3c ab 24 7b 3d
       0.026828565 0.04315814 0.011909108 0.061314266
0001f0 03 87 ad bc fa 50 3b 3c d4 80 85 3d df f1 95 3d
       -0.021182543 0.011432881 0.06518713 0.07321524
000200 ca 4b cf 3c a5 8c 9a bd 81 22 af 3c ec 71 82 3d
       0.025304694 -0.07546357 0.021378757 0.06369385
000210 77 a7 f6 3c 76 4b b2 bd 34 a4 ec bc 8a 7c 39 bd
       0.03010915 -0.08705799 -0.028886892 -0.045284785
000220 24 ec a2 bd 0c 9b 96 bd d2 03 6a 3d ac f0 67 bd
       -0.079551965 -0.073537916 0.05713255 -0.056626007
000230 d9 38 5a bd c5 8d 1d bd 0c 09 1a bc 94 3a 57 3d
       -0.05327687 -0.03846528 -0.009401571 0.0525461
000240 60 56 b2 bd 40 e5 21 bd 11 1f 6c bc 77 e9 c8 3c
       -0.08707881 -0.03952527 -0.014411704 0.024525387
000250 d5 e1 48 bd 8a dc c4 bc b4 ab 42 bd b6 87 a2 bc
       -0.049043495 -0.024030942 -0.04752703 -0.019840103
000260 23 29 3b 3d 2b 14 19 bd 7f 9f 42 bc 81 27 6d bd
       0.045693528 -0.03737275 -0.011878847 -0.057899002
000270 6e 41 ca 3c b6 84 68 bd 89 d4 a7 3c e8 37 b4 bd
       0.024689402 -0.056767188 0.020487087 -0.08799726
000280 cd 5f 0d 3d 6a 52 02 3d 37 4f 89 bd d6 58 38 bc
       0.03451519 0.031816877 -0.06704562 -0.011251649
000290 9c 36 59 bd f8 e3 2c bd cc bb 27 3d 16 bb 4e bd
       -0.053030595 -0.042209595 0.04095058 -0.050471388
0002a0 84 65 4c 3d 21 fb 36 3d 1d 4d a2 3d 32 7a 07 bd
       0.0499015 0.04467309 0.079248644 -0.03307552
0002b0 9c 8b a0 bd 9e 5a 6a 3d f5 5f aa bc c9 84 0e bd
       -0.078391284 0.057215326 -0.020797709 -0.034794603
0002c0 27 91 2b bd a1 57 a8 3d 04 d9 8c bd 35 44 9d 3c
       -0.041886475 0.08219839 -0.0687733 0.019197563
0002d0 2f e6 8f 3c 99 25 0d bd d6 f9 4d 3d 14 77 51 3d
       0.017565815 -0.034459684 0.05028709 0.051138952
0002e0 bf 8d 73 3d b4 1b c3 3c b4 60 c0 3c 87 15 cd 3c
       0.05946135 0.02381692 0.023483612 0.02503468
0002f0 bd d0 e6 bc 26 a3 90 bd 02 9b 29 3b 3a e0 05 3c
       -0.028175706 -0.07062368 0.0025879745 0.008171136
000300 9a ae 5f 3d 9a f7 73 3c ad f4 21 3b ac 47 00 bd
       0.054609872 0.014890576 0.0024712489 -0.03131835
000310 c0 88 97 3d b4 0d a0 3d 4a 0b b2 3d 7c 57 b9 bb
       0.0739913 0.07815114 0.086935595 -0.005656181
000320 e5 b4 31 bd 42 8d 92 bd f9 23 b2 bd ab e0 90 bd
       -0.043385405 -0.07155849 -0.086982675 -0.07074102
000330 3a 89 e7 bc 8e 09 8d 3d cd dd a6 bd 31 86 d7 bc
       -0.028263677 0.06886588 -0.08147774 -0.026309105
000340 aa 66 11 3d f2 0d 2a 3d fe a0 7e 3b 1e b1 a2 bc
       0.0354983 0.041517206 0.0038853283 -0.019859847
000350 a6 ad 89 3b de dc 62 bd 11 55 32 3d de 8e 53 3d
       0.0042016087 -0.055386417 0.043538157 0.05164992
000360 62 e0 72 3c 4e 19 7e 3d f4 2c 55 3d 1c 90 a9 bd
       0.014824005 0.06203585 0.052044824 -0.0827944
000370 51 54 0e bd e2 1e 9a bd 77 db 03 3d 86 67 a2 bd
       -0.03474838 -0.07525422 0.03219172 -0.07929902
000380 cd f8 ab 3c bc 1e 93 bd 6f b7 38 3d fc f2 77 bd
       0.02099266 -0.071835965 0.04509681 -0.060534462
000390 7b fd a2 bd b2 42 12 bd 86 5c ef 3c 96 b6 1a bd
       -0.07958504 -0.035708137 0.029218923 -0.037771784
0003a0 9b 29 07 3d c6 00 39 3b 7e ea 44 bd 35 d7 9f bb
       0.032998662 0.002822922 -0.04807519 -0.0048779496
0003b0 38 b1 65 3d af c6 5d bd d6 0f 9e 3d 25 36 c9 3c
       0.056077212 -0.054144558 0.07717864 0.024561951
0003c0 98 31 3c 3d e7 72 8b bc 4d ca 86 3d 03 0b 87 bd
       0.045945734 -0.017022563 0.065815546 -0.06593897
0003d0 d4 1f 12 bd 21 34 63 3d d5 a0 42 bd 7a 5e 97 3d
       -0.035674885 0.055469636 -0.047516663 0.07391067
0003e0 9a 3f 03 bd 5c 72 ab bd 23 cd aa 3d 16 c0 93 3d
       -0.032043077 -0.08371422 0.08339908 0.07214372
0003f0 43 42 15 3d 8e 0d 9b bd 70 8e 9c 3c 34 fc ab bc
       0.036440145 -0.07570945 0.019110888 -0.020994283

onnx::MatMul_200 f4 [256, 1]
000000 98 6f 64 bc d0 03 76 3d 10 64 da bc e0 e7 cb 3c
       -0.013942622 0.06006223 -0.026659042 0.02489084
000010 9c 78 75 3d 68 97 1e 3c 24 35 7a bd 60 ac ef bb
       0.059929475 0.009679653 -0.061085835 -0.00731425
000020 da 08 35 3d 90 b6 9a 3b 08 4e 28 bc 56 24 33 3d
       0.044197895 0.00472147 -0.01027251 0.043735825
000030 98 bf 67 3c d0 f0 bf 3b 30 53 63 3d b4 18 20 3d
       0.014144801 0.0058575645 0.055499256 0.03908606
000040 00 ee c0 39 b0 d2 b5 3b 10 3b 82 bc 02 46 1f 3d
       0.00036798418 0.0055487975 -0.015897304 0.038885124
000050 e4 39 54 3d 60 c8 7f bd 64 2f 4b bd 98 18 8f bc
       0.05181302 -0.062446952 -0.049605742 -0.017467782
000060 d8 3f fa 3c 6e 1d 26 bd f4 e7 ab 3c 50 fd 73 3c
       0.030548021 -0.04055541 0.020984627 0.014891937
000070 b4 fb f4 3c 10 86 01 3d e0 b5 05 3c 00 61 27 3a
       0.029905178 0.031621993 0.008161038 0.00063849986
000080 90 c6 86 bb 00 de 5f 3c 28 c5 29 3c 76 72 08 bd
       -0.004113026 0.013663769 0.010361947 -0.033312283
000090 08 17 2c 3d 86 38 45 3d 84 7d 37 3d 60 c7 3d 3c
       0.04201415 0.048149608 0.044797435 0.011583179
0000a0 3a 8d 0e 3d 3a 46 70 bd b0 4e 29 3c 0c 4f bb bc
       0.034802653 -0.058660723 0.010333702 -0.02286484
0000b0 e8 3d d8 bc 64 87 68 3d 10 f6 8a bb 2c 8b 7e bd
       -0.026396707 0.056769744 -0.0042407587 -0.062144443
0000c0 dc b2 c5 bc e0 50 de bb e4 55 2c 3d 00 19 81 3a
       -0.024133138 -0.0067845434 0.0420741 0.000984937
0000d0 c0 c9 32 3d ce 85 19 bd 58 77 d0 bc 28 f5 39 bd
       0.043649435 -0.03748112 -0.025447533 -0.045399815
0000e0 e8 a9 6f 3c 78 86 d3 3c 8c 88 c2 bc 40 7d 35 bb
       0.014627911 0.025820956 -0.023746751 -0.0027693063
0000f0 7e 1c 16 3d 48 80 65 bd 8e 86 51 3d 94 f6 4a bd
       0.036648266 -0.05603054 0.051153712 -0.04955156
000100 c4 75 b8 bc ee 4c 14 3d f0 d9 44 bd f4 23 85 bc
       -0.022517093 0.03620618 -0.048059404 -0.016252495
000110 5c 78 14 bd 40 bb 57 bb 56 42 6e 3d 50 ca 71 3d
       -0.036247596 -0.0032918006 0.05816873 0.05903083
000120 40 af ae bb 96 e4 38 3d 70 a8 3a bd d4 c1 9a bc
       -0.00533095 0.04513987 -0.04557079 -0.018891253
000130 2e 6a 78 3d f4 ff f4 3c a2 6f 1a bd 60 06 1e 3c
       0.060648136 0.029907204 -0.037704118 0.009645075
000140 10 d3 61 3c c2 21 62 bd 00 5b 9e b9 9a 67 78 3d
       0.013783231 -0.055207975 -0.0003020391 0.060645677
000150 7e f0 2f bd 40 ed c9 3a d8 a1 4c bd 88 05 ae bc
       -0.04295396 0.0015405789 -0.049959034 -0.021242872
000160 04 9b ee bc c0 ec fc 3a 78 c5 d5 bc e0 91 03 3b
       -0.029126652 0.0019296631 -0.026095137 0.0020075962
000170 64 e5 b8 bc b2 b0 4e 3d 4a 64 0e 3d 20 c1 a4 bc
       -0.02257032 0.05046148 0.03476361 -0.02011162
000180 04 ee 5a 3d e0 9a 7e bc 74 c6 bc bc 50 fe a1 3b
       0.053449646 -0.015539855 -0.023043849 0.0049436465
000190 e0 1f 6f bb 56 d0 05 bd fc 55 35 bd 32 13 35 bd
       -0.0036487505 -0.032669388 -0.044271454 -0.04420776
0001a0 70 35 35 3c b8 4c 58 bc 48 9e f8 bc 9c 02 d2 bc
       0.011060104 -0.013201885 -0.030348912 -0.02563601
0001b0 34 2c 23 3d f8 5e 81 3c 4a 5c 1b 3d ac 0a 92 3c
       0.039837077 0.015792355 0.03792981 0.017827354
0001c0 f2 47 38 bd a8 ff f9 bc 28 b4 46 3c 40 d3 78 bc
       -0.044990487 -0.030517414 0.012127914 -0.015187085
0001d0 30 2e 59 bc 70 53 70 3d 72 d8 54 3d 02 72 26 bd
       -0.013255641 0.058673322 0.05196423 -0.04063607
0001e0 e2 50 39 bd c8 38 13 3c c8 aa 80 bc 34 10 d8 bc
       -0.04524315 0.008985706 -0.015706435 -0.026374914
0001f0 48 b5 c3 bc 42 a7 31 bd b2 64 35 bd 48 52 bb 3c
       -0.023890153 -0.0433724 -0.044285484 0.022866383
000200 34 c7 c8 3c 18 80 b8 bc 30 36 e3 bc de 05 36 3d
       0.02450905 -0.022522017 -0.0277358 0.04443919
000210 56 3b 32 3d 3c e5 29 bd 38 eb 54 bc 66 42 47 3d
       0.04351362 -0.04147838 -0.012995534 0.048647307
000220 48 73 5b 3d 98 8e 03 3d 5c c2 58 3d 72 fa 56 bd
       0.053576738 0.03211841 0.05291973 -0.052484937
000230 30 df 9b bb 32 39 75 3d a4 9f 59 bd b8 17 73 3c
       -0.0047568306 0.059869 -0.05313076 0.014837198
000240 ba 24 48 3d c8 27 eb 3c 64 84 c6 bc c0 e5 a7 ba
       0.04886315 0.028705493 -0.02423305 -0.001280956
000250 18 bf 64 3d c6 a5 64 3d 14 07 52 3d 08 d8 7f 3c
       0.055846304 0.055822156 0.05127628 0.015615471
000260 74 62 fb 3c 1c ad 48 bd 48 67 72 bc 0a 90 50 bd
       0.030686595 -0.048993215 -0.014795132 -0.050918616
000270 e8 31 57 3d 88 72 4c 3c a8 a7 cd bc e8 f0 36 3d
       0.05253783 0.012478478 -0.025104359 0.04466334
000280 8a c0 2b 3d da 16 7e 3d 88 7f 5b 3c 94 c8 43 3d
       0.041931666 0.06203351 0.013397105 0.047798708
000290 f4 7e 73 bd 5c bf 77 3d 80 0b a0 3c f2 b6 0e 3d
       -0.059447244 0.06048523 0.019536734 0.03484244
0002a0 70 f7 9d bb a8 0e 2f 3d 70 ca 7c bd ec 1e 27 3d
       -0.0048207566 0.042738587 -0.061716497 0.040800974
0002b0 e8 2c 06 3c 78 ad 42 3c bc 23 83 3c 40 2f 1f bc
       0.008189417 0.0118821785 0.01600825 -0.009715855
0002c0 a0 fc e1 bc 40 d2 d8 bc d2 01 64 bd 58 60 16 3c
       -0.027586281 -0.026467443 -0.0556658 0.009178244
0002d0 18 f3 9f 3c f4 b3 72 3d 10 9a 9d 3b fc fc 14 bd
       0.019525096 0.059253648 0.0048096254 -0.036374077
0002e0 0a 29 7b 3d 8c d5 05 bd cc f8 66 bd 5c 9b 41 bd
       0.061318435 -0.032674357 -0.056389615 -0.047267303
0002f0 e4 52 e7 bc 46 c0 17 3d 78 c6 4c 3d cc 6d 1f 3d
       -0.028237768 0.0370486 0.049993962 0.03892307
000300 e8 cc 2c bc 78 91 7e bc 60 2c ab 3b ee ef 29 3d
       -0.0105469 -0.015537612 0.005223796 0.04148858
000310 80 19 7c 3d 08 fb 72 3d 48 d5 50 3c 1a a9 14 3d
       0.061547756 0.059321433 0.012746163 0.03629408
000320 12 ce 0a bd 80 6d 00 bd ea 53 15 bd a4 e5 6a 3d
       -0.03388793 -0.031354427 -0.03645698 0.05734791
000330 fc c9 f9 bc 80 79 4a ba e0 2b d9 bb 70 2c 60 bc
       -0.030491821 -0.00077237934 -0.0066275448 -0.01368247
000340 c4 9e 09 3d 80 b9 74 3b 40 60 a6 bc f8 7a a0 bc
       0.033598676 0.0037342012 -0.020309567 -0.019589886
000350 cc 0b 93 bc 10 3a f3 3b 40 8d f6 bb e0 6d c0 bc
       -0.017949961 0.007422693 -0.0075241625 -0.023489892
000360 12 eb 17 3d 0e d7 25 3d c8 32 14 bd 88 4f 45 bd
       0.037089415 0.040488295 -0.03618124 -0.04817155
000370 2c 61 cd bc c0 74 6d 3b d0 bf 92 3b 80 1c 85 3c
       -0.02507075 0.0036232919 0.0044784322 0.016248941
000380 d4 e8 12 bd 8e 32 48 3d f8 ad 85 3c 64 dd fa bc
       -0.035866573 0.048876338 0.016318306 -0.030623145
000390 36 6d 02 bd a8 27 a5 bc 18 4f ae bc 9e 04 2d bd
       -0.031842433 -0.020160511 -0.02127795 -0.04224073
0003a0 3a 69 5a bd 82 b0 50 bd 6e 4e 2b 3d ac 7a 67 bd
       -0.053323008 -0.05094958 0.041822843 -0.056513473
0003b0 fc fe 34 3d 4c 61 ef 3c ee 51 74 3d 90 33 c9 3b
       0.044188485 0.0292212 0.059648447 0.00614018
0003c0 bc 57 d6 3c 06 68 36 bd 02 e1 13 bd ea a4 68 bd
       0.026164882 -0.0445328 -0.036103256 -0.0567979
0003d0 d0 c5 99 bb e0 50 db bc 00 3c 71 3b 14 8a f7 3c
       -0.0046927705 -0.026771963 0.0036809444 0.030217208
0003e0 84 8b dd bc 80 de 26 bd 8a 12 6a bd 96 0c 50 bd
       -0.027044065 -0.040739536 -0.057146586 -0.050793253
0003f0 1a bc 07 bd b8 84 51 3c 80 53 34 3b 20 3f 19 bb
       -0.033138372 0.01278799 0.002751559 -0.0023383573
