models/2022-10-14/gan_model.pth (torch, 117138 bytes, 11 tensors)

generator.0.weight f4 [128, 100]
00000000: 5c2d 5b3a 6bf0 5abe c914 1cbd c0f8 003d
00000010: 2290 dfbd a0f3 f13d b8f3 debd 613b febd
00000020: f930 473c f093 e03c 9e59 5fbc 156d ad3c
00000030: 3139 f1bc eab2 aebd b781 553d 5aed 06bd
00000040: 4800 56bd 4621 89bd 5541 0c3e bda4 8dbd
00000050: bf6c 59bd aade 113e e94a 0f3e ef17 d63d
00000060: 601e 34be 23e4 52bd abd3 93bd fc2f 833d
00000070: 7acd 09be 8004 f5bd 8cf5 95bd 8a47 333d
00000080: 1ade 70bd e53b 193e f894 3c3e a5c5 b6bc
00000090: b42f 7d3d 9343 213e de10 28be 072b c33d
000000a0: 0f36 023d b749 003e 68a8 ea3c d068 fd3c
000000b0: b88e d4bd 758c 1d3e 3c9e 23be d89e 89bc
000000c0: 68af 52bd ec6d 44bd e1a1 6d3d 1a64 0e3e
000000d0: ea09 89bd f6a9 fc3d da3f a43d 1074 813c
000000e0: 397d adbc f0f7 6fbc e85d 303d 289c bebd
000000f0: 6213 67bc cd55 e6bd f221 41ba 0ee0 a93b
00000100: 570e 3cbd a835 c33d a92f 01bc b940 203e
00000110: c477 17be 51a6 53be 0a8c abbd 65bb e0bd
00000120: be0b 13be c4dd 8f3d 6cc7 2e3c 655b 7c3c
00000130: 4eae d6bd 0584 0c3d 4ffc f33d 40cc 84bd
00000140: 1616 663e 43bb 283d ad2a 8a3d 75fd 163e
00000150: 2a4d 5dbe 5c55 c23d 52da 3b3d bf2f 7c3d
00000160: 7e0b 363e fac0 e5bc be4a 433e 8a74 aabc
00000170: 610e 98be a7ae 543e e19e 89bd 3699 b8bd
00000180: 2292 933d d538 5ebd 4e0e ccbd c567 ac3d
00000190: a40d b33c df6c 1fbe f90b a53d d433 713d
000001a0: c466 3cbd bfe5 533d 19d1 983d d804 73be
000001b0: 69a8 273c 9894 513d 0513 c3bd 2590 db3d
000001c0: a659 12bc 1cb4 933b 8f36 983d d292 9d3b
000001d0: c267 adbd fe64 a63c 8324 8b3d a6ab b2bd
000001e0: 426f 92bd 4ada c33d 3241 a03e 2ccd 043d
000001f0: 6a65 c3bd 90b8 c63d 7456 e3bd e4f0 86bb
00000200: 814d a2bd 85f6 98bd 8497 59bd 01f3 163e
00000210: 005d 403d ab2b 2a3d 15c1 0cbd d1bf bf3c
00000220: 9909 af3d b042 173e b505 43be 1609 a43c
00000230: 69e5 ac3d 7fcb ba3d 7b54 383d 62e2 aabc
00000240: ba7b 1bbe 07e0 b73d 34eb cebd 3ba6 61be
00000250: 1142 e8bc fc0c 8d3d 6a7f d73c d7aa 1c3e
00000260: abe4 27be 4740 52bc 4f11 5c3c a3ec 113e
00000270: 682f 133d 865d 04bd 04fd 9f3d 7aa8 38bd
00000280: de37 9fbd b644 1bbe f629 833d 7a29 003d
00000290: 373e 8abd 786b 193e ce2c 9ebd a390 0b3e
000002a0: 8c82 23be 0610 3dbc d7ae 2abd dd91 7bbc
000002b0: 0f71 42bd d312 b63d 7bc0 d63d 3ec2 29bb
000002c0: bca4 87bd c845 27bd 29cc de3d 4411 f7bd
000002d0: 965f 133e ac81 943d 4ef0 9fbb 4f87 183e
000002e0: 2cde 3ebe f38a 943d 288a 753c 6f9d ba3d
000002f0: f944 fd3d e320 bc3d ed4d 263e af6b 913c
00000300: eb06 4fbe e3b6 5b3e 726d 09bc 276a 3abb
00000310: 6a19 f2bc 087b 55bd d851 a63d 7633 2d3e
00000320: fe8f aabd 83a2 b5bd 286a 8ebc 4cbe 963d
00000330: 25b4 f9bb 0c3f 3c3c d546 8ebb 87b6 90ba
00000340: a9e5 debd dc07 61bd 3b31 4abd d3b5 54bc
00000350: 3bd3 8e3d b967 813a 50c5 d5bc 373f 73bd
00000360: 0f2e 04bd 01b5 94bb 8c3c 6abd 0b44 30bc
00000370: e305 143c 4807 183d 3840 c738 2076 9fbc
00000380: 0173 04bd ecbb 4e3d 6752 903d 6bda f0bc
00000390: 5a9e d3bc 66fb 873c 2641 123d fefc 84bc
000003a0: fcc2 c7bc 3375 883c b7b2 cd39 bc8f f53c
000003b0: ed9e 38bd 226f 5d3d ea39 41bd 5c5e 9a3c
000003c0: 5621 b63d 1201 a93c b46a b33c 7b9e 363c
000003d0: 7fdc c5bc 6630 a43a 62f3 10bc 50bd 83bd
000003e0: 652f 8cbd 8a7a 08bd df74 1bbd 1f09 983d
000003f0: 8420 17be c913 84bd 4b1f 49bd a201 2bbd
0.0008360946 -0.21380775 -0.03810576 0.031487226 -0.10916163 0.11814046 -0.108863294 -0.124136694
0.012157672 0.027414292 -0.013632206 0.021170178 -0.029446216 -0.08530219 0.05212566 -0.0329412
-0.052246362 -0.066957995 0.13696797 -0.06916187 -0.053082224 0.14245096 0.1399342 0.10453784
-0.17589712 -0.0514871 -0.07218107 0.06405637 -0.1345729 -0.11963749 -0.07322225 0.043769397
-0.058805563 0.14964254 0.18416202 -0.022311041 0.06181307 0.15748434 -0.16412684 0.09529691
0.031789836 0.1252812 0.028644755 0.030933768 -0.10378784 0.15385611 -0.1597833 -0.016799375
-0.05143681 -0.047956392 0.058015708 0.13905373 -0.06691344 0.12337105 0.08019991 0.015802413
-0.021177875 -0.014646515 0.043058306 -0.09307128 -0.014103742 -0.11246834 -0.0007367424 0.00518418
-0.045912113 0.095317185 -0.007884898 0.1564969 -0.1479178 -0.20668913 -0.0837632 -0.10973243
-0.14359948 0.0702472 0.010667663 0.0154026495 -0.10482465 0.03430559 0.119133584 -0.0648427
0.22469363 0.04119421 0.06746421 0.14745124 -0.21611467 0.09488937 0.045862503 0.06156897
0.17777821 -0.02804612 0.1907148 -0.020807523 -0.2969847 0.2076975 -0.06719757 -0.09013598
0.07205607 -0.054253418 -0.09963666 0.0841823 0.02185709 -0.15568875 0.08058924 0.058887318
-0.045996442 0.051732775 0.07461757 -0.23732316 0.010233023 0.0511671 -0.09525112 0.10720853
-0.008932507 0.0045075547 0.07432281 0.004808762 -0.08467056 0.020311829 0.067940734 -0.087241456
-0.07150127 0.0956312 0.3129974 0.03242223 -0.095408276 0.09703171 -0.11100474 -0.004118072
-0.07924939 -0.07468895 -0.053123012 0.14741136 0.04696369 0.04154555 -0.034363825 0.023406895
0.085467525 0.14771533 -0.19045146 0.020023864 0.08442194 0.09120845 0.04500244 -0.0208599
-0.15183917 0.08978277 -0.10103455 -0.22036068 -0.028351815 0.06887242 0.026305873 0.15299545
-0.16395824 -0.012832708 0.013431861 0.14250426 0.035933882 -0.032315753 0.07811931 -0.045082547
-0.07774328 -0.1516293 0.06404488 0.031289555 -0.06750148 0.14982402 -0.077233896 0.13629393
-0.15967768 -0.011539465 -0.041670647 -0.015354601 -0.047471102 0.08890309 0.104859315 -0.002590313
-0.066232175 -0.040838033 0.10878784 -0.1206384 0.14391932 0.072512954 -0.0048809415 0.14895366
-0.1863944 0.07253065 0.014986552 0.09112059 0.12366671 0.0918596 0.16240664 0.017751543
-0.20217483 0.21456484 -0.00838791 -0.002844462 -0.029553134 -0.052119285 0.08121079 0.16914162
-0.083282456 -0.08868887 -0.017384604 0.07360515 -0.007620352 0.011489641 -0.00434194 -0.0011040726
-0.10883648 -0.054939136 -0.049363356 -0.012982803 0.06973883 0.0009872831 -0.026095062 -0.05938646
-0.032270487 -0.004538179 -0.05718665 -0.01075841 0.009034607 0.03711632 9.501021e-05 -0.019465506
-0.03233624 0.050472185 0.07046967 -0.029401025 -0.025832344 0.016599368 0.03570666 -0.016233917
-0.024384968 0.016657447 0.000392338 0.029975764 -0.04507344 0.054061063 -0.04717437 0.018843822
0.08893077 0.020630393 0.021901466 0.011146183 -0.024152992 0.0012526631 -0.0088470895 -0.06432593
-0.06844977 -0.033319987 -0.037953254 0.07423615 -0.14758497 -0.06449086 -0.04910211 -0.041749604

generator.0.bias f4 [128]
00000000: 5f3c a93d 0f43 5c3d 5752 c3be fa37 b3be
00000010: 1d04 89bd 93ed 8cbe 46c1 d1bd 1b09 d4bd
00000020: b738 8e3d dd17 d4be e293 5ebe 6a76 93be
00000030: c4cb c6be f3c6 08be a05b 5d3c 8d2b f0bd
00000040: 6c7e d3be 8771 4a3e bebb 8d3e 67a1 5e3d
00000050: 20ee 31be c656 08be 82fc c5bd 291f 4fbd
00000060: 8d75 553e 8804 dd3e 10bb a9bd 4360 ccbd
00000070: 5c74 49be 3ca4 29bd ab64 99bd 21a7 30be
00000080: 9d21 c63b 96d0 c0be b47d a4bd a4ef 56bc
00000090: 3869 3fbe dadd 1c3c 94f4 26be 38ce a6bd
000000a0: 63cd 47be ed3c d8bd a6eb b93c 9355 d3bd
000000b0: 96aa b3bb 29cb 7dbe c2c6 d23e 6700 57be
000000c0: 51d7 fabd fb7e 48bd 6d32 22bd 4b80 cfbd
000000d0: fd6b eb3c aefa 013f 205e 353e 6bfe 11be
000000e0: cd2c 81bd 5163 41be 510b b9be 5a6f 67be
000000f0: d97c 0fbe cc2f 8b3d 22ad 6fbd 5520 a3bd
00000100: 4311 8c3d d2bd 74be 023d fcbd b458 7fbe
00000110: 5769 06be 21ef c83d 58a3 a2bd 581d 5abe
00000120: 32b1 1cbe 0a60 023f 182d 37be 9e12 90bb
00000130: c9a6 ac3d 884e ad3e 0679 a2ba 3c23 66be
00000140: 8ea3 e3bc 8325 313d 0488 5fbe 56c3 c1be
00000150: f4ed f8bd c03b 73be c2a5 b43e 0160 3bbe
00000160: 820d 91bd a6cd 90bd d04c 13bd 0121 f0bd
00000170: 3739 d03b f6e8 963e c482 8ebd 0e14 603e
00000180: dc75 1ebe 38ca 363e 2aed 803e 105c 62be
00000190: c1dc fabd 8506 76be 2a90 90be faff 3ebd
000001a0: 8e0c 783d 54fd 08be 4328 8bbe b4ae 00be
000001b0: 8a04 24be d8ee 1e3f 6c93 993d 42ce 8dbe
000001c0: 6a9f 973d abce 52be ec37 87bd abfa f1bd
000001d0: 2264 22be 7980 8fbe e84f b0bd 7112 f63d
000001e0: b5f3 78be 94bf 7dbe 234b adbe 1707 c73e
000001f0: 0333 8b3d 366c f33e 96ef 85be 52ed a13d
0.08263468 0.05377489 -0.38148758 -0.35003644 -0.06690238 -0.27525005 -0.10241942 -0.10353299
0.06944411 -0.41424456 -0.217361 -0.2880128 -0.38827336 -0.13357143 0.013510615 -0.11727057
-0.4130739 0.1976987 0.27682298 0.054353144 -0.17375994 -0.13314351 -0.09667303 -0.050566826
0.20845623 0.4316752 -0.082876325 -0.09979298 -0.19673294 -0.04141639 -0.07489904 -0.17251255
0.0060464875 -0.37659138 -0.080317885 -0.013118658 -0.18692482 0.009574378 -0.16304237 -0.08144802
-0.19511943 -0.10558496 0.022695374 -0.10319056 -0.005482982 -0.2478453 0.41167265 -0.20996247
-0.122480996 -0.048949223 -0.03959887 -0.10131892 0.028738016 0.5077313 0.17711687 -0.14257209
-0.06307373 -0.18885542 -0.36141446 -0.22601071 -0.1401247 0.06796226 -0.05851472 -0.07965151
0.0683923 -0.23900536 -0.12316324 -0.24936181 -0.13126121 0.09811235 -0.079413116 -0.21300256
-0.1530197 0.50927794 -0.17888296 -0.0043967506 0.08430249 0.33848977 -0.0012395687 -0.22474378
-0.02778795 0.043248665 -0.2182923 -0.37844342 -0.12154761 -0.23753262 0.35282713 -0.18298341
-0.070826545 -0.07070474 -0.035961926 -0.11725045 0.006354477 0.2947461 -0.06958535 0.2188265
-0.15474647 0.17850578 0.25180942 -0.22105432 -0.12249137 -0.24025925 -0.28234988 -0.046630837
0.060558848 -0.13377887 -0.27179155 -0.12566644 -0.16017357 0.62083197 0.074988216 -0.27696425
0.07403453 -0.2058665 -0.06602463 -0.11815389 -0.1585851 -0.28027704 -0.08608991 0.12015236
-0.24311717 -0.24780113 -0.33846387 0.38872597 0.06796839 0.47543496 -0.26159352 0.079065934

generator.2.weight f4 [64, 128]
00000000: 0376 c33a 3158 1abd 48c5 87bc 6a8e 3fbd
00000010: ac16 163e 2ee0 043e 706c 033d d3ef 3e3d
00000020: b444 0c3f ff91 c0bd c552 1c3e 7604 1d3e
00000030: aa19 9ebc 49af 883e 5dda 803e 4eab ad3d
00000040: 26ed bd3d 32b3 5d3e fa60 d9bd c493 c93e
00000050: f391 433e c16e a23c 176d 843e 4479 903d
00000060: ea4c e93d 67dd 473f 523a c53e 3ce8 b0bc
00000070: 36bc d23d 3405 453d 49a6 323d ca95 dd3d
00000080: a295 b53e 8ad1 91bd 14a1 d13e 7365 063e
00000090: e4ae c13d 4c28 a83e 2a2c ff3d 5c73 fa3d
000000a0: ce75 283d 224d 243e 912c 163f 5d92 f13d
000000b0: 34d8 8b3e 8a1e b43d 76b6 a13c c638 b43d
000000c0: 042c d93e 33c1 873c eb36 483e 290e bd3e
000000d0: c96b b43e 8fa7 613f ce98 c83d 6f3a d03d
000000e0: 1ecc fa3d a6b6 ddbc 7eab 3a3d eb6c 1e3e
000000f0: a78c be3e 0592 88bc f2ad 0b3f 9616 97bd
00000100: e65c df3d 6d8d abbb f69b 373e 3bc9 f53d
00000110: 437f a23d 58c7 db3e 2a77 2b3e 48d9 9a3d
00000120: 73d2 9ebb 7350 e43e 7d46 bd3d a77f 083e
00000130: 68b9 1d3e 6853 c7bd 857f aa3e 15af 783e
00000140: 8565 b4bc 8068 7f3d 64bc 69bd 3bab f43d
00000150: fc65 e83e 02aa 0c3e 1e85 15bd 720a f03d
00000160: 4810 ff3d 4299 ed3c 170c 943d 8169 053e
00000170: f7ca 933d 25c4 afbd 561b 9e3d 44c8 7e3d
00000180: b694 053d 502c 6abe 62d5 203f 1d07 b1bc
00000190: 8f9c fa3d 8427 dd3d a9c7 1a3e d1b3 793e
000001a0: 2bc9 773e 131e 5b3e 0adc fdbb 4cfe ae3e
000001b0: 4d2a 673e 9624 79be 95a2 d03d 7856 4f3e
000001c0: 4345 d33d 0821 bd3d 2765 753e fbf0 fe3d
000001d0: b40b 823e a43d 033e 02e2 433e 2526 4e3e
000001e0: 7011 2e3c b063 1bbd 601d 1b3e b33a 4bbe
000001f0: 7b67 b93d 8b0b a43d 3059 a83e e0cc f03c
00000200: 21a4 9bbd 880d 4dbd 114c 1fbc 6143 3b3d
00000210: 409d 60be c21c ad3d dee1 04bc 6614 13be
00000220: d886 893e aee0 be3d 5efe 283c 5648 ad3d
00000230: 2fcd e33d 4e7b 973e 3a50 54bd 6a68 18bd
00000240: add0 e0bd b2a6 b8be 0056 97be f905 d13e
00000250: 0d42 0c3e 2965 1cbe 3d09 8bbb 9362 21be
00000260: d77f 99be 6cba 8dbd f8bc 683e 499c 5e3c
00000270: 15e4 0d3e fe18 43be f1e5 73bd 5056 8cbd
00000280: 7e97 9a3d 82f5 f43d 4b55 3a3e 3a11 c9bd
00000290: e4ae 8dbc e391 b43e d02a de3d 9a65 373e
000002a0: 5458 b7bd d9af b33d 4301 733e 8cd2 a8bc
000002b0: 5a79 d13d 10f0 da3b 49c0 e9be 18b5 27bd
000002c0: beff e03e 3b05 b0bd 0af2 b5bc 05fa 953e
000002d0: 0bc5 a33e b267 b4be 7a5f 7fbe 7e1f 42be
000002e0: 8f82 9bbd b2fe 813d ea23 d6bd 435c 53bd
000002f0: 8d0e 583e 7c78 83bd 7fc8 d53e 9ef9 b7bd
00000300: 53bb 5cbe 4f42 b7bd 4f4b 5fbd 7df8 fabc
00000310: 2bca 95bd b82f e93e a318 223e 6fc4 acbc
00000320: a61c 0fbe b768 17bf 3962 2d3d 79b4 61bb
00000330: 078d 8bbe 711e 8dbe 2972 3b3e 6b93 163e
00000340: 5bd9 c8bd 5ace 57be 04fd eabd 75b6 adbd
00000350: e4c7 713e 2fb3 c53d 50a3 8ebe f31d 9f3b
00000360: 14cc 91bd dc82 2dbe 489f 46be cf5a 11be
00000370: d91b 31be bd20 4fbe a47c 81bd 191e 1fbe
00000380: 31f9 a3bd e1fb 98be 133d f83e 21f4 0abd
00000390: 08bc 053e 4516 983c 52d2 da3b 6adf 5cbe
000003a0: 88ef 54bd 7fdb 6f3c 9015 f9bd 0721 313e
000003b0: f5a7 f03d 0c0a 99be 5c6e efbd 9c34 de3b
000003c0: 6d59 34be fa32 a63d fe62 8fbd 1a89 0fbe
000003d0: f874 ae3d b9f5 96bd 8383 84bd 346f a9be
000003e0: 5e58 b5bc 2fc9 533d 8c64 88bd 853b 9bbe
000003f0: ba15 64be 6945 a8be 8b70 803e eba6 14be
0.001491249 -0.037681762 -0.016573563 -0.046766676 0.14657086 0.12976143 0.032085836 0.046615433
0.5479233 -0.094028465 0.15265949 0.15333733 -0.019299347 0.26696232 0.25166598 0.084799394
0.09273748 0.21650389 -0.106142 0.3937055 0.19098644 0.019828202 0.2586448 0.070543796
0.11391623 0.7807221 0.38521057 -0.021595113 0.10289805 0.048100665 0.043615613 0.108195856
0.35465723 -0.071200445 0.40943205 0.13124637 0.09457186 0.32843244 0.124595955 0.12229034
0.041127972 0.16045049 0.5866175 0.11795495 0.27313387 0.08794887 0.019740324 0.08799891
0.42416394 0.016571617 0.195522 0.36924866 0.35238484 0.881463 0.0979477 0.10167395
0.122459635 -0.027064633 0.045573704 0.15471236 0.37216684 -0.01667119 0.54562294 -0.07377355
0.10906391 -0.005235365 0.17930588 0.12001272 0.079344295 0.42925525 0.16744676 0.07560974
-0.004846865 0.44592628 0.0924196 0.13329946 0.15402758 -0.09732705 0.33300415 0.24285538
-0.022021065 0.06235552 -0.05706443 0.11946722 0.45390308 0.13736728 -0.036503904 0.11720742
0.12454277 0.029003743 0.072288685 0.13028528 0.07216447 -0.085823335 0.07720058 0.062202707
0.032612525 -0.22868466 0.62825596 -0.021609837 0.122368924 0.10798553 0.15115227 0.24385001
0.24197833 0.21398191 -0.007747178 0.34178388 0.2257473 -0.24330363 0.1018726 0.20247829
0.10315945 0.09234816 0.23964368 0.12448307 0.25399554 0.12816483 0.19129184 0.20131738
0.010624275 -0.037936866 0.15147924 -0.1984661 0.090529405 0.08010014 0.32880545 0.029394567
-0.075996645 -0.050061733 -0.0097227255 0.045718554 -0.21934986 0.08452751 -0.008110492 -0.1436325
0.2686069 0.09320198 0.010314552 0.084610626 0.1112312 0.29586262 -0.051834323 -0.037208952
-0.10977302 -0.36064678 -0.295578 0.4082487 0.13697071 -0.15272965 -0.0042430446 -0.1576026
-0.29980347 -0.06920323 0.22728336 0.013587066 0.13856538 -0.19052503 -0.05954546 -0.068524
0.07548426 0.119608894 0.18196599 -0.09817739 -0.017295308 0.35267553 0.108480096 0.17909852
-0.08952394 0.08773775 0.2373095 -0.02060821 0.10228224 0.0066814497 -0.45654514 -0.04094419
0.43945116 -0.08594748 -0.02221014 0.29292312 0.3198627 -0.35235363 -0.24938765 -0.18957326
-0.075932615 0.063474074 -0.10456069 -0.05160166 0.210993 -0.06419465 0.4175453 -0.089831576
-0.21555834 -0.08948194 -0.05451518 -0.030636067 -0.07313951 0.4554422 0.1582971 -0.02108976
-0.13975772 -0.5914416 0.04233 -0.0034439845 -0.27256033 -0.27562287 0.18305267 0.14704673
-0.09807082 -0.2107481 -0.1147404 -0.084820665 0.23611408 0.09653317 -0.27858973 0.004855865
-0.07119003 -0.1694445 -0.19396698 -0.14194797 -0.1729578 -0.20227332 -0.063226014 -0.15538825
-0.08006514 -0.29879668 0.48484096 -0.033924226 0.1306001 0.018565306 0.006677904 -0.215696
-0.051986247 0.014639734 -0.12162316 0.17297755 0.11750785 -0.29890478 -0.11690971 0.006781174
-0.17612238 0.08115192 -0.07001303 -0.14017144 0.08518404 -0.073710866 -0.06470396 -0.33092654
-0.022136863 0.051705536 -0.06659803 -0.30318847 -0.22273913 -0.32865456 0.25085863 -0.14516799

generator.2.bias f4 [64]
00000000: 7e36 913e a5fb da3c 4d1b 213e 91d7 873e
00000010: 85ce e83e 819b ef3d 9ac6 163d 16d1 133e
00000020: e63b 983e dcb0 573f 6eeb c73e f9b5 293e
00000030: 8f00 bb3d db2b 303e d221 0bbd 5425 dc3d
00000040: 3dd8 013f 9621 753d 6e6d 8abd 2b93 3a3e
00000050: 5151 613e e597 493e d713 053e ab66 3ebd
00000060: 746a 323e 52b5 cd3e c3d2 af3d 48da 173e
00000070: 8904 293e 7578 063e 42b1 0c3f 3046 1dbe
00000080: 737f b93e 8850 a13e 15a5 703e c30a 4a3d
00000090: 7471 2a3e b199 b3bd 2d82 753e 1cc1 14be
000000a0: 642a 3f3b 6a89 6abd 544f c73e 779a 043e
000000b0: 4809 a33c e851 cc3e e183 873d 563e 0f3e
000000c0: c721 cb3d 5b6f 6f3e ff95 b73d 673c 883e
000000d0: 9ed4 913c 36c0 e43d b122 3a3e 8754 823e
000000e0: 6881 38bd 4829 833d 8868 633e 92d3 cc3c
000000f0: 4330 463c ab35 f63d 55bd 0f3e 0b8e 893e
0.28361887 0.026731322 0.1573307 0.26531652 0.45470062 0.11699582 0.036810495 0.14435229
0.297332 0.8425424 0.39046806 0.16573323 0.09130966 0.1720423 -0.0339678 0.10749307
0.5072058 0.059846483 -0.06759153 0.18220203 0.22003676 0.1968685 0.1299585 -0.04648463
0.17423421 0.401774 0.085851215 0.14829361 0.16505636 0.13131888 0.54957974 -0.15358806
0.3623005 0.31506753 0.23500474 0.04932667 0.16644841 -0.08769549 0.2397544 -0.1452679
0.0029169554 -0.057259955 0.3892771 0.12949549 0.019901887 0.3990624 0.06616951 0.13988623
0.09918552 0.23382322 0.08964156 0.26608583 0.01780158 0.11169474 0.18177296 0.25455114
-0.045045286 0.06404358 0.22207844 0.025003228 0.012096467 0.12021955 0.14037068 0.26866183

generator.4.weight f4 [37, 64]
00000000: 7be9 3b3d ae6a 9e3d 0809 a83d 944b 2f3e
00000010: e8ab b33e 485a f3be 9454 71be 7d45 3bbe
00000020: 147d 583e 04bd 883e fbe1 38be 2b68 49be
00000030: 0a70 a33d 2218 b9bc 05ca 9e3c abc0 acbd
00000040: 41c5 83be 1732 963e a97f 9ebc 372b 4ebe
00000050: cd20 fb3d 708e 23be 4756 e8be 3a48 b33d
00000060: 414d 183d 24aa 1abb 2744 913d d258 25be
00000070: e036 79be a364 bdbd 7e3f dd3e aafd 143e
00000080: 48cd 423c 3cb7 f3bb 663f 0a3e de98 89bd
00000090: 93d7 3bbd 8872 db3d ba5e 763e 3e87 043c
000000a0: 7d68 923e 9dd7 693d 78ae 203c f7d3 64bd
000000b0: 8932 033e 2d3a 553e c1cd 9ebe 1c8d 733e
000000c0: 0e49 8b3e 48b2 cebe 003f e23c 1b4a aabd
000000d0: 9ed7 32bd 3caf f93d eb38 3c3e 57ac ab3e
000000e0: a1f4 b7bc 75c9 a93e 865d 423d b9a3 6e3e
000000f0: 3397 943d 03ac 7ebc 57d4 193e bb0c c8bd
00000100: 2959 c7bd 1bbd 8cbd 6e77 ec3c ceb6 1bbe
00000110: b57d 88be 6196 b5bd b8fe fdbd fc99 04bc
00000120: 1525 8cbe 57fc fabe 8982 c5bd ff97 68be
00000130: 88a3 0abe b2bd 99be 9c20 a9ba b5b0 e5bd
00000140: c34b 2b3e 0b9a 80be fa42 b3bd 121b 8cbd
00000150: e131 56be ec15 b5be 52c2 87be 1841 13be
00000160: 7590 ecbd b7bc a5be 3228 bb3c 94ba 8fbd
00000170: 17f4 1cbe f77f ac3e 3b4f 94bd f96b 183e
00000180: 27c4 b5be cea1 c7be e30f 86be b707 33be
00000190: d789 ad3d 5a4d acbd 3aea 93be a1ce 6c3e
000001a0: 20a6 d53e 81f0 25bd 6087 d6bd 8729 73be
000001b0: de26 88bd b986 00be 25b8 7fbd c3e8 a7bd
000001c0: c398 d4bd 465f d9bd 151a 5cbd 3232 92be
000001d0: f7f8 97bd ac21 113e 4ac3 553e 2590 58be
000001e0: af2b 793d 4466 04be b64a 2abd e83b bdbc
000001f0: b3d9 bb3c a6c3 94bd cb2c 30be 926d b9bd
00000200: e4df 0e3e cf12 b8bd 0b1e 6d3e 742a 083d
00000210: ef0b 24be 6120 ee3d af49 52bd ab00 093e
00000220: 900a 1dbd c676 0c3f 0f45 a03d 3f5c 60bb
00000230: 08c0 e6bd 98b2 35be 5201 05be 67ae 81bd
00000240: 2629 4e3e 6b41 d0bc 91c7 fb3d c58b 013c
00000250: 7850 8b3c 6243 b3bd 02ca 33bd 27d1 cabd
00000260: af50 e33c cee2 9ebd a09d a73e eedc 92bd
00000270: 5ada 443c fb12 2e3e b088 023e 26e8 b93c
00000280: cae0 1cbe 3d37 c3be 8643 34bd 233d 09be
00000290: 2c7d 7c3e edaf f73d 3ca7 723d 1d7a ca3e
000002a0: a565 f13e 9e16 50bd 7921 193d 469e 89bd
000002b0: 5579 b13e 1dd4 463c 4e24 24be 3724 b6bd
000002c0: 80fb abbd cec4 9bbd ac2c 2f3e 9274 10bf
000002d0: b8cc 00be a177 953e a7dc b83e b031 283e
000002e0: 30df fabd 7d7a d43e afb4 553e 3b55 6e3d
000002f0: 2af5 ca3d 36a1 b83e 1718 aebd 9770 85bd
00000300: 000f b73d 7d86 c0bd 1585 323d df03 16be
00000310: 5f10 313e 5d91 883e 8fe7 00be 2cfa 783e
00000320: 09e6 4fbe 5c30 d03e 1b69 b2bd 7d69 e43c
00000330: 9be1 8cbe 9106 0fbe 3cc3 d83d 3501 0ebe
00000340: 5296 5d3e 34ea 2dbe 08c4 013d b751 6d3e
00000350: e49a cabd a648 8fbd 6229 ea3d d0a9 7abd
00000360: 1c21 cd3d e7fe 6dbc f302 383e 8353 d23d
00000370: 9970 b5bd a49c ef3d 808d a53e 6a64 903e
00000380: 08d9 9ebe 3528 433e c070 6fbe 55de 13be
00000390: 846b 833c 608c 28bd 9fad 17be 0fcd 5f3e
000003a0: 2c34 e3bd a901 44be 459d 10bd b0aa 0abe
000003b0: 36e4 7f3e 8667 9a3d 2e29 b5bb 365e c4bd
000003c0: 1e46 edbc f3f7 243d bf8c a5bd 6671 af3e
000003d0: 2057 89bd 0faf 973e 7c60 323e 139d a1be
000003e0: 287c 1bbc cb37 acbe 2fb8 7abd 9edf c73d
000003f0: deb3 82bd e147 a93e fd0a 62be 4126 10bd
0.04587696 0.07735191 0.082048476 0.17118675 0.35092092 -0.47529817 -0.2356742 -0.18288226
0.21141464 0.26706707 -0.18054955 -0.19668643 0.07980354 -0.022594515 0.01938344 -0.08435186
-0.2573643 0.2933509 -0.019347982 -0.20133673 0.12262116 -0.15972304 -0.45378324 0.087540105
0.03718305 -0.0023599947 0.07093077 -0.16147164 -0.2433734 -0.092477106 0.43212503 0.1454989
0.011889763 -0.0074376147 0.13500747 -0.0671861 -0.045859884 0.107152045 0.24059573 0.008088885
0.28595343 0.05709039 0.009807222 -0.055866208 0.12812246 0.20822974 -0.31016353 0.23784298
0.27204174 -0.40370393 0.027617931 -0.08314916 -0.04366266 0.121916264 0.18381087 0.33529922
-0.022455515 0.33161512 0.047452472 0.23304643 0.072554015 -0.0155439405 0.15022407 -0.09768053
-0.09733803 -0.068720065 0.028865542 -0.15206453 -0.26658407 -0.08866573 -0.12402099 -0.008093353
-0.2737204 -0.49020645 -0.09644038 -0.22714232 -0.13538945 -0.3002754 -0.0012903395 -0.11215345
0.1672812 -0.25117525 -0.08753009 -0.06841101 -0.20917465 -0.35368288 -0.26515442 -0.143803
-0.115509905 -0.3237054 0.022846315 -0.07018009 -0.15327488 0.3369138 -0.072416745 0.14884938
-0.35501215 -0.38990635 -0.26183996 -0.17483412 0.084735565 -0.08413191 -0.28889638 0.23125698
0.41728306 -0.040512566 -0.104750395 -0.2374631 -0.06648038 -0.12551393 -0.062431473 -0.08198693
-0.103806995 -0.10613875 -0.05373581 -0.2855392 -0.07420533 0.14173001 0.20875278 -0.21148737
0.060832676 -0.12929636 -0.041575156 -0.023099855 0.022930956 -0.072638795 -0.17204587 -0.09054102
0.13952595 -0.089879625 0.23155992 0.03324361 -0.16020177 0.116272695 -0.0513398 0.13379161
-0.03834015 0.54868734 0.07825672 -0.003423467 -0.11267096 -0.1774391 -0.12988785 -0.06332093
0.20132884 -0.025421819 0.12293924 0.007906859 0.017006144 -0.087530866 -0.04389382 -0.09903174
0.027748434 -0.07758103 0.32737446 -0.07171045 0.01201495 0.16999428 0.12747455 0.022693705
-0.15320125 -0.3812808 -0.044009708 -0.13402228 0.24657124 0.12094102 0.05924152 0.3954629
0.4714786 -0.05080282 0.037385438 -0.067196414 0.34662881 0.012135533 -0.16029474 -0.08893626
-0.08397579 -0.07605897 0.17106885 -0.5642787 -0.12578094 0.29192832 0.36105844 0.16425204
-0.12249601 0.414997 0.20869707 0.05818675 0.099100426 0.36060494 -0.085006885 -0.065156154
0.08938408 -0.094006516 0.04358395 -0.14649914 0.17291401 0.26673403 -0.12588333 0.24314183
-0.20302595 0.40661895 -0.087114535 0.027882332 -0.27515873 -0.13967349 0.10584113 -0.13867648
0.21639374 -0.16983873 0.03168109 0.23175703 -0.09892824 -0.069962785 0.114336744 -0.061197102
0.10016081 -0.0145261055 0.17969875 0.10269835 -0.08859367 0.11699799 0.32334518 0.2820161
-0.31024957 0.19058307 -0.23382854 -0.14440282 0.016042478 -0.041149497 -0.14812325 0.21855567
-0.11093935 -0.19141258 -0.035306234 -0.13541675 0.249894 0.07539277 -0.0055285906 -0.09588282
-0.028964099 0.040275525 -0.08083486 0.34266204 -0.06706071 0.29625747 0.17419618 -0.3156515
-0.00949005 -0.33636317 -0.061210807 0.097594485 -0.06381963 0.33062652 -0.22074504 -0.03519273

generator.4.bias f4 [37]
00000000: a171 41be d9a5 ccbd 255c 26be 2207 c2bc
00000010: 5da3 4b3d 24e6 9ebe e55f a8bc 6488 f6bd
00000020: d930 0fbd fe17 b03a 2873 b83c 1218 02bd
00000030: b5b7 6c3b 98d7 dcbc a9b9 e5bd 227b acbd
00000040: 2b93 c43b a47c 22be f44e 8dbd 264e afbd
00000050: 4934 8d3d e1af af3d e58f 83be 6169 df3d
00000060: 5a87 29bd 2d69 c4bd bdc5 f5bc d101 e23d
00000070: 9b0d cc3d 08ba 303c dbed adbe 25dc cbbd
00000080: d1eb 91bd 42b9 a8bd c376 6ebe bdd7 e4bd
00000090: d1b8 b8bd
-0.18891002 -0.099925704 -0.16246088 -0.023685042 0.049716342 -0.31034958 -0.020553539 -0.12037733
-0.034958694 0.0013434885 0.022515848 -0.031761236 0.003612024 -0.026958272 -0.112170525 -0.08421923
0.005998989 -0.15867859 -0.06899825 -0.085598275 0.06894738 0.08578468 -0.2569572 0.10908771
-0.041388847 -0.09590373 -0.030001516 0.11035503 0.099635325 0.010786541 -0.33970532 -0.099540986
-0.071250565 -0.0823846 -0.23287492 -0.11173961 -0.09019626

discriminator.0.weight f4 [64, 37]
00000000: 4d86 aa3d 903d 4dbe 1ec4 8bbe 6101 41be
00000010: c633 2fbe 4134 bd3e 0cf1 edbd 1634 543e
00000020: 1eb2 a8bc b3ed 30be 5719 863e 7755 3b3e
00000030: de21 8e3e 7e67 b43e 91af a23e 8f3f fabc
00000040: a5f7 a9be 9aec 343d ee9e 0b3f df41 b9bd
00000050: a407 a8bd eb3b e23d 16b7 c73e ea20 19be
00000060: c494 5d3e 88fc a5be 8b28 a0be 9c01 0dbe
00000070: bfec f4be d97c 573d ba25 833d 611e a63c
00000080: b484 81bd a6c1 913e 841a d03d 322f 29be
00000090: 2fb5 883e 4bd3 8bbd ebeb 45be 18ba bc3e
000000a0: 0e06 623d 3dac c5bd c243 c2bd f73e 033f
000000b0: dca5 8cbd d6d8 92bd 8ffc e3be ad6f 0bbc
000000c0: 98e8 113f cfe4 debe 3bad 953e 431f 0e3d
000000d0: c887 1b3c 2da2 413d 9beb 9a3d 62db f4bc
000000e0: f049 8fbe a29f e73d 9279 fabc 5bbc 003d
000000f0: 82d9 c93d fee7 39bc ae16 d13c ec1a 25be
00000100: 06ac 5bbd 7f56 c0bd 5370 a13e 0278 8b3e
00000110: da50 7f3c e5d2 04bf b8de 73bd aec3 d63e
00000120: 9d96 50be b7b7 90be 2774 90be ba66 12be
00000130: 0638 a73d 5359 063d fe81 d03d a7d0 cabd
00000140: 7a4a d63d 7464 e6bd 4194 e53e 6c29 fc3d
00000150: 6978 bfbd 1dfc 51be d4f2 42be e778 c43d
00000160: 9d44 37be e627 bfbd 34e8 813e 4698 f03d
00000170: daef 193e 2c91 06bd 8c51 b2bd ee4a 15bd
00000180: 0cb0 5cbd 5f5f 933e 64a9 a5be 15df 943e
00000190: 49ac 8bbd df55 8dbd 6398 6cbe 4fb5 363d
000001a0: 798d 9c3e 2669 4ebd 04f6 9cbd d1d8 ca3e
000001b0: f54b d53e 1481 803d 523b 66bc 5a19 1cbd
000001c0: a7d6 04bc 759e b6bd fca7 7fbe 57a6 cb3d
000001d0: 0dd3 6dbd 66e4 d63d 87d3 1dbd c1e4 573e
000001e0: d243 6d3d 6198 8e3e 04b5 8c3d cee6 81be
000001f0: 61f2 213e 3214 36be 8e09 3abc f8e3 1c3e
00000200: 40d8 9f3d 4145 463e 545d d03d aa74 bcbc
00000210: 9738 363e 011b 393e faf4 26be 5eb4 4bbe
00000220: 137e e4bd b2d2 1b3e 9cba 923d fac3 42bd
00000230: 709e 303e 703c 863e df83 42bd 8a33 c23d
00000240: f732 89be 512c 9abe cd4b 35be 9750 89be
00000250: c4b1 0e3e c91e 86bd ad67 52be fa1c 2f3e
00000260: 36aa 2e3d f1fa 11be b594 babc 711b 813d
00000270: 9e52 8cbe eb2d 9d3b 1ce5 9ebd efeb 39bd
00000280: 5c6b 35bd 6c9c 2fbe 5601 6f3e b315 7d3d
00000290: cbf2 88be d558 d73d d1c5 60bd 6f0a 0bbe
000002a0: 4681 ed3d 4dfe 09bd bdeb 93bd 4ca8 96bc
000002b0: 052e eb3d 0928 a5bd ac60 aa3d 24f9 c33d
000002c0: 3b54 893d 5144 393e a693 96be 6106 273e
000002d0: 6df4 b3be 6ec8 0cbe 26b4 943d 6ce8 b6bd
000002e0: d8f5 3a3e bdc6 3b3e c0c8 b33d 60a8 5c3d
000002f0: d1ce c23d 7cd7 633e adb0 253e 831e 0b3e
00000300: 691f 043e f707 b33d 33cc 583e 8d1c 2c3e
00000310: 026a 8b3e 5938 7e3c ef96 d13d 4add 873e
00000320: 5ea0 3cbd 3cfe 913e f90f e23d 8aef 37bd
00000330: 6d3e 113e cd45 2f3e 8df7 933e 7567 2d3d
00000340: 8522 c2bc 76c9 a2bd a9dd b3bd 9b01 c93d
00000350: 3ee1 b93d ec3a 7b3e 4e61 6c3e a766 e93d
00000360: a8f3 813e 7748 5d3e 271e 223e ec13 31be
00000370: 893c 2c3d 3528 a43d 263e 1d3e 9f60 023d
00000380: d8ed 8cbd 7300 893d 0f29 8d3e 367e 5abe
00000390: 5190 b6be 030a b2be 0a7a 623d 47bd 0e3e
000003a0: 0a9e e7bd f525 db3d c89a 923d 747b 5bbe
000003b0: ecc5 b9bc 7c7a 36be cf3d 5d3e f172 3ebd
000003c0: af2a 83bd 1a3a 363e fabc 09be 1ad2 57bd
000003d0: 3a0d 88be 8f80 aebd 155a dc3e 2fb9 893d
000003e0: 1794 5cbe b00f 0a3e 548b 1bbe 033e 40bd
000003f0: 54b3 9dbc 0d22 7cbe 351b a43e a9f4 e1bd
0.08326397 -0.20043015 -0.27298063 -0.18848182 -0.17109594 0.3695393 -0.11618242 0.20722994
-0.020592745 -0.17278175 0.26191208 0.18294321 0.27760214 0.35235208 0.31774572 -0.030547885
-0.3319675 0.044170953 0.5453938 -0.09045767 -0.08204582 0.11046585 0.3900687 -0.14953962
0.21638781 -0.3241923 -0.31280932 -0.13770145 -0.47836873 0.0526093 0.0640368 0.020278158
-0.06324139 0.28468055 0.101613075 -0.1652191 0.26700732 -0.0682741 -0.19328277 0.36860728
0.055181555 -0.096519925 -0.0948558 0.5126795 -0.06867573 -0.071702644 -0.44528624 -0.008510512
0.56995535 -0.43533942 0.29233727 0.034697782 0.009492822 0.047273804 0.075644694 -0.029889766
-0.27986097 0.113097444 -0.030575547 0.03142963 0.098559394 -0.011346815 0.02552351 -0.16123551
-0.05363085 -0.09391498 0.3153101 0.27239996 0.015583241 -0.518843 -0.059538573 0.41946167
-0.20369954 -0.28265163 -0.28213617 -0.14297 0.081649825 0.03280003 0.10181044 -0.099030785
0.10463424 -0.11249629 0.4483967 0.12312588 -0.09349138 -0.2050633 -0.19037944 0.09593373
-0.17897268 -0.09333782 0.2537247 0.11747794 0.15032902 -0.03285329 -0.0870696 -0.03644841
-0.05387883 0.287837 -0.32355797 0.29076448 -0.0681997 -0.06901144 -0.23105006 0.044606503
0.30576685 -0.050393246 -0.07664111 0.39618543 0.41659513 0.0627462 -0.014052229 -0.038110115
-0.008107818 -0.08916942 -0.24966425 0.09943836 -0.0580626 0.10492782 -0.038531806 0.21083356
0.057926007 0.2785063 0.068704635 -0.25371403 0.15815116 -0.17781141 -0.011354817 0.15321338
0.07804918 0.19362356 0.10174051 -0.023004849 0.17795025 0.18076707 -0.16304389 -0.19893023
-0.11156859 0.15217093 0.07164499 -0.04755018 0.17247939 0.26217985 -0.047489043 0.094824865
-0.26796696 -0.30111936 -0.17704697 -0.26819298 0.13935 -0.065488406 -0.20547362 0.17100897
0.042642795 -0.14255883 -0.022775987 0.06304062 -0.27406782 0.0047967336 -0.07758543 -0.04539102
-0.04429184 -0.17149514 0.23340353 0.061788272 -0.26747736 0.1051499 -0.054876152 -0.13578199
0.115969226 -0.033689786 -0.07222698 -0.018390797 0.11483387 -0.08064277 0.0831922 0.09569004
0.06705519 0.18092467 -0.29409522 0.16311027 -0.3514742 -0.13748333 0.07260923 -0.0893105
0.18257844 0.18337531 0.087785244 0.053871512 0.09512103 0.2225017 0.16180678 0.13585858
0.12902607 0.087417535 0.21171646 0.16807766 0.27229315 0.015516364 0.102338664 0.26536018
-0.046051376 0.28514278 0.11038203 -0.044906177 0.1418397 0.1711647 0.28899804 0.042334992
-0.0236981 -0.07948582 -0.08782513 0.09814759 0.09076165 0.24534196 0.23083994 0.113965325
0.25381207 0.21609674 0.15831815 -0.17292756 0.04204992 0.080154814 0.15355739 0.031830426
-0.068813026 0.06689539 0.27570388 -0.21337208 -0.3565698 -0.34773263 0.055292167 0.13939391
-0.113094404 0.10700599 0.071584284 -0.21433812 -0.022677384 -0.17820162 0.2160561 -0.046496335
-0.064046256 0.17795601 -0.13450995 -0.052690603 -0.2657259 -0.08520614 0.43037477 0.06724774
-0.21540867 0.13482547 -0.15189868 -0.04693414 -0.01925055 -0.24622364 0.32052007 -0.11032993

discriminator.0.bias f4 [64]
00000000: cd96 85bc 224a 763d e947 5cbc 5de9 2f3c
00000010: b973 833e ca4e 673e b2af 54bc 2302 6bbe
00000020: 787d 7c3e 4984 5cbe 1528 c1bd 63dd 03bd
00000030: d34c 9c3e 6b01 97be c9c1 1e3c c274 5c3e
00000040: e32e d73e c4cd 99be 6cc4 a3bd 8ebb a4be
00000050: 9d85 b53d 4edd b0bd 0a5a 79bd cf54 9bbd
00000060: daaf 22bd 78b2 c23d 74ec 9d3d e005 1b3d
00000070: 96f8 313d b2bf d3bd 4121 d8bd dd9c 38be
00000080: edf2 b6be bae4 b93e 4aa9 58bd 2ffb bbbc
00000090: 4a5a 3bbc 3e70 d93c 7d83 cc3d 9ffa 273e
000000a0: ab78 8ebc 7aab 65be d05c 09bd b714 08be
000000b0: b67d 5fbd f579 923d ab2a 1c3f 659e b9bd
000000c0: 39c0 28be 559d b8bd 76b8 81bd dc0c 14be
000000d0: 0e9a 95bd 3eb5 23bc 7aa7 913d 7077 8abc
000000e0: b4b4 e7be 768a f8bd 7e99 6fba 35c2 1a3e
000000f0: a104 fb3d 6f81 bb3e 67e8 a73d 6a9a 803d
-0.016307259 0.060129292 -0.013444879 0.0107367905 0.25674227 0.2258865 -0.012981342 -0.22950034
0.24657238 -0.21534838 -0.09431473 -0.032193553 0.30527362 -0.2949327 0.009689757 0.21528915
0.4202796 -0.300398 -0.07996449 -0.32174343 0.08863375 -0.086359605 -0.060876884 -0.07584535
-0.039718486 0.095066965 0.077111155 0.0378474 0.04344996 -0.10339297 -0.10553218 -0.18028589
-0.35732213 0.36307317 -0.05289582 -0.022946922 -0.011435101 0.026542779 0.09986017 0.16404198
-0.017391523 -0.22428694 -0.03353578 -0.13289152 -0.054563247 0.07152168 0.61002606 -0.090634145
-0.16479577 -0.09014384 -0.06334011 -0.1445803 -0.07304774 -0.009991942 0.07112022 -0.016902655
-0.45255053 -0.12135784 -0.00091399986 0.15113147 0.12256742 0.36622187 0.08198624 0.06279452

discriminator.2.weight f4 [32, 64]
00000000: f3d3 dfbe 746f a9be ce37 95be 758b 013e
00000010: ba15 ee3d 7a72 a73e 6d7c 6bbe 3c7b b73e
00000020: 050c c43e e71b a63e 6111 e63e 7072 963e
00000030: 86b0 af3e 49cc b03e adda 2ebe 633d 303e
00000040: f384 013f d812 8b3e 7c6f ffbe 5d7d 9f3e
00000050: 2ab4 12be a843 abbe 23a0 6dbe fcba 48be
00000060: 7060 88bd 1529 173e 88ce bfbe c6d8 bfbd
00000070: 6e5f c8be 19ac 75be 3fa7 07bf cfc2 b63d
00000080: 71b1 0b3f 2a59 dd3e ba8d 4fbe 25d1 08be
00000090: 75c4 cdbc 5618 bebe c8ac 6b3e c7fc 1c3e
000000a0: e6a1 cebd e2e9 c8bd 1b01 4abd c1fc 1bbf
000000b0: 9939 dabe 277c b13e 6a8a 293f 80bd 2abe
000000c0: 4856 333e f71e 11be 737f 193d ae6d 57be
000000d0: 7822 b43e 4a72 22bf 25a5 e9be 3d3f e2bd
000000e0: a88d d33e 7d52 7ebe 2e59 1e3d febf b83e
000000f0: bde2 e4bd fbf5 dc3e ad11 87be bb9b 3ebf
00000100: 4daa a3be baf7 e3be 352e 6cbd c8d4 d3bd
00000110: 8b2c 393e 0368 163e 378d 79be 2a3a 4a3e
00000120: cdd6 9f3d 1831 463d afb1 f33e 13ad 503e
00000130: 0805 7b3e 4400 053e 8d6e f6be 5cbd 393e
00000140: 4a19 f43e b505 2c3e 1a98 ccbe ec65 ba3e
00000150: fc1d 6dbe d6e6 4bbe dbfc bcbe 2a1a 91be
00000160: e99a 5dbd 386c 60ba f1d5 aebe e273 48be
00000170: 7477 83be caf5 33be 620b 89be e121 5c3e
00000180: b8ee d73e 1f0e 883e 41cc 57be 44a8 69bd
00000190: f6be 0ebe 529c b4be 8d83 f53d 5f63 763e
000001a0: c1aa 07bd fafb 893b 487e e63b 4de7 d3be
000001b0: 8fec 49be a0a3 763e cc80 f83e 121a 13be
000001c0: d1f4 843e 739f 0dbc 09b0 f6bd 226c 92be
000001d0: 1f5d ce3e 3932 0abf 1bf5 b2be a92d 96be
000001e0: f030 2c3e 4484 bbbe 17f5 3a3d 3878 a73e
000001f0: 1a49 64be f08f a23e 47a6 b4be c69e 46bf
00000200: 5866 c03e 03ff 923e bec8 023e 18cf d43d
00000210: ec59 023e d379 ce3b 1991 283d 70d2 d6bd
00000220: 6849 88bd 156c 01be 9dd3 84be 04a2 05be
00000230: 5025 bdbc 084b f7bd 980f 223e 6b9d e2bd
00000240: 1055 99be a00d 22be a152 2d3e 440e c5bd
00000250: 5cc1 cd3d 50da 913e c1a7 4f3e 0e0b 8abd
00000260: 2be3 303e 317d 8a3d 2c80 2f3e b05b 683d
00000270: be30 bf3e d70f b53e 3970 b43e 877d 14be
00000280: dbea 283e b0d1 1abb 54d8 a23e 9888 9d3e
00000290: 90d0 3b3e 6001 ad3d 85d4 91bd 7ba8 dfbd
000002a0: 1e63 a93e 6b71 663c 416d 023d abba c83e
000002b0: 84db 543e 42ee a3bd a450 49be b77a 883e
000002c0: 8f25 043d 299c 8e3e 68d1 e73d 3bfe 493e
000002d0: 80f3 22be dba3 cd3e 1e34 8c3e be84 dc3e
000002e0: cbba f6bd 29df 873e f655 4e3e 64ae c4bd
000002f0: bfd7 4a3e 43f7 96be 995a ce3e 48af 243f
00000300: 3e98 093f 0fa0 aa3e bd01 ee3b cb07 6abd
00000310: 979b 8d3d 6097 91bd 04a5 b83d 41a3 f4bd
00000320: 5221 80bd 9445 39be 8ec8 63be 5467 d93d
00000330: d110 39be d372 cebd 523f 323e c084 9d3d
00000340: ecea 07be a19e babd d09a 683e 50ff 0dbc
00000350: 9b7d 2c3e b58d 7c3e 67dc b83e 6a5e e33d
00000360: da4f 7b3d 8bf3 5b3e e283 853e 8049 0e3e
00000370: 147b 043f bc62 7e3e 2d37 eb3e 26f8 643d
00000380: af59 81be 1163 75be 594b 2f3e 46ef 383e
00000390: 7e83 563e b4ab 473d 1185 1ebd 6d94 1f3d
000003a0: 607c a33e a8f4 873d 67f2 b9ba af6b 133f
000003b0: 3f89 8f3e 3f36 a6bc 3427 70be dae3 5d3e
000003c0: 9d70 bebd 07d4 be3d fe81 4abe 6014 703e
000003d0: cbeb c8bd 0449 d03e a18b e83e 8094 193e
000003e0: f8b3 10bc 1cac 9b3e e043 493e 52db 1dbe
000003f0: e8be 3b3e f924 60be 3781 293e 45e3 463f
-0.43716392 -0.33092844 -0.29144138 0.12650855 0.11625238 0.32704526 -0.22996683 0.35836208
0.3829042 0.32443163 0.44935134 0.29384184 0.34314364 0.34530857 -0.17075606 0.17210917
0.5059349 0.27162814 -0.49889743 0.31150332 -0.1432654 -0.33450055 -0.23205619 -0.19602579
-0.06659019 0.14761765 -0.37462258 -0.09367518 -0.39135307 -0.23991431 -0.5298957 0.089238755
0.5456763 0.4323209 -0.20268908 -0.13361032 -0.025118092 -0.37127942 0.2301513 0.15330802
-0.100894734 -0.098102346 -0.04931746 -0.60932547 -0.4262207 0.34665033 0.6622683 -0.16673851
0.17513382 -0.14171968 0.03747506 -0.21037933 0.35182548 -0.6345564 -0.45633808 -0.11047218
0.41319013 -0.24836154 0.038659267 0.36083978 -0.111760594 0.43156418 -0.26380673 -0.74456376
-0.31965867 -0.44524938 -0.057661254 -0.10343319 0.18083398 0.14688115 -0.24370275 0.1974875
0.07804642 0.048386663 0.475965 0.20378523 0.24513638 0.12988383 -0.4813122 0.18138641
0.47675544 0.16799052 -0.39959794 0.36405885 -0.2315597 -0.19912276 -0.36911663 -0.28340274
-0.054102812 -0.0008561048 -0.341476 -0.19575456 -0.25677073 -0.1757423 -0.26766497 0.21497299
0.42174315 0.26573274 -0.2107401 -0.057045236 -0.13940033 -0.35275513 0.11987982 0.24061345
-0.033121828 0.004210946 0.007034097 -0.41387406 -0.19719146 0.24085855 0.48535764 -0.14365414
0.2596803 -0.008643973 -0.12045295 -0.28598124 0.4030542 -0.53982884 -0.34952626 -0.2933171
0.16815543 -0.36624348 0.045643892 0.32708907 -0.22293511 0.3175044 -0.3528311 -0.7758602
0.37578082 0.28710184 0.1277189 0.103910625 0.12729615 0.0063011437 0.041154 -0.104893565
-0.06654626 -0.12638886 -0.25942698 -0.13050085 -0.023089081 -0.12074858 0.15826261 -0.11065181
-0.2994771 -0.1582551 0.16926052 -0.096218616 0.10046646 0.28486872 0.20278837 -0.0674039
0.17274158 0.067621596 0.17138737 0.056728065 0.37341875 0.35363647 0.3524187 -0.1450101
0.1649584 -0.0023623519 0.3180567 0.30768275 0.18341279 0.08447528 -0.07120613 -0.10920807
0.33083433 0.014065127 0.031842474 0.39204916 0.20786864 -0.080044284 -0.19659668 0.26656124
0.03226238 0.27853516 0.11319238 0.19725887 -0.159132 0.40164074 0.27383512 0.43070024
-0.12047347 0.26537445 0.20149979 -0.09603575 0.19808863 -0.2948552 0.40303496 0.6432996
0.5374793 0.3332524 0.007263391 -0.05713634 0.06914442 -0.071089506 0.09015849 -0.11945201
-0.06256355 -0.18092948 -0.22244474 0.106154114 -0.18072821 -0.10080495 0.17406967 0.07691336
-0.1327321 -0.09112287 0.22715306 -0.008666828 0.1684479 0.24663432 0.36105654 0.111019924
0.06135545 0.21479623 0.2607718 0.13895226 0.517503 0.24842352 0.45940533 0.055900715
-0.25263736 -0.23963572 0.17118587 0.18060026 0.20948598 0.048747733 -0.03870112 0.03895991
0.31930828 0.06638461 -0.0014186621 0.5758619 0.28034398 -0.020289538 -0.23452455 0.2166895
-0.09298823 0.09317785 -0.1977615 0.23445272 -0.09810599 0.40680707 0.45419028 0.14998055
-0.00883197 0.30404747 0.19654799 -0.15415695 0.18334544 -0.21889104 0.16553198 0.77690536

discriminator.2.bias f4 [32]
00000000: 0c27 743e 5197 d93d 10ad 4ebd f666 afbc
00000010: 1640 29be b5ee 5abe 022e adbd 734c 16be
00000020: 0cc7 29bd 6bdc 94bd b131 bf3c 4665 b2bd
00000030: 39ff 2fbd b9e0 fbbd 942c 64bc bda7 59bd
00000040: 7a25 6c3e f3a8 343e a4d9 9abd 9500 fbbd
00000050: 28db ebbd 621c 38be b742 19be cd77 6dbc
00000060: 5e5f 1ebe a0aa 1f3c 672d 15be 7385 05bd
00000070: 43a9 4b3e 4065 673e 007c b0bd 60cb 29be
0.2384302 0.106245644 -0.050458014 -0.0214114 -0.16528353 -0.21380122 -0.08456041 -0.146776
-0.04144959 -0.07268604 0.023339124 -0.087107226 -0.04296801 -0.12298722 -0.013926644 -0.053138483
0.23061171 0.17642574 -0.07561043 -0.122559704 -0.1151641 -0.17979577 -0.14966856 -0.014493895
-0.15466067 0.00974527 -0.14568101 -0.03259797 0.19888787 0.22597218 -0.08617401 -0.16581488

discriminator.4.weight f4 [1, 32]
00000000: 2b16 10bf 90fd 0ebf ed5a 863e 1e8c 6a3e
00000010: 5695 a43e 01e7 cd3e 9df2 ce3e e191 ef3e
00000020: ff0a 1cbd 3a86 e43e 695c f2bd 53d6 ae3e
00000030: 781a 90bd f8e4 c43e eca9 ad3e b28c 96bd
00000040: 6212 debe 12a6 f1be 3490 b23e 8790 283e
00000050: 0b3b 0d3e 2a32 d83e 05c7 553e abf8 14be
00000060: 7438 1e3e 2202 1cbe d695 ad3e e570 b93e
00000070: 7fcf 0cbf 049e ccbe 3e91 a93e 363e 9f3e
-0.56283826 -0.55855656 0.26241246 0.22905013 0.32145184 0.40215304 0.40419474 0.46790984
-0.038096424 0.44633657 -0.11834032 0.3414789 -0.070362985 0.3845594 0.33918703 -0.07351054
-0.433734 -0.47197014 0.34875643 0.16461383 0.13792054 0.42225772 0.20876701 -0.14547984
0.15451223 -0.15235189 0.33903378 0.36218944 -0.55004114 -0.39964306 0.33118623 0.3110215
