models/2022-12-23/gnn_model.pth (torch, 12192 bytes, 4 tensors)

fc1.weight f4 [64, 1]
000000 50 b8 1b 3f 58 f7 20 3e 58 bd 78 be 88 00 9c 3e
       0.60828114 0.15719354 -0.24290979 0.30469155
000010 3b ba 4a 3f 76 e8 2c bf f8 44 1d be 0c 2c b0 bd
       0.79190415 -0.6754221 -0.1535834 -0.08602151
000020 7b ed 6e 3f 08 c8 73 bf 90 61 fe bd 14 32 37 3f
       0.93331116 -0.952271 -0.12420952 0.7156079
000030 e1 33 c8 3e a8 3f 17 bf b9 b4 62 3e 7d f9 e1 3e
       0.3910208 -0.59081507 0.22139253 0.44135657
000040 93 05 2b be 2e 72 60 3d b0 09 8a be 00 65 d2 be
       -0.16701345 0.05479639 -0.26960516 -0.41092682
000050 eb 88 7f bf 80 50 e4 bd 09 2f ea 3e 98 21 d5 3e
       -0.99818295 -0.11148167 0.4573901 0.41627192
000060 18 12 ce be c4 2b cc be 8c c6 53 3f 38 82 d7 be
       -0.4024818 -0.3987714 0.82724833 -0.42091537
000070 02 b2 5a bf de f6 30 bf a2 b8 51 bf 28 a8 2a bf
       -0.8542787 -0.6912669 -0.8192235 -0.66662836
000080 52 dc 67 bf 03 cd 07 3f 42 e4 07 3f a1 c1 51 3f
       -0.9057056 0.530472 0.5308267 0.8193608
000090 cc 44 dd be 36 43 3e 3f 6a b0 3f bf f8 f2 6f 3e
       -0.4321655 0.74321306 -0.7487856 0.23432529
0000a0 b4 4d 51 bf 48 d1 05 be 40 3a df bc a0 12 4e be
       -0.8175919 -0.13068116 -0.027249455 -0.20124292
0000b0 61 99 5c 3f 88 2f 75 bf d6 4f 38 bf 24 35 50 bf
       0.8617154 -0.9577565 -0.7199682 -0.81331086
0000c0 d2 a1 27 3f f6 8f 2d be 60 e3 b8 3e 20 03 11 be
       0.65481293 -0.16949448 0.36110973 -0.14161348
0000d0 3b c9 ee 3e ab 15 05 3f 68 f9 81 be 29 d9 1f 3f
       0.46637902 0.5198619 -0.25385594 0.62440735
0000e0 7a 22 56 bf 78 a5 7c bf 28 86 d5 3e d8 e4 ce be
       -0.8364636 -0.98689985 0.41703916 -0.4040897
0000f0 7f 54 44 3e f8 17 57 be aa 17 3c bf f6 6e 55 bf
       0.19172858 -0.21005237 -0.7347361 -0.8337244

fc1.bias f4 [64]
000000 6b fa 30 bf 2e d0 61 bf 40 88 a9 be 36 f9 5f bf
       -0.6913211 -0.8820828 -0.33111763 -0.8748964
000010 6b 6c 3b be 28 6b 9b be 00 40 39 bd 28 b1 fc 3e
       -0.18303077 -0.3035519 -0.04522705 0.4935391
000020 e9 c5 24 3f 40 be b1 bd 68 0e 43 bf b9 7e a3 3e
       0.64364487 -0.086788654 -0.7619386 0.3193262
000030 76 88 78 3d ec 2c b7 3e 9f 8e 13 3f 82 1e 5e be
       0.060677014 0.3577646 0.576395 -0.21691325
000040 67 4b 4e 3e 36 fa 16 be f2 a5 4b bf 8e 69 0a bf
       0.20145951 -0.14743885 -0.7955009 -0.54067314
000050 5c 59 0c 3f ea 24 31 bf 2b dc 09 bf db 17 89 be
       0.5482385 -0.6919695 -0.53851575 -0.26776013
000060 38 12 46 bf ae 6e 24 bf 30 a7 6a bf 08 54 40 3f
       -0.7737155 -0.64231384 -0.9166136 0.7512822
000070 4a 40 3f bf cc 36 77 bf 66 94 49 3f d4 ce 61 bf
       -0.7470747 -0.9656799 0.78742063 -0.8820622
000080 08 14 8e be 61 5b 1c bf 79 1d 7e 3e b3 c5 95 be
       -0.27749658 -0.61076933 0.2481593 -0.29252395
000090 af f4 3c 3f 1e 7e c0 be bd e7 d4 3e a0 8d c8 be
       0.7381086 -0.3759622 0.41583052 -0.3917055
0000a0 ca 94 05 3f 9a 6a 07 bf 30 f0 b4 be 30 77 89 bd
       0.5218016 -0.52897036 -0.353395 -0.06712186
0000b0 82 a9 a3 3e 48 11 cc 3e ce b0 0c bf 20 3e 58 3d
       0.31965262 0.39856935 -0.5495728 0.052793622
0000c0 14 10 39 bf 04 6e 3f 3f f6 47 53 bf 60 3a d2 be
       -0.7229016 0.74777246 -0.8253168 -0.41060162
0000d0 de 2b 5b 3e 98 7b 06 be 98 24 68 be 7a 40 9f be
       0.21403453 -0.13133085 -0.2267021 -0.3110388
0000e0 60 e1 38 3f e0 a0 59 3e 37 b0 f6 bb 97 87 82 3e
       0.72218895 0.21252775 -0.0075283307 0.25494072
0000f0 1b b5 5f 3f 4c ec 1d bf e8 16 47 bf 00 3d ee be
       0.8738572 -0.61688685 -0.7776933 -0.46530914

fc2.weight f4 [37, 64]
000000 cd 7a d6 bc 10 53 b9 bc 54 22 21 bd 2c 9f 94 3d
       -0.026181603 -0.022622615 -0.03933938 0.07256922
000010 7d 59 3d 3e 20 87 9c 3d a4 e0 e2 bd bb bd 46 3d
       0.18491168 0.076429605 -0.11078003 0.048520785
000020 ef 15 3d 3e 1a b3 90 bd 24 97 db 3d eb 66 58 bc
       0.18465398 -0.07065411 0.10722187 -0.013208131
000030 a2 27 67 3d 06 f0 e0 bd 02 f8 9a 3c 03 98 ac 3c
       0.05643428 -0.10983281 0.018917087 0.021068579
000040 dc ff 38 3d 32 28 0d 3d 26 78 cb 3d 04 43 4a 3d
       0.04516588 0.03446216 0.09935026 0.049380317
000050 de dc 12 bd 78 8d ba bc a2 eb 10 3e ea e5 ba 3d
       -0.035855167 -0.022772536 0.14152387 0.09125884
000060 54 67 f5 3d 56 a4 e6 3d 68 40 4a 3d 82 f7 40 bd
       0.11982599 0.11261813 0.04937783 -0.04711104
000070 0e 45 d4 3d 80 be bf 3b 34 a9 32 bd fc a3 76 3d
       0.10364734 0.005851567 -0.043618396 0.06021498
000080 a0 13 66 bd 9d 34 a7 bc 41 1b ac 3c 0a ba 77 3d
       -0.05617106 -0.02041083 0.02100909 0.060480155
000090 c7 a2 68 3d 14 be 40 3e 0d 4f c1 3d a0 01 b7 bc
       0.05679586 0.18822509 0.09438906 -0.022339642
0000a0 eb df 6d bd c8 87 ce 3d dc f8 bc bd c8 15 82 3d
       -0.058074873 0.10084492 -0.09227154 0.06351811
0000b0 e5 6d 51 3d 24 96 96 3d b4 e3 dd bd da 85 92 bd
       0.051130194 0.07352856 -0.108344465 -0.071544364
0000c0 76 de 84 bd 2c fe 04 3e 1c aa 20 bd c0 72 c4 bb
       -0.064877436 0.12987584 -0.03922473 -0.0059951246
0000d0 cd c5 4f 3d 77 9f 82 3d e0 10 61 bc 95 ae c2 3d
       0.050725747 0.06378072 -0.0137369335 0.09505955
0000e0 d1 4c 0e bd aa 50 ac 3d fa 1e 86 3c 57 ae 12 3e
       -0.034741227 0.08413823 0.016372193 0.14324318
0000f0 ff 13 f1 bb d0 07 d8 bc 60 1d 28 bd 80 86 f0 3b
       -0.00735712 -0.026370913 -0.04104364 0.0073402524
000100 e4 54 1c 3c a2 c2 b1 3d 80 73 10 bb e6 99 9b 3d
       0.009541724 0.086797014 -0.00220415 0.07597713
000110 79 78 f6 bb f8 27 eb 3c fc 24 80 bd 11 14 11 3e
       -0.0075216857 0.028705582 -0.06257054 0.14167811
000120 85 2d 0f 3e 0a 4f be bd 60 c9 c1 bc 8a d2 8c bc
       0.13982208 -0.09292419 -0.023655593 -0.017190237
000130 a8 3d 76 bc d0 36 e5 3c 90 2b 53 3d 60 2a 1a 3b
       -0.015029348 0.027980238 0.051555216 0.0023523793
000140 7a 51 79 bd b0 af 44 3c d8 c8 ae 3c 14 24 02 3d
       -0.060868718 0.012004778 0.021336004 0.031772688
000150 ed a7 a6 bd 2a 7c b2 bd 96 f8 55 bd f0 db d0 3d
       -0.08137498 -0.08715089 -0.052239023 0.101982
000160 36 48 ec 3d 7a e1 ca 3d b8 76 dc bd 9f ec 0d 3c
       0.11537211 0.099062875 -0.10764831 0.008662372
000170 20 0c ad 3b 94 74 e7 3d 0f 91 51 be f4 c4 31 bd
       0.0052809864 0.113015324 -0.20465492 -0.04340072
000180 00 e0 1b b9 2c b2 11 be 2f 57 43 bd fc 55 59 3e
       -0.00014865398 -0.14228123 -0.047690567 0.21224207
000190 99 02 b3 3d 50 fc 6f 3e 25 4c b9 3c d6 0f e6 bd
       0.0874073 0.23436093 0.022619316 -0.11233489
0001a0 9b 62 41 be 58 83 c2 bd ee c2 c9 3d 98 35 29 3d
       -0.18885271 -0.09497708 0.09851633 0.041310877
0001b0 49 ed 2d 3e d0 9a 7f bc 00 2e a6 3d f0 c0 65 3d
       0.16985048 -0.015600875 0.081142426 0.056092203
0001c0 eb 15 a5 3d 8c 08 61 3d 40 13 f9 3b 30 e2 18 bc
       0.08060821 0.05493979 0.0076011717 -0.009331271
0001d0 fd 8a 0e 3e 4d 4d a4 3d 08 f6 30 3d 63 38 45 bc
       0.13920207 0.080225565 0.043203384 -0.012037369
0001e0 e2 aa 6b bd 34 d4 69 3d ea 4f 26 3d ac 03 d6 3d
       -0.057536013 0.05708714 0.040603556 0.10449919
0001f0 13 fc fe 3d 6c 0b 9c 3d 78 d2 ff 3c 00 e5 63 bc
       0.12450423 0.07619366 0.031228289 -0.013909578
000200 b9 cb 1c be f0 ce f2 3c 00 ba 18 3c 7c 3a 4f bd
       -0.15312089 0.029639691 0.00932169 -0.050592884
000210 77 91 18 3d 78 af 22 bd 34 77 98 3d dc 42 10 bd
       0.0372481 -0.03971812 0.07444611 -0.035220012
000220 49 10 b2 3d b0 21 f1 bd 04 d1 58 3d 97 8d 34 3e
       0.086945124 -0.117740035 0.052933708 0.17632137
000230 1e fe f2 3d 4c 4b c3 3d 07 09 dd 3d e3 4d 2e 3e
       0.11864875 0.09535846 0.107927375 0.17021899
000240 90 55 eb bd c8 b2 08 be 6a fd 9c 3d e0 a7 fe 3d
       -0.11490929 -0.1334945 0.076655224 0.12434363
000250 43 6b 5e bc fc 1f 22 bd 27 86 0a bd 99 84 dd 3d
       -0.013575378 -0.039581284 -0.033819344 0.108163066
000260 f4 d7 19 bd e0 ca a8 bd 68 8e 0f bd fc b8 91 bd
       -0.037559465 -0.0824182 -0.03504792 -0.07115361
000270 fa 92 b0 3d 8a 43 b1 3d 57 97 22 be a8 6b ce 3d
       0.086217836 0.0865546 -0.15878044 0.100791276
000280 fa ea 80 bd 09 3e 2d 3d 1e 0d 95 3d da 4a a0 3c
       -0.06294818 0.04229549 0.072778925 0.019566942
000290 d6 96 02 3c c4 41 97 3d 6e b5 50 3c ae 8a 83 3d
       0.007970532 0.07385591 0.012738569 0.064229354
0002a0 58 71 61 bd f0 52 0c 3c 80 95 c7 bc a8 eb 27 3d
       -0.055039734 0.008564696 -0.02436328 0.040996224
0002b0 97 85 cc 3d b8 d3 8d bd b6 ff 9f 3d 5c c5 de 3d
       0.09986418 -0.06925148 0.07812445 0.10877487
0002c0 8f ff e7 bc 08 f5 53 3d 34 67 a4 3d d0 74 fe bd
       -0.028320102 0.051747352 0.08027497 -0.12424624
0002d0 eb 80 08 3d 12 c6 d0 3c 72 0e c2 3d a7 51 4e 3d
       0.03332607 0.025485072 0.094754115 0.05037084
0002e0 2d c1 60 bd 88 7d 86 bc 51 96 d3 3d 4f 07 9c 3d
       -0.054871727 -0.01641728 0.10331405 0.076185815
0002f0 10 28 b5 3d fa a1 cf bd c4 80 8b bd d8 41 b3 bc
       0.08845532 -0.101383165 -0.068116695 -0.021881983
000300 b5 22 b4 3d 54 dc d7 3d 8c 2f e3 3d ce bb ef bd
       0.08795682 0.10540071 0.11093053 -0.11705743
000310 b7 95 b1 bc 90 5c 01 3d b6 37 ab 3d 73 ce 9a 3c
       -0.021677835 0.031582415 0.083602354 0.01889727
000320 6a ec c2 3d 0e 29 f4 3d 86 77 b2 3d 8b 32 84 3d
       0.09517749 0.11921893 0.087142035 0.06454953
000330 22 09 74 bc c0 ca 29 bd ce 3b 93 3d 8e ad 7c 3c
       -0.014894756 -0.041453123 0.07189141 0.015422238
000340 fd 73 95 3d f8 4d d5 bd b8 61 0d 3d 7a 19 a3 3d
       0.07297514 -0.10415262 0.03451702 0.07963844
000350 26 9e 9b 3c 14 20 0c 3d ae 77 61 bc 82 56 72 3e
       0.01899631 0.03421028 -0.013761444 0.23665813
000360 2c 7d 7e bd ba 22 98 3d 14 c2 7b 3d f2 5f 9c bd
       -0.062131092 0.074284986 0.061464384 -0.076354876
000370 1e 54 a3 3d 14 56 0e bd 45 ff 30 be 7a 2e a6 3d
       0.079750285 -0.03475006 -0.17284878 0.081143335
000380 b8 4a f9 3d 4f c6 d9 3b 53 92 0f 3e ad aa d0 3d
       0.121724546 0.0066459547 0.14020662 0.10188804
000390 ad e8 40 bc 1f 4b 1a 3e 30 5c 53 bd 9e 58 e6 bd
       -0.011774224 0.15067719 -0.05160159 -0.11247371
0003a0 24 71 e9 3a 64 9d 8c bd 9c cd d2 bd 50 21 b7 3c
       0.0017810208 -0.068659574 -0.10293123 0.022354752
0003b0 8b 06 08 3e a0 99 7e 3c 80 e7 10 3d ce c8 be 3d
       0.13283746 0.015539557 0.035377026 0.09315644
0003c0 b7 35 69 3d d0 49 08 3e a0 48 1f 3c 82 85 e4 3d
       0.056935992 0.13309407 0.009721905 0.11158277
0003d0 63 b9 d6 3d b9 7e 72 bb 40 dc 71 bd 9e 57 5a 3e
       0.104845785 -0.0037001802 -0.059047937 0.21322486
0003e0 e4 1b 90 bd e0 3e b9 3b 09 c5 67 bd 92 cb a0 bd
       -0.0703657 0.0056532472 -0.05658439 -0.07851328
0003f0 60 0e 99 3d 58 81 35 3d 12 d4 b0 bd 40 b8 8f 3c
       0.07473445 0.044312805 -0.08634199 0.017543912

fc2.bias f4 [37]
000000 fe a0 12 3e 74 a0 b1 bc 7f 49 70 3d 5c 82 87 3d
       0.14319226 -0.021682955 0.05866384 0.06616661
000010 2e 80 3e 3d 7e 19 36 bc 66 23 b5 3d 3f ca c1 3a
       0.04650896 -0.011114476 0.08844642 0.0014785005
000020 6d 23 ef 3c dc 3b fc 3d 01 c9 5d 3d 3a ae 7c bd
       0.029191697 0.12316105 0.05414677 -0.061689593
000030 94 c5 d6 3d 82 10 db 3d d4 24 ae 3d 14 34 01 3e
       0.10486904 0.10696508 0.08503118 0.12617522
000040 e3 71 d9 3d cd 59 5c bc 8e c3 37 3e 7b 80 3f bb
       0.10617425 -0.013449145 0.17945692 -0.0029220867
000050 f1 cf ab 3d 4d 82 4d bd 76 ed 95 bd ed 27 d2 3d
       0.08389271 -0.050173093 -0.07320683 0.102615215
000060 46 de c5 3d 5a 8c c1 3d 2a 29 10 3e 17 34 fd bb
       0.09661536 0.09450598 0.14078203 -0.007727157
000070 0a be c5 3d ec 92 a4 3c 87 60 1c bd 0e dd 88 3c
       0.09655388 0.020089589 -0.038177993 0.01670697
000080 92 55 3f 3d 85 49 0d 3e 22 69 e3 bc 29 03 b0 bc
       0.046712466 0.13797577 -0.027760092 -0.021485882
000090 8a 1f 6d 3d
       0.057891406
