models/2017-09-01/gnn_model.pth (torch, 12192 bytes, 4 tensors)

fc1.weight f4 [64, 1]
000000 1b fd 6b 3e 30 f2 ad be 43 9d b8 3e c9 9a ba be
       0.23045771 -0.33973837 0.3605748 -0.36446217
000010 24 37 48 3f 26 91 4f bf 44 1e de be d2 bd 14 3f
       0.7820914 -0.81080854 -0.43382466 0.5810214
000020 ab 4b e0 be c1 cb 86 3f 68 6d 3e 3e 00 d8 2b 3e
       -0.4380773 1.0530931 0.18596423 0.16781616
000030 6f 89 24 3f 19 32 4b 3f 34 56 50 3f 60 ce 21 3d
       0.6427221 0.7937332 0.81381536 0.039503455
000040 04 1f b4 be fc 0e fd 3e ac 4e 5e be 6c da 66 bf
       -0.35179913 0.49425495 -0.21709698 -0.90177035
000050 df d4 89 bf f0 22 03 bf e1 ea 12 3f 12 37 4c bf
       -1.0768088 -0.51225185 0.57389647 -0.7977153
000060 97 e9 4a 3f e0 5c b0 3d 36 cc 53 bf 70 bd 8d 3d
       0.7926268 0.086114645 -0.82733476 0.06920898
000070 17 c2 4c 3f cb 3e 3d 3f b0 b1 01 3e db 3a 61 3f
       0.7998366 0.7392394 0.12665439 0.8798043
000080 bc b6 28 bf 5e 43 d8 3b 00 03 93 3d 64 58 37 bf
       -0.6590383 0.0065998277 0.071783066 -0.7161925
000090 39 47 07 3d 5c 10 ff 3e b2 d1 7d bf 54 0e 63 bf
       0.033026908 0.4981717 -0.99148095 -0.8869374
0000a0 8b 4f a6 be a8 84 2f be 8d a0 a0 3f e6 73 58 3f
       -0.3248256 -0.17140448 1.2548996 0.84551847
0000b0 0e 48 7d bf fc 45 44 bd 45 a2 75 bc 32 22 fa 3e
       -0.9893807 -0.047918305 -0.014992301 0.48854214
0000c0 86 6a 03 3f 18 89 c3 3e cc e2 29 bf f8 0a 59 3e
       0.51334417 0.38190532 -0.6636169 0.2119559
0000d0 74 fb f9 3a 5f 74 1c 3f 56 9b 4a bf 85 cb b7 bd
       0.0019072131 0.6111507 -0.79143274 -0.08974365
0000e0 40 c2 30 bf 45 72 17 bd 00 11 60 3d 98 24 cf 3e
       -0.690464 -0.03697421 0.054703712 0.40457606
0000f0 e0 f6 60 bf ae 47 28 3f 06 8c 0b bf c7 d0 ef 3e
       -0.878767 0.65734375 -0.54510534 0.46838972

fc1.bias f4 [64]
000000 dd a6 2a be a3 e4 09 3f 24 d2 50 be c0 1d 01 3e
       -0.16665216 0.53864497 -0.20392662 0.12609005
000010 68 69 7b bf 44 60 fa 3e 64 5e 8c be af 7f 36 be
       -0.9820771 0.4890157 -0.27415764 -0.17822145
000020 4b b5 1f 3f 31 6a a5 be 4c 18 ad be 90 1e e7 be
       0.62386006 -0.3230758 -0.338076 -0.45140505
000030 50 41 75 be 34 10 47 3e 44 4f 1e 3f 9c 1e 7b bf
       -0.23950696 0.19439775 0.618397 -0.9809358
000040 a0 44 0d bf a4 43 37 bf f4 7d f2 3e c8 5e 55 be
       -0.5518284 -0.71587586 0.4736172 -0.20836937
000050 9c f8 d1 3e 24 c2 7f bf f8 6e d5 bc 80 25 10 bf
       0.41009986 -0.9990561 -0.02605389 -0.5630722
000060 06 17 13 3e e0 46 5e be 80 e1 0f 3d 26 36 29 bf
       0.14364251 -0.21706724 0.035127163 -0.6609825
000070 3a c4 7d 3e 7d ac 25 3f 87 60 50 3f e3 54 9a 3e
       0.24781886 0.6471632 0.8139729 0.30142888
000080 00 71 06 3c 9f 7a bd bd 50 ea bb be 00 70 a0 be
       0.008205652 -0.09251904 -0.36702204 -0.3133545
000090 b6 e3 c3 3e ec a4 4a bf 84 af 77 bf a0 5d af 3d
       0.38259667 -0.791579 -0.9675219 0.085627794
0000a0 ae 26 3b 3f 06 51 07 3f 6b 06 ce be 18 ad 75 bf
       0.73105896 0.52858007 -0.40239272 -0.95967245
0000b0 64 94 8f 3e 58 03 16 3f e9 3c 29 3f 09 23 f3 bd
       0.280429 0.5859885 0.66108567 -0.11871917
0000c0 ca dc 22 bf fa a1 30 bf cc 76 30 bf 20 9a 61 be
       -0.6361815 -0.68997157 -0.6893127 -0.2203145
0000d0 ad 73 f9 3e 83 b0 f3 3e b8 a7 7b bf 7c 0a a5 bc
       0.48721066 0.47595605 -0.98302794 -0.0201466
0000e0 38 ad 03 3e 44 aa c1 3e 00 d7 0b be ee 42 3e bf
       0.12859046 0.37825215 -0.13656235 -0.74320877
0000f0 80 0c 37 3d 8a f2 1c bd 2c 1e d0 be 6b 53 4f 3f
       0.044689655 -0.03831724 -0.4064802 0.8098666

fc2.weight f4 [37, 64]
000000 72 00 c5 3d 7c d8 f2 3c c4 81 89 bc 6a b9 32 be
       0.096192256 0.029644243 -0.01678551 -0.17453542
000010 b6 33 a2 bd 8f 0e cb bc 60 06 22 bd 6f ee 8f 3d
       -0.07920019 -0.024787216 -0.03955686 0.070278995
000020 22 83 a3 3b 0f 0e 97 3e d8 62 de bc e0 1a f8 3d
       0.0049899975 0.29502913 -0.027146742 0.12114501
000030 45 cd d7 3d 34 bc 15 3e 4c 04 9d bd 38 9e dc 3c
       0.10537199 0.14622575 -0.07666835 0.026930913
000040 b6 41 a5 bd 44 b6 0f bd 37 84 69 bd b0 1d 16 bd
       -0.08069174 -0.03508593 -0.057010856 -0.036649406
000050 5b dc cf bd fc 14 ba bd 7a 2c d5 3d 38 dd 39 bd
       -0.10149451 -0.09086034 0.10408874 -0.045376986
000060 89 f6 09 bb 60 8d 5c bc c0 97 d1 bd 70 fb 4f bc
       -0.0021051487 -0.013461441 -0.10234022 -0.012694225
000070 47 12 02 3e ef c3 79 ba 11 b7 6c 3d 8b 58 8a 3d
       0.12702285 -0.00095277926 0.057791773 0.067551695
000080 a0 d6 cd bc 1e b6 9a 3d 2e 97 81 3d 80 24 ef 3b
       -0.025126755 0.07554267 0.06327663 0.0072980523
000090 21 1d 60 3d 90 ce c4 bc e0 fa 89 bb 40 6b 3b bc
       0.05471528 -0.024024278 -0.004210815 -0.011439145
0000a0 b2 e5 81 bd 2e 4b d2 bd 2e b2 d5 3d 68 21 fb 3c
       -0.06342639 -0.10268246 0.10434376 0.030655578
0000b0 14 a9 23 3d bc 61 95 3d e9 4d 80 3d b1 f0 58 bc
       0.039956167 0.07294032 0.0626486 -0.013240979
0000c0 ea 63 ab bd fc f7 7a bd b0 c9 45 3d 74 18 ee 3d
       -0.083686665 -0.061271653 0.048288047 0.11625758
0000d0 8a b6 6e bb 14 0b 8a 3d e0 7a ee bd 6a 55 a1 bd
       -0.003642472 0.06740394 -0.1164453 -0.078776196
0000e0 5b 1e 2a be ae 90 86 bd 60 91 8c bb 00 da be 3c
       -0.16613142 -0.06570564 -0.004289791 0.02329731
0000f0 40 2e ab bb f1 b3 d9 3c 70 06 5f bd a9 a1 0e 3e
       -0.0052240193 0.02657506 -0.0544495 0.13928856
000100 7e fc 10 3e 93 c9 12 bc 67 39 19 3d 6c 07 74 bd
       0.14158818 -0.008959192 0.03740826 -0.05957739
000110 b6 18 8e bd 5a 79 1c be 78 68 5b bd 09 c5 09 3e
       -0.06938307 -0.15280667 -0.053566426 0.13454069
000120 6c 66 b1 bc 8e 84 6b 3e a2 82 fc bd 02 80 a5 3d
       -0.021655284 0.22999784 -0.12329604 0.08081056
000130 e5 4c 42 3e c5 f8 fd 3c f5 db 77 bd 9c ae c9 bd
       0.18974645 0.031002412 -0.0605125 -0.09847757
000140 30 3c 6a bd 48 b8 22 3d af ef c1 3d c8 79 ea bc
       -0.057186306 0.039726526 0.09469544 -0.028622523
000150 32 ae 83 bd 18 c4 83 bc d3 6e 03 3d 0c ea 74 bd
       -0.064297095 -0.016084716 0.032088112 -0.059793517
000160 f7 17 dd 3d 9e 89 84 3d e8 35 dd 3d 90 c7 3b 3c
       0.107955866 0.06471561 0.108012974 0.011461154
000170 be 23 a5 bd 9c e2 2d 3d aa 8c 05 3c ca 46 ec 3d
       -0.08063458 0.04245244 0.008151213 0.115369394
000180 ba 6d d0 3d d4 eb 0a 3e f8 76 bf 3c 78 15 bf 3c
       0.10177179 0.13566524 0.023372158 0.023325667
000190 1a 18 e8 3b cc ee f4 3d ee 35 c5 bd 20 a5 26 bc
       0.0070829513 0.119596094 -0.09629427 -0.010171205
0001a0 08 da ad 3d 67 43 40 3c d0 a0 33 3e 80 63 9a 3c
       0.08488852 0.01173482 0.17541814 0.018846273
0001b0 68 a2 69 3d f3 12 80 bd 4e a0 ed 3d 89 e0 f6 bc
       0.05703965 -0.06253614 0.11602841 -0.030136364
0001c0 be 89 bb 3d 74 dd b5 3d 02 26 cf bd d0 61 fd bd
       0.091571316 0.088801295 -0.10114671 -0.12372172
0001d0 12 e4 ac 3d 45 86 06 3e 5a af c9 3d cb 83 cb bd
       0.084419385 0.13137157 0.09847899 -0.09937247
0001e0 7a 28 8c bd f5 60 e4 3c d4 89 e9 3d 60 6d d0 bd
       -0.06843658 0.027878264 0.11403242 -0.101771116
0001f0 58 23 b4 bc 7d 2f 2c 3e f6 bb b3 3d 92 e0 53 bd
       -0.02198951 0.1681499 0.08776085 -0.05172784
000200 e6 3f 02 3c d2 13 bc 3c 85 3c 01 bd 4e a9 8c bd
       0.007949805 0.02295867 -0.031551857 -0.0686823
000210 e0 53 db 3c 25 a8 1a be 58 35 85 bc ff 74 fc 3c
       0.026773393 -0.15103205 -0.016260788 0.030817507
000220 c7 85 bb 3d d9 24 48 3e 20 66 ee 3d 1a b2 8c 3d
       0.091563754 0.19545306 0.116405725 0.06869908
000230 da 38 09 3e f6 8b c2 3d 5e 11 3d 3d 9c 6c af 3d
       0.13400593 0.09499352 0.04615914 0.085656375
000240 a0 9f 39 bc 2a f6 b1 bd 35 02 ef 3d d4 f3 07 3d
       -0.0113295615 -0.0868953 0.11670343 0.033191517
000250 f7 0a 18 bd f2 79 a1 bd aa 2e 81 3d 20 17 fa 3b
       -0.037119832 -0.07884587 0.063077286 0.0076321512
000260 14 2a ed bc 8a ed a0 bd 94 2e 2c bd 14 95 3a 3d
       -0.028950728 -0.07857807 -0.042036608 0.04555233
000270 b3 ce a0 bd 77 6b 33 bc d6 93 9a bd f5 68 5d 3d
       -0.07851925 -0.010950915 -0.07547729 0.054055173
000280 a4 5b 14 bd 33 51 04 3e a0 d3 b4 bc e0 93 c6 3d
       -0.036220208 0.129216 -0.022073567 0.09696174
000290 f9 97 dd bd 82 37 a8 3d 66 5b 83 bd 80 4e 3b bb
       -0.10820002 0.08213712 -0.06413917 -0.0028580725
0002a0 16 42 ce bd 84 ab 6e 3d 45 77 75 3e f0 95 5f 3d
       -0.10071199 0.05826904 0.23971279 0.05458635
0002b0 30 11 dc bc b1 28 0d bd 25 4a 7e bd dd ed 1e 3e
       -0.026863664 -0.034462634 -0.06208243 0.15520425
0002c0 00 84 39 3c a6 74 cd 3d ac 84 1d bd ce d7 86 3d
       0.011322975 0.100320145 -0.038456604 0.0658413
0002d0 4f 4b 87 3d 9c 2b c8 3d 88 c5 27 3d 4e fd 39 3d
       0.06606161 0.09773943 0.040959865 0.045407586
0002e0 cc 7a d7 bd 21 b6 4d 3d 34 f4 0d 3d 80 7b f2 3b
       -0.105214685 0.05022252 0.03465672 0.0073999763
0002f0 32 4f ea 3d b5 c7 12 3e c0 ad 4d bc a8 1e 1c 3e
       0.114408866 0.14333995 -0.012553632 0.1524607
000300 d0 d7 57 3e 01 c5 4b bb a5 90 a3 3c a0 f7 ae 3c
       0.2107842 -0.0031092765 0.019966433 0.021358311
000310 4a 3f d0 3d be 67 2a 3d 60 49 8f 3b 97 3b b1 3d
       0.101683214 0.041602843 0.0043727607 0.08653944
000320 e0 29 a8 3d 97 17 44 3e 2e 2f d7 3d 50 c8 4b bd
       0.08211112 0.19149624 0.10507046 -0.04975158
000330 7b 89 e9 3d e4 24 b6 3d 0b 1c 23 3d c0 55 84 bb
       0.114031754 0.08893755 0.039821666 -0.0040385425
000340 38 b0 80 bd 64 7c 6f bd 26 a0 15 3d 58 96 8d bc
       -0.06283611 -0.058468238 0.036529683 -0.017283604
000350 ba 00 55 bd 10 49 9d bc 2c cb 48 3d a2 17 e8 bd
       -0.052002646 -0.019199878 0.049021885 -0.113326326
000360 2f 07 1d 3e 24 b4 82 3d da 26 df 3d 24 a2 cf bd
       0.15334772 0.06382015 0.10896082 -0.10138348
000370 ab af 22 bd 33 87 ee 3d 1a 07 1a bd ae ed a4 3d
       -0.03971831 0.11646881 -0.03760443 0.08053146
000380 00 95 ac 3b 49 0c bb 3d 8a ec c5 bd 7c fb 5f 3d
       0.0052667856 0.091332026 -0.09664257 0.054683194
000390 87 09 b5 bc d0 ef f1 3d b0 11 b0 3d 6c be c4 3d
       -0.02209927 0.11813319 0.085971236 0.096066326
0003a0 47 86 a2 3d a8 eb 57 bd 45 d1 54 3e 50 33 20 bc
       0.079357676 -0.052714974 0.20782955 -0.009777859
0003b0 48 57 91 bc 58 f9 3c 3c 83 cb 67 bd 08 e5 d2 3c
       -0.017741814 0.011534058 -0.05659057 0.025743976
0003c0 ee 1c c7 3d 60 ad 57 3d 90 cb 8f 3c 0e 1a cf 3d
       0.09722315 0.052655578 0.01755312 0.101123914
0003d0 84 2f 1c 3e 15 65 02 3b c4 b0 d6 3d 27 c6 95 bd
       0.15252501 0.0019896675 0.10482934 -0.07313185
0003e0 51 7e 19 3e 17 11 90 bd 3a 93 df 3d 30 b0 fe bc
       0.14989592 -0.0703451 0.10916753 -0.031089872
0003f0 a6 88 81 bd b0 38 28 3e 90 05 19 bd cf ea 72 bd
       -0.06324892 0.16427875 -0.03735882 -0.059305962

fc2.bias f4 [37]
000000 6e 49 c0 bb 4b 11 eb 3c 0a 76 bf 3d 54 94 4e 3c
       -0.0058681285 0.02869477 0.09348686 0.012608606
000010 42 ec 74 3d d4 e9 2f 3d 34 1a f5 3d 34 4b fe 3c
       0.059795626 0.042947605 0.119678885 0.031041719
000020 72 20 68 3d 38 33 d2 3c d4 c0 c5 3c 51 b2 b5 3d
       0.056671567 0.025659189 0.0241398 0.08871902
000030 1b 78 59 bd 51 7d 62 bd 3f 13 e3 3d fb 56 c8 3d
       -0.053093057 -0.055295292 0.11087655 0.09782215
000040 ba 08 db bd 1b 51 8e bd 64 c1 d6 3d 5e b0 1a 3d
       -0.10695024 -0.069490634 0.10486105 0.037765853
000050 6c 94 ab 3d 96 29 de 3d 4b 36 45 3c 32 04 30 3d
       0.083779186 0.10847776 0.01203687 0.04297275
000060 00 ff 06 bd dc e9 89 bc e1 c2 78 bd 5f 16 8c 3d
       -0.03295803 -0.016835146 -0.060732726 0.068402044
000070 62 b6 a8 3d b8 c7 42 3d 24 e4 b7 3d 23 a8 ea ba
       0.08237912 0.047553748 0.08979061 -0.0017902892
000080 9e 14 c7 3d e5 3d 16 bd 6d 7e 76 3c ee d0 3d bb
       0.09720729 -0.03668012 0.015044791 -0.0028963643
000090 00 50 c4 bd
       -0.09585571
