models/2025-06-27/lstm_model.onnx (onnx, 468420 bytes, 6 tensors)

fc.weight f4 [7, 256]
000000 b9 c2 a3 3d ad b4 46 3d 94 98 32 3d 5a e7 5a bd
       0.07996125 0.04851215 0.04360254 -0.05344329
000010 e0 ac ff 3d 63 2f 69 3d c9 f9 75 bd 14 14 44 bd
       0.12484145 0.056929957 -0.060052667 -0.04787071
000020 87 fb 93 3d 4e dd 45 3a 33 cb da be 93 51 02 be
       0.072257094 0.00075479306 -0.42733154 -0.1272643
000030 ec 97 1b 3d 92 55 68 3c 83 04 be 3d 76 6e 67 3d
       0.03798668 0.014180558 0.09278204 0.056501828
000040 36 c9 a2 bd ef 0b 02 bc 2b b4 30 be 78 bc 31 be
       -0.07948534 -0.0079374155 -0.17256229 -0.17357051
000050 1d ed c3 3d 2a 34 33 bd fd b7 51 3d 0f 6c df bc
       0.0956671 -0.04375092 0.051200856 -0.027273206
000060 bd 25 09 be 6b 86 13 3d b5 53 e6 bd 43 9b 1d 3d
       -0.13393302 0.036016863 -0.112464346 0.038478147
000070 a8 16 24 bd cc 46 21 bc 16 e4 21 3d 6a 24 50 3e
       -0.04006067 -0.009843539 0.03952416 0.20326391
000080 c5 b1 ce 3c ce 9e 6c 3d 5f 74 6c 3d 13 a8 48 3d
       0.025231251 0.057768635 0.057728168 0.048988413
000090 cb a8 41 bd 47 90 41 bd 17 6d db 3d e4 be 00 3e
       -0.047280114 -0.047256734 0.107141666 0.12572819
0000a0 a6 47 e7 3c f6 16 16 3c e4 7a 97 bc 9c af f2 bc
       0.028232407 0.009160748 -0.018491216 -0.029624753
0000b0 a0 9f da 3d 66 29 01 3d 92 28 eb bd c3 c9 d8 3c
       0.10674977 0.03153362 -0.114823475 0.026463395
0000c0 1f 2a d4 bc 78 22 01 3d a6 1b a6 bb 0a af 1d be
       -0.025898991 0.031527013 -0.005069214 -0.15398803
0000d0 d2 46 21 3c dd 9f 45 3d 60 f6 9b 3d f1 0f 81 3d
       0.009843545 0.04824816 0.07615352 0.06301869
0000e0 77 55 80 3d 52 2a e2 bd 93 8e f1 bd b2 83 32 be
       0.06266301 -0.11043228 -0.11794772 -0.1743305
0000f0 b0 2b 99 3d af 31 82 bb 12 64 1a 3d e9 96 ad bc
       0.07479036 -0.003973208 0.03769309 -0.021190124
000100 ca b3 18 bb af 0d 82 bb 48 29 82 3c e4 a9 b3 bd
       -0.0023300522 -0.0039689164 0.015888825 -0.087726384
000110 97 64 f7 3d 1c fb 24 bc 8a 14 4d bd f8 64 1d bc
       0.12079733 -0.010069635 -0.050068416 -0.009606592
000120 ee fe b6 bc b1 bd 70 3d e2 ba a3 3d fa cb f3 bc
       -0.022338357 0.058774654 0.079946294 -0.02976035
000130 21 90 6b be fe 1d d7 3c 9b 88 9b 3c 30 c9 c4 bd
       -0.230042 0.026259419 0.018986037 -0.09608686
000140 25 52 08 bb 5b 9a 73 bd e8 0a de 3c a8 18 86 3d
       -0.0020800915 -0.059473377 0.02710481 0.065476716
000150 01 a9 f4 3b 74 7d ad bc 9e 8a f7 bd f3 a6 0e 3e
       0.007466436 -0.021177985 -0.12086986 0.13930874
000160 98 22 b6 bc be fd b3 3d 13 6e 6d bd 21 54 3f bb
       -0.022233292 0.08788632 -0.057966303 -0.0029194432
000170 25 8e 1a bc 90 fc ca 3c 9f ee 67 3d c1 9a 40 bc
       -0.009433304 0.024778634 0.05662405 -0.011755646
000180 57 53 75 bc 8f 99 98 3d 76 78 97 3d c8 58 41 3d
       -0.014973483 0.07451164 0.07396023 0.04720381
000190 4c 0d a1 3d 0e 55 61 bd c4 7a f4 3b a1 a5 b0 bd
       0.07863864 -0.055012755 0.007460924 -0.08625341
0001a0 14 b0 a6 bb ed 0a 2c 3d 9e df 3f 3c 8d c1 a0 bd
       -0.005086908 0.042002607 0.011711029 -0.07849417
0001b0 0b 97 aa bc 7b 60 a7 3c 55 a6 01 3e c7 04 b2 bb
       -0.020823976 0.020431748 0.12661107 -0.0054326984
0001c0 54 4e b8 bd 0f 0f 88 bd dc ee bc 3c a6 75 27 bd
       -0.08999315 -0.06643497 0.023063116 -0.040883683
0001d0 34 32 f8 bc 14 ef 12 bd 56 37 53 3d 39 b7 c1 3c
       -0.030297376 -0.035872534 0.051566444 0.023646938
0001e0 b7 e4 01 be eb 20 6a bd f7 0a b9 bd b3 d2 4f bd
       -0.12684904 -0.0571603 -0.090352945 -0.050738048
0001f0 c7 a9 a3 3d ee ee c2 3d 5d 97 e9 3c d1 f8 d6 bd
       0.07991367 0.095182285 0.028514558 -0.10496677
000200 63 68 c3 3c a8 e5 ce 3c b5 b9 0b bd 9c c5 6c 3d
       0.023853486 0.025255993 -0.03411265 0.057805642
000210 2a 69 3e 3c cd cf 85 3d e8 1f 03 3c 98 0c 2e 3b
       0.011621753 0.065337755 0.0080032125 0.00265578
000220 e6 7d 1f bd f3 4c 4d bc b9 c7 2a 3c 42 b6 67 bd
       -0.038938425 -0.012530553 0.010423594 -0.0565703
000230 df 7e 81 bc 0d 76 99 ba 0e d9 ea 3b 08 ff e0 bc
       -0.015807567 -0.0011708156 0.007166988 -0.027465358
000240 2e 58 75 bd d7 08 c6 bd f8 cc d4 3d ea e3 c8 3b
       -0.059898548 -0.09669655 0.10390657 0.006130685
000250 72 f9 cb 3c e3 82 b1 3d a6 2d 73 bd 69 16 c6 bd
       0.024899218 0.08667543 -0.059369706 -0.09672243
000260 25 f0 87 3c 70 07 a0 3c 8c e3 ea 3c 9d 56 f0 3d
       0.016594002 0.019534796 0.028672956 0.1173527
000270 bd 85 ff bd 8d 40 f0 3c 6f cc e4 3d cf 0b 16 3d
       -0.124766804 0.029327655 0.11171805 0.036632355
000280 e8 19 2e bd 55 40 53 3d bc a1 34 bd 77 eb 48 3c
       -0.042505175 0.051575024 -0.044099554 0.01226317
000290 53 5a 9f bc 55 9c 51 be ef 4f 97 3d d4 06 34 bd
       -0.01945225 -0.20469792 0.07388293 -0.043951824
0002a0 e3 6f a8 bc 30 c0 c9 bd 30 98 66 3e 71 28 03 3c
       -0.020561164 -0.0985111 0.22518992 0.008005247
0002b0 4e 6f e5 3c c2 3c b1 3d 4d b7 20 bc 9f a3 92 bd
       0.028007176 0.08654167 -0.009809327 -0.071601145
0002c0 dc 20 58 3d 03 92 87 3e 4f 49 d8 3c d4 f6 8e bd
       0.052765712 0.26478586 0.026402144 -0.069806725
0002d0 37 05 c9 3d 4f 95 6c 3d 8b 92 04 bc 39 c0 c6 3d
       0.09815448 0.05775958 -0.008091579 0.09704632
0002e0 e2 ee 10 3e e6 41 a1 3d 2e ac ac 3d f1 75 82 3d
       0.14153627 0.07873897 0.08431278 0.06370152
0002f0 fd df 5b bd ba 34 ba 3d d2 c2 fb bd 82 9b bb bc
       -0.05368041 0.09092088 -0.122930184 -0.0229013
000300 40 47 6c 3c e6 4d 1d bd b1 87 2d bd d7 81 2e 3d
       0.014421284 -0.038404368 -0.042365734 0.042604294
000310 89 ae 08 bc 89 e1 07 bc 6f e5 f9 3c 56 27 1b bd
       -0.008342394 -0.008293518 0.03050491 -0.03787931
000320 d5 78 bb 3c b0 b4 3b bb 2b a2 2f bd 01 1e 80 bc
       0.022884766 -0.0028641634 -0.042879265 -0.015639307
000330 71 b1 88 3d 62 51 b1 3d 6f 9e 07 be 7a e4 65 bc
       0.06674469 0.08658101 -0.13244031 -0.014031524
000340 7b d0 da bd 54 1e 94 3d ae 8a 35 be fe 48 f1 3d
       -0.10684296 0.07232347 -0.17728683 0.117815
000350 9c 98 db 3d ea e3 8d bc 17 a4 6e 3e 5d 66 ad 3b
       0.10722467 -0.017320592 0.23304783 0.0052917437
000360 2d b6 63 bd 47 5d da 3d 91 1b 5e 3c 92 ac 4c bb
       -0.05559366 0.106623225 0.013556377 -0.003123079
000370 80 92 6c 3c 5b 45 72 bd ac 3b 20 bd 40 a8 e5 bc
       0.014439225 -0.059148174 -0.039119408 -0.02803433
000380 1c 0d 12 be 41 13 82 3b 89 2a 6a 3d 05 f7 7a bd
       -0.14262813 0.0039695804 0.05716947 -0.061270732
000390 bf 62 45 bc 9b d0 1e bd dc 95 af 3d 4b 92 df 3c
       -0.012047469 -0.03877316 0.08573505 0.027291438
0003a0 47 e5 4f 3c fd 43 e4 3c 8a 79 18 bd 8b e5 7e 3d
       0.012688941 0.02786445 -0.037225284 0.062230628
0003b0 15 66 ef bb 37 8e ce 3d 86 a3 ac 3d 52 f4 96 3d
       -0.0073058703 0.10085719 0.08429627 0.07370819
0003c0 74 1f e4 3c fe 9e f6 3c 6d bc 88 bd 65 24 c1 3d
       0.02784703 0.03010511 -0.06676564 0.0943077
0003d0 ac 34 9d 3d 94 9a d5 3d db b1 6d 3c e2 15 a9 3c
       0.07676062 0.10429874 0.014507736 0.020640317
0003e0 ca f0 cb bc 06 5d e1 bd 40 46 33 3c 77 20 b6 3d
       -0.02489509 -0.11004071 0.010942042 0.08892911
0003f0 0a 14 f1 bc b9 f0 1d be 41 62 0a be 71 11 2f bd
       -0.0294285 -0.1542386 -0.13514043 -0.042741243

fc.bias f4 [7]
000000 ba 8c 2e 3d 22 15 14 3d 0e ec a1 3d 0a 49 7e 3d
       0.042614676 0.036152966 0.07906352 0.062081374
000010 aa 3a 9d 3d ab 01 d2 3d de 38 ec 3d
       0.07677205 0.102542244 0.11534284

onnx::GRU_197 f4 [2, 768]
000000 93 ae df bd 89 c4 13 be 64 71 e1 bd ca 07 f5 bd
       -0.10921969 -0.14430441 -0.11007956 -0.11964376
000010 fd c3 a3 bd fd a8 0e be a8 ed 86 bd ae 6d 4e be
       -0.07996366 -0.13931651 -0.06588298 -0.20159027
000020 50 46 e3 bd 17 1e ae bd aa b2 f1 be cf ca c3 bd
       -0.110973954 -0.08501833 -0.47206622 -0.09560167
000030 11 a9 24 be a5 2c a2 bd dc de cd bd f6 9e 24 be
       -0.16080119 -0.079186715 -0.10052273 -0.16076264
000040 a0 99 92 bd d2 74 54 be 34 b3 73 be e6 06 4b be
       -0.07158208 -0.20747688 -0.2379883 -0.1982685
000050 fe 60 52 be f1 02 9f bd 4b 46 0e be 63 68 e7 bd
       -0.20544812 -0.07764233 -0.13894002 -0.11299207
000060 cd 10 4e be d2 22 d6 bd e3 35 d9 bd bc 2a 6d be
       -0.20123596 -0.1045586 -0.10605981 -0.23160833
000070 76 9a 4f be e9 3b 55 be ef 1b dd bd b4 8e 96 bd
       -0.20273766 -0.20823635 -0.107963435 -0.07351437
000080 9c 46 50 be 05 e3 de bd 56 94 68 be 50 05 38 be
       -0.20339435 -0.10883144 -0.22712836 -0.17970777
000090 c8 b9 96 bd c8 58 43 be 17 f2 95 bd b7 8e 1b be
       -0.07359654 -0.19076836 -0.073215656 -0.1519116
0000a0 98 b9 98 bd 5d d1 cd bd da 9b d2 bd 0a 8f 6a be
       -0.07457274 -0.100496985 -0.102836326 -0.22906128
0000b0 63 14 f9 bd a5 8d 68 be b5 c3 1d be 80 4a d9 bd
       -0.121620916 -0.22710283 -0.15406688 -0.10609913
0000c0 ed 46 fb bd b6 38 41 be 03 d4 43 bd 4a 0b 08 be
       -0.122693874 -0.1886929 -0.047809612 -0.13285556
0000d0 0e 3c 92 bd c3 ba 55 be ad cc 0d be 6b 3c 32 be
       -0.07140361 -0.20872025 -0.13847609 -0.1740586
0000e0 44 c4 32 be 70 d6 37 be 18 d0 17 be 2e 80 b5 bd
       -0.17457682 -0.17952895 -0.14825475 -0.08862339
0000f0 c7 f0 ff bd 31 73 2c be 72 a7 31 be aa 5a 53 bd
       -0.124970965 -0.16840817 -0.17349032 -0.051600136
000100 23 77 df bd cf d1 6b be ea 20 16 be 37 15 24 be
       -0.109113954 -0.23029254 -0.14660993 -0.16023718
000110 74 79 3b be 4c 6e 06 be dc 14 1e be e6 00 d2 bd
       -0.1830805 -0.13128012 -0.15437645 -0.102540776
000120 d0 03 84 bd 89 78 3b be 2e 0f b9 bd 5d 10 70 be
       -0.0644604 -0.183077 -0.090360984 -0.23443742
000130 23 03 ab be d1 43 b0 bd e9 df e3 bd 9b 0d ca bd
       -0.3340083 -0.08606685 -0.11126692 -0.09865876
000140 3b 8e 0c be 9b 43 55 bd bf bf 3e be 28 6c 52 be
       -0.13726132 -0.052066427 -0.18627833 -0.20549071
000150 f5 b1 88 bd e1 b1 4c be 4f ce 26 be ae b3 e0 bd
       -0.066745676 -0.1998973 -0.16289638 -0.10971771
000160 0b ea 34 be 60 3e dd bd 95 8f ba bd f6 96 c3 bd
       -0.17667405 -0.10802913 -0.09109417 -0.09550278
000170 a8 19 1d be c5 22 9c bd 6c 5b e6 bd 54 cd a4 bd
       -0.15341818 -0.07623819 -0.11247906 -0.08046976
000180 3e 9a 03 be 4f d3 18 be 6b 85 9c bd ee 50 47 be
       -0.12851807 -0.14924358 -0.07642635 -0.19464466
000190 87 24 50 be bd 09 cd bd c3 d9 6e be ef c6 82 bd
       -0.20326434 -0.10011623 -0.23325257 -0.063856
0001a0 5b ac 09 be 71 55 ce bd 39 81 4e be 09 b8 8e bd
       -0.13444655 -0.100748904 -0.20166482 -0.06968696
0001b0 0d 88 2d be 0d 59 03 be 03 cc da bd 07 ff 50 bd
       -0.1694643 -0.12826939 -0.106834434 -0.051024463
0001c0 e4 c6 46 be 94 ef 3e be a8 53 4a be 99 ef 0b bd
       -0.19411808 -0.1864608 -0.19758475 -0.034164045
0001d0 3b 98 1f be 42 13 17 be c4 ac e4 bd 68 90 19 be
       -0.15585415 -0.1475344 -0.11165765 -0.14996493
0001e0 b2 e2 36 be 30 29 54 be 50 8a fc bd dc ff 70 be
       -0.17859915 -0.20718837 -0.123310685 -0.23535103
0001f0 e5 2d 0e be dc 58 8f bd f2 e2 0f be 7c 7f 96 bd
       -0.13884695 -0.069993705 -0.14051417 -0.073485345
000200 82 b0 41 ba 16 40 e6 3d 31 14 10 3e 17 98 6f 3d
       -0.00073886674 0.11242692 0.14070202 0.058494654
000210 eb 9e 07 bc 6c 91 60 3d d5 d8 a7 3c 78 c1 25 3d
       -0.008277635 0.054826185 0.020489136 0.04046771
000220 01 75 a3 3d cd 98 8e bc 5f c0 a6 bd 87 09 76 3d
       0.07981301 -0.017406845 -0.081421606 0.06006768
000230 52 aa c8 3c ee 63 36 bc 49 c4 9f 3d 2a 74 17 3e
       0.024495278 -0.0111322235 0.0780111 0.14790407
000240 10 96 ba bd eb bb 0d 3e d6 70 fd bb fd 20 98 bd
       -0.091106534 0.13841216 -0.0077343984 -0.07428167
000250 ca 12 87 3a 95 6b 9a 3c a5 93 6e 3a 95 4a 9b 3d
       0.0010305282 0.018850127 0.000910098 0.07582585
000260 db 18 8f bd 05 36 c5 bd 0f f5 c4 3d 49 47 96 bd
       -0.06987163 -0.09629444 0.09617054 -0.07337815
000270 08 e5 39 3e 4a b2 d9 3d b3 1e a5 3d 16 07 1f bd
       0.18153775 0.10629709 0.08062496 -0.038825117
000280 0c 89 b8 3d 82 c9 b8 3c 20 2d 46 3e 31 6a 52 3e
       0.090105146 0.022557024 0.19353151 0.20548321
000290 fd 6c 1e 3e 57 c1 83 3c 2f 04 f2 3d 6c b1 3e 3d
       0.15471263 0.016083403 0.11817204 0.04655592
0002a0 c4 b1 05 3c 19 fc e3 bc b2 8c 0e 3d cb 93 6e 3c
       0.008160058 -0.02783017 0.034802146 0.014561604
0002b0 f1 da a6 3d fa be 39 3e 7d 63 67 bd 4c 9a 4f 3c
       0.081472285 0.18139258 -0.056491364 0.012671065
0002c0 3a 70 ce bd 35 0c dc 3c fe b4 86 bd b6 fb 1c 3d
       -0.10079999 0.02686129 -0.0657749 0.038325988
0002d0 3e 85 14 3d f1 d7 8b bd fa d0 a5 3d a3 5b b4 3c
       0.036259882 -0.06828297 0.080965 0.022016352
0002e0 d1 03 90 3d 05 95 03 be 2a 4f 20 3d 9c 29 89 bd
       0.07031978 -0.12849815 0.039137997 -0.066973895
0002f0 42 2d 35 3c fb e6 91 bd b7 71 35 3d 17 5c f6 bd
       0.011058154 -0.07124134 0.0442979 -0.120292835
000300 f6 1e b2 bc 24 ed 8a 3d 8f 21 f0 3d db cf ed 3d
       -0.021743279 0.06783512 0.11725151 0.11611911
000310 3c c0 a2 3d 39 81 ac bd c7 94 e9 3d dd 16 db bd
       0.07946822 -0.08423085 0.1140533 -0.1069772
000320 52 a3 04 3e 9e a9 69 3c bb 74 8b bc d5 48 2f 3e
       0.12952927 0.014261631 -0.017023435 0.17117627
000330 c7 02 69 bd 71 a0 ba bb 00 89 21 3e c5 53 99 bd
       -0.056887414 -0.0056953956 0.15774918 -0.07486681
000340 5b bd bd bb ee 0f b9 bc 2e 14 38 bd e7 79 e8 3d
       -0.005790395 -0.022590604 -0.04494112 0.11351376
000350 a3 12 59 3d 62 15 80 3d 5b b0 f6 3d af 1b 16 bd
       0.05299629 0.062540784 0.12045356 -0.036647495
000360 c6 cf 82 3d 38 28 90 3d f6 9d 08 bd 86 e8 a6 3d
       0.06387286 0.07038921 -0.03335377 0.08149819
000370 b0 e2 05 3d 9b a8 6d 3d 25 7f fc 3b 16 3d 8c bb
       0.03268689 0.058022123 0.0077055865 -0.004279743
000380 45 00 9e 3d 4b 79 10 3e b5 eb 38 3e 0d 47 43 3e
       0.07714895 0.1410877 0.18058665 0.19070072
000390 ac 16 16 3e 08 d8 13 3d aa bf ce bc c3 22 7e 3d
       0.14657086 0.036094695 -0.025237877 0.06204487
0003a0 3a 7e 19 bd 1d 59 34 3d ed b6 b9 3d 0d a6 19 3e
       -0.037473895 0.044030298 0.090680934 0.1500475
0003b0 8f 1a 1d 3d 70 12 2a 3e 90 64 ad bc f0 03 b2 3d
       0.038355406 0.16608596 -0.021166116 0.08692157
0003c0 24 b2 8c bd c4 8b 87 3c 1e 32 44 bd 1c 08 d7 3d
       -0.06869915 0.016546138 -0.047899358 0.104995936
0003d0 89 30 8c bd bc f2 97 3a 89 88 b9 3d ed 94 18 39
       -0.06845195 0.0011592726 0.09059245 0.00014551329
0003e0 41 21 8b bd cc da 9a 3d e7 38 6f 3d 83 d4 b2 bd
       -0.06793452 0.075612634 0.058403876 -0.0873194
0003f0 78 1b 06 3d e3 ea 42 bd 94 73 d8 bd e8 ac c2 3d
       0.03274104 -0.047587287 -0.1056892 0.095056355

onnx::GRU_198 f4 [2, 384, 19]
000000 d1 00 f2 bd 26 58 a2 bd d3 7e b5 be 6a bf 85 bd
       -0.11816562 -0.07926969 -0.35448322 -0.0653065
000010 56 78 fd bd 89 8b ff bd 22 fe 17 3c fd ea 10 be
       -0.12376468 -0.12477786 0.009276899 -0.14152141
000020 10 8c 0b be 6d 9c df bd 15 f7 77 bd d8 17 c7 be
       -0.13627648 -0.10918508 -0.06053837 -0.3888538
000030 61 3a ce bd 48 78 a7 be 6a 9b 09 be 2f 7d 98 bd
       -0.10069729 -0.32708955 -0.13438192 -0.07445752
000040 bb 03 f2 bd 38 f7 98 bd 5f b7 f7 bd e0 a4 d3 3c
       -0.11817118 -0.07469028 -0.12095522 0.025835454
000050 de 33 b0 bd d5 27 94 be da 78 51 be 5d dc 4a be
       -0.08603643 -0.2893664 -0.20456257 -0.19810624
000060 89 67 96 bd ee 99 55 bc f8 fe 2b bd c1 e0 2e be
       -0.073439665 -0.013037188 -0.041991204 -0.17077924
000070 90 70 b2 bd da cb e7 bd 29 d9 74 be b8 f1 66 bd
       -0.08712876 -0.113181785 -0.23910965 -0.056382865
000080 47 d2 8d be 60 2c 38 be 32 6a 3f bd 55 78 19 be
       -0.2769949 -0.17985678 -0.046732135 -0.1498731
000090 4e 59 2e bc 1c d1 4c be 03 cd 40 bd 48 57 4a be
       -0.010641409 -0.20001644 -0.047070514 -0.19759858
0000a0 14 39 aa be 49 1a d9 bd cd 05 63 be 9a 4f 5a be
       -0.33246672 -0.106007166 -0.22170182 -0.21319428
0000b0 16 05 3c 3c 78 48 82 bc 45 bd bb bd 6f 64 52 be
       0.011475822 -0.015903696 -0.0916696 -0.20546125
0000c0 eb a3 fa bd 47 93 a4 be bb 60 91 bd f7 68 9d be
       -0.12238296 -0.32143614 -0.07098528 -0.30744144
0000d0 23 36 26 be f5 f1 31 be 23 5c f9 bd 93 b1 33 3c
       -0.16231589 -0.17377456 -0.12175777 0.01096763
0000e0 28 6e 27 bd 92 c5 96 bd e7 3c 32 be cb e8 74 be
       -0.040876538 -0.07361902 -0.17406045 -0.23916928
0000f0 c3 25 e0 bd 40 9c 22 be 9d ca 33 be 48 00 b7 bd
       -0.109447025 -0.15879917 -0.1755776 -0.089356005
000100 ae 79 8c bd 1e c3 df bd a3 52 98 bd 83 c9 bc bd
       -0.06859146 -0.109258875 -0.07437637 -0.09218123
000110 d8 7d 80 be 1f bd 33 be 3a e0 b4 be ce 37 38 be
       -0.2509601 -0.17552613 -0.3532732 -0.17990038
000120 17 a2 68 be 8f 6d 3e be 28 84 37 be 40 b9 03 be
       -0.22718082 -0.18596481 -0.17921507 -0.12863636
000130 c0 0e b5 bd 08 7f 1d be 6c d7 d3 be 7d 2c c7 bc
       -0.08840704 -0.1538049 -0.4137529 -0.024313206
000140 14 4f 0c be 7d 24 ba bd 9c f9 22 3c 8b 0d 1b be
       -0.13702041 -0.09088991 0.009947207 -0.15141885
000150 df dc 16 be d7 52 98 bd 1c 86 fb 3c e3 9f ba be
       -0.14732693 -0.074376754 0.030703597 -0.3645011
000160 f8 c7 82 bd 69 c7 cc be 1a 6c 45 be bb 1d 8e bd
       -0.06385797 -0.39995888 -0.19279519 -0.069392644
000170 11 da 0d be 3c 60 6a bc 22 05 d3 bd d4 92 b4 bd
       -0.13852717 -0.014305171 -0.103037134 -0.08817068
000180 53 c0 9f bd ed f3 5f be f9 fc 17 be 21 c9 52 be
       -0.07800355 -0.21870394 -0.14842595 -0.20584537
000190 4c 7a 31 be 43 db 11 be 66 8f 6f bd ce 4f 11 be
       -0.17331809 -0.14243798 -0.058486365 -0.141906
0001a0 c2 ba 03 be 0a 9d 85 bd 90 8f 88 be 1c b5 56 be
       -0.12864211 -0.065240934 -0.2667203 -0.20967525
0001b0 7d e2 4f be 54 65 e8 bd 7b d7 53 be e6 d9 71 bd
       -0.20301242 -0.11347452 -0.20687668 -0.059045695
0001c0 e6 7d 7c bd 82 dd 1f be ec ef 7f 3d 6e 8c 1e be
       -0.061643504 -0.15611842 0.062484667 -0.15483257
0001d0 6e ca c2 be 1f fa 44 be a4 55 4b be 53 a7 5a be
       -0.38045067 -0.19236039 -0.19856888 -0.21352892
0001e0 5c ea 32 3d 70 67 73 bd 07 65 0e bd 11 af 58 be
       0.043680534 -0.059424818 -0.034764316 -0.21160533
0001f0 6d e1 42 be b1 20 84 be f8 ea e4 bd 82 7b 87 be
       -0.19031306 -0.25806192 -0.11177629 -0.26461416
000200 3d f6 61 be 41 f0 a5 bc 17 bd 85 3d 9d 48 d7 3d
       -0.22066589 -0.020256164 0.06530207 0.10511897
000210 79 95 0c be 43 ff 89 bc 71 7c 1d be e2 55 22 be
       -0.13728894 -0.016845351 -0.15379502 -0.15853074
000220 8f dc 2e be fd 67 3d be f1 c9 27 be 38 97 82 bd
       -0.17076324 -0.184967 -0.16385628 -0.06376499
000230 9a 6a e2 bd 39 32 49 bd 6e ae db bd cc ca 65 be
       -0.11055489 -0.04912016 -0.10726629 -0.22440642
000240 ba 06 75 be 1a ca 6c be a2 12 94 be ed 82 17 be
       -0.23928347 -0.2312397 -0.28920466 -0.14796038
000250 4c e9 ee bd b3 21 e3 bd 0b 32 9c 3c 5e cd 3c be
       -0.116655916 -0.11090412 0.019066831 -0.18437716
000260 cc ea db bd 5b 64 2d be 40 cb 85 be 4f e2 2e be
       -0.10738143 -0.16932814 -0.2613163 -0.17078517
000270 96 a1 bd bd 5b ea 4e be bc af 1b be c6 67 df bd
       -0.09259336 -0.20206587 -0.15203756 -0.10908465
000280 94 8a 9e bd ea 7d f3 bd f1 71 b7 bd 7f 9d 7a be
       -0.077412754 -0.118892506 -0.089572795 -0.24474142
000290 4f 09 a4 bd 7b 93 42 be 97 96 cb bd 28 fd 22 be
       -0.08009588 -0.19001572 -0.09940832 -0.15916884
0002a0 29 c3 49 be 09 08 09 be 28 13 df bd 3e 90 f2 3c
       -0.19703354 -0.13381971 -0.10892326 0.029609796
0002b0 5d 90 2d be 19 b7 68 be 70 8e 0a be 94 e8 1b be
       -0.16949601 -0.22726096 -0.13530898 -0.1522544
0002c0 c5 a6 12 be 01 07 b6 bd 9c 12 51 bc e6 93 e9 bd
       -0.1432143 -0.08888055 -0.0127607845 -0.114051625
0002d0 e7 cc cb bd ad 40 3b be 62 1e b1 be 2a 58 06 be
       -0.099511914 -0.1828639 -0.34593493 -0.1311957
0002e0 f9 dc 64 be e4 ca da bd d9 46 df bd b1 fb 3c be
       -0.2234992 -0.106832296 -0.10902185 -0.18455388
0002f0 f7 df 5f bd 5e c9 34 be 94 58 8b 3d 76 4f bf be
       -0.05465695 -0.1765494 0.06804004 -0.3736531
000300 24 8d ca be 64 c2 f9 be 50 99 24 bf 91 f2 d8 be
       -0.39560807 -0.4878112 -0.64296436 -0.42372563
000310 9c 9b 52 be 51 32 71 be 16 22 c4 bd 7b 14 e6 be
       -0.20567173 -0.2355435 -0.09576814 -0.449375
000320 8a 91 f6 be ab 1f 82 be 46 83 e3 be 80 d0 b1 be
       -0.48157912 -0.25414786 -0.4443609 -0.34729385
000330 f6 a1 ba be 09 2b 81 be ee 67 d0 bd 66 9e db 3d
       -0.3645169 -0.25228146 -0.10176073 0.107235715
000340 80 db bb be 60 41 d2 bd 55 4d 9d bd 7a 00 9e be
       -0.36690903 -0.102663755 -0.076807655 -0.3085974
000350 1b 24 27 be c7 46 a0 bd 91 2e 51 be 94 fd ed bd
       -0.16322367 -0.07826 -0.2042792 -0.11620632
000360 ed 68 51 bd c0 17 28 be 34 5e 43 be ac 41 5b bd
       -0.051125456 -0.1641531 -0.19078904 -0.053529426
000370 05 a1 a4 be 5a 30 3e be 97 d9 c7 be d8 39 65 be
       -0.32154098 -0.18573132 -0.39033195 -0.22385347
000380 47 97 ff bd 82 cd 46 be 5a 22 d2 bd 92 33 0d be
       -0.12480026 -0.19414333 -0.10260458 -0.13789204
000390 0a e7 48 3b 8d 8c 1a be 25 67 e5 be 88 c2 5e be
       0.0030655288 -0.15092678 -0.44805256 -0.21753895
0003a0 78 ed 4b be 58 c0 6e be 6c a9 9e bd 19 4b 09 3d
       -0.19914806 -0.23315561 -0.077471584 0.033518884
0003b0 ec 6e a9 bd d6 9a 27 be 9d 91 ce bd 72 0e a1 be
       -0.0827311 -0.16367659 -0.10086367 -0.31456333
0003c0 c1 a9 56 be 32 2c cc be 5b 94 5d be 27 0c d2 bd
       -0.20963193 -0.39877468 -0.21638624 -0.10256224
0003d0 1e 8a 03 bd 87 4c b9 bc a3 42 ca bc 11 48 b8 bd
       -0.03211414 -0.022619499 -0.024689978 -0.089981206
0003e0 02 f1 97 bd d0 e6 b2 be 8f da 2d be eb d5 08 be
       -0.074190155 -0.3494172 -0.16977905 -0.13362853
0003f0 7c 92 52 be bd 3f 85 bc e8 da 2c be a0 49 08 be
       -0.20563692 -0.016265744 -0.16880381 -0.13309336

onnx::GRU_199 f4 [2, 384, 128]
000000 88 03 80 bd b8 50 01 3d 97 fd ab 3d e8 c2 1e bd
       -0.062506735 0.03157112 0.08397978 -0.038760096
000010 de 91 b3 bd 7e c8 6f bd ab 6f 09 3d 9c 94 7b 3d
       -0.08768056 -0.058540814 0.03355376 0.06142102
000020 f1 89 8d bc e1 9d 21 3b 48 8f 83 bd ef a3 25 bd
       -0.01727769 0.0024660754 -0.06423813 -0.040439542
000030 16 31 70 bd 29 b0 6b 3d 24 ac 8e bc b5 79 16 bd
       -0.058640562 0.057541046 -0.017416067 -0.036737163
000040 36 e5 1c bc d2 47 23 3d 5a b7 48 bd 95 2b 4d bc
       -0.0095761325 0.039863415 -0.049002983 -0.012522598
000050 1b 8d 19 3d b1 2f 2b bc 46 9d ea 3c 9b 3a 73 bd
       0.037488084 -0.010448382 0.028639447 -0.059382062
000060 a1 4d a4 bb 05 a3 2f bd 14 aa a6 3d 38 ce b4 bd
       -0.005014137 -0.042880077 0.081379086 -0.088283956
000070 00 26 36 bd 4b f1 0e bd 80 ce 1f 3d 02 8d 21 bd
       -0.044469833 -0.034898084 0.039015293 -0.039441116
000080 75 41 64 bd d8 e7 a8 bb 29 ef e7 bc a2 cd af 3d
       -0.055726487 -0.005154591 -0.028312283 0.08584143
000090 8a b2 5e 3d 37 95 8d 3d 93 aa 97 bd c9 c1 ba bc
       0.054369487 0.06913226 -0.07405581 -0.022797482
0000a0 85 bb 8a bd e1 58 a3 3d 62 b4 56 3d e5 c3 8d bd
       -0.06774048 0.07975937 0.05241812 -0.069221295
0000b0 fa cc 85 bd 94 e0 32 3d 8a b5 37 bd 7c 53 e7 3c
       -0.06533237 0.043671206 -0.044850864 0.02823805
0000c0 3d f7 9e bd 9f 79 90 bd 87 80 f6 bc 0a 9a 8d bd
       -0.07762001 -0.070544474 -0.030090583 -0.06914146
0000d0 03 9e 5e 3d ec 3e 8a bd f6 f1 ec bc 1e 1a b1 bd
       0.05434991 -0.06750283 -0.02892397 -0.086475596
0000e0 48 18 a6 3d f0 54 6c 3c aa f9 5b bd ef 9a 9e bc
       0.081101 0.014424548 -0.053704895 -0.019360987
0000f0 2f 18 d9 3c cd c8 f7 bc e1 78 90 3d d2 87 a6 bc
       0.02650079 -0.030247116 0.07054306 -0.020328436
000100 e5 6f a9 3d 90 92 45 3d f5 70 7f 3d 26 ad 18 3b
       0.08273295 0.048235476 0.062363584 0.0023296564
000110 16 cb d0 bc 58 07 1a 3d 99 74 63 3d f2 10 46 3c
       -0.025487464 0.03760466 0.055531118 0.012089001
000120 ff 80 90 3c ff a5 9b 3d fa 8e 44 bd d7 2b 9c bc
       0.017639635 0.076000206 -0.047987916 -0.019063873
000130 38 61 dc 3b e4 f9 29 bc 4c 14 50 bd 86 30 e8 3c
       0.0067254566 -0.01037452 -0.050800607 0.02834345
000140 a4 23 8b 3c 82 1b 5b bd 9b 75 a3 bb bc 09 26 3c
       0.016984768 -0.05349303 -0.004988385 0.010134157
000150 a2 21 13 bc ff e8 de 3c 33 66 a6 bd 9a d6 47 bc
       -0.008980187 0.02721071 -0.08124962 -0.012197161
000160 d2 90 85 3d 4b 2a 20 3b 2a 37 2b bc e1 f9 c5 bc
       0.06521763 0.002443927 -0.010450164 -0.024167003
000170 a3 92 5f bc ad 5a 2a bc b4 6d 30 bd f9 50 81 bd
       -0.013645801 -0.010397595 -0.04307337 -0.063142724
000180 fe aa f7 bb 35 7f b3 3d d0 82 88 3d 3c 86 8c 3b
       -0.0075582257 0.08764497 0.066655755 0.004288463
000190 23 cb 1c 3d 37 3d 9f 3c 69 ba 39 bd f6 b3 02 3d
       0.038279664 0.01943837 -0.04534379 0.031909905
0001a0 aa 67 25 3d 50 ed bf bb 3c e1 57 3d 89 0e 10 3d
       0.040382065 -0.0058571473 0.052705035 0.03517011
0001b0 c8 9d 2b bd ea fe d2 3c 05 40 25 3d 1b 01 8f 3d
       -0.04189852 0.025756318 0.040344257 0.06982633
0001c0 50 c6 76 bd 0b ef a6 bd 50 d7 0d bd 7d 79 f4 3b
       -0.06024772 -0.081510626 -0.034629166 0.0074607716
0001d0 a0 cd 8e bd bb f6 b2 bc 8f 6a 84 bd 9f 03 89 bd
       -0.069728136 -0.021846166 -0.06465637 -0.06690144
0001e0 94 c7 db 3c 97 c6 30 3d 6b 1e 43 3c ab 24 7b 3d
       0.026828565 0.04315814 0.011909108 0.061314266
0001f0 03 87 ad bc fa 50 3b 3c d4 80 85 3d df f1 95 3d
       -0.021182543 0.011432881 0.06518713 0.07321524
000200 ca 4b cf 3c a5 8c 9a bd 81 22 af 3c ec 71 82 3d
       0.025304694 -0.07546357 0.021378757 0.06369385
000210 77 a7 f6 3c 76 4b b2 bd 34 a4 ec bc 8a 7c 39 bd
       0.03010915 -0.08705799 -0.028886892 -0.045284785
000220 24 ec a2 bd 0c 9b 96 bd d2 03 6a 3d ac f0 67 bd
       -0.079551965 -0.073537916 0.05713255 -0.056626007
000230 d9 38 5a bd c5 8d 1d bd 0c 09 1a bc 94 3a 57 3d
       -0.05327687 -0.03846528 -0.009401571 0.0525461
000240 60 56 b2 bd 40 e5 21 bd 11 1f 6c bc 77 e9 c8 3c
       -0.08707881 -0.03952527 -0.014411704 0.024525387
000250 d5 e1 48 bd 8a dc c4 bc b4 ab 42 bd b6 87 a2 bc
       -0.049043495 -0.024030942 -0.04752703 -0.019840103
000260 23 29 3b 3d 2b 14 19 bd 7f 9f 42 bc 81 27 6d bd
       0.045693528 -0.03737275 -0.011878847 -0.057899002
000270 6e 41 ca 3c b6 84 68 bd 89 d4 a7 3c e8 37 b4 bd
       0.024689402 -0.056767188 0.020487087 -0.08799726
000280 cd 5f 0d 3d 6a 52 02 3d 37 4f 89 bd d6 58 38 bc
       0.03451519 0.031816877 -0.06704562 -0.011251649
000290 9c 36 59 bd f8 e3 2c bd cc bb 27 3d 16 bb 4e bd
       -0.053030595 -0.042209595 0.04095058 -0.050471388
0002a0 84 65 4c 3d 21 fb 36 3d 1d 4d a2 3d 32 7a 07 bd
       0.0499015 0.04467309 0.079248644 -0.03307552
0002b0 9c 8b a0 bd 9e 5a 6a 3d f5 5f aa bc c9 84 0e bd
       -0.078391284 0.057215326 -0.020797709 -0.034794603
0002c0 27 91 2b bd a1 57 a8 3d 04 d9 8c bd 35 44 9d 3c
       -0.041886475 0.08219839 -0.0687733 0.019197563
0002d0 2f e6 8f 3c 99 25 0d bd d6 f9 4d 3d 14 77 51 3d
       0.017565815 -0.034459684 0.05028709 0.051138952
0002e0 bf 8d 73 3d b4 1b c3 3c b4 60 c0 3c 87 15 cd 3c
       0.05946135 0.02381692 0.023483612 0.02503468
0002f0 bd d0 e6 bc 26 a3 90 bd 02 9b 29 3b 3a e0 05 3c
       -0.028175706 -0.07062368 0.0025879745 0.008171136
000300 9a ae 5f 3d 9a f7 73 3c ad f4 21 3b ac 47 00 bd
       0.054609872 0.014890576 0.0024712489 -0.03131835
000310 c0 88 97 3d b4 0d a0 3d 4a 0b b2 3d 7c 57 b9 bb
       0.0739913 0.07815114 0.086935595 -0.005656181
000320 e5 b4 31 bd 42 8d 92 bd f9 23 b2 bd ab e0 90 bd
       -0.043385405 -0.07155849 -0.086982675 -0.07074102
000330 3a 89 e7 bc 8e 09 8d 3d cd dd a6 bd 31 86 d7 bc
       -0.028263677 0.06886588 -0.08147774 -0.026309105
000340 aa 66 11 3d f2 0d 2a 3d fe a0 7e 3b 1e b1 a2 bc
       0.0354983 0.041517206 0.0038853283 -0.019859847
000350 a6 ad 89 3b de dc 62 bd 11 55 32 3d de 8e 53 3d
       0.0042016087 -0.055386417 0.043538157 0.05164992
000360 62 e0 72 3c 4e 19 7e 3d f4 2c 55 3d 1c 90 a9 bd
       0.014824005 0.06203585 0.052044824 -0.0827944
000370 51 54 0e bd e2 1e 9a bd 77 db 03 3d 86 67 a2 bd
       -0.03474838 -0.07525422 0.03219172 -0.07929902
000380 cd f8 ab 3c bc 1e 93 bd 6f b7 38 3d fc f2 77 bd
       0.02099266 -0.071835965 0.04509681 -0.060534462
000390 7b fd a2 bd b2 42 12 bd 86 5c ef 3c 96 b6 1a bd
       -0.07958504 -0.035708137 0.029218923 -0.037771784
0003a0 9b 29 07 3d c6 00 39 3b 7e ea 44 bd 35 d7 9f bb
       0.032998662 0.002822922 -0.04807519 -0.0048779496
0003b0 38 b1 65 3d af c6 5d bd d6 0f 9e 3d 25 36 c9 3c
       0.056077212 -0.054144558 0.07717864 0.024561951
0003c0 98 31 3c 3d e7 72 8b bc 4d ca 86 3d 03 0b 87 bd
       0.045945734 -0.017022563 0.065815546 -0.06593897
0003d0 d4 1f 12 bd 21 34 63 3d d5 a0 42 bd 7a 5e 97 3d
       -0.035674885 0.055469636 -0.047516663 0.07391067
0003e0 9a 3f 03 bd 5c 72 ab bd 23 cd aa 3d 16 c0 93 3d
       -0.032043077 -0.08371422 0.08339908 0.07214372
0003f0 43 42 15 3d 8e 0d 9b bd 70 8e 9c 3c 34 fc ab bc
       0.036440145 -0.07570945 0.019110888 -0.020994283

onnx::MatMul_200 f4 [256, 1]
000000 98 6f 64 bc d0 03 76 3d 10 64 da bc e0 e7 cb 3c
       -0.013942622 0.06006223 -0.026659042 0.02489084
000010 9c 78 75 3d 68 97 1e 3c 24 35 7a bd 60 ac ef bb
       0.059929475 0.009679653 -0.061085835 -0.00731425
000020 da 08 35 3d 90 b6 9a 3b 08 4e 28 bc 56 24 33 3d
       0.044197895 0.00472147 -0.01027251 0.043735825
000030 98 bf 67 3c d0 f0 bf 3b 30 53 63 3d b4 18 20 3d
       0.014144801 0.0058575645 0.055499256 0.03908606
000040 00 ee c0 39 b0 d2 b5 3b 10 3b 82 bc 02 46 1f 3d
       0.00036798418 0.0055487975 -0.015897304 0.038885124
000050 e4 39 54 3d 60 c8 7f bd 64 2f 4b bd 98 18 8f bc
       0.05181302 -0.062446952 -0.049605742 -0.017467782
000060 d8 3f fa 3c 6e 1d 26 bd f4 e7 ab 3c 50 fd 73 3c
       0.030548021 -0.04055541 0.020984627 0.014891937
000070 b4 fb f4 3c 10 86 01 3d e0 b5 05 3c 00 61 27 3a
       0.029905178 0.031621993 0.008161038 0.00063849986
000080 90 c6 86 bb 00 de 5f 3c 28 c5 29 3c 76 72 08 bd
       -0.004113026 0.013663769 0.010361947 -0.033312283
000090 08 17 2c 3d 86 38 45 3d 84 7d 37 3d 60 c7 3d 3c
       0.04201415 0.048149608 0.044797435 0.011583179
0000a0 3a 8d 0e 3d 3a 46 70 bd b0 4e 29 3c 0c 4f bb bc
       0.034802653 -0.058660723 0.010333702 -0.02286484
0000b0 e8 3d d8 bc 64 87 68 3d 10 f6 8a bb 2c 8b 7e bd
       -0.026396707 0.056769744 -0.0042407587 -0.062144443
0000c0 dc b2 c5 bc e0 50 de bb e4 55 2c 3d 00 19 81 3a
       -0.024133138 -0.0067845434 0.0420741 0.000984937
0000d0 c0 c9 32 3d ce 85 19 bd 58 77 d0 bc 28 f5 39 bd
       0.043649435 -0.03748112 -0.025447533 -0.045399815
0000e0 e8 a9 6f 3c 78 86 d3 3c 8c 88 c2 bc 40 7d 35 bb
       0.014627911 0.025820956 -0.023746751 -0.0027693063
0000f0 7e 1c 16 3d 48 80 65 bd 8e 86 51 3d 94 f6 4a bd
       0.036648266 -0.05603054 0.051153712 -0.04955156
000100 c4 75 b8 bc ee 4c 14 3d f0 d9 44 bd f4 23 85 bc
       -0.022517093 0.03620618 -0.048059404 -0.016252495
000110 5c 78 14 bd 40 bb 57 bb 56 42 6e 3d 50 ca 71 3d
       -0.036247596 -0.0032918006 0.05816873 0.05903083
000120 40 af ae bb 96 e4 38 3d 70 a8 3a bd d4 c1 9a bc
       -0.00533095 0.04513987 -0.04557079 -0.018891253
000130 2e 6a 78 3d f4 ff f4 3c a2 6f 1a bd 60 06 1e 3c
       0.060648136 0.029907204 -0.037704118 0.009645075
000140 10 d3 61 3c c2 21 62 bd 00 5b 9e b9 9a 67 78 3d
       0.013783231 -0.055207975 -0.0003020391 0.060645677
000150 7e f0 2f bd 40 ed c9 3a d8 a1 4c bd 88 05 ae bc
       -0.04295396 0.0015405789 -0.049959034 -0.021242872
000160 04 9b ee bc c0 ec fc 3a 78 c5 d5 bc e0 91 03 3b
       -0.029126652 0.0019296631 -0.026095137 0.0020075962
000170 64 e5 b8 bc b2 b0 4e 3d 4a 64 0e 3d 20 c1 a4 bc
       -0.02257032 0.05046148 0.03476361 -0.02011162
000180 04 ee 5a 3d e0 9a 7e bc 74 c6 bc bc 50 fe a1 3b
       0.053449646 -0.015539855 -0.023043849 0.0049436465
000190 e0 1f 6f bb 56 d0 05 bd fc 55 35 bd 32 13 35 bd
       -0.0036487505 -0.032669388 -0.044271454 -0.04420776
0001a0 70 35 35 3c b8 4c 58 bc 48 9e f8 bc 9c 02 d2 bc
       0.011060104 -0.013201885 -0.030348912 -0.02563601
0001b0 34 2c 23 3d f8 5e 81 3c 4a 5c 1b 3d ac 0a 92 3c
       0.039837077 0.015792355 0.03792981 0.017827354
0001c0 f2 47 38 bd a8 ff f9 bc 28 b4 46 3c 40 d3 78 bc
       -0.044990487 -0.030517414 0.012127914 -0.015187085
0001d0 30 2e 59 bc 70 53 70 3d 72 d8 54 3d 02 72 26 bd
       -0.013255641 0.058673322 0.05196423 -0.04063607
0001e0 e2 50 39 bd c8 38 13 3c c8 aa 80 bc 34 10 d8 bc
       -0.04524315 0.008985706 -0.015706435 -0.026374914
0001f0 48 b5 c3 bc 42 a7 31 bd b2 64 35 bd 48 52 bb 3c
       -0.023890153 -0.0433724 -0.044285484 0.022866383
000200 34 c7 c8 3c 18 80 b8 bc 30 36 e3 bc de 05 36 3d
       0.02450905 -0.022522017 -0.0277358 0.04443919
000210 56 3b 32 3d 3c e5 29 bd 38 eb 54 bc 66 42 47 3d
       0.04351362 -0.04147838 -0.012995534 0.048647307
000220 48 73 5b 3d 98 8e 03 3d 5c c2 58 3d 72 fa 56 bd
       0.053576738 0.03211841 0.05291973 -0.052484937
000230 30 df 9b bb 32 39 75 3d a4 9f 59 bd b8 17 73 3c
       -0.0047568306 0.059869 -0.05313076 0.014837198
000240 ba 24 48 3d c8 27 eb 3c 64 84 c6 bc c0 e5 a7 ba
       0.04886315 0.028705493 -0.02423305 -0.001280956
000250 18 bf 64 3d c6 a5 64 3d 14 07 52 3d 08 d8 7f 3c
       0.055846304 0.055822156 0.05127628 0.015615471
000260 74 62 fb 3c 1c ad 48 bd 48 67 72 bc 0a 90 50 bd
       0.030686595 -0.048993215 -0.014795132 -0.050918616
000270 e8 31 57 3d 88 72 4c 3c a8 a7 cd bc e8 f0 36 3d
       0.05253783 0.012478478 -0.025104359 0.04466334
000280 8a c0 2b 3d da 16 7e 3d 88 7f 5b 3c 94 c8 43 3d
       0.041931666 0.06203351 0.013397105 0.047798708
000290 f4 7e 73 bd 5c bf 77 3d 80 0b a0 3c f2 b6 0e 3d
       -0.059447244 0.06048523 0.019536734 0.03484244
0002a0 70 f7 9d bb a8 0e 2f 3d 70 ca 7c bd ec 1e 27 3d
       -0.0048207566 0.042738587 -0.061716497 0.040800974
0002b0 e8 2c 06 3c 78 ad 42 3c bc 23 83 3c 40 2f 1f bc
       0.008189417 0.0118821785 0.01600825 -0.009715855
0002c0 a0 fc e1 bc 40 d2 d8 bc d2 01 64 bd 58 60 16 3c
       -0.027586281 -0.026467443 -0.0556658 0.009178244
0002d0 18 f3 9f 3c f4 b3 72 3d 10 9a 9d 3b fc fc 14 bd
       0.019525096 0.059253648 0.0048096254 -0.036374077
0002e0 0a 29 7b 3d 8c d5 05 bd cc f8 66 bd 5c 9b 41 bd
       0.061318435 -0.032674357 -0.056389615 -0.047267303
0002f0 e4 52 e7 bc 46 c0 17 3d 78 c6 4c 3d cc 6d 1f 3d
       -0.028237768 0.0370486 0.049993962 0.03892307
000300 e8 cc 2c bc 78 91 7e bc 60 2c ab 3b ee ef 29 3d
       -0.0105469 -0.015537612 0.005223796 0.04148858
000310 80 19 7c 3d 08 fb 72 3d 48 d5 50 3c 1a a9 14 3d
       0.061547756 0.059321433 0.012746163 0.03629408
000320 12 ce 0a bd 80 6d 00 bd ea 53 15 bd a4 e5 6a 3d
       -0.03388793 -0.031354427 -0.03645698 0.05734791
000330 fc c9 f9 bc 80 79 4a ba e0 2b d9 bb 70 2c 60 bc
       -0.030491821 -0.00077237934 -0.0066275448 -0.01368247
000340 c4 9e 09 3d 80 b9 74 3b 40 60 a6 bc f8 7a a0 bc
       0.033598676 0.0037342012 -0.020309567 -0.019589886
000350 cc 0b 93 bc 10 3a f3 3b 40 8d f6 bb e0 6d c0 bc
       -0.017949961 0.007422693 -0.0075241625 -0.023489892
000360 12 eb 17 3d 0e d7 25 3d c8 32 14 bd 88 4f 45 bd
       0.037089415 0.040488295 -0.03618124 -0.04817155
000370 2c 61 cd bc c0 74 6d 3b d0 bf 92 3b 80 1c 85 3c
       -0.02507075 0.0036232919 0.0044784322 0.016248941
000380 d4 e8 12 bd 8e 32 48 3d f8 ad 85 3c 64 dd fa bc
       -0.035866573 0.048876338 0.016318306 -0.030623145
000390 36 6d 02 bd a8 27 a5 bc 18 4f ae bc 9e 04 2d bd
       -0.031842433 -0.020160511 -0.02127795 -0.04224073
0003a0 3a 69 5a bd 82 b0 50 bd 6e 4e 2b 3d ac 7a 67 bd
       -0.053323008 -0.05094958 0.041822843 -0.056513473
0003b0 fc fe 34 3d 4c 61 ef 3c ee 51 74 3d 90 33 c9 3b
       0.044188485 0.0292212 0.059648447 0.00614018
0003c0 bc 57 d6 3c 06 68 36 bd 02 e1 13 bd ea a4 68 bd
       0.026164882 -0.0445328 -0.036103256 -0.0567979
0003d0 d0 c5 99 bb e0 50 db bc 00 3c 71 3b 14 8a f7 3c
       -0.0046927705 -0.026771963 0.0036809444 0.030217208
0003e0 84 8b dd bc 80 de 26 bd 8a 12 6a bd 96 0c 50 bd
       -0.027044065 -0.040739536 -0.057146586 -0.050793253
0003f0 1a bc 07 bd b8 84 51 3c 80 53 34 3b 20 3f 19 bb
       -0.033138372 0.01278799 0.002751559 -0.0023383573
