models/2016-05-06/gnn_model.pth (torch, 12192 bytes, 4 tensors)

fc1.weight f4 [64, 1]
0.23742418 -0.33797058 0.35669032 -0.36960122 0.7820914 -0.8153122 -0.43382466 0.59326684
-0.4364173 1.0543132 0.18596423 0.16781616 0.6585717 0.79648757 0.8162093 0.039503455
-0.35179913 0.49425495 -0.212301 -0.90177035 -1.0917994 -0.51225185 0.5784001 -0.7977153
0.7963372 0.086114645 -0.82733476 0.06920898 0.8045607 0.7365186 0.12771553 0.88516444
-0.6590383 0.008191241 0.071783066 -0.7161925 0.03708313 0.4981717 -0.99148095 -0.8869374
-0.32037544 -0.16429439 1.2513721 0.84551847 -0.9893807 -0.042205326 -0.012013328 0.4914706
0.51334417 0.38190532 -0.6636169 0.2119559 0.0021124338 0.6139026 -0.79143274 -0.086531915
-0.7018931 -0.034625094 0.054703712 0.40457606 -0.878767 0.66238934 -0.54510534 0.47122067
00000000: 531f 733e 7b0a adbe 1da0 b63e 5f3c bdbe
00000010: 2437 483f 4db8 50bf 441e debe 56e0 173f
00000020: 1772 dfbe bcf3 863f 686d 3e3e 00d8 2b3e
00000030: 2898 283f 9ce6 4b3f 18f3 503f 60ce 213d
00000040: 041f b4be fc0e fd3e 6f65 59be 6cda 66bf
00000050: 15c0 8bbf f022 03bf 0712 143f 1237 4cbf
00000060: c1dc 4b3f e05c b03d 36cc 53bf 70bd 8d3d
00000070: b1f7 4d3f 7c8c 3c3f dcc7 023e 239a 623f
00000080: bcb6 28bf 8e34 063c 0003 933d 6458 37bf
00000090: 7be4 173d 5c10 ff3e b2d1 7dbf 540e 63bf
000000a0: 4008 a4be ca3c 28be f62c a03f e673 583f
000000b0: 0e48 7dbf 7edf 2cbd 8dd3 44bc 09a2 fb3e
000000c0: 866a 033f 1889 c33e cce2 29bf f80a 593e
000000d0: c270 0a3b b928 1d3f 569b 4abf a537 b1bd
000000e0: 44af 33bf 0bd3 0dbd 0011 603d 9824 cf3e
000000f0: e0f6 60bf 5992 293f 068c 0bbf d643 f13e

fc1.bias f4 [64]
-0.16324663 0.53803504 -0.20975976 0.11886589 -0.9820771 0.4748039 -0.27415764 -0.1695114
0.6211377 -0.30119964 -0.338076 -0.45140505 -0.22188129 0.1959226 0.61921114 -0.9809358
-0.5518284 -0.71587586 0.47225755 -0.20836937 0.39314365 -0.9990561 -0.024955124 -0.5630722
0.14239025 -0.21706724 0.035127163 -0.6609825 0.24984342 0.64166397 0.8165368 0.300583
0.008205652 -0.091555096 -0.36702204 -0.3133545 0.37873852 -0.791579 -0.9675219 0.085627794
0.7288776 0.5315999 -0.38238794 -0.95967245 0.280429 0.5875433 0.66268873 -0.11723009
-0.6361815 -0.68997157 -0.6893127 -0.2203145 0.48561436 0.47620657 -0.98302794 -0.023640193
0.11617388 0.37441427 -0.13656235 -0.74320877 0.044689655 -0.038723443 -0.4064802 0.81014836
00000000: 202a 27be aabc 093f 43cb 56be f66f f33d
00000010: 6869 7bbf 7f19 f33e 645e 8cbe 6594 2dbe
00000020: e102 1f3f d736 9abe 4c18 adbe 901e e7be
00000030: d934 63be ef9f 483e 9f84 1e3f 9c1e 7bbf
00000040: a044 0dbf a443 37bf becb f13e c85e 55be
00000050: 204a c93e 24c2 7fbf b06e ccbc 8025 10bf
00000060: c0ce 113e e046 5ebe 80e1 0f3d 2636 29bf
00000070: f4d6 7f3e 1744 243f 8e08 513f 04e6 993e
00000080: 0071 063c 3d81 bbbd 50ea bbbe 0070 a0be
00000090: 04ea c13e eca4 4abf 84af 77bf a05d af3d
000000a0: b997 3a3f ee16 083f 5ac8 c3be 18ad 75bf
000000b0: 6494 8f3e 3d69 163f f8a5 293f 5416 f0bd
000000c0: cadc 22bf faa1 30bf cc76 30bf 209a 61be
000000d0: 72a2 f83e 59d1 f33e b8a7 7bbf 14a9 c1bc
000000e0: 92ec ed3d 3ab3 bf3e 00d7 0bbe ee42 3ebf
000000f0: 800c 373d 799c 1ebd 2c1e d0be e265 4f3f

fc2.weight f4 [37, 64]
0.105622225 0.026515992 -0.008279234 -0.17698519 -0.07920019 -0.026136069 -0.03955686 0.06806542
0.0016955867 0.28369188 -0.027146742 0.12114501 0.11240158 0.1478358 -0.07649355 0.026930913
-0.08069174 -0.03508593 -0.06025384 -0.036649406 -0.10310722 -0.09086034 0.10672233 -0.045376986
8.163734e-05 -0.013461441 -0.10234022 -0.012694225 0.12831733 -0.00088456157 0.05611396 0.069075756
-0.025126755 0.076996945 0.06327663 0.0072980523 0.05305373 -0.024024278 -0.004210815 -0.011439145
-0.06663482 -0.10507293 0.090487815 0.030655578 0.039956167 0.07095718 0.060791206 -0.0090169925
-0.083686665 -0.061271653 0.048288047 0.11625758 -0.0052520535 0.06745379 -0.1164453 -0.081877895
-0.17853424 -0.067514025 -0.004289791 0.02329731 -0.0052240193 0.031228555 -0.0544495 0.13836385
0.14718115 -0.01096208 0.04182461 -0.06229124 -0.06938307 -0.15421933 -0.053566426 0.14012088
-0.023739286 0.22837515 -0.12329604 0.08081056 0.19408984 0.030926747 -0.06125587 -0.09847757
-0.057186306 0.039726526 0.092757575 -0.028622523 -0.06891784 -0.016084716 0.03272576 -0.059793517
0.10826004 0.06471561 0.108012974 0.011461154 -0.08081968 0.041744992 0.006501519 0.115250275
0.10177179 0.1356157 0.023372158 0.023325667 0.0057752626 0.119596094 -0.09629427 -0.010171205
0.08288934 0.009900329 0.1620712 0.018846273 0.05703965 -0.06414067 0.114363626 -0.028323196
0.091571316 0.088801295 -0.10114671 -0.12372172 0.08296645 0.13061585 0.09847899 -0.098787904
-0.08334529 0.026362468 0.11403242 -0.101771116 -0.02198951 0.16982809 0.08776085 -0.052969698
0.013800643 0.020813094 -0.026625512 -0.071785584 0.026773393 -0.15388411 -0.016260788 0.039036576
0.0893586 0.19329992 0.116405725 0.06869908 0.13861926 0.09530284 0.045691386 0.085656375
-0.0113295615 -0.0868953 0.11468519 0.033191517 -0.043787528 -0.07884587 0.06418489 0.0076321512
-0.028185366 -0.07857807 -0.042036608 0.04555233 -0.078343436 -0.011393235 -0.07705116 0.05434888
-0.036220208 0.12918483 -0.022073567 0.09696174 -0.10946472 0.08213712 -0.06413917 -0.0028580725
-0.102826096 0.05645453 0.22432455 0.05458635 -0.026863664 -0.03601278 -0.063721746 0.15762037
0.011322975 0.100320145 -0.038456604 0.0658413 0.06465235 0.09722753 0.040959865 0.04611073
-0.12115787 0.048742365 0.03465672 0.0073999763 0.114408866 0.14577822 -0.012553632 0.15136439
0.21367778 -0.004643221 0.021375205 0.018446747 0.101683214 0.039937302 0.0043727607 0.102529936
0.08058058 0.18942726 0.10507046 -0.04975158 0.11799772 0.088929705 0.03929241 -0.0040385425
-0.06283611 -0.058468238 0.035094414 -0.017283604 -0.061011672 -0.019199878 0.04953912 -0.113326326
0.15364248 0.06382015 0.10896082 -0.10138348 -0.03988901 0.11594623 -0.038773637 0.0805675
0.0052667856 0.09108558 -0.09664257 0.054683194 -0.023156913 0.11813319 0.085971236 0.096066326
0.0778379 -0.05406346 0.19187617 -0.009777859 -0.017741814 0.010282382 -0.057816885 0.027160103
0.09722315 0.052655578 0.01755312 0.101123914 0.15132888 0.001506061 0.10482934 -0.074890256
0.14423731 -0.071352266 0.10916753 -0.031089872 -0.06324892 0.1655387 -0.03735882 -0.06016994
00000000: 7750 d83d 1138 d93c a0a5 07bc 9b3b 35be
00000010: b633 a2bd 4f1b d6bc 6006 22bd e265 8b3d
00000020: 733e de3a 1040 913e d862 debc e01a f83d
00000030: cd32 e63d 4562 173e a6a8 9cbd 389e dc3c
00000040: b641 a5bd 44b6 0fbd bbcc 76bd b01d 16bd
00000050: e129 d3bd fc14 babd 3d91 da3d 38dd 39bd
00000060: b734 ab38 608d 5cbc c097 d1bd 70fb 4fbc
00000070: 9e65 033e ece1 67ba c0d7 653d 9777 8d3d
00000080: a0d6 cdbc 93b0 9d3d 2e97 813d 8024 ef3b
00000090: de4e 593d 90ce c4bc e0fa 89bb 406b 3bbc
000000a0: d677 88bd 7a30 d7bd ad51 b93d 6821 fb3c
000000b0: 14a9 233d ff51 913d 3300 793d 02bc 13bc
000000c0: ea63 abbd fcf7 7abd b0c9 453d 7418 ee3d
000000d0: 6b19 acbb 3625 8a3d e07a eebd 99af a7bd
000000e0: aed1 36be cb44 8abd 6091 8cbb 00da be3c
000000f0: 402e abbb 07d3 ff3c 7006 5fbd 41af 0d3e
00000100: a8b6 163e 4c9a 33bc 4850 2b3d 1925 7fbd
00000110: b618 8ebd aceb 1dbe 7868 5bbd d97b 0f3e
00000120: e478 c2bc 2ddb 693e a282 fcbd 0280 a53d
00000130: 7dbf 463e 175a fd3c 6fe7 7abd 9cae c9bd
00000140: 303c 6abd 48b8 223d aff7 bd3d c879 eabc
00000150: cc24 8dbd 18c4 83bc 720b 063d 0cea 74bd
00000160: 71b7 dd3d 9e89 843d e835 dd3d 90c7 3b3c
00000170: ca84 a5bd ccfc 2a3d b20a d53b 5608 ec3d
00000180: ba6d d03d d8de 0a3e f876 bf3c 7815 bf3c
00000190: 6a3e bd3b ccee f43d ee35 c5bd 20a5 26bc
000001a0: e3c1 a93d fd34 223c fef5 253e 8063 9a3c
000001b0: 68a2 693d 2f5c 83bd 7a37 ea3d 0c06 e8bc
000001c0: be89 bb3d 74dd b53d 0226 cfbd d061 fdbd
000001d0: 50ea a93d 29c0 053e 5aaf c93d 5051 cabd
000001e0: efb0 aabd 1af6 d73c d489 e93d 606d d0bd
000001f0: 5823 b4bc 6ae7 2d3e f6bb b33d c1f6 58bd
00000200: 181c 623c 3980 aa3c bf1d dabc 5204 93bd
00000210: e053 db3c cc93 1dbe 5835 85bc d1e4 1f3d
00000220: a401 b73d 6af0 453e 2066 ee3d 1ab2 8c3d
00000230: 35f2 0d3e 232e c33d e426 3b3d 9c6c af3d
00000240: a09f 39bc 2af6 b1bd 12e0 ea3d d4f3 073d
00000250: 8d5a 33bd f279 a1bd 5e73 833d 2017 fa3b
00000260: ffe4 e6bc 8aed a0bd 942e 2cbd 1495 3a3d
00000270: 8672 a0bd b1aa 3abc 00cd 9dbd ee9c 5e3d
00000280: a45b 14bd 0749 043e a0d3 b4bc e093 c63d
00000290: 0a2f e0bd 8237 a83d 665b 83bd 804e 3bbb
000002a0: 7d96 d2bd de3c 673d 56b5 653e f095 5f3d
000002b0: 3011 dcbc 2382 13bd 8c80 82bd 3c67 213e
000002c0: 0084 393c a674 cd3d ac84 1dbd ced7 863d
000002d0: 7468 843d 3a1f c73d 88c5 273d 9bde 3c3d
000002e0: 9e21 f8bd 13a6 473d 34f4 0d3d 807b f23b
000002f0: 324f ea3d e346 153e c0ad 4dbc 44ff 1a3e
00000300: 59ce 5a3e 2926 98bb 0e1b af3c a21d 973c
00000310: 4a3f d03d 4c95 233d 6049 8f3b 37fb d13d
00000320: 6e07 a53d 38f9 413e 2e2f d73d 50c8 4bbd
00000330: caa8 f13d c720 b63d 14f1 203d c055 84bb
00000340: 38b0 80bd 647c 6fbd 29bf 0f3d 5896 8dbc
00000350: 60e7 79bd 1049 9dbc 88e9 4a3d a217 e8bd
00000360: 7454 1d3e 24b4 823d da26 df3d 24a2 cfbd
00000370: a962 23bd 3875 ed3d 1bd1 1ebd 9300 a53d
00000380: 0095 ac3b 148b ba3d 8aec c5bd 7cfb 5f3d
00000390: 91b3 bdbc d0ef f13d b011 b03d 6cbe c43d
000003a0: 7a69 9f3d a671 5dbd 307b 443e 5033 20bc
000003b0: 4857 91bc 7077 283c 66d1 6cbd dd7e de3c
000003c0: ee1c c73d 60ad 573d 90cb 8f3c 0e1a cf3d
000003d0: f5f5 1a3e 0567 c53a c4b0 d63d 1060 99bd
000003e0: f2b2 133e 2321 92bd 3a93 df3d 30b0 febc
000003f0: a688 81bd fa82 293e 9005 19bd c174 76bd

fc2.bias f4 [37]
-0.008243968 0.02677474 0.09159413 0.011318974 0.056874946 0.040551048 0.11743732 0.029191872
0.054961916 0.023703316 0.022582266 0.086208925 -0.05446947 -0.05690169 0.1080922 0.09463541
-0.108909234 -0.071528584 0.10230984 0.035556156 0.082211934 0.105920434 0.0102881 0.040593352
-0.034422286 -0.018317964 -0.06252 0.06585407 0.08091443 0.04538587 0.08819945 -0.003726134
0.09475522 -0.037644327 0.012443239 -0.0048740767 -0.09703207
00000000: b511 07bc b356 db3c b495 bb3d 3873 393c
00000010: b4f5 683d db18 263d fa82 f03d cb23 ef3c
00000020: bf1f 613d 752d c23c 72fe b83c 4e8e b03d
00000030: 611b 5fbd bf11 69bd 715f dd3d 36d0 c13d
00000040: ce0b dfbd 947d 92bd d287 d13d 55a3 113d
00000050: bb5e a83d d0ec d83d 6b8f 283c 3745 263d
00000060: 62fe 0cbd 8e0f 96bc 7c0a 80bd 80de 863d
00000070: 77b6 a53d 89e6 393d eaa1 b43d 2832 74bb
00000080: 060f c23d f030 1abd bade 4b3c b8b6 9fbb
00000090: c0b8 c6bd
