models/2018-05-04/lstm_model.onnx (onnx, 465348 bytes, 6 tensors)

fc.weight f4 [7, 256]
0.060830023 0.08578766 0.067692004 0.060774326 0.027116006 0.051556453 0.06620861 -0.09372139
-0.078387246 -0.08699077 0.018610591 0.18446846 0.080548376 0.006086496 0.019073697 -0.066324346
-0.0268159 0.018888425 -0.008991484 0.011015272 -0.019422567 0.03739752 0.026848234 -0.06711889
-0.06897466 0.018238189 -0.06650971 0.07045477 -0.055370353 0.06399657 -0.005260403 0.006607059
0.020613099 -0.003106785 0.059443105 0.029197823 0.0061542443 -0.034881108 0.0073318356 -0.091856994
-0.056200612 0.0024769648 0.06745772 0.0054651387 -0.00077880506 -0.026843272 -0.026297985 -0.01832864
0.08035523 -0.03212158 0.09079071 0.07369096 0.021759827 0.057298962 -0.006682188 -0.0075852363
0.074405156 0.0038635111 -0.027154857 -0.0072362525 0.008860558 0.0013026415 -0.09021823 0.07045361
0.028991811 -0.028145378 0.080206096 -0.026257873 0.007456887 0.051386382 -0.0015530218 -0.04061727
-0.01957965 -0.014323709 0.0582682 0.037062287 0.01796604 -0.06313008 -0.08314232 0.0066342903
-0.026353918 0.014774534 -0.060865782 0.06574128 0.0016455677 -0.10034223 -0.082247466 0.078425206
-0.019093923 -0.04768644 -0.019267134 -0.027927553 0.070434645 0.023309814 0.049141694 0.0077462294
-0.03305741 -0.016483836 0.011755775 0.03384568 -0.03176409 0.0792794 0.08450261 0.01981515
0.025097463 -0.033229496 -0.020022051 -0.024055637 0.00710685 -0.008405619 0.09079149 -0.08045933
0.09891589 -0.031415872 -0.018764552 -0.048218694 -0.02380456 0.040698294 0.06929456 0.073483996
-0.053914703 0.077485286 0.058218088 -0.017285446 -0.0065787896 0.013409812 -0.08419641 -0.068649635
0.025667608 0.041793935 0.0055604526 0.012603094 -0.06520089 -0.09255384 -0.07866812 -0.042836457
0.07173875 0.042542793 -0.00017410319 -0.069860615 -0.013131904 -0.09250586 -0.0027290175 -0.059496947
-0.017568627 -0.07268917 0.0015387542 -0.071513906 0.088775605 0.010662666 0.018202893 -0.03301859
0.012431207 -0.083327115 -0.059834316 0.029839277 -0.022487037 -0.08363337 0.012914375 0.06625674
-0.031642918 0.05360677 -0.0735557 -0.05430869 -0.03241352 -0.026229737 -0.046441015 0.08388313
-0.05186548 -0.0041064024 0.024151836 0.025039485 0.005047816 0.059728686 -0.0057515446 0.0057979
-0.00077677035 0.036637846 -0.011134363 0.0137809655 0.01054809 0.04832594 -0.022823995 0.045607217
-0.014111419 0.05337202 -0.025432901 -0.061892748 0.050181095 -0.012875948 0.0007866615 0.027128628
0.09296824 -0.07705392 -0.020612516 0.073386736 -0.053400047 -0.025194038 -0.021997837 0.09810232
-0.006134825 0.06693309 -0.04576899 0.0153255295 0.02666707 -0.008028034 -0.034582198 -0.0476211
-0.010960192 0.042008363 -0.060417686 -0.0344868 -0.007614961 -0.021779958 0.05010187 0.025157617
0.00068533444 0.02700476 -0.06662223 0.08690113 0.040351838 0.061908223 -0.019563453 0.03171693
-0.082116164 -0.022234984 -0.015964765 -0.033174064 0.00088573503 -0.04582391 -0.018640012 -0.024863519
-0.037233535 0.073140144 -0.07521197 0.083223864 0.047145534 0.07904594 -0.004615306 0.06959318
-0.046838425 -0.008420262 0.03294545 -0.054386217 0.057336964 0.010435528 -0.042120203 -0.0658818
-0.07425691 -0.09012978 -0.08241777 -0.037265617 -0.024200799 -0.054064803 -0.09297944 0.0016745762
00000000: e728 793d 71b1 af3d 1ba2 8a3d 80ee 783d
00000010: 6322 de3c dc2c 533d 6198 873d 00f1 bfbd
00000020: 7e89 a0bd 3828 b2bd 3d75 983c 4de5 3c3e
00000030: 8cf6 a43d 3b71 c73b 7140 9c3c 0fd5 87bd
00000040: 05ad dbbc e6bb 9a3c 0451 13bc 6679 343c
00000050: 131c 9fbc 242e 193d d4f0 db3c a175 89bd
00000060: 9642 8dbd 4168 953c 3e36 88bd 974a 903d
00000070: 06cc 62bd a210 833d 755f acbb 0780 d83b
00000080: cddc a83c 349b 4bbb 9d7a 733d 4630 ef3c
00000090: 8ba9 c93b 7edf 0ebd e53f f03b 851f bcbd
000000a0: 9d32 66bd 9354 223b 4627 8a3d e814 b33b
000000b0: b928 4cba 6ce6 dbbc df6e d7bc f225 96bc
000000c0: 4891 a43d eb91 03bd 7bf0 b93d 49eb 963d
000000d0: aa41 b23c 51b2 6a3d 41f6 dabb 938d f8bb
000000e0: bb61 983d f632 7d3b dd73 debc 161e edbb
000000f0: e02b 113c 65bd aa3a 56c4 b8bd fb49 903d
00000100: 3c80 ed3c 2391 e6bc 1843 a43d c01a d7bc
00000110: e758 f43b 877a 523d c48e cbba 4b5e 26bd
00000120: 8165 a0bc fdad 6abc a3aa 6e3d a0ce 173d
00000130: 842d 933c 584a 81bd 8546 aabd 7664 d93b
00000140: 2ce4 d7bc e310 723c 664e 79bd 5da3 863d
00000150: 17b0 d73a 3a80 cdbd 5c71 a8bd 659d a03d
00000160: dc6a 9cbc db52 43bd 1cd6 9dbc 53c8 e4bc
00000170: 0a40 903d 39f4 be3c cd48 493d 15d4 fd3b
00000180: 3567 07bd 1c09 87bc 4b9b 403c c5a1 0a3d
00000190: 101b 02bd 3d5d a23d b40f ad3d 6253 a23c
000001a0: 3299 cd3c a71b 08bd 4905 a4bc 5410 c5bc
000001b0: 94e0 e83b b9b7 09bc e4f0 b93d dcc7 a4bd
000001c0: 6a94 ca3d eead 00bd 1eb8 99bc f780 45bd
000001d0: c801 c3bc 41b3 263d 4eea 8d3d c77e 963d
000001e0: aad5 5cbd 9bb0 9e3d 1776 6e3d 359a 8dbc
000001f0: e392 d7bb d4b4 5b3c 2b6f acbd 2e98 8cbd
00000200: e044 d23c 1e30 2b3d 7534 b63b 357d 4e3c
00000210: 0b88 85bd de8c bdbd c01c a1bd 4875 2fbd
00000220: c4eb 923d 5a41 2e3d 788f 36b9 1513 8fbd
00000230: 3327 57bc b673 bdbd 51d9 32bb 12b3 73bd
00000240: 15ec 8fbc 0fde 94bd 06b0 c93a e275 92bd
00000250: fccf b53d 76b2 2e3c 3c1e 953c 803e 07bd
00000260: 43ac 4b3c 68a7 aabd d414 75bd 8071 f43c
00000270: bc36 b8bc f947 abbd d196 533c 9db1 873d
00000280: 019c 01bd c692 5b3d 5fa4 96bd ca72 5ebd
00000290: 0ac4 04bd bfdf d6bc ef38 3ebd ebca ab3d
000002a0: e670 54bd 008f 86bb 12da c53c 9b1f cd3c
000002b0: 2668 a53b 11a6 743d 7477 bcbb 4ffc bd3b
000002c0: 2da0 4bba 9111 163d e76c 36bc 8fc9 613c
000002d0: e5d1 2c3c 6cf1 453d 63f9 babc a2ce 3a3d
000002e0: 9533 67bc 9f9c 5a3d a958 d0bc 4083 7dbd
000002f0: b18a 4d3d a4f5 52bc f637 4e3a db3c de3c
00000300: 2266 be3d 72ce 9dbd 94db a8bc c94b 963d
00000310: 02ba 5abd ba63 cebc cf34 b4bc dfe9 c83d
00000320: a406 c9bb 3714 893d 4478 3bbd ee17 7b3c
00000330: e674 da3c 0488 03bc 10a6 0dbd 580e 43bd
00000340: 6192 33bc f610 2c3d 8978 77bd 0842 0dbd
00000350: ec86 f9bb e26b b2bc 9e37 4d3d 5917 ce3c
00000360: 04a8 333a 1639 dd3c 3c71 88bd 38f9 b13d
00000370: f847 253d 7a93 7d3d 8943 a0bc 9de9 013d
00000380: 852c a8bd 2426 b6bc 8ac8 82bc 87e1 07bd
00000390: ac30 683a dab1 3bbd f0b2 98bc 94ae cbbc
000003a0: 3182 18bd 80ca 953d bc08 9abd 4671 aa3d
000003b0: ad1b 413d d6e2 a13d fe3b 97bb df86 8e3d
000003c0: a6d9 3fbd 23f5 09bc cff1 063d 15c4 5ebd
000003d0: 2ada 6a3d c7f9 2a3c 3c86 2cbd 0aed 86bd
000003e0: 0214 98bd f695 b8bd a6ca a8bd d5a3 18bd
000003f0: c140 c6bc 0e73 5dbd 016c bebd 747d db3a

fc.bias f4 [7]
0.08504826 0.022998502 0.10965392 0.03505674 0.12637982 0.11523786 0.16078842
00000000: c82d ae3d 5b67 bc3c 3c92 e03d a897 0f3d
00000010: b669 013e d401 ec3d b8a5 243e

onnx::GRU_197 f4 [2, 768]
-0.20356986 -0.12502173 -0.094896905 -0.06408133 -0.17617257 -0.22618563 -0.17632082 -0.22186546
-0.0757391 -0.23573321 -0.07478317 -0.27840957 -0.23019105 -0.09293328 -0.23709525 -0.07900543
-0.18564928 -0.23518397 -0.07569118 -0.09843724 -0.10591332 -0.19683564 -0.07161853 -0.24338539
-0.15729935 -0.24069782 -0.10104624 -0.1320968 -0.2365356 -0.109484196 -0.13854647 -0.095548294
-0.16937685 -0.08240154 -0.14164463 -0.20850314 -0.12677416 -0.14287457 -0.12795617 -0.18071276
-0.12262692 -0.10763588 -0.2236289 -0.1269021 -0.12924616 -0.21718718 -0.1781724 -0.16642122
-0.22753376 -0.19161841 -0.18729833 -0.17327791 -0.10566122 -0.21408916 -0.15718727 -0.1298147
-0.14479753 -0.14430189 -0.20740606 -0.14291604 -0.124385245 -0.13711123 -0.11552649 -0.19794191
-0.15554495 -0.13719724 -0.1438303 -0.090658985 -0.21928953 -0.088623606 -0.12058392 -0.19941293
-0.18821979 -0.20650283 -0.20256451 -0.076196775 -0.14449142 -0.18271616 -0.12583113 -0.17209177
-0.22111875 -0.18725751 -0.14142875 -0.113896966 -0.24050835 -0.16817382 -0.08957069 -0.2393363
-0.09028282 -0.075544864 -0.17499329 -0.15677264 -0.19693585 -0.18291949 -0.16551584 -0.23277451
-0.11695244 -0.22187562 -0.23140731 -0.07105644 -0.1774744 -0.071110174 -0.17049271 -0.22026555
-0.22984937 -0.14008626 -0.15117772 -0.23478769 -0.09341795 -0.1191141 -0.20355985 -0.19434173
-0.10844712 -0.14054127 -0.15198304 -0.21960968 -0.18216667 -0.14549142 -0.094740786 -0.23381624
-0.11787987 -0.08289208 -0.12844549 -0.16647856 -0.122759685 -0.18638717 -0.19225293 -0.16952762
0.23884724 -0.05041157 -0.010473743 0.035416607 0.14966245 0.13381217 0.10227846 0.13148862
0.05182577 0.13979313 -0.058724627 -0.10579836 0.05446083 0.085413024 -0.010938993 0.12866019
0.225579 0.09257417 0.12296375 0.04966587 0.20731981 0.089672446 -0.022384288 0.13349204
0.2020406 -0.078501314 0.15712449 0.21727867 0.04333537 0.09414277 0.038457163 0.062319133
0.06888882 0.074438766 0.09384128 0.1412869 0.079277895 0.06489192 0.081950866 0.13437034
-0.102147035 0.18671355 -0.016715307 0.0032659767 0.10296434 0.10982427 0.16837606 0.20529883
0.12716804 0.1546902 0.070584014 0.1180691 0.07665826 0.07408525 0.21496858 0.18556371
0.16508402 0.19995557 0.11966662 -0.1419063 0.1642293 0.05897467 0.20474495 0.14703172
0.087021746 0.010206438 0.22913976 0.040092506 0.09705636 0.06277015 0.10411593 0.16262276
0.18942048 0.15672979 0.10756394 0.09480093 0.06283428 0.05890837 0.1429431 0.13514479
0.02977231 0.06504226 0.1943663 0.040553182 0.16784891 -0.06881752 0.103232324 0.050467957
0.18779746 0.16969284 0.13300303 0.05335851 -0.018000692 0.0887116 0.08877485 -0.049301554
0.15083481 0.1029232 0.082536064 0.09314498 0.15837134 -0.014586752 0.07040943 0.08329798
0.19659847 0.13695674 0.034634486 0.1959179 0.13244198 0.1260841 0.06500667 -0.098538704
-0.12013994 -0.021024097 0.17270628 0.15657903 0.10046832 0.14755219 0.13301164 0.05954794
0.22059672 0.13809815 0.10303922 -0.002433565 0.21147953 0.11374305 -0.0014492108 -0.0401354
00000000: 9e74 50be b205 00be 4f59 c2bd 133d 83bd
00000010: 9566 34be 359d 67be 728d 34be b330 63be
00000020: 1a1d 9bbd 0c64 71be eb27 99bd b38b 8ebe
00000030: 34b7 6bbe ce53 bebd 19c9 72be 99cd a1bd
00000040: d81a 3ebe 11d4 70be fa03 9bbd 7799 c9bd
00000050: 15e9 d8bd 488f 49be bcac 92bd 053a 79be
00000060: 1513 21be 7d79 76be 55f1 cebd 6244 07be
00000070: 6336 72be 4039 e0bd 20df 0dbe d3ae c3bd
00000080: 2071 2dbe 23c2 a8bd 4a0b 11be d981 55be
00000090: 16d1 01be b64d 12be f106 03be c40c 39be
000000a0: d323 fbbd 3370 dcbd f9fe 64be a0f2 01be
000000b0: 1b59 04be 5166 5ebe d372 36be 536a 2abe
000000c0: 9cfe 68be 9e37 44be 22cb 3fbe c46f 31be
000000d0: e964 d8bd 303a 5bbe b3f5 20be 25ee 04be
000000e0: ce45 14be e0c3 13be 4162 54be 9558 12be
000000f0: b1bd febd e366 0cbe 2799 ecbd 49b1 4abe
00000100: 2d47 1fbe 6f7d 0cbe 4048 13be 6bab b9bd
00000110: 6f8d 60be 4b80 b5bd b4f4 f6bd e732 4cbe
00000120: b0bc 40be 7a75 53be 126d 4fbe 0e0d 9cbd
00000130: 8ff5 13be f219 3bbe e0d9 00be d338 30be
00000140: f46c 62be 6fc0 3fbe b3d2 10be d042 e9bd
00000150: d247 76be c235 2cbe d770 b7bd 9314 75be
00000160: 33e6 b8bd 44b7 9abd 7131 33be 0289 20be
00000170: 8da9 49be 3f4f 3bbe fc7c 29be 715c 6ebe
00000180: c384 efbd 5d33 63be 0af6 6cbe 0a86 91bd
00000190: d9bb 35be 36a2 91bd a495 2ebe 4b8d 61be
000001a0: a25d 6bbe c672 0fbe 55ce 1abe 2f6c 70be
000001b0: e951 bfbd 18f2 f3bd fe71 50be 8501 47be
000001c0: 8619 debd 0dea 0fbe 71a1 1bbe 5ce1 60be
000001d0: e689 3abe b4fb 14be 7507 c2bd 866d 6fbe
000001e0: 006b f1bd 53c3 a9bd 3787 03be 5b79 2abe
000001f0: 6e69 fbbd 47dc 3ebe f4dd 44be a698 2dbe
00000200: 5f94 743e 5d7c 4ebd 109a 2bbc 0111 113d
00000210: 1d41 193e 0f06 093e 5f77 d13d f4a4 063e
00000220: 4247 543d ee25 0f3e 3c89 70bd d0ac d8bd
00000230: 5212 5f3d 06ed ae3d 7639 33bc 7fbf 033e
00000240: 2efe 663e 8797 bd3d 6bd4 fb3d 706e 4b3d
00000250: a54b 543e 30a6 b73d 415f b7bc 23b2 083e
00000260: bbe3 4e3e 4cc5 a0bd 3ee5 203e 4d7e 5e3e
00000270: 6e80 313d edcd c03d 4285 1d3d 5942 7f3d
00000280: 9515 8d3d 5a73 983d db2f c03d 83ad 103e
00000290: 735c a23d 0ee6 843d dbd5 a73d 6198 093e
000002a0: 7732 d1bd d631 3f3e 8aee 88bc ff09 563b
000002b0: f8de d23d 8ceb e03d c66a 2c3e db39 523e
000002c0: 5738 023e 1c67 1e3e 5a8e 903d 36ce f13d
000002d0: 01ff 9c3d 02ba 973d b920 5c3e 6a04 3e3e
000002e0: c90b 293e 27c1 4c3e c613 f53d e34f 11be
000002f0: ba2b 283e 6c8f 713d a9a8 513e 7c8f 163e
00000300: 7538 b23d e738 273c 9da3 6a3e 0a38 243d
00000310: 7cc5 c63d a38d 803d bc3a d53d 9586 263e
00000320: 71f7 413e c67d 203e 7c4a dc3d fd26 c23d
00000330: 42af 803d e749 713d ad5f 123e 6563 0a3e
00000340: 0fe5 f33c e034 853d f607 473e 181b 263d
00000350: 96e0 2b3e 33f0 8cbd 786b d33d 7db7 4e3d
00000360: fa4d 403e f6c3 2d3e f231 083e 748e 5a3d
00000370: 3076 93bc 6dae b53d 97cf b53d 6df0 49bd
00000380: 7174 1a3e 66c9 d23d ab08 a93d ccc2 be3d
00000390: 192c 223e 46fd 6ebc d232 903d 2298 aa3d
000003a0: 1c51 493e 633e 0c3e e4dc 0d3d b49e 483e
000003b0: df9e 073e 311c 013e 3822 853d a9ce c9bd
000003c0: ee0b f6bd ba3a acbc ead9 303e 4156 203e
000003d0: 56c2 cd3d ec17 173e 3434 083e 8ae8 733d
000003e0: 1be4 613e 9a69 0d3e 3a06 d33d 727c 1fbb
000003f0: 178e 583e 1ef2 e83d 72f3 bdba 0465 24bd

onnx::GRU_198 f4 [2, 384, 18]
-0.13969514 -0.25200343 -0.2209142 -0.22564884 -0.023950895 -0.05494411 -0.09659705 -0.15399134
-0.13517198 -0.10973388 -0.18133102 -0.21894349 -0.22861089 -0.20526284 -0.13954023 -0.2113999
-0.14338362 -0.17466266 -0.059479058 -0.11680617 -0.10921516 -0.16018654 -0.028617742 -0.096957035
-0.18344247 -0.17515245 -0.17123987 -0.16945808 -0.27238077 -0.109759204 -0.10123134 -0.18622786
-0.10748559 -0.13055758 -0.1168588 -0.13583721 -0.08104876 -0.18983003 -0.20377256 -0.1777765
0.04318012 -0.11677216 -0.14282328 -0.1723015 -0.18536903 -0.16824709 -0.24829684 -0.1409424
-0.17085499 -0.08472148 -0.16578104 -0.13046181 -0.07521342 -0.11221141 -0.13522138 -0.1928748
-0.12111375 -0.1976455 0.0034074674 -0.14770354 -0.05103333 -0.078295276 -0.12191123 -0.02882171
-0.2655564 -0.067897476 -0.1357471 -0.14349528 -0.20019335 -0.14287177 -0.13017549 -0.13442309
-0.24049428 -0.17966835 -0.19231842 -0.17672029 -0.045651894 -0.16697747 -0.22979508 -0.20809412
-0.14280254 -0.088815875 -0.115726314 -0.22544725 -0.15192884 -0.20477742 -0.21855883 -0.14672357
-0.18987049 -0.23049493 -0.23528448 -0.2589531 -0.069050565 -0.091677375 -0.03498827 -0.19905056
-0.21000542 -0.21141446 -0.17980163 -0.077918634 -0.17086497 -0.1856884 -0.13141647 -0.20242329
-0.21437937 -0.11429361 -0.17816427 -0.12074719 -0.08097795 -0.24637543 -0.20385669 -0.10751846
-0.07982768 -0.06264672 -0.18638128 -0.12073882 -0.2141171 -0.19000119 -0.19483973 -0.12187884
-0.126026 -0.075898945 -0.14844899 -0.14472349 -0.11410737 -0.16799608 -0.1512932 -0.27440497
-0.22001211 -0.087537564 -0.05165032 -0.07179642 -0.13422859 -0.13556628 -0.06709308 -0.1884059
-0.20464982 -0.13741143 -0.15453435 -0.23542036 -0.11404291 -0.19027057 -0.12289145 -0.08929963
-0.16917107 -0.20567614 -0.16096728 -0.08538529 0.0502337 -0.1259756 -0.20694748 -0.22090909
-0.07536117 -0.0875213 -0.15170231 -0.23016389 -0.12407295 -0.16672267 -0.089836076 -0.06948992
-0.12931257 -0.19149329 -0.07114169 -0.24001724 -0.08700388 -0.22739032 -0.027799271 -0.2191819
-0.18244584 -0.121875204 -0.20557325 -0.21112828 -0.1307556 -0.10609855 -0.18706648 -0.21139887
-0.16689563 -0.16399227 -0.07737081 -0.17676713 -0.17539 -0.26222193 -0.18181059 -0.088901184
0.056947336 -0.12461029 -0.17098841 -0.06846243 -0.12428203 -0.16214985 -0.23020218 -0.16056542
-0.15092131 -0.11304081 -0.07377943 -0.13228683 -0.050371893 -0.17867771 -0.2340174 -0.27682093
-0.23833784 -0.20700227 -0.07998039 -0.17435852 -0.18238479 -0.2321136 -0.21081536 -0.06766503
-0.27346596 -0.1417253 -0.17340471 -0.2309223 -0.18700984 -0.11062964 -0.065549955 -0.19233677
-0.09191856 -0.2798821 -0.1981629 -0.065776065 -0.008368573 -0.05518496 -0.13611113 -0.19835922
-0.06455645 -0.049248714 -0.2023061 -0.20680317 -0.20639607 -0.19199017 -0.07771067 -0.12729801
-0.10769711 -0.0932922 -0.121031374 -0.25865638 -0.06704898 -0.08453386 -0.054565333 -0.06979888
-0.11388425 -0.17423186 -0.20478745 -0.14316024 -0.29013824 -0.09881463 -0.13087632 -0.17070065
-0.05720457 -0.16166759 -0.108096056 -0.20546357 -0.15901527 -0.16688396 -0.10890374 -0.14826836
00000000: 3e0c 0fbe 9806 81be 5537 62be 7d10 67be
00000010: ab34 c4bc 130d 61bd add4 c5bd e8af 1dbe
00000020: 866a 0abe 28bc e0bd d7ae 39be b932 60be
00000030: f918 6abe 6c30 52be a2e3 0ebe 3779 58be
00000040: 28d3 12be c5da 32be 50a0 73bd 1338 efbd
00000050: 33ac dfbd f107 24be c16f eabc 6991 c6bd
00000060: 58d8 3bbe 2a5b 33be 8159 2fbe 6b86 2dbe
00000070: 7e75 8bbe 6fc9 e0bd 6052 cfbd 84b2 3ebe
00000080: 6821 dcbd e3b0 05be ab53 efbd e918 0bbe
00000090: e4fc a5bd ce62 42be c1a9 50be 0b0b 36be
000000a0: a3dd 303d 3e26 efbd 4440 12be ce6f 30be
000000b0: 61d1 3dbe f748 2cbe 8741 7ebe 3453 10be
000000c0: 9cf4 2ebe 7582 adbd 81c2 29be c897 05be
000000d0: 7e09 9abd 19cf e5bd 7977 0abe f980 45be
000000e0: 7c0a f8bd 9563 4abe d14f 5f3b 993f 17be
000000f0: 5308 51bd 4659 a0bd 98ac f9bd 821b ecbc
00000100: 02f7 87be d50d 8bbd 4a01 0bbe 6df0 12be
00000110: 7cff 4cbe fa4c 12be b94c 05be 35a6 09be
00000120: 2244 76be fbfa 37be 1fef 44be 2af6 34be
00000130: 7bfd 3abd 24fc 2abe 674f 6bbe a016 55be
00000140: d43a 12be 19e5 b5bd eb01 edbd a5db 66be
00000150: 3c93 1bbe 2cb1 51be e3cd 5fbe b43e 16be
00000160: 696d 42be dd06 6cbe 6aee 70be 8095 84be
00000170: 626a 8dbd 59c1 bbbd dc4f 0fbd e9d3 4bbe
00000180: a90b 57be 087d 58be eb1d 38be ce93 9fbd
00000190: 3af7 2ebe 1a25 3ebe 0a92 06be 0d48 4fbe
000001a0: 4486 5bbe c512 eabd b270 36be 4e4a f7bd
000001b0: c4d7 a5bd d749 7cbe cfbf 50be a332 dcbd
000001c0: b27c a3bd ec4c 80bd bcda 3ebe ea45 f7bd
000001d0: 8341 5bbe ac8f 42be 1184 47be 9d9b f9bd
000001e0: f60c 01be e870 9bbd 0303 18be 6532 14be
000001f0: 20b1 e9bd 2a07 2cbe 9bec 1abe cf7e 8cbe
00000200: db4a 61be e546 b3bd 498f 53bd 000a 93bd
00000210: 3873 09be e3d1 0abe 1968 89bd 7aed 40be
00000220: b98f 51be 95b5 0cbe 413e 1ebe 0912 71be
00000230: 548f e9bd 4ad6 42be 83ae fbbd b9e2 b6bd
00000240: 2e3b 2dbe c49c 52be 9bd4 24be 7cde aebd
00000250: dac1 4d3d bfff 00be 0aea 53be fe35 62be
00000260: f556 9abd 5e3e b3bd da57 1bbe 15b0 6bbe
00000270: f519 febd 59b9 2abe fafb b7bd bb50 8ebd
00000280: 846a 04be d116 44be bcb2 91bd 14c7 75be
00000290: 172f b2bd 02d9 68be 4cbb e3bc 3871 60be
000002a0: 15d3 3abe b599 f9bd cb81 52be 0332 58be
000002b0: cce4 05be 324a d9bd 5b8e 3fbe f278 58be
000002c0: b0e6 2abe 97ed 27be 9674 9ebd 7102 35be
000002d0: 7099 33be f441 86be 8e2c 3abe d311 b6bd
000002e0: 9c41 693d ae33 ffbd 9617 2fbe 0836 8cbd
000002f0: 9487 febd 9c0a 26be 1fba 6bbe 436b 24be
00000300: 1e8b 1abe f181 e7bd ab19 97bd 3376 07be
00000310: c252 4ebd 4af7 36be 42a2 6fbe 79bb 8dbe
00000320: d60e 74be 67f8 53be c2cc a3bd 0a8b 32be
00000330: 14c3 3abe 30af 6dbe fbdf 57be f793 8abd
00000340: bb03 8cbe 7020 11be 0191 31be e576 6cbe
00000350: 827f 3fbe cb91 e2bd 0e3f 86bd eef3 44be
00000360: cc3f bcbd b54c 8fbe 37eb 4abe 9ab5 86bd
00000370: 571c 09bc a009 62bd b760 0bbe ae1e 4bbe
00000380: 2c36 84bd 05b9 49bd 5529 4fbe 36c4 53be
00000390: 7e59 53be 1299 44be c626 9fbd 695a 02be
000003a0: 4d90 dcbd fb0f bfbd 4cdf f7bd 9c6e 84be
000003b0: fa50 89bd 1720 adbd e67f 5fbd b7f2 8ebd
000003c0: 253c e9bd d669 32be cdb3 51be 9998 12be
000003d0: 008d 94be 535f cabd 7104 06be 27cc 2ebe
000003e0: 574f 6abd 308c 25be 7761 ddbd 0b65 52be
000003f0: e6d4 22be a1e3 2abe ed08 dfbd a9d3 17be

onnx::GRU_199 f4 [2, 384, 128]
-0.047110114 -0.041776113 0.015335995 0.008559435 0.08017014 0.018389028 0.015388457 -0.045907907
0.07682273 -0.0011603975 0.052889246 -0.070751786 0.046243552 0.07181001 0.057277072 0.073846966
-0.040178105 -0.06341499 0.031821303 0.038299285 -0.053706676 -0.028384974 -0.0011341084 -0.0074145263
0.042276103 0.06278091 0.025548618 -0.034992725 -0.05512679 0.07633967 0.009903919 -0.046245072
-0.065948226 -0.060050882 0.082548745 -0.05566784 -0.086051874 -0.06622211 -0.04197098 -0.0027006015
-0.060607314 0.03892483 -0.01450665 -0.036795072 -0.05362512 -0.027986055 0.08587412 0.0044530043
0.024905078 -0.08562427 0.053971063 0.0139615545 -0.009778901 0.0015965331 -0.040838473 -0.06861923
-0.04423744 0.027731214 0.07465673 -0.06155191 0.0406643 -0.042963747 0.06664285 0.010785505
-0.0803076 -0.07624566 0.021265877 0.049366076 0.02608932 0.02432342 -0.013874542 -0.04410225
0.015245316 -0.07006768 0.04410541 -0.033659767 -0.0792348 0.00960454 0.03397668 -0.06745241
-0.05579191 -0.015831737 -0.036563456 0.07161484 0.013463304 -0.027594006 -0.06887251 -0.06536567
0.030235928 -0.021151407 0.012416388 0.016006561 0.061615404 0.0006145643 0.03948829 -0.08287457
0.062261663 -0.07551617 -0.025321625 -0.088135235 0.04508408 -0.023324128 -0.08682557 -0.04883551
0.048443027 0.059533287 0.061933443 -0.08420799 -0.036321595 0.014278098 -0.005532385 -0.044867616
0.08602962 -0.054931536 0.05768758 0.056816775 -0.07586708 -0.058548346 -0.05942418 0.06455202
-0.077475786 0.0010637864 -0.02700533 -0.02054034 -0.052234076 -0.076242276 -0.07596261 -0.009417682
0.0050361794 0.022897214 0.028987411 -0.037398648 0.04833392 0.052013382 -0.06984002 0.075541906
-0.009575195 -0.004818217 -0.0841052 0.04692516 0.03573071 0.022440035 0.038863473 -0.07773148
0.08782485 0.0591215 -0.026033306 0.046562098 -0.03151301 -0.028068252 -0.005373797 0.054586437
0.04857223 -0.030500283 -0.07314335 0.001053882 -0.03753712 -0.005720908 0.04489851 0.05900249
0.0046676053 0.036216617 0.01620872 -0.040228892 0.052525435 -0.06198109 -0.006668443 -0.038390066
0.005979331 0.0733337 0.027971556 -0.005807319 -0.082389124 -0.06301913 -0.01833958 -0.04247513
0.017419303 -0.08716791 0.08227499 -0.02683886 0.052663233 0.06344091 0.072276756 -0.014642173
0.0030631698 0.04512135 -0.06586286 -0.006281735 0.037178915 -0.0019970336 -0.06291595 0.013140913
-0.018156188 0.054219466 -0.06158885 0.007385687 -0.012002527 -0.0016182915 0.07999456 0.0007226288
-0.0034926354 -0.08377607 -0.042679258 -0.07129443 0.0061089643 -0.019250205 0.025946738 0.07175921
0.019101657 -0.06280904 -0.053754427 -0.0400095 -0.049389973 0.014681349 -0.084690884 -0.06772814
-0.015432985 -0.06049399 0.055707995 0.029090576 0.068569265 0.0406235 -0.023549551 -0.013185525
0.041425083 -0.08029322 0.02137137 -0.08072392 0.037825406 -0.028698526 0.029186375 0.03406619
0.0034510472 0.011012381 -0.03236255 0.0028798308 0.050982345 0.07266 -0.024859276 0.020447902
0.02118956 0.035459943 0.030554272 0.029373087 -0.06407598 -0.015096506 -0.04403623 0.073264465
-0.03374465 0.03858933 0.023459768 0.031219203 0.021200275 -0.00800337 -0.02871506 0.08661612
00000000: 89f6 40bd 6e1d 2bbd d343 7b3c df3c 0c3c
00000010: 3e30 a43d 96a4 963c de1f 7c3c ee09 3cbd
00000020: 3c55 9d3d 7b18 98ba 65a2 583d 50e6 90bd
00000030: e169 3d3d 2011 933d 5d9b 6a3d 143d 973d
00000040: cc91 24bd b8df 81bd 0e57 023d b6df 1c3d
00000050: 88fb 5bbd 9b87 e8bc 5da6 94ba 8ef5 f2bb
00000060: b529 2d3d 4793 803d 564b d13c 8854 0fbd
00000070: a1cc 61bd f957 9c3d 0c44 223c 796b 3dbd
00000080: dd0f 87bd eaf7 75bd 510f a93d f603 64bd
00000090: f73b b0bd 759f 87bd c3e9 2bbd 93fc 30bb
000000a0: 603f 78bd a46f 1f3d 4dad 6dbc 6eb6 16bd
000000b0: 04a6 5bbd 0343 e5bc c5de af3d 82ea 913b
000000c0: bc05 cc3c c75b afbd c310 5d3d 01bf 643c
000000d0: af37 20bc c342 d13a 3e46 27bd 3d88 8cbd
000000e0: 5132 35bd 922c e33c a1e5 983d db1d 7cbd
000000f0: 9c8f 263d c1fa 2fbd 0c7c 883d b0b5 303c
00000100: 5078 a4bd af26 9cbd c735 ae3c 1534 4a3d
00000110: 45b9 d53c e941 c73c 0c52 63bc 90a4 34bd
00000120: 7dc7 793c a57f 8fbd e0a7 343d d3de 09bd
00000130: db45 a2bd 5c5c 1d3c 222b 0b3d 7d24 8abd
00000140: 0f86 64bd 8fb1 81bc 90c3 15bd cdaa 923d
00000150: 3195 5c3c d30c e2bc 080d 8dbd 70de 85bd
00000160: 56b1 f73c b745 adbc 1b6e 4b3c 3120 833c
00000170: 6f60 7c3d b61a 213a 79be 213d 24ba a9bd
00000180: 1606 7f3d 39a8 9abd 4c6f cfbc 3f80 b4bd
00000190: 16aa 383d 3e12 bfbc 9bd1 b1bd be07 48bd
000001a0: 326c 463d 2dd9 733d ecad 7d3d 3d75 acbd
000001b0: f4c5 14bd afee 693c 0249 b5bb 1bc7 37bd
000001c0: 4c30 b03d e4ff 60bd d049 6c3d b5b8 683d
000001d0: 3360 9bbd 64d0 6fbd c566 73bd d933 843d
000001e0: a0ab 9ebd c06e 8b3a 483a ddbc 3744 a8bc
000001f0: 66f3 55bd e924 9cbd 4992 9bbd 9f4c 1abc
00000200: 8906 a53b f092 bb3c 0277 ed3c 532f 19bd
00000210: caf9 453d fc0b 553d 4908 8fbd b7b5 9a3d
00000220: 47e1 1cbc 22e2 9dbb 593f acbd 9934 403d
00000230: 5d5a 123d 2ad4 b73c 4e2f 1f3d af31 9fbd
00000240: 84dd b33d 6329 723d cd43 d5bc e6b7 3e3d
00000250: c913 01bd 64ef e5bc ad16 b0bb 0796 5f3d
00000260: adf3 463d bbdb f9bc 2ecc 95bd 6922 8a3a
00000270: 86c0 19bd 7476 bbbb 80e7 373d 98ac 713d
00000280: b6f2 983b e057 143d 26c8 843c 0dc7 24bd
00000290: e924 573d e2df 7dbd f482 dabb e73e 1dbd
000002a0: 44ee c33b fb2f 963d 9b24 e53c 534b bebb
000002b0: a1bb a8bd 2c10 81bd e33c 96bc 67fa 2dbd
000002c0: edb2 8e3c 1785 b2bd ca7f a83d 2bdd dbbc
000002d0: 67b5 573d 4fed 813d d605 943d bae5 6fbc
000002e0: 76bf 483b 2ad1 383d 1be3 86bd 03d7 cdbb
000002f0: eb48 183d aae0 02bb 14da 80bd fc4c 573c
00000300: 49bc 94bc 3b15 5e3d 9744 7cbd a203 f23b
00000310: 3fa6 44bc da1c d4ba 30d4 a33d cc6e 3d3a
00000320: b3e4 64bb ca92 abbd 72d0 2ebd d002 92bd
00000330: b52d c83b 9bb2 9dbc 418e d43c 7ef6 923d
00000340: 147b 9c3c 07a2 80bd 9a2d 5cbd 00e1 23bd
00000350: 244d 4abd 0a8a 703c 6a72 adbd 0db5 8abd
00000360: a1da 7cbc 8cc8 77bd 112e 643d 5c4f ee3c
00000370: 0b6e 8c3d d464 263d fdea c0bc 1a08 58bc
00000380: 59ad 293d c670 a4bd 0313 af3c 9552 a5bd
00000390: d0ee 1a3d 2c19 ebbc 4418 ef3c fd88 0b3d
000003a0: f72a 623b 466d 343c 988e 04bd 8bbb 3c3b
000003b0: ddd2 503d c4ce 943d aea5 cbbc 5c82 a73c
000003c0: ba95 ad3c 723e 113d f44c fa3c d49f f03c
000003d0: 443a 83bd 5657 77bc 555f 34bd ae0b 963d
000003e0: d537 0abd d80f 1e3d b32e c03c 6abf ff3c
000003f0: 33ac ad3c 9120 03bc d83b ebbc cb63 b13d

onnx::MatMul_200 f4 [256, 1]
0.017924227 0.013030805 0.02255468 -0.021624587 -0.005023651 -0.018445596 -0.031098954 -0.0593007
-0.051724613 0.02393911 -0.023871891 0.039962113 0.0040478185 -0.0026197582 0.013935111 -0.013837978
-0.058453202 0.034518257 0.03922295 -0.031044059 -0.029131547 -0.008777164 -0.059065096 0.03483688
0.012401126 -0.056716792 0.0022179708 0.06010992 0.018717803 0.0056207925 -0.0306217 -0.03384161
-0.03397692 0.010217935 -0.029433668 -0.05207874 0.03714621 0.00236585 -0.010639422 0.03982734
-0.009969279 0.025580153 -0.0038287565 -0.047528952 -0.000609152 0.04641661 0.0013339818 -0.023760796
-0.023946375 0.0077495277 -0.0036807284 -0.03757371 0.014817938 -0.031812295 -0.023589991 0.041136585
-0.05192875 -0.0037799329 -0.015997507 0.019741058 -0.03713821 -0.038715765 0.04338181 -0.040986605
0.032330543 -0.04108703 0.039861806 -0.022126496 -0.027337626 -0.058544382 0.050976142 -0.029329665
-0.05346884 -0.022030473 -0.025678746 -0.007759884 -0.03422088 0.0533773 -0.032076627 0.04465624
-0.025614403 0.031418584 -0.043117456 -0.007972099 0.036171347 -0.016364112 0.0026293248 0.050607897
-0.02647522 -0.058013514 0.05159559 -0.036952496 0.00052657723 -0.0020846874 0.0178779 0.013037227
0.020067975 0.05389207 -0.027281657 -0.03707432 -0.03266143 -0.008694857 -0.010371193 -0.046084054
0.059955142 -0.0028988272 -0.052530408 0.05536206 0.019049428 0.00086613 -0.02634523 0.00022532791
-0.03775917 -0.0041897222 0.031698816 0.008077048 -0.027306229 0.018970303 0.059643164 -0.016606651
0.0008900091 0.023672111 -0.04870212 -0.053685978 -0.028944649 -0.039098404 -0.010426439 -0.019984804
0.057682127 0.0105872825 -0.036797024 -0.041402295 0.00932876 0.017520435 0.039983854 0.020765088
0.0241246 0.05365902 -0.036204167 -0.062156163 -0.06080869 0.028446078 -0.053079084 -0.040708907
-0.04488027 0.018687941 0.019488864 0.004982963 -0.010769188 0.022175997 0.046991497 0.031784452
0.020032786 -0.009083711 0.00348562 0.020066902 0.039382823 -0.04983513 0.0029483214 -0.00057677925
-0.025430962 -0.004686743 0.050444573 -0.0020451918 0.0047279 -0.008067556 -0.007537037 -0.061157033
0.03406834 0.0016963184 -0.019157551 0.037912607 -0.054454774 -0.030430041 0.018396437 -0.045036413
-0.030321985 -0.05900407 0.05949662 0.057173647 0.0020529628 0.015553512 0.025490567 0.026430674
-0.053665854 -0.03407958 0.03958071 0.012351483 -0.0046745613 0.06022705 -0.026456758 -0.0585984
0.029200561 0.051603362 0.0068157315 0.05277294 0.00029586256 0.031580865 0.058366254 -0.0060236603
0.050618507 -0.036321044 0.010389909 0.059292838 0.014000632 -0.028034404 -0.058026217 -0.055077806
-0.02590555 0.026439726 0.036789775 -0.013945632 0.035446078 0.01535321 -0.012210049 0.049952187
-0.0112551525 0.020566948 0.0068927854 -0.042330228 0.04724805 0.031939484 0.026516832 -0.045592107
0.049523346 -0.035926506 -0.04576446 -0.02164939 -0.0035885572 0.035598062 0.00997366 0.050616294
0.015388653 0.0040577278 -0.046472415 0.053309433 -0.0286932 -0.053684995 0.036939934 -0.0471552
0.015588202 -0.051210366 -0.053953387 0.028242067 0.036522508 -0.014506735 -0.017797291 0.02524335
-0.043894842 -0.011453666 0.0113419965 0.039979316 -0.023015216 -0.001346156 -0.03380306 -0.020820215
00000000: d4d5 923c 287f 553c 98c4 b83c 0c26 b1bc
00000010: 709d a4bb 381b 97bc 3cc3 febc 4ae5 72bd
00000020: 30dd 53bd f41b c43c fc8e c3bc 50af 233d
00000030: 90a3 843b 40b0 2bbb 1850 643c b0b8 62bc
00000040: a06c 6fbd 0463 0d3d 3ea8 203d 1c50 febc
00000050: 48a5 eebc 18ce 0fbc 3eee 71bd 1eb1 0e3d
00000060: 182e 4b3c de4f 68bd 605b 113b d235 763d
00000070: 1456 993c a02e b83b 5cda fabc 809d 0abd
00000080: 622b 0bbd 2069 273c e01e f1bc 8450 55bd
00000090: a026 183d 600c 1b3b f850 2ebc fe21 233d
000000a0: 3056 23bc 788d d13c e0eb 7abb b8ad 42bd
000000b0: 80af 1fba 581f 3e3d 00d9 ae3a 00a6 c2bc
000000c0: 302b c4bc c0ef fd3b 6038 71bb e4e6 19bd
000000d0: f0c6 723c 9c4d 02bd cc3f c1bc d67e 283d
000000e0: 3eb3 54bd c0b8 77bb 340d 83bc 00b8 a13c
000000f0: 3c1e 18bd 6c94 1ebd 20b1 313d 92e1 27bd
00000100: 086d 043d e04a 28bd 2246 233d a042 b5bc
00000110: 28f3 dfbc 3ccc 6fbd 5ccc 503d c444 f0bc
00000120: 2402 5bbd 4079 b4bc 3c5c d2bc a046 febb
00000130: 322b 0cbd 28a2 5a3d c862 03bd 76e9 363d
00000140: 4cd5 d1bc c6b0 003d ee9b 30bd 689d 02bc
00000150: 6828 143d 080e 86bc c050 2c3b 3a4a 4f3d
00000160: 90e2 d8bc 949f 6dbd e655 533d 805b 17bd
00000170: 000a 0a3a 409f 08bb ac74 923c 189a 553c
00000180: 9865 a43c eebd 5c3d c87d dfbc 3edb 17bd
00000190: fec7 05bd e074 0ebc f0eb 29bc a2c2 3cbd
000001a0: 8693 753d 40fa 3dbb 202a 57bd 54c3 623d
000001b0: 8c0d 9c3c 000d 633a f4d1 d7bc 0046 6c39
000001c0: 5ca9 1abd f049 89bb 9ed6 013d 9855 043c
000001d0: 50b1 dfbc 9c67 9b3c 644c 743d ac0a 88bc
000001e0: 804f 693a 04ec c13c e07b 47bd d4e5 5bbd
000001f0: 541d edbc a625 20bd a8d3 2abc 2cb7 a3bc
00000200: 1844 6c3d 4876 2d3c 7ab8 16bd 7495 29bd
00000210: a8d7 183c 0487 8f3c 1cc6 233d 8c1b aa3c
00000220: f4a0 c53c 90c9 5b3d d24a 14bd 7697 7ebd
00000230: 8812 79bd c007 e93c 7469 59bd 62be 26bd
00000240: 60d4 37bd 7417 993c 1ca7 9f3c 2048 a33b
00000250: 4071 30bc 70aa b53c 287a 403d 6a30 023d
00000260: cc1b a43c d8d3 14bc 006f 643b 5863 a43c
00000270: e24f 213d ec1f 4cbd a038 413b 0033 17ba
00000280: 9854 d0bc 4093 99bb f89e 4e3d a008 06bb
00000290: 80ec 9a3b c82d 04bc 40f9 f6bb cc7f 7abd
000002a0: 3e8b 0b3d 0057 de3a 4cf0 9cbc 404a 1b3d
000002b0: f80b 5fbd 6c48 f9bc 20b4 963c 1a78 38bd
000002c0: d065 f8bc 40ae 71bd bab2 733d ea2e 6a3d
000002d0: 008b 063b 28d4 7e3c 98d1 d03c 2485 d83c
000002e0: bad0 5bbd 0897 0bbd 621f 223d e05d 4a3c
000002f0: 102d 99bb a4b0 763d d8bb d8bc e004 70bd
00000300: 0436 ef3c 0c5e 533d 8056 df3b 7028 583d
00000310: 001e 9b39 f05a 013d 7411 6f3d 2062 c5bb
00000320: 5a55 4f3d 60c5 14bd 703a 2a3c 0cdd 723d
00000330: e862 653c 68a8 e5bc e6ac 6dbd 4499 61bd
00000340: e037 d4bc 2098 d83c e0b0 163d 387c 64bc
00000350: e82f 113d 088c 7b3c a80c 48bc aa9a 4c3d
00000360: 8867 38bc 047c a83c e0dc e13b 7662 2dbd
00000370: 2c87 413d fad2 023d d439 d93c cabe 3abd
00000380: fed8 4a3d ac27 13bd 8473 3bbd 105a b1bc
00000390: 002e 6bbb 46cf 113d 9068 233c 0853 4f3d
000003a0: b020 7c3c b0f6 843b dc59 3ebd fe5a 5a3d
000003b0: 000e ebbc cce4 5bbd 544e 173d d025 41bd
000003c0: a865 7f3c f6c1 51bd 3afe 5cbd e85b e73c
000003d0: a098 153d a8ad 6dbc a0cb 91bc 24cb ce3c
000003e0: 14cb 33bd 28a8 3bbc c8d3 393c 5ac1 233d
000003f0: 688a bcbc 8071 b0ba 1475 0abd 288f aabc
