models/2017-10-20/lstm_model.onnx (onnx, 468420 bytes, 6 tensors)

fc.weight f4 [7, 256]
000000 ae 09 d5 3c 97 7b ab 3d 35 f3 37 3d 24 f3 18 bc
       0.026005592 0.08373182 0.044909675 -0.009335313
000010 13 4e 3a 3d 98 97 8b 3d ed 15 e8 bd 65 39 0f bd
       0.045484614 0.068160236 -0.11332307 -0.034966845
000020 82 71 55 3d 0e c6 11 bd 96 6a 7c 3d e8 e0 25 bd
       0.052110203 -0.03558927 0.061625086 -0.04049769
000030 d9 d0 54 3d 80 09 59 3c 1f fe b1 3d 3b d9 82 3d
       0.051956985 0.013246894 0.08691048 0.0638909
000040 a8 47 87 bd 14 81 c8 bc 31 17 8c bd 8e 5a 4f bd
       -0.06605464 -0.024475612 -0.06840361 -0.05062347
000050 39 2f c4 3d c1 50 7e bd c3 f3 d1 3c a3 4a e0 ba
       0.095793195 -0.06208873 0.02562893 -0.0017112087
000060 30 47 d6 bc 05 9d 0c 3c 7c 46 d1 bd bc d4 3c 3d
       -0.026156992 0.008582358 -0.10218522 0.046101317
000070 4e 8c 4d bd 5e 8e 2a bd 86 ee 55 3c d7 53 d9 3d
       -0.050182633 -0.04163968 0.013057357 0.10611694
000080 30 a7 81 3b ff 70 95 3c 75 9e 87 3d 4d 2f 95 3d
       0.003956698 0.018242357 0.0662202 0.072844125
000090 b9 f7 2d bc 65 08 ef bc 98 87 8f 3d 81 44 90 3d
       -0.010618144 -0.029178808 0.07008284 0.07044316
0000a0 17 0a e3 3a 0c 03 a9 3c 02 94 dd 3c e9 7f 3a bd
       0.0017321733 0.020631336 0.027048115 -0.04553214
0000b0 9a ff c6 3d 9d 0f d7 bc 91 b7 a3 bd aa 4d 05 3d
       0.09716721 -0.026252562 -0.07993997 0.03254477
0000c0 16 d8 10 bd 4f 23 25 3d 91 09 b7 bb b7 b2 d7 bd
       -0.035362326 0.040316876 -0.005585857 -0.10532134
0000d0 4c 8b 17 38 40 f9 76 3d ea 13 5c 3d cf 15 43 3d
       3.6130936e-05 0.060296297 0.05372993 0.04762822
0000e0 02 b2 60 3d 79 67 b8 bc bb 23 e5 bd 81 82 be bd
       0.05485726 -0.022510277 -0.11188456 -0.093022354
0000f0 8a 51 4b 3d 93 d0 22 3c c9 82 24 bd 61 e6 5d bc
       0.04963831 0.009937423 -0.04016379 -0.013543696
000100 9b 82 9f 3d 93 c8 c9 3c c2 29 80 3c 57 62 8d bd
       0.07788583 0.024631774 0.015644912 -0.069035225
000110 8f da 98 3d 6b e2 1a bd 65 b0 02 bd be 40 51 3c
       0.07463562 -0.037813585 -0.031906504 0.012771783
000120 7e 3f 82 bc 9e 1c 68 3d 28 11 67 3d 46 12 08 bd
       -0.015899416 0.056667916 0.056412846 -0.033220552
000130 5b b3 b2 3d 2a cc 39 bd 84 cd 6a 3c 3c fc 8f bd
       0.087256156 -0.04536072 0.014331225 -0.07030532
000140 91 8a 84 bc 4b 00 c4 bc 77 41 e3 3c d3 b9 ee 3b
       -0.016179355 -0.023925921 0.027741177 0.0072853356
000150 83 0d 6f 3c 8f 72 01 bd 31 f6 c6 bd fc f0 9b 3d
       0.014590624 -0.031603392 -0.09714926 0.076143235
000160 57 8c 1c bc ff 83 15 3d 49 fd 3c bd 7e 50 14 3c
       -0.009554944 0.036502834 -0.04613999 0.009052394
000170 28 32 c6 b8 f5 58 27 3d ee 4f e8 3c 54 38 5d bd
       -9.450718e-05 0.04085632 0.028358426 -0.054008797
000180 b5 03 6a 3c 09 44 02 3d 9d 6d 95 3d b8 29 63 3c
       0.01428311 0.031803165 0.07296298 0.013864927
000190 f8 c9 88 3d da 6c c0 bc e3 47 6c 3d 20 d8 3d bd
       0.066791475 -0.023489404 0.057685744 -0.04634869
0001a0 63 96 8e bb 23 c8 0a 3d c7 7b cd bc ba 89 07 bd
       -0.0043514236 0.03388227 -0.025083436 -0.03309033
0001b0 ea 88 e7 bc a7 ee 5a bb da 90 b4 3d a0 2c b8 3b
       -0.028263528 -0.0033406408 0.08816691 0.005620554
0001c0 26 59 c2 bd 2f c2 00 bd 6d d9 2e bc 7f db 71 bc
       -0.0948966 -0.031435188 -0.0106719555 -0.014761805
0001d0 bd 73 35 bd 8d c3 c8 bc 51 bb 43 3d 65 3f f8 3c
       -0.04429983 -0.024507308 0.04778606 0.030303666
0001e0 2c bf 67 bd 11 2a 97 bd 32 75 c5 bd 70 98 77 bd
       -0.0565788 -0.073810704 -0.09641494 -0.06044811
0001f0 a1 cb 8c 3d 66 5c 7e 3d fb b2 21 3b f9 8c 34 bd
       0.06874777 0.062099837 0.002467333 -0.044079755
000200 66 bd dc 3c 74 c5 b1 38 f8 bf 4c bd 4a 7a eb 3c
       0.026945781 8.476796e-05 -0.049987763 0.028744835
000210 9e cd fe 3c cf e8 5b 3d a0 2f 99 bd a4 a2 54 3c
       0.031103905 0.05368882 -0.07479787 0.01297823
000220 77 a0 83 bc c3 f6 03 3b d0 ce 28 bd 1c d0 41 bd
       -0.016067727 0.0020136095 -0.041212857 -0.04731761
000230 28 40 ed bc 15 60 27 bb 75 ec 88 3c aa 7f 31 bc
       -0.028961256 -0.0025539447 0.016714314 -0.01083366
000240 bb 10 e6 bc c3 ef be bd f9 81 88 3d 53 73 c6 3b
       -0.02808415 -0.09323075 0.06665415 0.006056228
000250 73 62 05 3d 05 0f fb 3c ea ae 31 bd 1d 41 94 bd
       0.03256459 0.03064681 -0.0433797 -0.07238982
000260 f0 c0 30 3d 5c e7 02 3e 6c f0 c8 3c e5 6c d8 3d
       0.04315275 0.12783569 0.024528705 0.10567645
000270 2d e2 04 bd 8c 3e 36 3d 20 85 8c 3d 6c b1 92 3c
       -0.03244226 0.044493243 0.06861329 0.017906867
000280 3e bd 23 bd d6 79 27 3d 52 06 17 bd 31 2d e5 3c
       -0.039975397 0.040887676 -0.036871262 0.02797565
000290 77 fa 98 bc de 7f 1e bd 03 cb 94 bc 3f d2 c1 bb
       -0.018674118 -0.038696162 -0.01816321 -0.005914956
0002a0 a4 83 ad bc b9 14 93 bd c7 38 be 3d 8b 39 cd bb
       -0.021180935 -0.07181687 0.09288173 -0.006262963
0002b0 5f a2 e3 3c c7 12 32 bc 49 8a 4a 3d a9 6b 50 bd
       0.027787386 -0.010868735 0.049448285 -0.050883923
0002c0 51 00 01 3d f0 c2 8b 3d f7 55 e3 3c b4 84 b6 3b
       0.031494442 0.06824291 0.027750952 0.0055700187
0002d0 08 ed b5 3d 62 e5 ff 3c 71 22 46 3c fc 6c 90 3d
       0.08883101 0.031237308 0.012093172 0.07052037
0002e0 de 96 96 3d a1 cb b8 3d 48 0b 3b 3d 78 5f 83 3d
       0.073529944 0.09023214 0.045665056 0.064146936
0002f0 67 27 a0 bd 96 86 38 3c 32 69 0b bd c2 02 f3 bc
       -0.078200154 0.011262557 -0.03403587 -0.029664401
000300 d5 dc a1 bc dc c6 1c bc 04 98 1a 3c f1 db 74 3c
       -0.019758621 -0.009568896 0.009435657 0.014945016
000310 71 43 9a bc 29 77 c8 bb 80 94 99 3c f7 18 4c bd
       -0.018830987 -0.0061177206 0.018747568 -0.049828496
000320 e9 98 b4 3b 19 c0 95 bc 5e d6 f4 bc 3f 2d 88 bc
       0.0055113924 -0.018280076 -0.029887374 -0.016623138
000330 ca 2d c0 3d 99 27 9f 3d c7 90 96 bd 2f f7 a7 bc
       0.093837336 0.077712245 -0.07351833 -0.020503609
000340 60 99 cb bd 25 aa 20 3d 59 6e b3 bd 62 01 e4 3c
       -0.09941363 0.039224762 -0.087612815 0.02783269
000350 d5 c4 88 3d 2c ad 25 bd 31 9c 88 3d 15 d9 b1 3b
       0.06678168 -0.040448353 0.06670416 0.0054274895
000360 c0 65 4c bd 32 ef 37 3d b4 ad fe 3b 93 cb 04 bb
       -0.049901724 0.04490585 0.007772172 -0.0020262941
000370 19 78 66 3c 15 48 53 3d 62 54 95 bc 2e 42 cd bc
       0.014066719 0.051582415 -0.018228713 -0.025055971
000380 9b 92 e2 bd fe 3e 41 3c 27 ef bd 3c 4b aa 5b bd
       -0.11063119 0.011794804 0.023185326 -0.0536292
000390 10 c6 41 bc 93 e4 15 bd 1f 68 85 3d 1c 85 8c 3c
       -0.011827007 -0.03659494 0.06514 0.017153315
0003a0 6f e7 7a 3c 44 45 b0 3c 40 56 d2 bc af 2e de 3c
       0.015313967 0.021517403 -0.025675893 0.02712187
0003b0 0b 51 9f b9 0b 00 a5 3d 5d 6a b5 3d 6d df b4 3d
       -0.00030387225 0.08056649 0.08858178 0.088316776
0003c0 b7 ae f3 3c e1 93 09 3d d8 a9 27 bd 1f f4 4a 3d
       0.029746396 0.033588294 -0.04093346 0.04954922
0003d0 7b 78 28 3d 28 7a c9 3d 4e bd 12 3d 7e e0 20 3d
       0.041130524 0.098377526 0.035825066 0.039276592
0003e0 d5 32 8e 3c 32 71 87 bd a3 ec 32 3d 65 be be 3d
       0.017358223 -0.06613387 0.043682706 0.093136586
0003f0 4c f2 bf bb c0 62 bc bd 6a 5f b6 bd eb de 8b bc
       -0.0058577415 -0.091985226 -0.089049175 -0.017074069

fc.bias f4 [7]
000000 d1 1c 8c 3d a5 6a 89 3d 57 5e d1 3d 5a 47 a7 3d
       0.06841434 0.06709794 0.10223072 0.08167906
000010 e4 aa aa 3d be 4c ca 3d 79 99 d0 3d
       0.08333376 0.09877919 0.101855226

onnx::GRU_197 f4 [2, 768]
000000 14 81 0d be d9 86 24 be 4c a2 03 be 2c ea 0a be
       -0.1381877 -0.16067065 -0.1285488 -0.13565892
000010 42 ec c4 bd e0 41 16 be 95 d2 87 bd d8 26 52 be
       -0.09615375 -0.14673567 -0.06631962 -0.2052263
000020 5d 5e eb bd 37 2e da bd 8a 4f 62 be 30 4d da bd
       -0.11492608 -0.10653346 -0.22100654 -0.106592536
000030 39 da 28 be 07 82 bf bd de eb f6 bd 31 14 28 be
       -0.16489495 -0.093509726 -0.12056707 -0.16413952
000040 9b 5b a4 bd d7 35 6e be 71 d2 78 be 82 6a 4b be
       -0.08025285 -0.23262726 -0.24299027 -0.19864848
000050 18 5c 5b be dd 4d bb bd 57 1e 2c be 48 93 f3 bd
       -0.2142185 -0.091457106 -0.16808449 -0.11893326
000060 a3 70 43 be 59 06 c4 bd 43 20 01 be 79 f1 6f be
       -0.19085936 -0.09571523 -0.12609963 -0.23431958
000070 3f 75 60 be 0a 69 4d be 95 3c e5 bd 28 8a a8 bd
       -0.21919726 -0.200596 -0.11193196 -0.08229476
000080 27 a0 60 be 86 ef f3 bd f9 59 78 be 34 ff 3b be
       -0.21936093 -0.1191092 -0.24253072 -0.18359071
000090 ae da 98 bd 90 e7 4a be 61 bd b8 bd af 8e 3c be
       -0.07463585 -0.19814897 -0.09020496 -0.18413804
0000a0 2e 38 ad bd 2a aa f3 bd 72 d4 fb bd db e9 73 be
       -0.08457981 -0.118976906 -0.1229638 -0.23819678
0000b0 13 83 0c be 04 53 75 be 28 48 3a be 24 83 f5 bd
       -0.13721876 -0.23957449 -0.18191588 -0.11987904
0000c0 7e e5 09 be 1d 4b 58 be 63 ab 86 bd e8 40 32 be
       -0.1346645 -0.21122403 -0.06575658 -0.17407572
0000d0 ce 37 a2 bd da 2e 60 be 60 10 16 be 8a 8b 46 be
       -0.079208 -0.21892872 -0.14654684 -0.19389167
0000e0 36 e4 46 be 20 28 41 be bb 79 37 be 22 71 a3 bd
       -0.19422993 -0.18862963 -0.1791753 -0.07980563
0000f0 50 87 0d be 7a 6d 3b be 8d 10 47 be f4 d6 96 bd
       -0.13821149 -0.1830348 -0.19439907 -0.07365218
000100 d3 dd fd bd 7c 75 73 be 10 21 30 be c5 d0 38 be
       -0.12395825 -0.23775285 -0.17200112 -0.1804839
000110 e3 32 52 be 4a 70 1d be de 51 21 be 22 9d 00 be
       -0.20527224 -0.15374866 -0.15753886 -0.12559941
000120 2a 48 9c bd c8 91 42 be 26 5f ee bd 84 33 6e be
       -0.07630952 -0.19000924 -0.11639242 -0.23261839
000130 b1 08 40 be 72 17 bc bd 2f b5 00 be dd e9 c7 bd
       -0.18753316 -0.09184159 -0.12569116 -0.09761403
000140 73 c7 16 be 69 05 a2 bd db bb 48 be 03 97 5c be
       -0.14724521 -0.07911188 -0.19602911 -0.21541981
000150 a5 d2 98 bd 44 9c 53 be 6a 3d 36 be 24 f2 fc bd
       -0.07462052 -0.2066508 -0.17796865 -0.12350872
000160 60 03 3d be e0 dd 15 be a2 6f d8 bd a3 37 f3 bd
       -0.18458319 -0.1463542 -0.10568167 -0.11875846
000170 d5 e9 24 be 41 09 c7 bd 9f da 0e be b5 a4 b0 bd
       -0.16104825 -0.09718562 -0.13950585 -0.086251654
000180 13 12 11 be d8 2a 22 be 85 de ba bd 7a c4 4d be
       -0.14167051 -0.15836656 -0.091244735 -0.20094481
000190 76 ae 63 be 6c a7 fc bd f2 0d 80 be fc 65 c1 bd
       -0.2223452 -0.12336621 -0.2501064 -0.0944328
0001a0 c2 fe 1e be 8c 3b e9 bd 2d 3e 4c be c1 24 b9 bd
       -0.1552687 -0.11388311 -0.19945593 -0.090402134
0001b0 5b bc 3f be 0b c9 10 be ed c5 1a be a6 50 9d bd
       -0.18724196 -0.14139192 -0.15114565 -0.07681398
0001c0 06 be 51 be 87 f1 49 be 17 df 68 be 16 68 81 bd
       -0.20482644 -0.19721042 -0.22741352 -0.06318681
0001d0 02 56 2d be 1b e9 2b be 2c 79 f4 bd 61 e3 2a be
       -0.1692734 -0.16788141 -0.11937174 -0.166883
0001e0 b5 77 53 be bf 38 5d be 84 03 06 be 55 17 78 be
       -0.20651133 -0.21603678 -0.13087279 -0.2422765
0001f0 30 46 1b be 82 78 ca bd 21 15 2b be 1f 59 93 bd
       -0.15163493 -0.09886266 -0.16707279 -0.07194733
000200 e1 97 a5 3d 6f 44 42 3e 50 23 4c 3e f5 69 23 3e
       0.08085609 0.18971418 0.19935346 0.15958388
000210 82 61 1e 3e 73 0a f1 3d f5 47 29 3d ff 70 8d 3d
       0.15466884 0.11769571 0.04132839 0.06906318
000220 94 9c 0d 3e ac af 3d 3d cb 99 ee bd bb 00 43 3e
       0.13829261 0.046310112 -0.116504274 0.19043247
000230 37 b2 1d 3e 04 23 45 3d 6b 40 ec 3d ca 14 34 3e
       0.15400015 0.048129097 0.11535724 0.17586055
000240 f5 84 25 3d 65 eb 39 3e f8 da 34 bd 22 d7 a5 3d
       0.04041 0.18156202 -0.044154137 0.08097674
000250 6c a6 a3 3d 3f 2f a2 3d e0 76 83 3d f0 73 e4 3d
       0.07990727 0.07919168 0.06419158 0.11154926
000260 c2 9c 15 3e 13 b9 e4 bc 72 4c 33 3e 9a fd 7d 3b
       0.1461058 -0.027920282 0.1750963 0.0038755895
000270 91 ee 58 3e 47 e2 32 3e 8c cf d4 3d 1f 35 95 3d
       0.21184756 0.1746913 0.10391149 0.07285523
000280 b9 80 16 3e e0 dc 3b 3e 31 dd 6f 3e 3f 9f 62 3e
       0.14697541 0.18345976 0.23424222 0.2213106
000290 ad 3a 58 3e 3c 94 6f 3d 13 cb 53 3e ee e8 1c 3e
       0.21116133 0.058490977 0.20682935 0.1532323
0002a0 9f ef b1 3d 55 55 22 bc 46 59 df 3d 40 67 94 3d
       0.08688282 -0.00990804 0.109056994 0.07246256
0002b0 bc a0 18 3e 62 4b 82 3e 5f 91 9d 3b 80 e4 71 3d
       0.14905065 0.25448138 0.0048085894 0.059055805
0002c0 91 40 3e bd f8 d0 9a 3d 41 3e 70 bd 87 73 32 3e
       -0.046448294 0.07559389 -0.05865312 0.17426883
0002d0 78 e9 dd 3c 60 60 c2 bb b2 63 e0 3d 94 94 f4 3d
       0.027088866 -0.005931899 0.10956515 0.119424015
0002e0 bc e5 2b 3e b7 39 9a bd da 77 bf 3d 76 5b e0 3d
       0.16786855 -0.075305395 0.09349032 0.10954945
0002f0 f9 61 e1 3d 45 c3 51 3d 3b d7 38 3e 66 ad 8c bd
       0.11005015 0.051211614 0.18050854 -0.068690106
000300 a5 96 4f 3e 71 ef d6 3d f1 2d 48 3e 30 fb 3c 3e
       0.2027231 0.104948886 0.19548775 0.18455195
000310 07 f9 21 3e 7d 51 6b 3c 37 12 2f 3e bd fe 3b bd
       0.15817653 0.01436269 0.17096792 -0.045897234
000320 0a 6c 30 3e fc 85 41 3d 6f a4 86 3d fd e4 53 3e
       0.17228714 0.047246918 0.06574332 0.20692821
000330 ac 8e 02 3e 26 b2 01 3e 93 17 58 3e 5f c2 82 bd
       0.12749738 0.12665614 0.21102743 -0.063847296
000340 cc c4 79 3d 9f 2a 88 3d aa e7 a8 3d 5f 03 3a 3e
       0.060978696 0.06648754 0.082473114 0.18165348
000350 a5 ea cc 3d 7d f5 c2 3d 09 79 1f 3e 22 bc 8f 3d
       0.100056924 0.095194794 0.15573515 0.07018305
000360 a6 b2 c7 3d 28 ba 3d 3e b0 64 3b 3d 23 87 45 3e
       0.09750871 0.18528044 0.04575032 0.19289832
000370 1a a8 d8 3d 11 0e ba 3d cd f0 84 3d c7 23 85 3d
       0.10578938 0.09084714 0.064912416 0.065009646
000380 c6 d0 17 3e 0d 3d 2c 3e 3d 7e 69 3e f1 92 60 3e
       0.14825734 0.16820164 0.22802062 0.21931054
000390 1c 42 52 3e c3 23 07 3e a2 6a 2d 3d f1 8c 12 3e
       0.20533031 0.13197236 0.04233802 0.14311577
0003a0 f1 c3 14 3d 50 9b f2 3d c9 ff ee 3d 87 69 5d 3e
       0.036319677 0.1184603 0.11669881 0.21622287
0003b0 cc 24 ae 3d 6c 5d 53 3e ce 42 a0 3d e9 f5 34 3e
       0.08503112 0.20641106 0.07825242 0.17671932
0003c0 5c 06 8c bc ce 3b 84 3d b0 b9 61 3d 92 2c 44 3e
       -0.017092876 0.06456719 0.055108726 0.19157627
0003d0 3b 94 f3 bc a5 61 a2 3d 65 52 31 3e 12 f3 8d 3d
       -0.029733768 0.079287805 0.17316587 0.069311276
0003e0 6d 63 73 bb 34 ca d3 3d d9 aa a9 3d 8f 12 e6 bc
       -0.003713812 0.103413016 0.0828454 -0.028085021
0003f0 4a 6e e9 3d 39 36 82 3d 82 78 96 bd a2 f5 23 3e
       0.11397989 0.063579984 -0.07347204 0.1601167

onnx::GRU_198 f4 [2, 384, 19]
000000 40 a8 ab bd ff 36 dc bd f5 ab 7b be 7a 76 bd bd
       -0.083817005 -0.10752677 -0.24577315 -0.09251113
000010 82 8e 19 be c1 77 21 be c7 22 94 bd 54 b1 1a be
       -0.14995769 -0.15768339 -0.07233196 -0.15106708
000020 8a fa 28 be c6 2b 24 be 8f e4 f0 bd fc 6e 8f be
       -0.16501823 -0.16032323 -0.11762344 -0.28014362
000030 5a 21 06 be 3a bb 78 be b4 a7 23 be 85 f7 81 bd
       -0.1309866 -0.24290171 -0.15981942 -0.06346039
000040 b7 38 a4 bd 3d ee 0a bd d6 67 25 be ae 1e a4 3d
       -0.0801863 -0.033918608 -0.16152892 0.08013664
000050 95 42 d8 bd 93 57 2f be 67 54 50 be a6 57 49 be
       -0.105595745 -0.1712325 -0.20344697 -0.19662341
000060 ee d7 c4 bd cd 4b 9f bd 78 00 10 bd 7c c1 4b be
       -0.09611498 -0.0777813 -0.035156697 -0.19898027
000070 55 29 d1 bd c7 73 13 be 3e c2 f7 bd 19 aa 8e bd
       -0.102129616 -0.14399634 -0.12097596 -0.06966037
000080 e2 f2 30 be c1 a9 46 be 26 29 ce bc bc fa c9 bd
       -0.17280152 -0.19400693 -0.025166105 -0.09862277
000090 4a 94 3c 3d c8 e6 68 be ba 81 21 3d 74 bc 65 be
       0.046039857 -0.22744286 0.039430358 -0.2243517
0000a0 f2 72 63 be 57 4f d2 bd 42 77 50 be e8 9a 7a be
       -0.22211817 -0.10269039 -0.20357993 -0.24473155
0000b0 47 ef 7b bd 9e 7c 37 3b 8d e0 ef bd 30 1e 71 be
       -0.06150749 0.0027997862 -0.117127515 -0.23546672
0000c0 98 00 15 be 5d 27 58 be c7 88 a6 bd 5d ca 57 be
       -0.14551008 -0.21108766 -0.08131557 -0.21073289
0000d0 07 09 39 be b5 99 0f be 0a f0 41 bd e8 b5 c0 3d
       -0.1806985 -0.14023478 -0.04734806 0.09409696
0000e0 19 ca 8f bd ef c0 69 3d 59 35 46 be 3a 49 ea bd
       -0.07020969 0.05706876 -0.19356288 -0.11439748
0000f0 3f f5 05 be e8 2d 37 be 85 aa 57 be 90 6b 1d be
       -0.13081835 -0.17888606 -0.21061142 -0.15373063
000100 fa bc eb bc a6 dc d3 bd 62 e7 e3 bd 05 87 0a be
       -0.028776634 -0.1034482 -0.11128117 -0.13528068
000110 80 37 01 be 70 aa 40 be 54 de 74 be 08 0c 4e be
       -0.12618828 -0.18815017 -0.23912936 -0.20121777
000120 e2 8b 38 be 70 f4 b3 bd 21 89 71 bd f1 7d 17 be
       -0.18022111 -0.08786857 -0.058968667 -0.14794137
000130 31 9d 6a 3d 66 a0 31 be b5 b8 82 be 26 a2 6a bd
       0.057278816 -0.17346343 -0.25531545 -0.057283543
000140 4f 9c 29 be 6a be 05 be 9f ab 86 bd 2c 42 de bd
       -0.16563533 -0.13060918 -0.06575703 -0.10852465
000150 e7 80 08 be 37 8d fb bd f3 40 04 bd 50 02 53 be
       -0.13330422 -0.12282794 -0.032288503 -0.20606351
000160 89 14 9d bd a1 8c 85 be 01 27 5e be bf 5e d6 bb
       -0.076699324 -0.26083854 -0.21694566 -0.0065420563
000170 2f aa 9d bc 1b c0 fa 3d 6d 37 fd bd b2 2e 85 bb
       -0.019246189 0.122436725 -0.12364087 -0.0040644044
000180 8c 7f b1 bd 74 61 fe bd c2 50 1a be a3 fd 54 be
       -0.08666906 -0.124209315 -0.15069869 -0.2079988
000190 95 24 43 be e1 c7 46 be 08 93 b0 bc 57 e1 12 be
       -0.19056924 -0.19412185 -0.021554485 -0.14343773
0001a0 f7 08 28 be a4 cf b6 bd e7 5b 30 be 92 57 5d be
       -0.1640967 -0.08926323 -0.17222558 -0.21615437
0001b0 61 e7 00 be 3d 7b fa bd ee 2e 2a be 6c 45 ac 3c
       -0.12588264 -0.12230537 -0.16619465 0.021029197
0001c0 d4 62 03 3d e5 38 2e be 9a 80 1b be db ae 29 be
       0.03207667 -0.17013891 -0.15185776 -0.16570608
0001d0 65 7a 71 be 8b 89 ec bd 92 bb e0 bd 2e 87 31 be
       -0.23581846 -0.11549672 -0.10973276 -0.17336723
0001e0 49 75 2d bd 76 9a 20 be 12 e4 ef bd 16 95 55 be
       -0.04234818 -0.15683922 -0.11713423 -0.20857653
0001f0 eb 03 27 be a4 4d e8 bd 95 7e d0 bd fb c8 13 be
       -0.16310088 -0.11342934 -0.101803936 -0.14432137
000200 72 42 40 be b0 fc 8e bd 9b ff 65 bd b5 87 ae bd
       -0.18775347 -0.0698179 -0.056151967 -0.08521978
000210 ed 6c 3b be ab 6f d8 bc cc 39 26 be 1c 74 d1 bd
       -0.1830327 -0.026420435 -0.16232985 -0.10227224
000220 e1 02 15 be 69 90 1a be ea 9b 2c be 35 29 ce bd
       -0.1455188 -0.1509415 -0.16856351 -0.10066453
000230 36 4b de bd e7 e2 8b bd 08 53 00 be d4 cf 5a be
       -0.10854189 -0.068303876 -0.12531674 -0.21368343
000240 f0 6a 3b be e8 94 6b be 77 51 7e be d2 06 19 be
       -0.18302512 -0.23006022 -0.24835764 -0.14944008
000250 e0 b4 d4 bd de b1 c2 bd 4f 58 c9 3c b9 fe 49 be
       -0.10386062 -0.09506582 0.024578242 -0.19726075
000260 5c 0d 8c bd 3f 47 35 be 54 7b 3e be 14 1c 28 be
       -0.068384856 -0.1770296 -0.18601733 -0.16416961
000270 2a 98 9c bd 03 f8 59 be 7a 54 46 be c2 b8 c6 bd
       -0.076462105 -0.21286015 -0.19368163 -0.097032085
000280 7a c2 a1 bd 53 e0 19 be cc ee c7 bd 59 82 2d be
       -0.078984216 -0.15026979 -0.09762344 -0.16944255
000290 db cd a4 bd 52 4a 06 be 59 76 d4 bd db 22 09 be
       -0.08047076 -0.13114288 -0.103741355 -0.13392203
0002a0 c4 33 1e be f8 81 b8 bd ce 00 f6 bd 81 18 1c 3e
       -0.15449435 -0.090091646 -0.12011872 0.15243722
0002b0 d7 9d 4a be f5 f7 04 be ac 86 0f be 5e f6 18 be
       -0.19786774 -0.12985213 -0.14016217 -0.14937732
0002c0 9b 5b 39 be 0d 16 22 be a2 40 bd 3c 9e 0f 05 be
       -0.18101351 -0.15828724 0.023102108 -0.12994239
0002d0 6c 09 03 be 8d 69 56 be 8d 7d 7e be 7d 45 15 be
       -0.12796563 -0.20938702 -0.24852581 -0.14577289
0002e0 a9 3d 08 be 32 7c 06 be f5 75 a0 bd 67 b3 cc bd
       -0.13304771 -0.13133314 -0.078349985 -0.09995156
0002f0 fb 23 6e 3d ea 70 50 be 8c 12 da 3d eb a6 13 be
       0.058139782 -0.20355573 0.10648069 -0.14419143
000300 e0 b1 86 be 50 11 a6 bd d6 b9 58 be 85 09 22 be
       -0.26307583 -0.08108771 -0.21164641 -0.15823944
000310 07 2a 3a bd 41 ef ec bc f7 a1 10 bd 66 2f 62 be
       -0.045450237 -0.028922679 -0.03531071 -0.22088394
000320 3d 07 9e bd 8d 11 f9 bd ad 78 35 be e1 c2 76 be
       -0.07716224 -0.12161551 -0.17721815 -0.24097778
000330 8b 32 cb bd 0a 74 fe bb 9e d7 d4 3d b2 ec 75 3e
       -0.0992175 -0.007765298 0.10392688 0.24016073
000340 4e 4a 27 be b1 a3 82 3d 10 41 b5 bd 98 0a 27 be
       -0.16336939 0.06378878 -0.088503 -0.16312635
000350 d4 61 42 be 82 d8 d8 bd f3 c5 77 be 62 6e 34 be
       -0.18982631 -0.105881706 -0.24196605 -0.17620233
000360 d8 b2 58 3c 52 a3 17 be ad d9 5c be 7f 6e db bd
       0.013226233 -0.14808396 -0.21567412 -0.10714435
000370 b3 4b 34 be 8e 07 49 be b9 d0 83 be 35 13 7b be
       -0.17607002 -0.19631788 -0.2574518 -0.24519046
000380 8f 41 55 bd 5b be 6d bd 15 87 64 3d 46 be 18 be
       -0.052064475 -0.058042865 0.055792887 -0.14916334
000390 82 78 04 3e 01 3f 2e be 5b 8a 85 be 4a e8 33 be
       0.12936595 -0.17016222 -0.2608212 -0.1756908
0003a0 66 ac 06 be c4 d1 7f be ef e2 39 be 6f 29 d3 3d
       -0.13151702 -0.24982363 -0.18152975 0.10310637
0003b0 92 62 b1 bd 08 14 5f be bb b0 ca bd 61 63 02 be
       -0.08661379 -0.21784985 -0.0989699 -0.12733223
0003c0 89 82 4b be 53 dc 71 be 11 ae 60 be 48 ea ca bc
       -0.19874014 -0.23619203 -0.21941401 -0.024769917
0003d0 32 d4 c4 3d 67 b8 bf 3d af c4 3f bd c1 5a 55 bd
       0.096107855 0.09361344 -0.04681843 -0.052088503
0003e0 7f d5 b1 bd db c2 84 be 7a 3c 30 be 60 01 0e be
       -0.08683299 -0.25929913 -0.1721057 -0.13867712
0003f0 13 e1 66 be 06 87 8f bd 49 8e 16 be 4b e4 19 be
       -0.22546797 -0.070081756 -0.14702715 -0.15028493

onnx::GRU_199 f4 [2, 384, 128]
000000 88 03 80 bd b8 50 01 3d 97 fd ab 3d e8 c2 1e bd
       -0.062506735 0.03157112 0.08397978 -0.038760096
000010 de 91 b3 bd 7e c8 6f bd ab 6f 09 3d 9c 94 7b 3d
       -0.08768056 -0.058540814 0.03355376 0.06142102
000020 f1 89 8d bc e1 9d 21 3b 48 8f 83 bd ef a3 25 bd
       -0.01727769 0.0024660754 -0.06423813 -0.040439542
000030 16 31 70 bd 29 b0 6b 3d 24 ac 8e bc b5 79 16 bd
       -0.058640562 0.057541046 -0.017416067 -0.036737163
000040 36 e5 1c bc d2 47 23 3d 5a b7 48 bd 95 2b 4d bc
       -0.0095761325 0.039863415 -0.049002983 -0.012522598
000050 1b 8d 19 3d b1 2f 2b bc 46 9d ea 3c 9b 3a 73 bd
       0.037488084 -0.010448382 0.028639447 -0.059382062
000060 a1 4d a4 bb 05 a3 2f bd 14 aa a6 3d 38 ce b4 bd
       -0.005014137 -0.042880077 0.081379086 -0.088283956
000070 00 26 36 bd 4b f1 0e bd 80 ce 1f 3d 02 8d 21 bd
       -0.044469833 -0.034898084 0.039015293 -0.039441116
000080 75 41 64 bd d8 e7 a8 bb 29 ef e7 bc a2 cd af 3d
       -0.055726487 -0.005154591 -0.028312283 0.08584143
000090 8a b2 5e 3d 37 95 8d 3d 93 aa 97 bd c9 c1 ba bc
       0.054369487 0.06913226 -0.07405581 -0.022797482
0000a0 85 bb 8a bd e1 58 a3 3d 62 b4 56 3d e5 c3 8d bd
       -0.06774048 0.07975937 0.05241812 -0.069221295
0000b0 fa cc 85 bd 94 e0 32 3d 8a b5 37 bd 7c 53 e7 3c
       -0.06533237 0.043671206 -0.044850864 0.02823805
0000c0 3d f7 9e bd 9f 79 90 bd 87 80 f6 bc 0a 9a 8d bd
       -0.07762001 -0.070544474 -0.030090583 -0.06914146
0000d0 03 9e 5e 3d ec 3e 8a bd f6 f1 ec bc 1e 1a b1 bd
       0.05434991 -0.06750283 -0.02892397 -0.086475596
0000e0 48 18 a6 3d f0 54 6c 3c aa f9 5b bd ef 9a 9e bc
       0.081101 0.014424548 -0.053704895 -0.019360987
0000f0 2f 18 d9 3c cd c8 f7 bc e1 78 90 3d d2 87 a6 bc
       0.02650079 -0.030247116 0.07054306 -0.020328436
000100 e5 6f a9 3d 90 92 45 3d f5 70 7f 3d 26 ad 18 3b
       0.08273295 0.048235476 0.062363584 0.0023296564
000110 16 cb d0 bc 58 07 1a 3d 99 74 63 3d f2 10 46 3c
       -0.025487464 0.03760466 0.055531118 0.012089001
000120 ff 80 90 3c ff a5 9b 3d fa 8e 44 bd d7 2b 9c bc
       0.017639635 0.076000206 -0.047987916 -0.019063873
000130 38 61 dc 3b e4 f9 29 bc 4c 14 50 bd 86 30 e8 3c
       0.0067254566 -0.01037452 -0.050800607 0.02834345
000140 a4 23 8b 3c 82 1b 5b bd 9b 75 a3 bb bc 09 26 3c
       0.016984768 -0.05349303 -0.004988385 0.010134157
000150 a2 21 13 bc ff e8 de 3c 33 66 a6 bd 9a d6 47 bc
       -0.008980187 0.02721071 -0.08124962 -0.012197161
000160 d2 90 85 3d 4b 2a 20 3b 2a 37 2b bc e1 f9 c5 bc
       0.06521763 0.002443927 -0.010450164 -0.024167003
000170 a3 92 5f bc ad 5a 2a bc b4 6d 30 bd f9 50 81 bd
       -0.013645801 -0.010397595 -0.04307337 -0.063142724
000180 fe aa f7 bb 35 7f b3 3d d0 82 88 3d 3c 86 8c 3b
       -0.0075582257 0.08764497 0.066655755 0.004288463
000190 23 cb 1c 3d 37 3d 9f 3c 69 ba 39 bd f6 b3 02 3d
       0.038279664 0.01943837 -0.04534379 0.031909905
0001a0 aa 67 25 3d 50 ed bf bb 3c e1 57 3d 89 0e 10 3d
       0.040382065 -0.0058571473 0.052705035 0.03517011
0001b0 c8 9d 2b bd ea fe d2 3c 05 40 25 3d 1b 01 8f 3d
       -0.04189852 0.025756318 0.040344257 0.06982633
0001c0 50 c6 76 bd 0b ef a6 bd 50 d7 0d bd 7d 79 f4 3b
       -0.06024772 -0.081510626 -0.034629166 0.0074607716
0001d0 a0 cd 8e bd bb f6 b2 bc 8f 6a 84 bd 9f 03 89 bd
       -0.069728136 -0.021846166 -0.06465637 -0.06690144
0001e0 94 c7 db 3c 97 c6 30 3d 6b 1e 43 3c ab 24 7b 3d
       0.026828565 0.04315814 0.011909108 0.061314266
0001f0 03 87 ad bc fa 50 3b 3c d4 80 85 3d df f1 95 3d
       -0.021182543 0.011432881 0.06518713 0.07321524
000200 ca 4b cf 3c a5 8c 9a bd 81 22 af 3c ec 71 82 3d
       0.025304694 -0.07546357 0.021378757 0.06369385
000210 77 a7 f6 3c 76 4b b2 bd 34 a4 ec bc 8a 7c 39 bd
       0.03010915 -0.08705799 -0.028886892 -0.045284785
000220 24 ec a2 bd 0c 9b 96 bd d2 03 6a 3d ac f0 67 bd
       -0.079551965 -0.073537916 0.05713255 -0.056626007
000230 d9 38 5a bd c5 8d 1d bd 0c 09 1a bc 94 3a 57 3d
       -0.05327687 -0.03846528 -0.009401571 0.0525461
000240 60 56 b2 bd 40 e5 21 bd 11 1f 6c bc 77 e9 c8 3c
       -0.08707881 -0.03952527 -0.014411704 0.024525387
000250 d5 e1 48 bd 8a dc c4 bc b4 ab 42 bd b6 87 a2 bc
       -0.049043495 -0.024030942 -0.04752703 -0.019840103
000260 23 29 3b 3d 2b 14 19 bd 7f 9f 42 bc 81 27 6d bd
       0.045693528 -0.03737275 -0.011878847 -0.057899002
000270 6e 41 ca 3c b6 84 68 bd 89 d4 a7 3c e8 37 b4 bd
       0.024689402 -0.056767188 0.020487087 -0.08799726
000280 cd 5f 0d 3d 6a 52 02 3d 37 4f 89 bd d6 58 38 bc
       0.03451519 0.031816877 -0.06704562 -0.011251649
000290 9c 36 59 bd f8 e3 2c bd cc bb 27 3d 16 bb 4e bd
       -0.053030595 -0.042209595 0.04095058 -0.050471388
0002a0 84 65 4c 3d 21 fb 36 3d 1d 4d a2 3d 32 7a 07 bd
       0.0499015 0.04467309 0.079248644 -0.03307552
0002b0 9c 8b a0 bd 9e 5a 6a 3d f5 5f aa bc c9 84 0e bd
       -0.078391284 0.057215326 -0.020797709 -0.034794603
0002c0 27 91 2b bd a1 57 a8 3d 04 d9 8c bd 35 44 9d 3c
       -0.041886475 0.08219839 -0.0687733 0.019197563
0002d0 2f e6 8f 3c 99 25 0d bd d6 f9 4d 3d 14 77 51 3d
       0.017565815 -0.034459684 0.05028709 0.051138952
0002e0 bf 8d 73 3d b4 1b c3 3c b4 60 c0 3c 87 15 cd 3c
       0.05946135 0.02381692 0.023483612 0.02503468
0002f0 bd d0 e6 bc 26 a3 90 bd 02 9b 29 3b 3a e0 05 3c
       -0.028175706 -0.07062368 0.0025879745 0.008171136
000300 9a ae 5f 3d 9a f7 73 3c ad f4 21 3b ac 47 00 bd
       0.054609872 0.014890576 0.0024712489 -0.03131835
000310 c0 88 97 3d b4 0d a0 3d 4a 0b b2 3d 7c 57 b9 bb
       0.0739913 0.07815114 0.086935595 -0.005656181
000320 e5 b4 31 bd 42 8d 92 bd f9 23 b2 bd ab e0 90 bd
       -0.043385405 -0.07155849 -0.086982675 -0.07074102
000330 3a 89 e7 bc 8e 09 8d 3d cd dd a6 bd 31 86 d7 bc
       -0.028263677 0.06886588 -0.08147774 -0.026309105
000340 aa 66 11 3d f2 0d 2a 3d fe a0 7e 3b 1e b1 a2 bc
       0.0354983 0.041517206 0.0038853283 -0.019859847
000350 a6 ad 89 3b de dc 62 bd 11 55 32 3d de 8e 53 3d
       0.0042016087 -0.055386417 0.043538157 0.05164992
000360 62 e0 72 3c 4e 19 7e 3d f4 2c 55 3d 1c 90 a9 bd
       0.014824005 0.06203585 0.052044824 -0.0827944
000370 51 54 0e bd e2 1e 9a bd 77 db 03 3d 86 67 a2 bd
       -0.03474838 -0.07525422 0.03219172 -0.07929902
000380 cd f8 ab 3c bc 1e 93 bd 6f b7 38 3d fc f2 77 bd
       0.02099266 -0.071835965 0.04509681 -0.060534462
000390 7b fd a2 bd b2 42 12 bd 86 5c ef 3c 96 b6 1a bd
       -0.07958504 -0.035708137 0.029218923 -0.037771784
0003a0 9b 29 07 3d c6 00 39 3b 7e ea 44 bd 35 d7 9f bb
       0.032998662 0.002822922 -0.04807519 -0.0048779496
0003b0 38 b1 65 3d af c6 5d bd d6 0f 9e 3d 25 36 c9 3c
       0.056077212 -0.054144558 0.07717864 0.024561951
0003c0 98 31 3c 3d e7 72 8b bc 4d ca 86 3d 03 0b 87 bd
       0.045945734 -0.017022563 0.065815546 -0.06593897
0003d0 d4 1f 12 bd 21 34 63 3d d5 a0 42 bd 7a 5e 97 3d
       -0.035674885 0.055469636 -0.047516663 0.07391067
0003e0 9a 3f 03 bd 5c 72 ab bd 23 cd aa 3d 16 c0 93 3d
       -0.032043077 -0.08371422 0.08339908 0.07214372
0003f0 43 42 15 3d 8e 0d 9b bd 70 8e 9c 3c 34 fc ab bc
       0.036440145 -0.07570945 0.019110888 -0.020994283

onnx::MatMul_200 f4 [256, 1]
000000 98 6f 64 bc d0 03 76 3d 10 64 da bc e0 e7 cb 3c
       -0.013942622 0.06006223 -0.026659042 0.02489084
000010 9c 78 75 3d 68 97 1e 3c 24 35 7a bd 60 ac ef bb
       0.059929475 0.009679653 -0.061085835 -0.00731425
000020 da 08 35 3d 90 b6 9a 3b 08 4e 28 bc 56 24 33 3d
       0.044197895 0.00472147 -0.01027251 0.043735825
000030 98 bf 67 3c d0 f0 bf 3b 30 53 63 3d b4 18 20 3d
       0.014144801 0.0058575645 0.055499256 0.03908606
000040 00 ee c0 39 b0 d2 b5 3b 10 3b 82 bc 02 46 1f 3d
       0.00036798418 0.0055487975 -0.015897304 0.038885124
000050 e4 39 54 3d 60 c8 7f bd 64 2f 4b bd 98 18 8f bc
       0.05181302 -0.062446952 -0.049605742 -0.017467782
000060 d8 3f fa 3c 6e 1d 26 bd f4 e7 ab 3c 50 fd 73 3c
       0.030548021 -0.04055541 0.020984627 0.014891937
000070 b4 fb f4 3c 10 86 01 3d e0 b5 05 3c 00 61 27 3a
       0.029905178 0.031621993 0.008161038 0.00063849986
000080 90 c6 86 bb 00 de 5f 3c 28 c5 29 3c 76 72 08 bd
       -0.004113026 0.013663769 0.010361947 -0.033312283
000090 08 17 2c 3d 86 38 45 3d 84 7d 37 3d 60 c7 3d 3c
       0.04201415 0.048149608 0.044797435 0.011583179
0000a0 3a 8d 0e 3d 3a 46 70 bd b0 4e 29 3c 0c 4f bb bc
       0.034802653 -0.058660723 0.010333702 -0.02286484
0000b0 e8 3d d8 bc 64 87 68 3d 10 f6 8a bb 2c 8b 7e bd
       -0.026396707 0.056769744 -0.0042407587 -0.062144443
0000c0 dc b2 c5 bc e0 50 de bb e4 55 2c 3d 00 19 81 3a
       -0.024133138 -0.0067845434 0.0420741 0.000984937
0000d0 c0 c9 32 3d ce 85 19 bd 58 77 d0 bc 28 f5 39 bd
       0.043649435 -0.03748112 -0.025447533 -0.045399815
0000e0 e8 a9 6f 3c 78 86 d3 3c 8c 88 c2 bc 40 7d 35 bb
       0.014627911 0.025820956 -0.023746751 -0.0027693063
0000f0 7e 1c 16 3d 48 80 65 bd 8e 86 51 3d 94 f6 4a bd
       0.036648266 -0.05603054 0.051153712 -0.04955156
000100 c4 75 b8 bc ee 4c 14 3d f0 d9 44 bd f4 23 85 bc
       -0.022517093 0.03620618 -0.048059404 -0.016252495
000110 5c 78 14 bd 40 bb 57 bb 56 42 6e 3d 50 ca 71 3d
       -0.036247596 -0.0032918006 0.05816873 0.05903083
000120 40 af ae bb 96 e4 38 3d 70 a8 3a bd d4 c1 9a bc
       -0.00533095 0.04513987 -0.04557079 -0.018891253
000130 2e 6a 78 3d f4 ff f4 3c a2 6f 1a bd 60 06 1e 3c
       0.060648136 0.029907204 -0.037704118 0.009645075
000140 10 d3 61 3c c2 21 62 bd 00 5b 9e b9 9a 67 78 3d
       0.013783231 -0.055207975 -0.0003020391 0.060645677
000150 7e f0 2f bd 40 ed c9 3a d8 a1 4c bd 88 05 ae bc
       -0.04295396 0.0015405789 -0.049959034 -0.021242872
000160 04 9b ee bc c0 ec fc 3a 78 c5 d5 bc e0 91 03 3b
       -0.029126652 0.0019296631 -0.026095137 0.0020075962
000170 64 e5 b8 bc b2 b0 4e 3d 4a 64 0e 3d 20 c1 a4 bc
       -0.02257032 0.05046148 0.03476361 -0.02011162
000180 04 ee 5a 3d e0 9a 7e bc 74 c6 bc bc 50 fe a1 3b
       0.053449646 -0.015539855 -0.023043849 0.0049436465
000190 e0 1f 6f bb 56 d0 05 bd fc 55 35 bd 32 13 35 bd
       -0.0036487505 -0.032669388 -0.044271454 -0.04420776
0001a0 70 35 35 3c b8 4c 58 bc 48 9e f8 bc 9c 02 d2 bc
       0.011060104 -0.013201885 -0.030348912 -0.02563601
0001b0 34 2c 23 3d f8 5e 81 3c 4a 5c 1b 3d ac 0a 92 3c
       0.039837077 0.015792355 0.03792981 0.017827354
0001c0 f2 47 38 bd a8 ff f9 bc 28 b4 46 3c 40 d3 78 bc
       -0.044990487 -0.030517414 0.012127914 -0.015187085
0001d0 30 2e 59 bc 70 53 70 3d 72 d8 54 3d 02 72 26 bd
       -0.013255641 0.058673322 0.05196423 -0.04063607
0001e0 e2 50 39 bd c8 38 13 3c c8 aa 80 bc 34 10 d8 bc
       -0.04524315 0.008985706 -0.015706435 -0.026374914
0001f0 48 b5 c3 bc 42 a7 31 bd b2 64 35 bd 48 52 bb 3c
       -0.023890153 -0.0433724 -0.044285484 0.022866383
000200 34 c7 c8 3c 18 80 b8 bc 30 36 e3 bc de 05 36 3d
       0.02450905 -0.022522017 -0.0277358 0.04443919
000210 56 3b 32 3d 3c e5 29 bd 38 eb 54 bc 66 42 47 3d
       0.04351362 -0.04147838 -0.012995534 0.048647307
000220 48 73 5b 3d 98 8e 03 3d 5c c2 58 3d 72 fa 56 bd
       0.053576738 0.03211841 0.05291973 -0.052484937
000230 30 df 9b bb 32 39 75 3d a4 9f 59 bd b8 17 73 3c
       -0.0047568306 0.059869 -0.05313076 0.014837198
000240 ba 24 48 3d c8 27 eb 3c 64 84 c6 bc c0 e5 a7 ba
       0.04886315 0.028705493 -0.02423305 -0.001280956
000250 18 bf 64 3d c6 a5 64 3d 14 07 52 3d 08 d8 7f 3c
       0.055846304 0.055822156 0.05127628 0.015615471
000260 74 62 fb 3c 1c ad 48 bd 48 67 72 bc 0a 90 50 bd
       0.030686595 -0.048993215 -0.014795132 -0.050918616
000270 e8 31 57 3d 88 72 4c 3c a8 a7 cd bc e8 f0 36 3d
       0.05253783 0.012478478 -0.025104359 0.04466334
000280 8a c0 2b 3d da 16 7e 3d 88 7f 5b 3c 94 c8 43 3d
       0.041931666 0.06203351 0.013397105 0.047798708
000290 f4 7e 73 bd 5c bf 77 3d 80 0b a0 3c f2 b6 0e 3d
       -0.059447244 0.06048523 0.019536734 0.03484244
0002a0 70 f7 9d bb a8 0e 2f 3d 70 ca 7c bd ec 1e 27 3d
       -0.0048207566 0.042738587 -0.061716497 0.040800974
0002b0 e8 2c 06 3c 78 ad 42 3c bc 23 83 3c 40 2f 1f bc
       0.008189417 0.0118821785 0.01600825 -0.009715855
0002c0 a0 fc e1 bc 40 d2 d8 bc d2 01 64 bd 58 60 16 3c
       -0.027586281 -0.026467443 -0.0556658 0.009178244
0002d0 18 f3 9f 3c f4 b3 72 3d 10 9a 9d 3b fc fc 14 bd
       0.019525096 0.059253648 0.0048096254 -0.036374077
0002e0 0a 29 7b 3d 8c d5 05 bd cc f8 66 bd 5c 9b 41 bd
       0.061318435 -0.032674357 -0.056389615 -0.047267303
0002f0 e4 52 e7 bc 46 c0 17 3d 78 c6 4c 3d cc 6d 1f 3d
       -0.028237768 0.0370486 0.049993962 0.03892307
000300 e8 cc 2c bc 78 91 7e bc 60 2c ab 3b ee ef 29 3d
       -0.0105469 -0.015537612 0.005223796 0.04148858
000310 80 19 7c 3d 08 fb 72 3d 48 d5 50 3c 1a a9 14 3d
       0.061547756 0.059321433 0.012746163 0.03629408
000320 12 ce 0a bd 80 6d 00 bd ea 53 15 bd a4 e5 6a 3d
       -0.03388793 -0.031354427 -0.03645698 0.05734791
000330 fc c9 f9 bc 80 79 4a ba e0 2b d9 bb 70 2c 60 bc
       -0.030491821 -0.00077237934 -0.0066275448 -0.01368247
000340 c4 9e 09 3d 80 b9 74 3b 40 60 a6 bc f8 7a a0 bc
       0.033598676 0.0037342012 -0.020309567 -0.019589886
000350 cc 0b 93 bc 10 3a f3 3b 40 8d f6 bb e0 6d c0 bc
       -0.017949961 0.007422693 -0.0075241625 -0.023489892
000360 12 eb 17 3d 0e d7 25 3d c8 32 14 bd 88 4f 45 bd
       0.037089415 0.040488295 -0.03618124 -0.04817155
000370 2c 61 cd bc c0 74 6d 3b d0 bf 92 3b 80 1c 85 3c
       -0.02507075 0.0036232919 0.0044784322 0.016248941
000380 d4 e8 12 bd 8e 32 48 3d f8 ad 85 3c 64 dd fa bc
       -0.035866573 0.048876338 0.016318306 -0.030623145
000390 36 6d 02 bd a8 27 a5 bc 18 4f ae bc 9e 04 2d bd
       -0.031842433 -0.020160511 -0.02127795 -0.04224073
0003a0 3a 69 5a bd 82 b0 50 bd 6e 4e 2b 3d ac 7a 67 bd
       -0.053323008 -0.05094958 0.041822843 -0.056513473
0003b0 fc fe 34 3d 4c 61 ef 3c ee 51 74 3d 90 33 c9 3b
       0.044188485 0.0292212 0.059648447 0.00614018
0003c0 bc 57 d6 3c 06 68 36 bd 02 e1 13 bd ea a4 68 bd
       0.026164882 -0.0445328 -0.036103256 -0.0567979
0003d0 d0 c5 99 bb e0 50 db bc 00 3c 71 3b 14 8a f7 3c
       -0.0046927705 -0.026771963 0.0036809444 0.030217208
0003e0 84 8b dd bc 80 de 26 bd 8a 12 6a bd 96 0c 50 bd
       -0.027044065 -0.040739536 -0.057146586 -0.050793253
0003f0 1a bc 07 bd b8 84 51 3c 80 53 34 3b 20 3f 19 bb
       -0.033138372 0.01278799 0.002751559 -0.0023383573
