models/2023-11-10/lstm_model.onnx (onnx, 468420 bytes, 6 tensors)

fc.weight f4 [7, 256]
0	0x3d61b7b1	0.055106822
1	0x3d2e9f3f	0.042632338
2	0x3d43b85b	0.047783237
3	0xbd111cff	-0.035428043
4	0x3da5ba4e	0.080921754
5	0x3d7796e1	0.060446624
6	0xbd7ca2aa	-0.061678566
7	0xbd20a9d3	-0.039224457
8	0x3d8ffb71	0.070303805
9	0xbc01d017	-0.007923148
10	0xbb0a6c96	-0.0021121851
11	0xbd9d91d1	-0.07693828
12	0x3d31ec17	0.043438043
13	0x3caef6b2	0.021357868
14	0x3dbd12da	0.09232111
15	0x3d81531f	0.06314682
16	0xbd4ecb7f	-0.050487038
17	0xbc105a38	-0.008810572
18	0xbdeb7396	-0.11496656
19	0xbdb1ebcc	-0.08687553
20	0x3db1d7a4	0.08683708
21	0xbd61c4d1	-0.05511934
22	0x3d399209	0.045305286
23	0xbc86608a	-0.016403455
24	0xbdd79d1e	-0.105280146
25	0x3cc97f7f	0.024596928
26	0xbdc24c9b	-0.094872676
27	0x3d3b85ae	0.045781784
28	0xbd490527	-0.04907718
29	0xbc924f03	-0.017859941
30	0x3cf9fbe7	0.030515624
31	0x3e12b163	0.1432548
32	0x3c153248	0.009106226
33	0x3d3571eb	0.044298094
34	0x3d8c5198	0.068515
35	0x3d5989eb	0.053110044
36	0xbd2aa0c5	-0.041657228
37	0xbd16cc82	-0.036816128
38	0x3dbcb099	0.09213371
39	0x3ddfd0a4	0.10928467
40	0x3c47505f	0.012165158
41	0x3bdcaca3	0.006734447
42	0x3b1916f8	0.0023359638
43	0xbcfcff76	-0.030883532
44	0x3dc69873	0.09697046
45	0x3c9eeca7	0.019399954
46	0xbdd79e5a	-0.1052825
47	0x3c985cce	0.01859894
48	0xbd0add86	-0.033902667
49	0x3cf33393	0.029687678
50	0xbb8b0f51	-0.004243769
51	0xbdf7cec7	-0.120999865
52	0x3cb17f6e	0.021667209
53	0x3d5657b0	0.05232972
54	0x3d880235	0.06641046
55	0x3d3b9f64	0.045806304
56	0x3d353dcc	0.044248387
57	0xbda217e3	-0.07914712
58	0xbdd76d6d	-0.10518918
59	0xbddf05ae	-0.10889755
60	0x3d45606a	0.04818765
61	0x3bc5ff82	0.006042422
62	0x3bd5d174	0.006525213
63	0xbcaf8506	-0.021425735
64	0x3c07d922	0.008291515
65	0x3b9495cb	0.0045344583
66	0x3c7600c1	0.015014828
67	0xbd9e0b97	-0.07717054
68	0x3ddc2730	0.10749662
69	0xbc886a2c	-0.01665219
70	0xbd46cbff	-0.04853439
71	0x3bb17b5a	0.005416316
72	0xbca76067	-0.02043171
73	0x3d4f11b9	0.05055401
74	0x3d9005dd	0.07032368
75	0xbd129e69	-0.035795603
76	0xbdcbacb1	-0.09945048
77	0xbc1b94d6	-0.0094959345
78	0x3c8c1ead	0.017104471
79	0xbda395d6	-0.07987563
80	0x3a65af0b	0.000876174
81	0xbd4135de	-0.047170512
82	0x3c94f688	0.018183962
83	0x3d3d37d1	0.04619581
84	0x3c8ad05a	0.016945053
85	0xbcc7ade6	-0.024374913
86	0xbddffe91	-0.109372266
87	0x3dbf2d2b	0.09334787
88	0xbbcad5b6	-0.006190027
89	0x3d90471f	0.07044815
90	0xbd775d3d	-0.060391653
91	0x3c0b8e9f	0.00851789
92	0xbae295f2	-0.0017287119
93	0x3ceb18d0	0.028698355
94	0x3d45e108	0.04831031
95	0xbcbfb9ac	-0.023403965
96	0xbc22b418	-0.009930633
97	0x3d8a0938	0.067400396
98	0x3da53ec9	0.08068616
99	0x3d07baa0	0.033136964
100	0x3d9e4d40	0.07729578
101	0xbd45e153	-0.04831059
102	0x3b776f5f	0.0037755591
103	0xbd9861e0	-0.07440543
104	0xbb6a5191	-0.0035754184
105	0x3d21ce87	0.0395036
106	0xbc3c797c	-0.0115035735
107	0xbd936d80	-0.0719862
108	0xbc4002c5	-0.01171941
109	0x3d13c446	0.036075853
110	0x3ddd2b5c	0.10799286
111	0xbbc8d027	-0.0061283293
112	0xbdae7c41	-0.08519793
113	0xbd6dc363	-0.058047663
114	0x3bd77322	0.006575004
115	0xbd09f3e9	-0.033679876
116	0xbcc6e32f	-0.024278251
117	0xbd033bcc	-0.03203945
118	0x3d43d16a	0.047807135
119	0x3cc5dfc1	0.024154546
120	0xbdd9e687	-0.10639673
121	0xbd84d41b	-0.064857684
122	0xbdb05e7a	-0.0861177
123	0xbd6ffe79	-0.058592293
124	0x3d9333df	0.07187628
125	0x3d96a548	0.07355744
126	0x3cb21e66	0.02174301
127	0xbda97859	-0.082749076
128	0x3cd363cb	0.025804421
129	0x3cb64faa	0.022254784
130	0xbd06062a	-0.032720722
131	0x3d2ee7ba	0.04270146
132	0x3c88426c	0.016633235
133	0x3d637132	0.055527873
134	0xbc8164a2	-0.015795056
135	0x3bc0bddb	0.0058820075
136	0xbcf91080	-0.030403376
137	0xbc313250	-0.010815218
138	0x3b84a27c	0.00404769
139	0xbd657951	-0.0560239
140	0xbcb4bf79	-0.022063958
141	0xbafc2f46	-0.0019240163
142	0x3cb835da	0.022486616
143	0xbc56f517	-0.013119957
144	0xbd2aa9f0	-0.04166597
145	0xbdbda3fb	-0.092597924
146	0x3db5f7c4	0.08885148
147	0x3c9f9da8	0.019484356
148	0x3cd9c78b	0.026584407
149	0x3d4e387d	0.05034684
150	0xbd64098a	-0.05567316
151	0xbdbdfddc	-0.092769355
152	0x3c6ff0d7	0.014644823
153	0x3cc30801	0.023807527
154	0x3cf6a419	0.030107545
155	0x3ddbfe23	0.10741832
156	0xbd4c6b57	-0.049907055
157	0x3d0cc4ad	0.034367252
158	0x3db57510	0.088602185
159	0x3ccf5a20	0.02531153
160	0xbd1189c9	-0.035531793
161	0x3d4270d5	0.047470886
162	0xbd1cfc36	-0.038326465
163	0x3cb9a742	0.022662763
164	0xbca79b10	-0.020459682
165	0xbdf64250	-0.12024367
166	0x3d1e8a03	0.038705837
167	0xbd01ca12	-0.03168685
168	0xbc33e3c3	-0.010979596
169	0xbdaf1980	-0.085497856
170	0x3e21bb13	0.1579402
171	0x3bac4a6c	0.005257895
172	0x3cbfda1c	0.023419432
173	0x3d4a042e	0.049320392
174	0x3a508280	0.00079540163
175	0xbd84bd5b	-0.06481429
176	0x3d20da56	0.03927072
177	0x3e02e0a2	0.12781003
178	0x3cdcc0d8	0.026947424
179	0xbce66ef5	-0.02812908
180	0x3dbc822b	0.09204515
181	0x3d28851b	0.041142564
182	0x3ad0ef8f	0.0015940535
183	0x3dafb50e	0.08579455
184	0x3dda3b93	0.10655894
185	0x3d9f4849	0.07777459
186	0x3d22713b	0.039658766
187	0x3d8010d6	0.06253211
188	0xbd7c1f0d	-0.06155305
189	0x3da3f46f	0.080056064
190	0xbd8d6cdb	-0.06905528
191	0xbcc8e479	-0.024523007
192	0x3bd7949a	0.006578994
193	0xbc9f6b8a	-0.019460458
194	0xbd2e7100	-0.042588234
195	0x3d0292eb	0.031878393
196	0xbc35a607	-0.011086947
197	0xbbc6abc2	-0.0060629556
198	0x3ce6e90a	0.028187294
199	0xbd147af0	-0.036250055
200	0x3d01a5a9	0.031652126
201	0xbc856ada	-0.016286302
202	0xbd23a0c6	-0.039948247
203	0xbc0cd436	-0.008595517
204	0x3d2bb7c3	0.041923296
205	0x3da0db8b	0.078543745
206	0xbda315d3	-0.07963147
207	0xbc3e0865	-0.011598681
208	0xbdc979c4	-0.09837678
209	0x3d801f0e	0.06255923
210	0xbe034ac0	-0.12821484
211	0x3da6d3ee	0.08145891
212	0x3db2cc9c	0.087304324
213	0xbc9e760f	-0.019343404
214	0x3e1c1176	0.15241036
215	0x3d126787	0.035743263
216	0xbd1945a0	-0.037419915
217	0x3d94732c	0.0724853
218	0xbc3949e0	-0.011309117
219	0x3c34fa11	0.011045949
220	0x3c8d5cbd	0.017256135
221	0xbd2e1a96	-0.042505823
222	0xbcd796c6	-0.026317012
223	0xbc9f9c43	-0.019483691
224	0xbddf2623	-0.10895946
225	0xbd63f2af	-0.055651363
226	0x3d80143b	0.06253859
227	0xbd7672c4	-0.060168043
228	0xbc16525a	-0.009174908
229	0xbd15ed16	-0.036603056
230	0x3da5ff32	0.08105315
231	0x3caa8eaa	0.02081998
232	0x3c26e3ae	0.010186119
233	0x3d1cf0ec	0.0383157
234	0xbced0332	-0.028932188
235	0x3d37b74e	0.044852547
236	0x3b1115d3	0.0022138252
237	0x3db3695a	0.087603286
238	0x3da8faa7	0.08250933
239	0x3d97bd15	0.074091114
240	0x3d0a05a0	0.03369677
241	0x3d0c2d6a	0.034222998
242	0xbd536481	-0.05160952
243	0x3db29b9a	0.08721085
244	0x3d50d03d	0.05097984
245	0x3dce47c6	0.100722834
246	0x3c80d37e	0.015725847
247	0x3cfc25c6	0.03077973
248	0xbca97bbe	-0.020688888
249	0xbd483a09	-0.04888347
250	0x3c0b300d	0.008495343
251	0x3daf68a0	0.085648775
252	0xbc8dd474	-0.01731322
253	0xbdfed4b2	-0.12442912
254	0xbdf46404	-0.11933139
255	0xbda8a437	-0.082344465

fc.bias f4 [7]
0	0x3d21dd73	0.03951783
1	0x3d2bdbdf	0.041957732
2	0x3da75624	0.08170727
3	0x3d886af6	0.06661026
4	0x3da16bc5	0.078818835
5	0x3dd0e3ef	0.10199725
6	0x3de4a453	0.11164155

onnx::GRU_197 f4 [2, 768]
0	0xbde846d7	-0.11341637
1	0xbe154043	-0.14575295
2	0xbde61962	-0.1123531
3	0xbdf3eeb1	-0.11910761
4	0xbd9b10f5	-0.07571594
5	0xbe0cb2ad	-0.13740034
6	0xbd6e18e1	-0.058129195
7	0xbe4f5b4e	-0.20249674
8	0xbde19d2b	-0.110163055
9	0xbdadbb97	-0.084830455
10	0xbea29c82	-0.3176003
11	0xbdb9897a	-0.09059425
12	0xbe1974b7	-0.1498593
13	0xbda61b9e	-0.08110736
14	0xbdd58581	-0.104258545
15	0xbe20f424	-0.15718132
16	0xbd850f25	-0.06497029
17	0xbe59c3ae	-0.21266052
18	0xbe6b2144	-0.22961909
19	0xbe2e2026	-0.17004451
20	0xbe53897b	-0.20657913
21	0xbd9b4e66	-0.07583313
22	0xbe12deba	-0.14342776
23	0xbde93d77	-0.113886766
24	0xbe4bf067	-0.19915925
25	0xbdc196c8	-0.09452587
26	0xbdde3baf	-0.108512275
27	0xbe6b1b89	-0.22959723
28	0xbe50520a	-0.20343795
29	0xbe4e70e9	-0.2016026
30	0xbddc81c0	-0.10766935
31	0xbd7ac0fe	-0.061219208
32	0xbe51443e	-0.20436189
33	0xbdd73e74	-0.10509959
34	0xbe697e9d	-0.22802205
35	0xbe370c31	-0.17875744
36	0xbd92b76f	-0.071638934
37	0xbe440592	-0.1914275
38	0xbd9b156c	-0.07572445
39	0xbe1e8cd8	-0.15483415
40	0xbd98593d	-0.07438896
41	0xbdce8c5c	-0.10085365
42	0xbdd8e3b1	-0.10590304
43	0xbe69b10f	-0.22821449
44	0xbdfc53fb	-0.123207055
45	0xbe6a316e	-0.22870418
46	0xbe22006f	-0.15820478
47	0xbdd7f88d	-0.10545454
48	0xbdfdb7b8	-0.12388557
49	0xbe434924	-0.1907087
50	0xbd4d6197	-0.050141897
51	0xbe0566b1	-0.13027455
52	0xbd806312	-0.06268896
53	0xbe574074	-0.2102068
54	0xbe0c7444	-0.13716227
55	0xbe361569	-0.17781605
56	0xbe33a84b	-0.17544667
57	0xbe35f010	-0.17767358
58	0xbe1e613e	-0.15466782
59	0xbd79dac6	-0.060999654
60	0xbe005413	-0.12532072
61	0xbe2e1f12	-0.1700404
62	0xbe307819	-0.17233314
63	0xbd5e8125	-0.05432238
64	0xbde19b44	-0.11015943
65	0xbe6d6170	-0.231817
66	0xbe1a753e	-0.15083787
67	0xbe25f36b	-0.16206138
68	0xbe3d247f	-0.18470953
69	0xbe07d698	-0.13265455
70	0xbe1d4229	-0.1535727
71	0xbddb2b6d	-0.10701642
72	0xbd877ecf	-0.06615984
73	0xbe3959d8	-0.18100679
74	0xbdbe7a11	-0.09300626
75	0xbe6fbfbf	-0.23412989
76	0xbe653a76	-0.22385582
77	0xbd8e5611	-0.069500096
78	0xbde83632	-0.11338462
79	0xbdc733f9	-0.0972671
80	0xbe0d97cf	-0.13827442
81	0xbd6452bc	-0.055742964
82	0xbe39aaba	-0.18131533
83	0xbe522dc3	-0.20525269
84	0xbd888cfc	-0.06667516
85	0xbe4b80cd	-0.19873352
86	0xbe27b6cd	-0.16378327
87	0xbdcdf2e8	-0.10056096
88	0xbe33d809	-0.1756288
89	0xbdeeea4b	-0.116657816
90	0xbdbf9557	-0.09354656
91	0xbdc9bf4b	-0.09850939
92	0xbe1bd7eb	-0.15219085
93	0xbda1b0ec	-0.07895073
94	0xbdefb654	-0.11704698
95	0xbda55d76	-0.08074467
96	0xbe05ea23	-0.13077597
97	0xbe192b9d	-0.14958043
98	0xbd9df7c2	-0.07713272
99	0xbe45e51e	-0.19325683
100	0xbe5153f3	-0.2044218
101	0xbdd0b654	-0.10191026
102	0xbe72da42	-0.23716071
103	0xbd8bf109	-0.06833083
104	0xbe10995f	-0.14121006
105	0xbdcf464e	-0.101208314
106	0xbe496114	-0.19665939
107	0xbd922be1	-0.071372755
108	0xbe30d1c5	-0.1726752
109	0xbe0b9e29	-0.13634552
110	0xbde1b229	-0.110203095
111	0xbd5568a7	-0.052101757
112	0xbe470600	-0.19435883
113	0xbe3da1ad	-0.18518706
114	0xbe4fc585	-0.20290191
115	0xbd15f2cc	-0.036608502
116	0xbe1fc0fc	-0.15600961
117	0xbe1a9a63	-0.15097956
118	0xbde07bf4	-0.10961142
119	0xbe1cbd45	-0.15306576
120	0xbe3982c8	-0.18116295
121	0xbe53da25	-0.20688684
122	0xbdfc6fd4	-0.12326017
123	0xbe6fe86b	-0.23428504
124	0xbe0e7143	-0.13910393
125	0xbd98d0b2	-0.074616805
126	0xbe1425fb	-0.14467613
127	0xbd913a2f	-0.07091176
128	0x3c840122	0.016113821
129	0x3e005f76	0.12536415
130	0x3e1bf364	0.15229565
131	0x3db4b64b	0.08823832
132	0x3d106aad	0.035257984
133	0x3d84271d	0.06452773
134	0x3cc95495	0.024576465
135	0x3d3da983	0.046304237
136	0x3db832e4	0.089940816
137	0xbb8bb591	-0.0042635878
138	0xbdd95fa5	-0.10613946
139	0x3dce0764	0.100600034
140	0x3d8cbd27	0.068720154
141	0xbb705895	-0.0036673893
142	0x3dabaa28	0.08382064
143	0x3e15ee73	0.14641742
144	0xbd394241	-0.0452292
145	0x3e165cca	0.14683834
146	0xbd56da7f	-0.052454468
147	0xbcdbfd6f	-0.026854245
148	0x3cae8291	0.021302493
149	0x3cf0cb0c	0.029393695
150	0x3c678278	0.014130227
151	0x3dab65db	0.08369037
152	0xbd60563e	-0.054769747
153	0xbdad8f29	-0.08474571
154	0x3de98c95	0.11403767
155	0xbd771c4e	-0.060329728
156	0x3e3d8080	0.1850605
157	0x3dfed448	0.12442833
158	0x3db05263	0.08609464
159	0xbc844841	-0.016147735
160	0x3dcf539e	0.101233706
161	0x3d355673	0.044271898
162	0x3e49dbad	0.19712706
163	0x3e54c14b	0.2077686
164	0x3e310015	0.17285188
165	0x3cb5e951	0.02220598
166	0x3e0a608d	0.13513394
167	0x3d8d031f	0.06885361
168	0x3cefba8e	0.02926376
169	0xbcfea314	-0.031083621
170	0x3d5efd01	0.054440502
171	0x3cc6222a	0.024186213
172	0x3dc5b9b0	0.09654558
173	0x3e47f0e0	0.1952548
174	0xbd4b6665	-0.049658198
175	0x3c9d3c36	0.01919375
176	0xbdbf3cce	-0.093377694
177	0x3d19e312	0.037570067
178	0xbd888836	-0.06666605
179	0x3dae1335	0.08499757
180	0x3c23699f	0.0099739125
181	0xbd6fb660	-0.058523536
182	0x3db1fb8d	0.08690558
183	0x3d38ba75	0.045099694
184	0x3dc9aed2	0.098477975
185	0xbdfd1644	-0.123577625
186	0x3d50d1ea	0.05098144
187	0xbc3b665a	-0.011437977
188	0x3d021f50	0.031768143
189	0xbd357933	-0.044305038
190	0x3dae3443	0.08506062
191	0xbde096d7	-0.109662704
192	0xbce3b9ec	-0.027798615
193	0x3d96efea	0.07369979
194	0x3e0a5b60	0.1351142
195	0x3e033bb8	0.1281575
196	0x3dbd0285	0.09228996
197	0xbd920440	-0.07129717
198	0x3dfe683b	0.12422224
199	0xbdca9abb	-0.09892794
200	0x3e0ad770	0.13558745
201	0x3c96cd7b	0.018408528
202	0xbb063d56	-0.0020483336
203	0x3e352e97	0.17693554
204	0xbd18b539	-0.037282202
205	0x3ce77bac	0.028257214
206	0x3e28727e	0.16449925
207	0xbd9bd1cc	-0.07608375
208	0x3b0c81b2	0.002143961
209	0xbb6b7cee	-0.0035932618
210	0xbb90219a	-0.004398537
211	0x3e03c104	0.12866598
212	0x3d8008cd	0.062516786
213	0x3d8d856b	0.06910213
214	0x3e00a32f	0.1256225
215	0xbc95d78f	-0.018291263
216	0x3d8a9db5	0.067683615
217	0x3dc13966	0.09434776
218	0xbc91f089	-0.017814891
219	0x3dede5c5	0.11616091
220	0x3d497546	0.049184106
221	0x3d7e3acd	0.062067796
222	0x3c6e110c	0.0145304315
223	0x3bea37a1	0.0071477448
224	0x3dbc02b8	0.09180206
225	0x3e15a8ad	0.14615126
226	0x3e3db504	0.18526083
227	0x3e44e2af	0.19227098
228	0x3e1d6fba	0.15374652
229	0x3d5fb62f	0.054617103
230	0xbc8bc863	-0.017063325
231	0x3db1e13d	0.08685539
232	0xbcbb0cc7	-0.022833241
233	0x3d6dd515	0.05806454
234	0x3db7e205	0.08978657
235	0x3e23f970	0.16013122
236	0x3d465e4f	0.048429783
237	0x3e337210	0.1752398
238	0xba56d95c	-0.0008195841
239	0x3de09715	0.109663166
240	0xbd68ce38	-0.05683729
241	0x3cb9e0df	0.022690235
242	0xbceff43e	-0.029291268
243	0x3e00a0af	0.12561296
244	0xbd84905b	-0.06472846
245	0x3c76d78c	0.015066039
246	0x3ddeaa06	0.10872273
247	0x3c84cf8e	0.016212251
248	0xbd848330	-0.064703345
249	0x3da0e3e5	0.078559674
250	0x3d7c35c0	0.061574697
251	0xbd9b6a19	-0.07588596
252	0x3d5de207	0.054170635
253	0xbca9fd2e	-0.020750608
254	0xbdd4237b	-0.1035833
255	0x3de133e7	0.10996228

onnx::GRU_198 f4 [2, 384, 19]
0	0xbdc41a53	-0.095753334
1	0xbdc13af5	-0.09435073
2	0xbea6fd76	-0.3261525
3	0xbd9f87fb	-0.07789608
4	0xbe082732	-0.13296202
5	0xbe0b1f7b	-0.13586228
6	0xbc02c635	-0.007981827
7	0xbe1b3532	-0.15157011
8	0xbe0eaa78	-0.13932216
9	0xbdd249da	-0.10267992
10	0xbd837407	-0.06418615
11	0xbeb8967a	-0.36052305
12	0xbdbef7ef	-0.09324633
13	0xbe945ce5	-0.28977123
14	0xbe0ebb54	-0.13938648
15	0xbd92f8ae	-0.07176338
16	0xbdec7e3f	-0.11547517
17	0xbd8368ae	-0.064164504
18	0xbdfdcf98	-0.12393111
19	0x3cd93c14	0.026517905
20	0xbdcc4626	-0.09974317
21	0xbe87b523	-0.26505384
22	0xbe4f982a	-0.2027289
23	0xbe42de40	-0.19030094
24	0xbd9f65ba	-0.07783075
25	0xbcdb1ccb	-0.026747128
26	0xbd608f26	-0.054824017
27	0xbe3d4174	-0.18482
28	0xbd543b7e	-0.05181455
29	0xbdd39caa	-0.10332616
30	0xbe5bf3ce	-0.21479723
31	0xbd37075a	-0.044684745
32	0xbe73a92e	-0.23795006
33	0xbe3944be	-0.1809263
34	0xbd4b6e41	-0.049665693
35	0xbe28f4b1	-0.16499592
36	0xbcd85486	-0.026407491
37	0xbe4df49c	-0.20112842
38	0xbd6a3e9b	-0.05718861
39	0xbe5bef00	-0.2147789
40	0xbe9ae878	-0.30255485
41	0xbdd3e29c	-0.10345957
42	0xbe591344	-0.21198756
43	0xbe5dbb69	-0.21653523
44	0xbaa62ebf	-0.0012678726
45	0xbd254043	-0.040344488
46	0xbde8a73d	-0.11360023
47	0xbe2e3a7e	-0.170145
48	0xbdf3f050	-0.1191107
49	0xbe9542b4	-0.29152453
50	0xbd6bc427	-0.057560112
51	0xbe867ad5	-0.26265588
52	0xbe254c0f	-0.16142295
53	0xbe385127	-0.17999707
54	0xbe0db28d	-0.13837643
55	0xbc26972a	-0.010167876
56	0xbd37150f	-0.044697817
57	0xbdb3e993	-0.08784785
58	0xbe3a376e	-0.18185207
59	0xbe530aed	-0.20609637
60	0xbde8bff4	-0.11364737
61	0xbe25530d	-0.16144963
62	0xbe3223e4	-0.17396504
63	0xbdd7fdfb	-0.1054649
64	0xbda8495c	-0.08217117
65	0xbdec1d9a	-0.115290835
66	0xbc6ac31b	-0.014328743
67	0xbdbd2aff	-0.092367165
68	0xbe5f1dd3	-0.21788721
69	0xbe2a0f29	-0.16607346
70	0xbe9db691	-0.3080335
71	0xbe336bdc	-0.17521614
72	0xbe6f7415	-0.23384126
73	0xbe4e93e1	-0.20173599
74	0xbe51bc5c	-0.2048201
75	0xbe0523e9	-0.1300198
76	0xbd84b3a5	-0.06479577
77	0xbe261480	-0.16218758
78	0xbebb8f41	-0.36632732
79	0xbd0f950f	-0.035054263
80	0xbe141177	-0.14459787
81	0xbdbb6337	-0.09149783
82	0xbba66e26	-0.0050790487
83	0xbe22b80a	-0.15890518
84	0xbe11296a	-0.14175954
85	0xbc95e80d	-0.018299127
86	0x3cdd933a	0.027047742
87	0xbea257b1	-0.31707528
88	0xbd3d4c83	-0.046215545
89	0xbead0f4f	-0.33800742
90	0xbe414237	-0.18872915
91	0xbd82dc26	-0.06389646
92	0xbe08cc02	-0.13359073
93	0xbc1afd10	-0.009459749
94	0xbdc9a90d	-0.09846697
95	0xbdc2ec8c	-0.09517774
96	0xbdae139e	-0.084998354
97	0xbe49ad3a	-0.19694987
98	0xbe183149	-0.14862551
99	0xbe5038b5	-0.20334132
100	0xbe30b7b5	-0.17257579
101	0xbe1da231	-0.15393902
102	0xbd81c5f5	-0.063365854
103	0xbe12f28d	-0.14350338
104	0xbde3c998	-0.11122435
105	0xbd68a375	-0.05679651
106	0xbe7ad868	-0.24496615
107	0xbe4b0b1c	-0.19828457
108	0xbe2f8121	-0.17139103
109	0xbde094a3	-0.1096585
110	0xbe53c832	-0.20681837
111	0xbd88cbef	-0.06679522
112	0xbd947840	-0.07249498
113	0xbe1f0b49	-0.15531649
114	0x3dd081b2	0.101809874
115	0xbe3a1110	-0.18170571
116	0xbeb03be8	-0.34420705
117	0xbe3865d4	-0.18007594
118	0xbe30ec10	-0.1727755
119	0xbe6cdf05	-0.2313195
120	0x3d5495a1	0.05190051
121	0xbd545bc6	-0.051845334
122	0xbd1d7cf0	-0.038449228
123	0xbe89bc28	-0.26901364
124	0xbe1d161b	-0.15340464
125	0xbe63243a	-0.22181788
126	0xbd8b17ef	-0.06791674
127	0xbe50a8b2	-0.20376852
128	0xbe685579	-0.22688855
129	0x3c40d8a2	0.011770399
130	0x3db82f5c	0.08993408
131	0x3e102aa5	0.14078768
132	0xbdf15138	-0.11783069
133	0x3c202abb	0.009775813
134	0xbe29ae7a	-0.16570464
135	0xbe178db6	-0.14800152
136	0xbe2bf9b9	-0.1679448
137	0xbe349d68	-0.1763817
138	0xbe2f7aa1	-0.17136623
139	0xbd86330c	-0.06552705
140	0xbdeace32	-0.1146511
141	0xbd5dd386	-0.054156803
142	0xbdeb5f82	-0.11492826
143	0xbe5a40ac	-0.21313733
144	0xbe6a3ea7	-0.22875462
145	0xbe61700e	-0.22015402
146	0xbe89e8a7	-0.26935312
147	0xbe1c0daa	-0.15239587
148	0xbde3a229	-0.11114914
149	0xbdddb35f	-0.10825228
150	0x3d0b68bb	0.034035426
151	0xbe3ac0ac	-0.18237561
152	0xbda9ea15	-0.08296601
153	0xbe366aa3	-0.17814116
154	0xbe79ffb2	-0.24413946
155	0xbe2f2998	-0.1710571
156	0xbdb40318	-0.087896526
157	0xbe537fa9	-0.20654167
158	0xbe1f9e44	-0.15587717
159	0xbdeb1d31	-0.11480177
160	0xbda15d42	-0.07879116
161	0xbde9c62f	-0.11414754
162	0xbda95421	-0.082679994
163	0xbe6906b4	-0.22756463
164	0xbd8d4874	-0.06898585
165	0xbe2933fe	-0.1652374
166	0xbdce7da8	-0.10082561
167	0xbe1dc10f	-0.15405677
168	0xbe4592c9	-0.19294275
169	0xbdf72c5e	-0.12069009
170	0xbdd932f4	-0.10605422
171	0x3bf508f5	0.0074778744
172	0xbe3b4ed2	-0.18291786
173	0xbe4de054	-0.20105106
174	0xbe09c5a1	-0.13454296
175	0xbe17119c	-0.14752811
176	0xbe13698b	-0.1439573
177	0xbdd2f982	-0.10301496
178	0xbcdc36c6	-0.026881587
179	0xbe03a39d	-0.12855382
180	0xbd6773a5	-0.05650677
181	0xbe34db6b	-0.17661826
182	0xbea3b2f8	-0.3197248
183	0xbdf15942	-0.11784603
184	0xbe3b3724	-0.18282753
185	0xbdd1d946	-0.1024652
186	0xbdf06f06	-0.11739926
187	0xbe52ca04	-0.20584875
188	0xbdaebe2f	-0.085323684
189	0xbe353fad	-0.17700072
190	0x3c977c82	0.018491987
191	0xbe82fc23	-0.2558299
192	0xbf136f8d	-0.5759209
193	0xbe656d01	-0.22404863
194	0xbeaf0bd2	-0.34188706
195	0xbe8986ea	-0.26860744
196	0xbc806406	-0.015672695
197	0xbe373cd3	-0.17894296
198	0xbd9efd51	-0.0776316
199	0xbe9142c6	-0.28371257
200	0xbdc28500	-0.09498024
201	0xbede71a1	-0.43446067
202	0xbe7c8809	-0.24661268
203	0xbee874f8	-0.4540174
204	0xbe646266	-0.22303161
205	0xbe2bf2af	-0.16791795
206	0xbdbc8124	-0.09204319
207	0x3dc76a14	0.0973703
208	0xbe4f498a	-0.20242897
209	0xbdff008b	-0.124512754
210	0xbd9f2b6c	-0.07771954
211	0xbe8754e1	-0.26431945
212	0xbe2ca6f8	-0.16860569
213	0xbdad6f40	-0.08468485
214	0xbe47a7f8	-0.19497669
215	0xbe05ba8d	-0.13059445
216	0xbd8176d4	-0.06321493
217	0xbe2bc754	-0.16775256
218	0xbde24a0b	-0.11049279
219	0xbd78941f	-0.060688134
220	0xbe8df56f	-0.27726313
221	0xbe329fdd	-0.17443796
222	0xbeaab27a	-0.33339292
223	0xbe598a72	-0.21244219
224	0xbe02dc87	-0.12779437
225	0xbe547247	-0.20746718
226	0xbe0a83a8	-0.13526785
227	0xbe0b6c46	-0.13615522
228	0x3b70b650	0.003672976
229	0xbe2fd4a4	-0.1717096
230	0xbeca141d	-0.3946847
231	0xbe4a9350	-0.19782758
232	0xbe24379b	-0.16036837
233	0xbe6b93b6	-0.23005566
234	0xbdc0e118	-0.09417933
235	0x3ca06c54	0.019582905
236	0xbda4e47b	-0.08051392
237	0xbe1adaac	-0.15122479
238	0xbd802ffe	-0.06259154
239	0xbe85bb6d	-0.26119557
240	0xbe29e8ef	-0.16592763
241	0xbea3d5fc	-0.31999195
242	0xbe562b7a	-0.20915022
243	0xbdc802e7	-0.097661786
244	0xbd4bf791	-0.049796645
245	0xbd46657b	-0.048436623
246	0xbc63de09	-0.013907918
247	0xbdc1808f	-0.09448349
248	0xbdacda1f	-0.08440041
249	0xbea91114	-0.33020842
250	0xbe2f2b3b	-0.17106335
251	0xbe06ab69	-0.13151325
252	0xbe56e522	-0.20985845
253	0xbcdb8c2b	-0.026800236
254	0xbe327858	-0.1742872
255	0xbe0bc0ce	-0.13647768

onnx::GRU_199 f4 [2, 384, 128]
0	0xbd800388	-0.062506735
1	0x3d0150b8	0.03157112
2	0x3dabfd97	0.08397978
3	0xbd1ec2e8	-0.038760096
4	0xbdb391de	-0.08768056
5	0xbd6fc87e	-0.058540814
6	0x3d096fab	0.03355376
7	0x3d7b949c	0.06142102
8	0xbc8d89f1	-0.01727769
9	0x3b219de1	0.0024660754
10	0xbd838f48	-0.06423813
11	0xbd25a3ef	-0.040439542
12	0xbd703116	-0.058640562
13	0x3d6bb029	0.057541046
14	0xbc8eac24	-0.017416067
15	0xbd1679b5	-0.036737163
16	0xbc1ce536	-0.0095761325
17	0x3d2347d2	0.039863415
18	0xbd48b75a	-0.049002983
19	0xbc4d2b95	-0.012522598
20	0x3d198d1b	0.037488084
21	0xbc2b2fb1	-0.010448382
22	0x3cea9d46	0.028639447
23	0xbd733a9b	-0.059382062
24	0xbba44da1	-0.005014137
25	0xbd2fa305	-0.042880077
26	0x3da6aa14	0.081379086
27	0xbdb4ce38	-0.088283956
28	0xbd362600	-0.044469833
29	0xbd0ef14b	-0.034898084
30	0x3d1fce80	0.039015293
31	0xbd218d02	-0.039441116
32	0xbd644175	-0.055726487
33	0xbba8e7d8	-0.005154591
34	0xbce7ef29	-0.028312283
35	0x3dafcda2	0.08584143
36	0x3d5eb28a	0.054369487
37	0x3d8d9537	0.06913226
38	0xbd97aa93	-0.07405581
39	0xbcbac1c9	-0.022797482
40	0xbd8abb85	-0.06774048
41	0x3da358e1	0.07975937
42	0x3d56b462	0.05241812
43	0xbd8dc3e5	-0.069221295
44	0xbd85ccfa	-0.06533237
45	0x3d32e094	0.043671206
46	0xbd37b58a	-0.044850864
47	0x3ce7537c	0.02823805
48	0xbd9ef73d	-0.07762001
49	0xbd90799f	-0.070544474
50	0xbcf68087	-0.030090583
51	0xbd8d9a0a	-0.06914146
52	0x3d5e9e03	0.05434991
53	0xbd8a3eec	-0.06750283
54	0xbcecf1f6	-0.02892397
55	0xbdb11a1e	-0.086475596
56	0x3da61848	0.081101
57	0x3c6c54f0	0.014424548
58	0xbd5bf9aa	-0.053704895
59	0xbc9e9aef	-0.019360987
60	0x3cd9182f	0.02650079
61	0xbcf7c8cd	-0.030247116
62	0x3d9078e1	0.07054306
63	0xbca687d2	-0.020328436
64	0x3da96fe5	0.08273295
65	0x3d459290	0.048235476
66	0x3d7f70f5	0.062363584
67	0x3b18ad26	0.0023296564
68	0xbcd0cb16	-0.025487464
69	0x3d1a0758	0.03760466
70	0x3d637499	0.055531118
71	0x3c4610f2	0.012089001
72	0x3c9080ff	0.017639635
73	0x3d9ba5ff	0.076000206
74	0xbd448efa	-0.047987916
75	0xbc9c2bd7	-0.019063873
76	0x3bdc6138	0.0067254566
77	0xbc29f9e4	-0.01037452
78	0xbd50144c	-0.050800607
79	0x3ce83086	0.02834345
80	0x3c8b23a4	0.016984768
81	0xbd5b1b82	-0.05349303
82	0xbba3759b	-0.004988385
83	0x3c2609bc	0.010134157
84	0xbc1321a2	-0.008980187
85	0x3cdee8ff	0.02721071
86	0xbda66633	-0.08124962
87	0xbc47d69a	-0.012197161
88	0x3d8590d2	0.06521763
89	0x3b202a4b	0.002443927
90	0xbc2b372a	-0.010450164
91	0xbcc5f9e1	-0.024167003
92	0xbc5f92a3	-0.013645801
93	0xbc2a5aad	-0.010397595
94	0xbd306db4	-0.04307337
95	0xbd8150f9	-0.063142724
96	0xbbf7aafe	-0.0075582257
97	0x3db37f35	0.08764497
98	0x3d8882d0	0.066655755
99	0x3b8c863c	0.004288463
100	0x3d1ccb23	0.038279664
101	0x3c9f3d37	0.01943837
102	0xbd39ba69	-0.04534379
103	0x3d02b3f6	0.031909905
104	0x3d2567aa	0.040382065
105	0xbbbfed50	-0.0058571473
106	0x3d57e13c	0.052705035
107	0x3d100e89	0.03517011
108	0xbd2b9dc8	-0.04189852
109	0x3cd2feea	0.025756318
110	0x3d254005	0.040344257
111	0x3d8f011b	0.06982633
112	0xbd76c650	-0.06024772
113	0xbda6ef0b	-0.081510626
114	0xbd0dd750	-0.034629166
115	0x3bf4797d	0.0074607716
116	0xbd8ecda0	-0.069728136
117	0xbcb2f6bb	-0.021846166
118	0xbd846a8f	-0.06465637
119	0xbd89039f	-0.06690144
120	0x3cdbc794	0.026828565
121	0x3d30c697	0.04315814
122	0x3c431e6b	0.011909108
123	0x3d7b24ab	0.061314266
124	0xbcad8703	-0.021182543
125	0x3c3b50fa	0.011432881
126	0x3d8580d4	0.06518713
127	0x3d95f1df	0.07321524
128	0x3ccf4bca	0.025304694
129	0xbd9a8ca5	-0.07546357
130	0x3caf2281	0.021378757
131	0x3d8271ec	0.06369385
132	0x3cf6a777	0.03010915
133	0xbdb24b76	-0.08705799
134	0xbceca434	-0.028886892
135	0xbd397c8a	-0.045284785
136	0xbda2ec24	-0.079551965
137	0xbd969b0c	-0.073537916
138	0x3d6a03d2	0.05713255
139	0xbd67f0ac	-0.056626007
140	0xbd5a38d9	-0.05327687
141	0xbd1d8dc5	-0.03846528
142	0xbc1a090c	-0.009401571
143	0x3d573a94	0.0525461
144	0xbdb25660	-0.08707881
145	0xbd21e540	-0.03952527
146	0xbc6c1f11	-0.014411704
147	0x3cc8e977	0.024525387
148	0xbd48e1d5	-0.049043495
149	0xbcc4dc8a	-0.024030942
150	0xbd42abb4	-0.04752703
151	0xbca287b6	-0.019840103
152	0x3d3b2923	0.045693528
153	0xbd19142b	-0.03737275
154	0xbc429f7f	-0.011878847
155	0xbd6d2781	-0.057899002
156	0x3cca416e	0.024689402
157	0xbd6884b6	-0.056767188
158	0x3ca7d489	0.020487087
159	0xbdb437e8	-0.08799726
160	0x3d0d5fcd	0.03451519
161	0x3d02526a	0.031816877
162	0xbd894f37	-0.06704562
163	0xbc3858d6	-0.011251649
164	0xbd59369c	-0.053030595
165	0xbd2ce3f8	-0.042209595
166	0x3d27bbcc	0.04095058
167	0xbd4ebb16	-0.050471388
168	0x3d4c6584	0.0499015
169	0x3d36fb21	0.04467309
170	0x3da24d1d	0.079248644
171	0xbd077a32	-0.03307552
172	0xbda08b9c	-0.078391284
173	0x3d6a5a9e	0.057215326
174	0xbcaa5ff5	-0.020797709
175	0xbd0e84c9	-0.034794603
176	0xbd2b9127	-0.041886475
177	0x3da857a1	0.08219839
178	0xbd8cd904	-0.0687733
179	0x3c9d4435	0.019197563
180	0x3c8fe62f	0.017565815
181	0xbd0d2599	-0.034459684
182	0x3d4df9d6	0.05028709
183	0x3d517714	0.051138952
184	0x3d738dbf	0.05946135
185	0x3cc31bb4	0.02381692
186	0x3cc060b4	0.023483612
187	0x3ccd1587	0.02503468
188	0xbce6d0bd	-0.028175706
189	0xbd90a326	-0.07062368
190	0x3b299b02	0.0025879745
191	0x3c05e03a	0.008171136
192	0x3d5fae9a	0.054609872
193	0x3c73f79a	0.014890576
194	0x3b21f4ad	0.0024712489
195	0xbd0047ac	-0.03131835
196	0x3d9788c0	0.0739913
197	0x3da00db4	0.07815114
198	0x3db20b4a	0.086935595
199	0xbbb9577c	-0.005656181
200	0xbd31b4e5	-0.043385405
201	0xbd928d42	-0.07155849
202	0xbdb223f9	-0.086982675
203	0xbd90e0ab	-0.07074102
204	0xbce7893a	-0.028263677
205	0x3d8d098e	0.06886588
206	0xbda6ddcd	-0.08147774
207	0xbcd78631	-0.026309105
208	0x3d1166aa	0.0354983
209	0x3d2a0df2	0.041517206
210	0x3b7ea0fe	0.0038853283
211	0xbca2b11e	-0.019859847
212	0x3b89ada6	0.0042016087
213	0xbd62dcde	-0.055386417
214	0x3d325511	0.043538157
215	0x3d538ede	0.05164992
216	0x3c72e062	0.014824005
217	0x3d7e194e	0.06203585
218	0x3d552cf4	0.052044824
219	0xbda9901c	-0.0827944
220	0xbd0e5451	-0.03474838
221	0xbd9a1ee2	-0.07525422
222	0x3d03db77	0.03219172
223	0xbda26786	-0.07929902
224	0x3cabf8cd	0.02099266
225	0xbd931ebc	-0.071835965
226	0x3d38b76f	0.04509681
227	0xbd77f2fc	-0.060534462
228	0xbda2fd7b	-0.07958504
229	0xbd1242b2	-0.035708137
230	0x3cef5c86	0.029218923
231	0xbd1ab696	-0.037771784
232	0x3d07299b	0.032998662
233	0x3b3900c6	0.002822922
234	0xbd44ea7e	-0.04807519
235	0xbb9fd735	-0.0048779496
236	0x3d65b138	0.056077212
237	0xbd5dc6af	-0.054144558
238	0x3d9e0fd6	0.07717864
239	0x3cc93625	0.024561951
240	0x3d3c3198	0.045945734
241	0xbc8b72e7	-0.017022563
242	0x3d86ca4d	0.065815546
243	0xbd870b03	-0.06593897
244	0xbd121fd4	-0.035674885
245	0x3d633421	0.055469636
246	0xbd42a0d5	-0.047516663
247	0x3d975e7a	0.07391067
248	0xbd033f9a	-0.032043077
249	0xbdab725c	-0.08371422
250	0x3daacd23	0.08339908
251	0x3d93c016	0.07214372
252	0x3d154243	0.036440145
253	0xbd9b0d8e	-0.07570945
254	0x3c9c8e70	0.019110888
255	0xbcabfc34	-0.020994283

onnx::MatMul_200 f4 [256, 1]
0	0xbc646f98	-0.013942622
1	0x3d7603d0	0.06006223
2	0xbcda6410	-0.026659042
3	0x3ccbe7e0	0.02489084
4	0x3d75789c	0.059929475
5	0x3c1e9768	0.009679653
6	0xbd7a3524	-0.061085835
7	0xbbefac60	-0.00731425
8	0x3d3508da	0.044197895
9	0x3b9ab690	0.00472147
10	0xbc284e08	-0.01027251
11	0x3d332456	0.043735825
12	0x3c67bf98	0.014144801
13	0x3bbff0d0	0.0058575645
14	0x3d635330	0.055499256
15	0x3d2018b4	0.03908606
16	0x39c0ee00	0.00036798418
17	0x3bb5d2b0	0.0055487975
18	0xbc823b10	-0.015897304
19	0x3d1f4602	0.038885124
20	0x3d5439e4	0.05181302
21	0xbd7fc860	-0.062446952
22	0xbd4b2f64	-0.049605742
23	0xbc8f1898	-0.017467782
24	0x3cfa3fd8	0.030548021
25	0xbd261d6e	-0.04055541
26	0x3cabe7f4	0.020984627
27	0x3c73fd50	0.014891937
28	0x3cf4fbb4	0.029905178
29	0x3d018610	0.031621993
30	0x3c05b5e0	0.008161038
31	0x3a276100	0.00063849986
32	0xbb86c690	-0.004113026
33	0x3c5fde00	0.013663769
34	0x3c29c528	0.010361947
35	0xbd087276	-0.033312283
36	0x3d2c1708	0.04201415
37	0x3d453886	0.048149608
38	0x3d377d84	0.044797435
39	0x3c3dc760	0.011583179
40	0x3d0e8d3a	0.034802653
41	0xbd70463a	-0.058660723
42	0x3c294eb0	0.010333702
43	0xbcbb4f0c	-0.02286484
44	0xbcd83de8	-0.026396707
45	0x3d688764	0.056769744
46	0xbb8af610	-0.0042407587
47	0xbd7e8b2c	-0.062144443
48	0xbcc5b2dc	-0.024133138
49	0xbbde50e0	-0.0067845434
50	0x3d2c55e4	0.0420741
51	0x3a811900	0.000984937
52	0x3d32c9c0	0.043649435
53	0xbd1985ce	-0.03748112
54	0xbcd07758	-0.025447533
55	0xbd39f528	-0.045399815
56	0x3c6fa9e8	0.014627911
57	0x3cd38678	0.025820956
58	0xbcc2888c	-0.023746751
59	0xbb357d40	-0.0027693063
60	0x3d161c7e	0.036648266
61	0xbd658048	-0.05603054
62	0x3d51868e	0.051153712
63	0xbd4af694	-0.04955156
64	0xbcb875c4	-0.022517093
65	0x3d144cee	0.03620618
66	0xbd44d9f0	-0.048059404
67	0xbc8523f4	-0.016252495
68	0xbd14785c	-0.036247596
69	0xbb57bb40	-0.0032918006
70	0x3d6e4256	0.05816873
71	0x3d71ca50	0.05903083
72	0xbbaeaf40	-0.00533095
73	0x3d38e496	0.04513987
74	0xbd3aa870	-0.04557079
75	0xbc9ac1d4	-0.018891253
76	0x3d786a2e	0.060648136
77	0x3cf4fff4	0.029907204
78	0xbd1a6fa2	-0.037704118
79	0x3c1e0660	0.009645075
80	0x3c61d310	0.013783231
81	0xbd6221c2	-0.055207975
82	0xb99e5b00	-0.0003020391
83	0x3d78679a	0.060645677
84	0xbd2ff07e	-0.04295396
85	0x3ac9ed40	0.0015405789
86	0xbd4ca1d8	-0.049959034
87	0xbcae0588	-0.021242872
88	0xbcee9b04	-0.029126652
89	0x3afcecc0	0.0019296631
90	0xbcd5c578	-0.026095137
91	0x3b0391e0	0.0020075962
92	0xbcb8e564	-0.02257032
93	0x3d4eb0b2	0.05046148
94	0x3d0e644a	0.03476361
95	0xbca4c120	-0.02011162
96	0x3d5aee04	0.053449646
97	0xbc7e9ae0	-0.015539855
98	0xbcbcc674	-0.023043849
99	0x3ba1fe50	0.0049436465
100	0xbb6f1fe0	-0.0036487505
101	0xbd05d056	-0.032669388
102	0xbd3555fc	-0.044271454
103	0xbd351332	-0.04420776
104	0x3c353570	0.011060104
105	0xbc584cb8	-0.013201885
106	0xbcf89e48	-0.030348912
107	0xbcd2029c	-0.02563601
108	0x3d232c34	0.039837077
109	0x3c815ef8	0.015792355
110	0x3d1b5c4a	0.03792981
111	0x3c920aac	0.017827354
112	0xbd3847f2	-0.044990487
113	0xbcf9ffa8	-0.030517414
114	0x3c46b428	0.012127914
115	0xbc78d340	-0.015187085
116	0xbc592e30	-0.013255641
117	0x3d705370	0.058673322
118	0x3d54d872	0.05196423
119	0xbd267202	-0.04063607
120	0xbd3950e2	-0.04524315
121	0x3c1338c8	0.008985706
122	0xbc80aac8	-0.015706435
123	0xbcd81034	-0.026374914
124	0xbcc3b548	-0.023890153
125	0xbd31a742	-0.0433724
126	0xbd3564b2	-0.044285484
127	0x3cbb5248	0.022866383
128	0x3cc8c734	0.02450905
129	0xbcb88018	-0.022522017
130	0xbce33630	-0.0277358
131	0x3d3605de	0.04443919
132	0x3d323b56	0.04351362
133	0xbd29e53c	-0.04147838
134	0xbc54eb38	-0.012995534
135	0x3d474266	0.048647307
136	0x3d5b7348	0.053576738
137	0x3d038e98	0.03211841
138	0x3d58c25c	0.05291973
139	0xbd56fa72	-0.052484937
140	0xbb9bdf30	-0.0047568306
141	0x3d753932	0.059869
142	0xbd599fa4	-0.05313076
143	0x3c7317b8	0.014837198
144	0x3d4824ba	0.04886315
145	0x3ceb27c8	0.028705493
146	0xbcc68464	-0.02423305
147	0xbaa7e5c0	-0.001280956
148	0x3d64bf18	0.055846304
149	0x3d64a5c6	0.055822156
150	0x3d520714	0.05127628
151	0x3c7fd808	0.015615471
152	0x3cfb6274	0.030686595
153	0xbd48ad1c	-0.048993215
154	0xbc726748	-0.014795132
155	0xbd50900a	-0.050918616
156	0x3d5731e8	0.05253783
157	0x3c4c7288	0.012478478
158	0xbccda7a8	-0.025104359
159	0x3d36f0e8	0.04466334
160	0x3d2bc08a	0.041931666
161	0x3d7e16da	0.06203351
162	0x3c5b7f88	0.013397105
163	0x3d43c894	0.047798708
164	0xbd737ef4	-0.059447244
165	0x3d77bf5c	0.06048523
166	0x3ca00b80	0.019536734
167	0x3d0eb6f2	0.03484244
168	0xbb9df770	-0.0048207566
169	0x3d2f0ea8	0.042738587
170	0xbd7cca70	-0.061716497
171	0x3d271eec	0.040800974
172	0x3c062ce8	0.008189417
173	0x3c42ad78	0.0118821785
174	0x3c8323bc	0.01600825
175	0xbc1f2f40	-0.009715855
176	0xbce1fca0	-0.027586281
177	0xbcd8d240	-0.026467443
178	0xbd6401d2	-0.0556658
179	0x3c166058	0.009178244
180	0x3c9ff318	0.019525096
181	0x3d72b3f4	0.059253648
182	0x3b9d9a10	0.0048096254
183	0xbd14fcfc	-0.036374077
184	0x3d7b290a	0.061318435
185	0xbd05d58c	-0.032674357
186	0xbd66f8cc	-0.056389615
187	0xbd419b5c	-0.047267303
188	0xbce752e4	-0.028237768
189	0x3d17c046	0.0370486
190	0x3d4cc678	0.049993962
191	0x3d1f6dcc	0.03892307
192	0xbc2ccce8	-0.0105469
193	0xbc7e9178	-0.015537612
194	0x3bab2c60	0.005223796
195	0x3d29efee	0.04148858
196	0x3d7c1980	0.061547756
197	0x3d72fb08	0.059321433
198	0x3c50d548	0.012746163
199	0x3d14a91a	0.03629408
200	0xbd0ace12	-0.03388793
201	0xbd006d80	-0.031354427
202	0xbd1553ea	-0.03645698
203	0x3d6ae5a4	0.05734791
204	0xbcf9c9fc	-0.030491821
205	0xba4a7980	-0.00077237934
206	0xbbd92be0	-0.0066275448
207	0xbc602c70	-0.01368247
208	0x3d099ec4	0.033598676
209	0x3b74b980	0.0037342012
210	0xbca66040	-0.020309567
211	0xbca07af8	-0.019589886
212	0xbc930bcc	-0.017949961
213	0x3bf33a10	0.007422693
214	0xbbf68d40	-0.0075241625
215	0xbcc06de0	-0.023489892
216	0x3d17eb12	0.037089415
217	0x3d25d70e	0.040488295
218	0xbd1432c8	-0.03618124
219	0xbd454f88	-0.04817155
220	0xbccd612c	-0.02507075
221	0x3b6d74c0	0.0036232919
222	0x3b92bfd0	0.0044784322
223	0x3c851c80	0.016248941
224	0xbd12e8d4	-0.035866573
225	0x3d48328e	0.048876338
226	0x3c85adf8	0.016318306
227	0xbcfadd64	-0.030623145
228	0xbd026d36	-0.031842433
229	0xbca527a8	-0.020160511
230	0xbcae4f18	-0.02127795
231	0xbd2d049e	-0.04224073
232	0xbd5a693a	-0.053323008
233	0xbd50b082	-0.05094958
234	0x3d2b4e6e	0.041822843
235	0xbd677aac	-0.056513473
236	0x3d34fefc	0.044188485
237	0x3cef614c	0.0292212
238	0x3d7451ee	0.059648447
239	0x3bc93390	0.00614018
240	0x3cd657bc	0.026164882
241	0xbd366806	-0.0445328
242	0xbd13e102	-0.036103256
243	0xbd68a4ea	-0.0567979
244	0xbb99c5d0	-0.0046927705
245	0xbcdb50e0	-0.026771963
246	0x3b713c00	0.0036809444
247	0x3cf78a14	0.030217208
248	0xbcdd8b84	-0.027044065
249	0xbd26de80	-0.040739536
250	0xbd6a128a	-0.057146586
251	0xbd500c96	-0.050793253
252	0xbd07bc1a	-0.033138372
253	0x3c5184b8	0.01278799
254	0x3b345380	0.002751559
255	0xbb193f20	-0.0023383573
