models/2018-07-27/gan_model.pth (torch, 117138 bytes, 11 tensors)

generator.0.weight f4 [128, 100]
-0.032538287 -0.043697495 0.047608893 -0.04822767 0.044965696 0.0012670977 0.048836224 0.060230542
0.04388858 -0.0039196606 0.025572864 0.07853171 0.040374216 -0.022665923 0.050086793 0.039616104
-0.07078625 0.050593544 0.022838311 0.036723685 -0.0402251 -0.042657256 -0.046710357 -0.034493685
0.053560328 0.020871526 -0.07388618 0.044722967 -0.032246783 0.0031410803 0.026755692 -0.048810866
-0.016131412 -0.0034956103 -0.07652842 0.07340448 -0.029586283 0.053889737 -0.029581878 -0.023703082
0.022945954 0.03120325 0.062853985 -0.0356246 0.030740634 -0.06134278 0.07236076 -0.053624243
-0.05982254 -0.07542252 -0.02393485 0.081969656 -0.024065249 0.01381627 0.09110463 -0.051638298
-0.08825801 0.059109367 0.023272527 0.02137615 -0.02372914 -0.037855603 -0.024049856 -0.023910522
-0.059908517 0.008315618 -0.0011457603 -0.10176735 -0.07598796 -0.04451938 -0.07362139 0.060543556
-0.022094894 0.021732911 0.06580167 0.07417705 -0.057604868 0.03133959 0.0024894523 -0.046556
-0.027624682 -0.07149305 0.018308407 0.0018312304 0.006701773 -0.09614974 0.0930972 0.029516017
-0.019937698 -0.02417088 0.0041854805 0.046959788 0.031485684 0.029939793 -0.0017910512 0.04178123
0.027837668 0.03756545 0.016156007 -0.043509908 -0.123900026 -0.32637835 0.041389562 -0.23984662
0.26642388 -0.058983535 0.22295316 0.19556548 0.27184367 -0.125091 -0.0017762359 0.0701903
0.18097702 -0.19188274 0.13636199 0.17159124 0.0041926973 0.13111362 0.21835472 0.07687378
-0.16063522 -0.09171154 -0.12208844 -0.16919006 0.13718222 0.0592139 -0.1970767 0.16753219
-0.031052776 -0.13658945 0.07409978 0.029888542 0.14014055 -0.04453961 -0.207948 0.10867686
0.05175108 -0.047720328 0.108960904 0.062031526 -0.03241158 -0.24381332 0.18187599 -0.12190986
-0.019936599 -0.1495583 0.18371096 -0.2854539 -0.2458119 -0.16232267 -0.09988434 0.11806167
-0.07216719 -0.12720042 0.11917602 -0.21751493 -0.40509203 -0.038712535 0.22245832 0.24663275
0.003923014 -0.08169029 0.22208925 -0.08139285 -0.041866045 0.032468688 0.04148206 -0.15992913
-0.26574028 -0.05171118 -0.04991822 0.08005538 -0.112193786 0.09821811 0.039142262 0.3300841
0.023456044 0.124394365 0.018045625 -0.06835078 0.09662081 -0.16092466 0.15370695 0.03420447
0.09998644 -0.282433 0.3196042 -0.07331912 -0.07243803 -0.10488868 0.030068098 0.20390265
0.065721996 -0.026772669 0.025578784 0.1757747 0.12384002 0.19611837 0.047580536 0.024724972
-0.11431871 0.02149278 0.14546019 0.1724344 -0.0017151671 -0.08807809 0.021332344 0.12433544
-0.0027688316 0.15541738 0.11483541 0.010538679 0.22526799 0.14607666 0.23016256 -0.26809046
0.26067597 0.28498888 -0.032239627 0.17595161 0.031557716 -0.09392608 -0.061394345 0.16327435
0.1297324 -0.016482923 -0.013191016 -0.09085566 0.16354726 0.21394208 0.14889991 0.09283747
-0.12950897 0.025842447 0.13299102 0.007275649 0.028784413 -0.21818322 -0.16561687 -0.14266708
-0.024571992 0.06704032 0.091495186 0.16195743 -0.067464575 -0.1639941 -0.07372761 -0.07079351
-0.1281164 0.29053888 -0.16499688 0.06385668 0.32729426 0.1669214 -0.12236604 0.12762266
00000000: de46 05bd 25fc 32bd 8b01 433d 618a 45bd
00000010: f32d 383d be14 a63a 7e08 483d 4db4 763d
00000020: 83c4 333d 7f70 80bb 2f7e d13c 3cd5 a03d
00000030: 6f5f 253d e3ad b9bc cf27 4d3d 7f44 223d
00000040: 62f8 90bd 2d3b 4f3d 6917 bb3c 936b 163d
00000050: 13c3 24bd 60b9 2ebd 5c53 3fbd 4049 0dbd
00000060: 1362 5b3d c3fa aa3c a351 97bd 6e2f 373d
00000070: 3415 04bd 95da 4d3b c12e db3c e7ed 47bd
00000080: 0626 84bc 9c16 65bb efba 9cbd 1755 963d
00000090: ef5e f2bc 7cbb 5c3d b255 f2bc f72c c2bc
000000a0: 27f9 bb3c f59d ff3c 97b9 803d 1aeb 11bd
000000b0: c8d3 fb3c 9142 7bbd e131 943d 18a5 5bbd
000000c0: 7b08 75bd 1f77 9abd 0513 c4bc b5df a73d
000000d0: 7c24 c5bc a35d 623c 1095 ba3d ae82 53bd
000000e0: 9ec0 b4bd aa1c 723d 07a6 be3c 091d af3c
000000f0: 9d63 c2bc 7a0e 1bbd 3404 c5bc 00e0 c3bc
00000100: a262 75bd 3b3e 083c 562d 96ba 676b d0bd
00000110: 939f 9bbd f459 36bd d0c6 96bd 85fc 773d
00000120: 5a00 b5bc 3809 b23c 07c3 863d 23ea 973d
00000130: 15f3 6bbd f15d 003d 1426 233b 81b1 3ebd
00000140: 284d e2bc f36a 92bd 83fb 953c e505 f03a
00000150: 8c9a db3b 28ea c4bd bfa9 be3d 93cb f13c
00000160: 6254 a3bc 0202 c6bc 5b26 893b e858 403d
00000170: 22f7 003d 4c44 f53c b5c1 eaba cc22 2b3d
00000180: d20b e43c 3bde 193d 9a59 843c 7237 32bd
00000190: 4cbf fdbd 101b a7be 1a88 293d 5a9a 75be
000001a0: b668 883e b898 71bd d54d 643e 5142 483e
000001b0: 182f 8b3e db17 00be 96d0 e8ba efbf 8f3d
000001c0: 0a52 393e e97c 44be 7aa2 0b3e 9db5 2f3e
000001d0: e562 893b a642 063e 6198 5f3e 0070 9d3d
000001e0: 8f7d 24be 43d3 bbbd 8109 fabd 2940 2dbe
000001f0: 7f79 0c3e 468a 723d 79ce 49be 8f8d 2b3e
00000200: 6462 febc 1bde 0bbe a0c1 973d d1d8 f43c
00000210: 0181 0f3e 2b6f 36bd 52f0 54be f991 de3d
00000220: f1f8 533d 6476 43bd e526 df3d c514 7e3d
00000230: 01c2 04bd 33aa 79be b33d 3a3e e0ab f9bd
00000240: 1452 a3bc d025 19be ba1e 3c3e 0327 92be
00000250: 1db6 7bbe ea37 26be 2990 ccbd 51ca f13d
00000260: 64cc 93bd d440 02be 8f12 f43d 3cbc 5ebe
00000270: 3968 cfbe 0991 1ebd 1dcc 633e 4c8d 7c3e
00000280: a08c 803b 3d4d a7bd 5d6b 633e 4bb1 a6bd
00000290: bb7b 2bbd e3fd 043d 18e9 293d 76c4 23be
000002a0: 1c0f 88be 1acf 53bd 0c77 4cbd 13f4 a33d
000002b0: dbc5 e5bd 9426 c93d a353 203d c800 a93e
000002c0: e426 c03c 79c2 fe3d 6bd4 933c 7efb 8bbd
000002d0: 22e1 c53d 6fc9 24be 5b65 1d3e fd19 0c3d
000002e0: b1c5 cc3d 0f9b 90be 29a3 a33e 5628 96bd
000002f0: 645a 94bd e0cf d6bd 5f51 f63c dbcb 503e
00000300: 4199 863d 5b52 dbbc 998a d13c 48fe 333e
00000310: d69f fd3d 41d3 483e cfe3 423d 068c ca3c
00000320: ee1f eabd a011 b03c 84f3 143e a592 303e
00000330: 75cf e0ba 4962 b4bd 2bc1 ae3c 94a3 fe3d
00000340: 4975 35bb bc25 1f3e d42e eb3d 6caa 2c3c
00000350: a7ac 663e 1f95 153e bcaf 6b3e 2743 89be
00000360: 5277 853e 10ea 913e b30d 04bd a92c 343e
00000370: aa42 013d 515c c0bd a378 7bbd 6431 273e
00000380: 92d8 043e 3207 87bc 221f 58bc 8812 babd
00000390: ef78 273e a213 5b3e 3879 183e 9221 be3d
000003a0: 009e 04be 8ab3 d33c cc2e 083e 9168 ee3b
000003b0: 4acd eb3c 6c6b 5fbe 7897 29be 5217 12be
000003c0: 344b c9bc 6f4c 893d d461 bb3d 2bd8 253e
000003d0: de2a 8abd 12ee 27be 80fe 96bd 30fc 90bd
000003e0: f230 03be 83c1 943e f1f4 28be 4bc7 823d
000003f0: 1d93 a73e 72ed 2a3e 0c9b fabd 84af 023e

generator.0.bias f4 [128]
-0.43842492 0.30138493 0.30034804 -0.3960109 -0.4543542 0.42201993 -0.40550065 0.40397123
-0.2774009 -0.50674194 0.4104144 0.28639984 -0.47278014 0.24117452 -0.33621636 -0.39773637
0.18096754 -0.5000264 -0.49834296 -0.002449206 -0.48047253 0.23378852 0.29521647 -0.49916536
-0.28147152 -0.37558353 -0.4415338 0.21590443 -0.48926738 0.3452769 0.1430287 0.0027199194
-0.5255351 -0.58062214 -0.45684764 0.26376015 -0.47175056 0.027121708 0.36392274 -0.45431343
0.06267578 -0.1828151 -0.011187992 0.55636305 0.53172773 0.31739905 0.28528312 -0.32959014
0.3157041 -0.46793225 -0.45910898 0.22938542 0.13101916 -0.49433348 0.074654564 0.3424447
-0.36448377 -0.00038710667 0.15272391 -0.3996799 0.1009655 -0.43327332 0.20145597 -0.33894634
0.41032878 0.05999118 0.30317223 0.16129656 -0.09559099 -0.45210266 -0.4252086 0.06717962
-0.38296667 -0.40334883 0.4291374 -0.46809798 -0.41727224 -0.31580296 0.24374215 -0.29874656
0.18498811 -0.32779565 0.2078069 0.7072126 -0.5073203 0.3818406 0.17806384 -0.4225674
0.5292611 0.12403741 0.1783787 -0.41609925 -0.28568795 -0.34434843 0.040787663 -0.46843857
0.0992668 -0.47088486 0.33378989 0.34925202 -0.37979585 -0.45979318 -0.45134267 -0.4555216
0.20773186 0.1745544 -0.5203904 0.084516264 -0.39214766 -0.5145571 0.26705357 0.24758977
-0.46149153 0.27419406 -0.29815817 0.17133987 0.050502125 -0.371161 -0.4695215 -0.44217807
0.14212912 -0.37398297 -0.39529592 0.3273021 -0.46923786 -0.3586741 0.15610588 0.029848138
00000000: 3b79 e0be 204f 9a3e 38c7 993e f1c1 cabe
00000010: 1da1 e8be ff12 d83e c89d cfbe 51d5 ce3e
00000020: 7e07 8ebe d7b9 01bf d621 d23e 00a3 923e
00000030: 3d10 f2be 74f6 763e 8d24 acbe 1aa4 cbbe
00000040: 8e4f 393e bb01 00bf cf26 ffbe dc82 20bb
00000050: 7f00 f6be 4266 6f3e 9d26 973e 9a92 ffbe
00000060: 091d 90be 7c4c c0be b810 e2be 0d16 5d3e
00000070: 4181 fabe 22c8 b03e 1e76 123e ad40 323b
00000080: 7889 06bf a7a3 14bf efe7 e9be 920b 873e
00000090: 4a89 f1be 582e de3c 1554 ba3e c59b e8be
000000a0: 295c 803d e233 3bbe d74d 37bc cf6d 0e3f
000000b0: 4f1f 083f 2182 a23e a110 923e 0ac0 a8be
000000c0: f8a3 a13e d194 efbe 5510 ebbe 03e4 6a3e
000000d0: e329 063e 4719 fdbe 7ee4 983d e954 af3e
000000e0: 9e9d babe 94f4 cab9 a863 1c3e d8a2 ccbe
000000f0: 00c7 ce3d 00d6 ddbe 794a 4e3e 608a adbe
00000100: 9d16 d23e 50b9 753d 6439 9b3e ed2a 253e
00000110: 35c5 c3bd 007a e7be f1b4 d9be 7895 893d
00000120: 3514 c4be bd83 cebe e6b7 db3e 8aaa efbe
00000130: b5a4 d5be edb0 a1be 8b97 793e 4ff5 98be
00000140: 866d 3d3e d5d4 a7be 55cb 543e e30b 353f
00000150: bedf 01bf 9c80 c33e 5e56 363e c15a d8be
00000160: a87d 073f 5307 fe3d e8a8 363e f60a d5be
00000170: b145 92be 704e b0be f710 273d 2ed7 efbe
00000180: 644c cb3d d217 f1be 82e6 aa3e 29d1 b23e
00000190: 9a74 c2be 036a ebbe 6316 e7be 213a e9be
000001a0: a9b7 543e 63be 323e 4e38 05bf dd16 ad3d
000001b0: 94c7 c8be 04ba 03bf 3fbb 883e 2c88 7d3e
000001c0: 9e48 ecbe 2a63 8c3e 30a8 98be b873 2f3e
000001d0: 51db 4e3d d108 bebe 1f65 f0be 2a65 e2be
000001e0: 4c8a 113e b27a bfbe 3a64 cabe 2494 a73e
000001f0: f23f f0be 22a4 b7be 38da 1f3e 1584 f43c

generator.2.weight f4 [64, 128]
0.03456358 -0.21469152 -0.0022832647 -0.0201526 0.17060696 0.10610569 0.0081348615 0.21152283
-0.09536126 0.22513455 -0.36267278 -0.21414314 0.1253002 -0.17085154 -0.007999874 0.1062087
-0.21829623 0.21199487 0.08517528 -0.21179214 0.053080026 0.08446477 -0.27939516 0.16258271
0.29991344 0.045797702 0.031498026 -0.028065242 0.08275647 0.019777937 0.29894 -0.11863551
0.056592073 0.17117167 0.21408695 -0.2279216 0.12346964 0.39169884 -0.12131594 0.23525806
-0.088322684 0.18829031 -0.030498106 -0.2837478 -0.35505268 0.1606836 -0.0032623939 0.05041935
0.3455479 0.1664667 -0.082752764 0.020272024 -0.2122664 0.07732066 -0.16155072 0.42997313
-0.08006532 0.23590648 -0.25987086 0.1588627 0.43856153 0.1718314 -0.21468522 0.21771342
-0.22703154 -0.108593106 -0.30309927 -0.110141665 -0.1411081 0.16632353 -0.03872204 -0.15009028
0.06745466 0.01752381 -0.14300326 -0.0577799 0.20057428 0.0344874 -0.12165332 -0.08194122
-0.19006181 0.06682836 0.29119852 -0.48169327 0.04951703 -0.3187868 -0.205044 -0.094905116
-0.31477755 -0.070692934 -0.073067784 -0.019348854 0.13899636 0.10082252 -0.16469847 -0.036952905
-0.14689611 0.22913867 -0.07330855 0.016056817 0.006381635 0.16040757 -0.03876893 0.16351658
-0.14841378 -0.17216058 0.044535402 0.19323209 -0.09043129 0.0751727 0.02998152 -0.15234664
-0.023501696 0.136809 0.13237317 -0.063909344 0.518135 -0.05429403 0.11396809 0.13663954
0.32726353 0.08841539 0.05436348 -0.11893155 0.18813615 0.051231522 0.23373649 -0.18335518
0.10810417 -0.11301846 0.053675283 0.097569406 0.13189948 -0.109136395 0.111924246 -0.19667251
0.046320044 0.1119548 -0.029218558 -0.051226288 0.07012821 -0.005610605 0.041987795 0.028677475
0.0048898873 0.14531828 0.15360315 -0.015141522 0.16225415 -0.017060947 -0.08051468 0.06876164
0.10483004 0.17117736 0.033990223 0.041702796 0.11664036 -0.13890332 -0.15990542 0.038706746
0.066516265 0.059753746 0.09337591 -0.022022638 0.15180302 0.00025304448 -0.012683366 0.07166763
0.01223934 -0.033558857 0.008249649 -0.22295013 -0.15536216 -0.034310706 0.031801395 0.0045125713
-0.07657799 0.12621993 0.14721072 -0.07984302 0.063080065 0.0715949 0.20032193 0.07330555
0.17480648 -0.18720381 -0.048327804 0.13061552 0.07395714 0.048039395 0.07089817 0.034489006
0.010411656 0.061799973 0.071358204 0.06739778 -0.0034679929 0.07855696 0.1734823 0.06804808
0.15175869 0.12002796 -0.04096627 0.20440364 0.14262 0.18719932 0.12606686 0.0421323
-0.0035712174 0.13192534 -0.31792802 -0.106336646 0.13027354 -0.032910112 -0.0025960375 0.17532213
-0.1515227 -0.0586847 0.06336157 0.06702938 0.0037585446 0.14259714 0.055820093 0.23895617
0.11970755 0.012693693 -0.10330016 -0.0061309068 0.12607719 -0.019945081 0.0482785 0.18356119
-0.03840308 -0.08148521 0.029527726 -0.2668822 0.20129554 0.15147756 -0.12410902 -0.04809537
0.14297134 -0.05815325 -0.0021220327 -0.04656862 -0.026447468 0.14973237 0.07910906 0.16403644
-0.2786848 0.06649497 0.030668842 -0.11899832 0.09133222 0.078805685 -0.13733026 0.0654349
00000000: 8a92 0d3d 18d8 5bbe d3a2 15bb 1117 a5bc
00000010: 97b3 2e3e f14d d93d 1548 053c 7199 583e
00000020: c44c c3bd ac89 663e 3fb0 b9be 5748 5bbe
00000030: b24e 003e b5f3 2ebe e711 03bc f283 d93d
00000040: 0c89 5fbe 2f15 593e 6170 ae3d 0ae0 58be
00000050: 716a 593d defb ac3d e20c 8fbe 157c 263e
00000060: 418e 993e 5f96 3b3d 1304 013d 14e9 e5bc
00000070: 397c a93d 5705 a23c aa0e 993e 2df7 f2bd
00000080: 17cd 673d a047 2f3e 9c39 5b3e 4864 69be
00000090: a7dd fc3d c08c c83e 7e74 f8bd 7de7 703e
000000a0: 86e2 b4bd 2dcf 403e 2ad7 f9bc 6447 91be
000000b0: 77c9 b5be 3e8a 243e e3cd 55bb 8584 4e3d
000000c0: a8eb b03e 3f76 2a3e 487a a9bd 8411 a63c
000000d0: 5d5c 59be 4b5a 9e3d 8d6d 25be 7025 dc3e
000000e0: 49f9 a3bd 7891 713e cb0d 85be e7ac 223e
000000f0: 238b e03e 92f4 2f3e 71d6 5bbe 44f0 5e3e
00000100: f57a 68be 1066 debd d42f 9bbe f491 e1bd
00000110: a47e 10be b750 2a3e 009b 1ebd 44b1 19be
00000120: ab25 8a3d 188e 8f3c 726f 12be 9eaa 6cbd
00000130: 5863 4d3e a942 0d3d 6025 f9bd ccd0 a7bd
00000140: 909f 42be 4fdd 883d f917 953e 80a0 f6be
00000150: 5fd2 4a3d 0638 a3be 0ef7 51be 9d5d c2bd
00000160: 862a a1be 75c7 90bd 90a4 95bd 7d81 9ebc
00000170: 1055 0e3e 0a7c ce3d b7a6 28be ee5b 17bd
00000180: ef6b 16be 54a3 6a3e cb22 96bd 9689 833c
00000190: 091d d13b e241 243e 2bcc 1ebd e470 273e
000001a0: c8f9 17be dd4a 30be c16a 363d a2de 453e
000001b0: 0a34 b9bd 25f4 993d ce9b f53c c200 1cbe
000001c0: a186 c0bc a917 0c3e d58c 073e e7e2 82bd
000001d0: 7fa4 043f 6b63 5ebd 1a68 e93d 3ceb 0b3e
000001e0: 168f a73e 2113 b53d 3eac 5e3d 6292 f3bd
000001f0: c3a6 403e 25d8 513d 9e58 6f3e 76c1 3bbe
00000200: b865 dd3d 3976 e7bd 9dda 5b3d 78d2 c73d
00000210: a810 073e e782 dfbd 8a38 e53d 8564 49be
00000220: 16ba 3d3d 8f48 e53d c25b efbc a8d2 51bd
00000230: 619f 8f3d 2ad9 b7bb 65fb 2b3d 06ed ea3c
00000240: 593b a03b 51ce 143e 254a 1d3e 2514 78bc
00000250: f425 263e 66c3 8bbc e1e4 a4bd e7d2 8c3d
00000260: 22b1 d63d 1e49 2f3e 5539 0b3d 8dd0 2a3d
00000270: 24e1 ee3d ac3c 0ebe 3fbe 23be f78a 1e3d
00000280: ae39 883d 58c0 743d de3b bf3d d268 b4bc
00000290: 4072 1b3e 0eab 8439 e5cd 4fbc 7ac6 923d
000002a0: 8387 483c 0375 09bd 8929 073c 0a4d 64be
000002b0: 4217 1fbe 6289 0cbd 2e42 023d 31de 933b
000002c0: ecd4 9cbd cc3f 013e 68be 163e bd84 a3bd
000002d0: 1f30 813d 59a0 923d 3121 4d3e 3821 963d
000002e0: 7800 333e 5bb2 3fbe 60f3 45bd 13c0 053e
000002f0: d776 973d f5c4 443d 0f33 913d 5844 0d3d
00000300: a795 2a3c f821 7d3d 4024 923d d907 8a3d
00000310: 4447 63bb 79e2 a03d 58a5 313e cb5c 8b3d
00000320: a166 1b3e 38d1 f53d 3fcc 27bd 304f 513e
00000330: fa0a 123e 2eb1 3f3e ac17 013e eb92 2c3d
00000340: 160b 6abb 7017 073e 76c7 a2be 07c7 d9bd
00000350: 6d66 053e c1cc 06bd 4822 2abb a587 333e
00000360: c428 1bbe 5e5f 70bd b6c3 813d b346 893d
00000370: ea51 763b fc04 123e 9ca3 643d edb0 743e
00000380: 3b29 f53d 35f9 4f3c 098f d3bd c6e5 c8bb
00000390: 611a 013e de63 a3bc adbf 453d 77f7 3b3e
000003a0: 8c4c 1dbd b8e1 a6bd 21e4 f13c c9a4 88be
000003b0: 6b20 4e3e ef1c 1b3e df2c febd a7ff 44bd
000003c0: 1467 123e 1a32 6ebd cd11 0bbb bdbe 3ebd
000003d0: 5ca8 d8bc 7153 193e ee03 a23d 2bf9 273e
000003e0: c6af 8ebe 842e 883d 393d fb3c 64b5 f3bd
000003f0: 630c bb3d e064 a13d 4ea0 0cbe bc02 863d

generator.2.bias f4 [64]
0.08436395 -0.011863222 -0.12038968 0.73580754 0.16368745 0.015511958 0.19051982 -0.11861675
0.21440111 0.30353498 0.06590341 0.09417876 -0.1011136 0.12744091 0.35563356 0.21231113
0.25557855 0.20504238 0.32420933 0.12852174 0.8338326 0.22437935 0.12813215 0.11710077
0.1739052 0.07621312 0.18059723 0.11184479 0.23248108 -0.0639669 -0.04712575 0.10142964
0.32360065 0.57987523 0.2106989 -0.061739627 0.3529884 0.04187345 -0.054522242 -0.06874934
0.20248702 0.031155625 0.03726766 0.28607515 -0.1321613 0.20291547 0.22836627 0.25679567
0.14943163 0.06858952 -0.080466025 0.263143 0.3241775 -0.07033906 0.11870022 0.2130034
0.23582959 0.12510818 0.16021611 0.26692855 0.030376421 0.14376633 0.0049890215 0.0003431513
00000000: 02c7 ac3d f65d 42bc dd8e f6bd e25d 3c3f
00000010: af9d 273e de25 7e3c a117 433e 57ed f2bd
00000020: f78b 5b3e f068 9b3e 5ef8 863d cbe0 c03d
00000030: a614 cfbd df7f 023e 9a15 b63e 1768 593e
00000040: 31db 823e a1f6 513e c4fe a53e 349b 033e
00000050: 0e76 553f b3c3 653e 1335 033e 87d2 ef3d
00000060: 3414 323e a015 9c3d 7bee 383e e20e e53d
00000070: 850f 6e3e 1401 83bd ee06 41bd 58ba cf3d
00000080: fcae a53e b472 143f 74c1 573e b1e2 7cbd
00000090: e5ba b43e 7f83 2b3d b752 5fbd 74cc 8cbd
000000a0: c258 4f3e 153a ff3c f9a5 183d 7178 923e
000000b0: 4b55 07be 13c9 4f3e d9d8 693e b97a 833e
000000c0: 9b04 193e aa78 8c3d 5fcb a4bd aeba 863e
000000d0: 98fa a53e ed0d 90bd 1a19 f33d 901d 5a3e
000000e0: 507d 713e 5c1c 003e b10f 243e dcaa 883e
000000f0: f9d7 f83c 7b37 133e f27a a33b fde8 b339

generator.4.weight f4 [37, 64]
-0.06668768 0.098952286 0.018042736 -0.5108812 0.1324892 -0.24020709 -0.24410455 0.06817765
-0.27216634 0.27069077 0.16940838 -0.066645235 -0.006441825 -0.1893206 -0.3126687 0.107018635
-0.16959564 -0.07799608 0.14211164 -0.08157304 0.46326 -0.06750289 -0.064330265 -0.04119532
-0.06263696 -0.1703381 0.09629424 0.070424825 -0.0735479 -0.10403884 -0.00836102 -0.21649063
-0.11359241 0.2225254 -0.20191063 -0.21523593 -0.45796266 -0.039352704 -0.08991168 0.017403146
-0.10716905 -0.1879291 -0.10094851 -0.090742424 -0.17509685 -0.011336609 0.17715262 -0.33585456
0.039109666 -0.10508428 -0.013448414 -0.09478417 -0.0071554277 -0.07359185 -0.038649593 -0.17213613
-0.10958574 -0.22228743 0.12447928 -0.21575674 -0.00530751 -0.048765775 -0.04698713 -0.035196047
-0.31027412 0.077386305 0.04073471 0.3262876 -0.0071973023 0.15361245 0.17893083 -0.010151599
0.20938435 0.15482593 0.2484422 0.22142069 0.15274373 0.23748425 -0.2682396 -0.28139225
0.1627487 0.3273924 0.095053956 0.25846374 0.124803804 0.33493286 0.294181 0.34268078
0.17211452 0.19645314 -0.1211121 -0.13824508 0.10506732 -0.11314195 0.11924223 0.19482443
-0.04159364 -0.09422415 0.12501156 0.046881378 -0.3307462 -0.093252435 0.23377147 0.13224378
-0.052400615 -0.09565054 -0.064854704 -0.010961869 0.033522688 -0.2082341 0.28886512 -0.13013731
0.28268117 0.34909868 0.17353442 0.024521101 0.3230052 0.017880905 -0.09753174 -0.005521891
0.15574099 0.34066245 0.033048376 -0.035882685 0.081886955 -0.015288422 0.053019837 0.087297514
-0.16973819 0.105448574 -0.022318348 -0.13157527 0.017059866 0.12047664 0.036875863 0.03954624
0.021835787 0.21502869 0.19462788 0.2408474 -0.029452227 0.19311039 -0.24110003 -0.09226009
-0.14250581 0.16038263 0.0429827 0.08563337 -0.19566724 0.22440182 0.23120496 0.13055068
0.15602906 0.041798834 0.058445804 -0.046638645 -0.06375567 -0.019367654 0.0037881082 0.16089715
-0.35776147 -0.20330606 0.09471236 0.032777444 -0.50950104 -0.039880235 0.070024714 0.24497625
-0.12285198 -0.17205033 -0.060334284 0.052213658 -0.0023356057 -0.31216934 0.232039 -0.11152968
0.17880931 0.22424671 0.09971227 -0.16168047 0.12900724 0.07910499 -0.08417187 -0.22755754
-0.09205604 0.34873217 0.079685055 -0.086181484 -0.010132885 -0.028561432 0.017407227 0.052904677
-0.41506132 -0.07512079 -0.007887076 -0.052587952 0.12458813 0.22511186 0.39634967 0.002773752
0.26769638 0.067768104 0.0740289 0.19406131 0.027186887 0.12986986 -0.31156024 -0.1113761
0.04762299 0.37545437 0.13023484 0.21998492 -0.04034309 0.3588656 0.44575962 0.315061
0.27766943 0.24609311 -0.12569869 -0.27215162 0.03138769 -0.17900509 0.082323596 0.12594436
-0.04008937 -0.027952556 0.29819763 -0.05214959 -0.1579159 -0.06106817 0.09855441 0.1901313
0.020813407 0.029736279 -0.19065702 -0.06397536 -0.0090177115 -0.2108545 0.20057186 -0.052717965
0.37077332 0.21475685 -0.059470773 -0.12042238 0.23576592 -0.006968467 -0.022958195 0.08168161
0.12900455 0.16354173 0.10901985 -0.18726224 -0.1138412 -0.08417077 -0.06777609 0.03389907
00000000: 8d93 88bd 7fa7 ca3d 5cce 933c 1cc9 02bf
00000010: 40ab 073e d9f8 75be 8bf6 79be b9a0 8b3d
00000020: 6359 8bbe fb97 8a3e 6479 2d3e 4c7d 88bd
00000030: f215 d3bb 42dd 41be 1d16 a0be 962c db3d
00000040: 7baa 2dbe 69bc 9fbd b785 113e c40f a7bd
00000050: 6a30 ed3e f53e 8abd 96bf 83bd 6dbc 28bd
00000060: ce47 80bd 1c6d 2ebe ea35 c53d e43a 903d
00000070: 48a0 96bd 5112 d5bd a9fc 08bc b8af 5dbe
00000080: 23a3 e8bd b3dd 633e a9c1 4ebe cf66 5cbe
00000090: 157a eabe 4d30 21bd 9d23 b8bd 0b91 8e3c
000000a0: 727b dbbd 7c70 40be 18be cebd 2ad7 b9bd
000000b0: 974c 33be 2fbd 39bc 7f67 353e 21f5 abbe
000000c0: 7531 203d 6d36 d7bd bd56 5cbc 341e c2bd
000000d0: 1478 eabb 53b7 96bd 094f 1ebd 7444 30be
000000e0: 7d6e e0bd 519f 63be feee fe3d 56ef 5cbe
000000f0: 9fea adbb 9fbe 47bd 9475 40bd bb29 10bd
00000100: 40dc 9ebe b67c 9e3d 70d9 263d 2b0f a73e
00000110: 59d7 ebbb 954c 1d3e a539 373e e452 26bc
00000120: da68 563e b08a 1e3e a267 7e3e 1bbc 623e
00000130: da68 1c3e 122f 733e b356 89be a512 90be
00000140: 98a7 263e fa9f a73e a6ab c23d 5c55 843e
00000150: 2399 ff3d 527c ab3e e49e 963e db73 af3e
00000160: ca3e 303e 032b 493e 9f09 f8bd 1e90 0dbe
00000170: 892d d73d f7b6 e7bd 4535 f43d 0e80 473e
00000180: 185e 2abd 97f8 c0bd 0803 003e b006 403d
00000190: 9157 a9be 22fb bebd ca61 6f3e ea6a 073e
000001a0: 07a2 56bd 6ee4 c3bd 8bd2 84bd 6999 33bc
000001b0: 164f 093d 523b 55be 21e6 933e b742 05be
000001c0: 96bb 903e 10bd b23e 02b3 313e 7ae0 c83c
000001d0: f060 a53e fa7a 923c b9be c7bd fbf0 b4bb
000001e0: 917a 1f3e 4f6b ae3e bc5d 073d b9f9 12bd
000001f0: 59b4 a73d 4a7c 7abc 542b 593d 0ac9 b23d
00000200: d9cf 2dbe 6cf5 d73d f8d4 b6bc abbb 06be
00000210: 22c1 8b3c 75bc f63d 250b 173d 3dfb 213d
00000220: f7e0 b23c 7b30 5c3e 884c 473e b3a0 763e
00000230: cc45 f1bc bbbe 453e ede2 76be dcf2 bcbd
00000240: 0bed 11be 583b 243e a10e 303d 8c60 af3d
00000250: fe5c 48be 97c9 653e fec0 6c3e 14af 053e
00000260: 15c6 1f3e 4135 2b3d de64 6f3d 2a08 3fbd
00000270: 5592 82bd eaa8 9ebc e941 783b 39c2 243e
00000280: 832c b7be 772f 50be 8ef8 c13d a441 063d
00000290: a96e 02bf 7559 23bd 1e69 8f3d 0edb 7a3e
000002a0: d299 fbbd f62d 30be 1521 77bd fddd 553d
000002b0: f610 19bb a9d4 9fbe a29b 6d3e ac69 e4bd
000002c0: ca19 373e eea0 653e f235 cc3d 918f 25be
000002d0: 791a 043e cc01 a23d 4d62 acbd d804 69be
000002e0: e187 bcbd 068d b23e eb31 a33d eb7f b0bd
000002f0: 6604 26bc aaf9 e9bc 9a99 8e3c 93b2 583d
00000300: eb82 d4be eed8 99bd cb38 01bc 7766 57bd
00000310: 1028 ff3d b983 663e 58ee ca3e d6c7 353b
00000320: 800f 893e 01ca 8a3d 779c 973d 02b8 463e
00000330: 09b7 de3c 9bfc 043e d384 9fbe 2719 e4bd
00000340: 5310 433d 8e3b c03e 485c 053e ba43 613e
00000350: cc3e 25bd 3bbd b73e 9b3a e43e ad4f a13e
00000360: b02a 8e3e d5ff 7b3e 28b7 00be 7557 8bbe
00000370: 6190 003d 1c4d 37be 4699 a83d 8ff7 003e
00000380: c034 24bd c2fc e4bc 5cad 983e cf9a 55bd
00000390: b5b4 21be 9e22 7abd e5d6 c93d c8b1 423e
000003a0: e180 aa3c 7f99 f33c 983b 43be 8305 83bd
000003b0: 06bf 13bc 3eea 57be b662 4d3e cbee 57bd
000003c0: 00d6 bd3e 38e9 5b3e a097 73bd 02a0 f6bd
000003d0: 9f6c 713e bd57 e4bb d312 bcbc b048 a73d
000003e0: c519 043e 7c77 273e cd45 df3d acc1 3fbe
000003f0: 9325 e9bd ba61 acbd 31ce 8abd c0d9 0a3d

generator.4.bias f4 [37]
-0.1218671 -0.060927127 -0.0704109 -0.17141953 -0.103230976 -0.1771365 0.0019382319 -0.25183526
-0.114319 -0.20459498 -0.10526504 -0.023712583 -0.028274883 -0.13022128 -0.009464561 -0.06878753
-0.083354205 -0.13393307 -0.43788525 0.06860268 -0.057198755 -0.24433084 0.0008790279 -0.07075452
-0.08509611 -0.047749482 0.009514991 -0.12142132 -0.2051572 -0.106482156 -0.031660203 -0.21625732
-0.21219492 0.11820124 -0.21817124 -0.20133622 -0.27942532
00000000: 7595 f9bd b98e 79bd 9733 90bd 9a88 2fbe
00000010: c36a d3bd 4563 35be 450c fe3a 8df0 80be
00000020: 1420 eabd 5981 51be 3395 d7bd e440 c2bc
00000030: baa0 e7bc ba58 05be 3f11 1bbc 7ae0 8cbd
00000040: 9cb5 aabd c025 09be 7f32 e0be 907f 8c3d
00000050: 3e49 6abd dd31 7abe 906e 663a bfe7 90bd
00000060: df46 aebd f694 43bd c4e4 1b3c beab f8bd
00000070: bb14 52be 5113 dabd 21ae 01bd 8f72 5dbe
00000080: a049 59be 7e13 f23d 4868 5fbe 152b 4ebe
00000090: d610 8fbe

discriminator.0.weight f4 [64, 37]
0.20984979 0.15011063 -0.04924599 0.10325427 -0.09523736 -0.06480565 0.08785158 0.059434492
0.3186269 0.17567925 0.0014430766 -0.008940948 0.16428562 0.065312415 0.119635284 0.013754312
0.14452967 0.25407526 0.038650535 -0.30710754 0.1269721 0.15893458 0.037092865 -0.14437346
0.07482436 0.055984978 0.060968347 0.053021442 0.024026467 -0.025723794 -0.07618012 0.3183331
0.075442426 -0.04322027 0.022162315 0.123652324 -0.07120283 0.25975055 -0.06492232 -0.049710933
0.021536786 -0.0443635 0.2811383 0.059289005 0.17287527 -0.02030573 0.040739983 0.32747674
0.19351691 0.08686112 0.10195919 -0.09423461 0.13534807 0.31708863 -0.12241242 0.13633214
0.20214714 0.18875442 -0.085226476 -0.24793406 0.12044781 0.05544665 -0.030004557 -0.10435783
-0.026004218 0.14849202 -0.13572821 -0.08110555 0.06410369 -0.096339956 0.05388009 -0.07705445
0.076895595 0.10629115 -0.12796862 -0.2159264 0.17751893 -0.19666697 0.15403776 0.090102345
0.00048464898 -0.22628397 -0.07513126 0.1590148 0.021161098 -0.413412 -0.018289855 0.39531413
0.012553102 0.042378638 0.09083694 -0.029469596 -0.2103869 0.07690959 0.030155549 0.04458749
0.0077875685 -0.26525226 -0.11029341 0.18693994 -0.006278023 0.10175411 0.13238887 -0.074208446
0.19083717 0.33369958 -0.1739112 0.11618559 0.30450708 -0.02128089 0.17623667 -0.34606534
-0.057671763 0.011463166 -0.374941 0.09545156 0.23675023 0.18510202 0.22792497 0.122612
0.34193903 0.23331222 0.23426752 0.20784153 0.20708543 -0.39888152 -0.1628833 -0.11453525
0.06307383 -0.14160961 0.19975789 0.2456933 0.4806716 -0.12446502 0.15955628 -0.12292277
-0.0047674524 0.1754232 0.014659399 -0.37629154 0.25356638 -0.008014542 0.25261515 -0.19584487
-0.39386195 -0.12039191 0.23626883 0.10285512 -0.32498527 -0.12945685 0.04467055 0.17584552
0.1077666 0.064320676 -0.14724194 -0.0318974 0.13836117 -0.023719935 -0.051553704 -0.04928196
0.12045181 -0.17934787 0.17925459 0.20347722 -0.09555986 -0.14642675 0.14464499 0.17489913
-0.16998407 0.28871852 -0.0005554362 0.15816432 0.32513195 -0.19161664 0.15263449 -0.08117609
0.093472876 0.13562822 0.46206802 -0.13515183 -0.10964868 -0.03906784 -0.04923153 -0.16151373
0.024273038 -0.013328788 0.013680685 -0.08422905 0.615226 -0.05888035 0.09373781 0.17974053
0.12716322 -0.12500308 -0.045499265 0.05682486 0.11564483 0.07867031 -0.31154123 -0.20513897
-0.081262276 0.12794401 -0.2623966 0.02596115 -0.41244933 0.26710972 0.11613329 0.06073817
0.18965176 -0.28457847 0.16589674 -0.08608318 0.022769522 -0.09660536 0.4081932 -0.009614382
0.12831412 -0.17469749 -0.4764588 0.12223552 -0.08611411 -0.09369015 -0.0373881 -0.08291153
0.17619045 0.008753449 0.19990703 -0.008632035 0.1368076 -0.19253622 -0.32340977 -0.20108466
-0.14669377 0.03575976 -0.20137292 0.062511325 0.057840902 -0.25940078 -0.007350867 -0.13193598
-0.08921339 -0.120193124 -0.44734192 0.16739832 0.32439673 -0.34488288 0.06831066 -0.18327738
-0.2749577 -0.5045266 -0.2718624 -0.37440786 0.06597807 -0.35825774 -0.081032775 0.04413275
00000000: dde2 563e 9ab6 193e 2ab6 49bd fa76 d33d
00000010: ce0b c3bd d3b8 84bd 87eb b33d 9571 733d
00000020: 1123 a33e 43e5 333e 9e25 bd3a 0e7d 12bc
00000030: 7d3a 283e 84c2 853d 5803 f53d c459 613c
00000040: 96ff 133e 2716 823e 0650 1e3d 333d 9dbe
00000050: f904 023e bfbf 223e b0ee 173d a3d6 13be
00000060: 843d 993d 8150 653d f2b9 793d 032d 593d
00000070: 27d3 c43c b5ba d2bc 5304 9cbd 8efc a23e
00000080: 8f81 9a3d bd07 31bd be8d b53c 6e3d fd3d
00000090: cad2 91bd 06fe 843e fef5 84bd b19d 4bbd
000000a0: ea6d b03c 80b6 35bd 5cf1 8f3e 07d9 723d
000000b0: 3706 313e 3458 a6bc f8de 263d 08ab a73e
000000c0: 4c29 463e 3ee4 b13d fbcf d03d 13fe c0bd
000000d0: af98 0a3e 7159 a23e 5db3 fabd a79a 0b3e
000000e0: a9ff 4e3e d748 413e 388b aebd 6de2 7dbe
000000f0: 57ad f63d 071c 633d 1ecc f5bc 8fb9 d5bd
00000100: cc06 d5bc 4b0e 183e 56fc 0abe ab1a a6bd
00000110: cc48 833d e24d c5bd 5fb1 5c3d b9ce 9dbd
00000120: 707b 9d3d 2daf d93d 350a 03be cf1b 5dbe
00000130: 86c7 353e 1163 49be 13bc 1d3e 9487 b83d
00000140: 7c18 fe39 fcb6 67be 6bde 99bd c7d4 223e
00000150: 0a5a ad3c bdaa d3be 9bd4 95bc 9d66 ca3e
00000160: 87ab 4d3c 3995 2d3d b808 ba3d 396a f1bc
00000170: aa6f 57be c682 9d3d c508 f73c 5fa1 363d
00000180: dc2e ff3b 25cf 87be 83e1 e1bd 2f6d 3f3e
00000190: e0b7 cdbb 7564 d03d f390 073e 99fa 97bd
000001a0: d26a 433e acda aa3e c715 32be b6f2 ed3d
000001b0: 5ae8 9b3e 4355 aebc 6377 343e 7a2f b1be
000001c0: 3a39 6cbd 01d0 3b3c 44f8 bfbe 1c7c c33d
000001d0: a76e 723e 628b 3d3e 2a65 693e 001c fb3d
000001e0: a212 af3e 66e9 6e3e d3e3 6f3e 69d4 543e
000001f0: 340e 543e 333a ccbe e1ca 26be 7591 eabd
00000200: da2c 813d 1c02 11be 558d 4c3e 0697 7b3e
00000210: 971a f63e 84e7 febd b962 233e efbe fbbd
00000220: 4a38 9cbb 24a2 333e fa2d 703c 49a9 c0be
00000230: 74d3 813e 6d4f 03bc c656 813e 8f8b 48be
00000240: 46a8 c9be 0990 f6bd 75f0 713e b5a5 d23d
00000250: 7864 a6be 5690 04be 77f8 363d d910 343e
00000260: bcb4 dc3d 8fba 833d 97c6 16be d9a6 02bd
00000270: 8dae 0d3e 4f50 c2bc fa29 53bd e1db 49bd
00000280: 70af f63d f8a6 37be 848e 373e 555c 503e
00000290: e3b4 c3bd e5f0 15be d11d 143e c218 333e
000002a0: 4e10 2ebe ead2 933e b19a 11ba d4f5 213e
000002b0: b277 a63e 2737 44be 374c 1c3e a63f a6bd
000002c0: b56e bf3d 20e2 0a3e 2e94 ec3e 3e65 0abe
000002d0: 7d8f e0bd 9905 20bd 00a7 49bd db63 25be
000002e0: 40d8 c63c fd60 5abc f424 603c 4880 acbd
000002f0: 737f 1d3f 862c 71bd 9cf9 bf3d e70d 383e
00000300: 1337 023e cf00 00be 705d 3abd 2fc1 683d
00000310: 32d7 ec3d e61d a13d 5582 9fbe f30f 52be
00000320: d66c a6bd c103 033e d958 86be 7aac d43c
00000330: 8f2c d3be 9bc2 883e 4ad7 ed3d 96c8 783d
00000340: 1234 423e 45b4 91be d6e0 293e 614c b0bd
00000350: 2687 ba3c 08d9 c5bd b3fe d03e a485 1dbc
00000360: c764 033e e6e3 32be 68f2 f3be 9e56 fa3d
00000370: 985c b0bd 9fe0 bfbd 4424 19bd 85cd a9bd
00000380: 456b 343e a06a 0f3c 6eb4 4c3e 616d 0dbc
00000390: 4b17 0c3e 3728 45be f795 a5be 23e9 4dbe
000003a0: e436 16be d378 123d b434 4ebe f005 803d
000003b0: 95ea 6c3d 2ed0 84be 8bdf f0bb 3a1a 07be
000003c0: 83b5 b6bd d027 f6bd 000a e5be 776a 2b3e
000003d0: 5417 a63e 7d94 b0be 76e6 8b3d 11ad 3bbe
000003e0: 41c7 8cbe a828 01bf 8c31 8bbe 63b2 bfbe
000003f0: 831f 873d 8f6d b7be 83f4 a5bd 8bc4 343d

discriminator.0.bias f4 [64]
-0.027953247 0.28727975 0.1814023 -0.10074539 0.05664378 0.019101119 -0.06874431 0.1255305
-0.07901783 -0.11987804 -0.07719033 0.48153755 0.090023875 -0.084737524 -0.05444955 -0.021415515
0.047490053 0.030430522 0.040891003 0.028459782 0.010726449 0.21372782 0.25032547 0.0140807135
0.32846898 -0.024663966 -0.05058604 -0.13206057 -0.046248984 0.00049055595 0.16985379 0.15624021
0.60149145 0.14254671 -0.08462343 0.2071931 -0.100875676 -0.024188664 -0.76060224 0.17637463
-0.15754397 -0.06804331 0.20665717 0.12345489 0.12913458 0.22355631 -0.05162588 0.30644232
-0.0722629 -0.019740146 0.2826179 0.07667186 -0.080986544 0.015652107 0.10891484 0.13757855
-0.01452848 0.12180559 0.06849499 -0.05490407 -0.113169804 0.09330109 0.12609413 0.1252595
00000000: 35fe e4bc 5516 933e 86c1 393e 9953 cebd
00000010: 4f03 683d f379 9c3c d1c9 8cbd 118b 003e
00000020: 1ad4 a1bd 9e82 f5bd f715 9ebd 178c f63e
00000030: 705e b83d de8a adbd 7e06 5fbd 976f afbc
00000040: ee84 423d 6e49 f93c 537d 273d 7d24 e93c
00000050: fdbd 2f3c 77db 5a3e a92a 803e cbb2 663c
00000060: 162d a83e 160c cabc 4f33 4fbd e33a 07be
00000070: 936f 3dbd a798 003a 27ee 2d3e 6ffd 1f3e
00000080: 58fb 193f c4f7 113e 0d4f adbd 6e2a 543e
00000090: e897 cebd 4e27 c6bc d4b6 42bf 8d9b 343e
000000a0: 3553 21be 4a5a 8bbd f09d 533e ebd5 fc3d
000000b0: db3b 043e f2eb 643e a975 53bd 02e6 9c3e
000000c0: 92fe 93bd 16b6 a1bc 4bb3 903e 2306 9d3d
000000d0: 46dc a5bd d938 803c be0e df3d 64e1 0c3e
000000e0: dd08 6ebc 3675 f93d 1a47 8c3d 17e3 60bd
000000f0: 92c5 e7bd a414 bf3d d21e 013e 0744 003e

discriminator.2.weight f4 [32, 64]
-0.013975133 -0.111084804 0.1639032 0.0860122 -0.10130967 0.015289528 0.39213938 -0.08483555
0.074449755 0.03485029 0.22114879 -0.07974819 0.26487628 0.103208646 0.1280258 0.39959785
0.22805044 0.11824489 0.046422165 0.10914326 -0.0002390936 -0.04616785 -0.1566766 -0.13269934
-0.07797956 0.17053202 -0.1602014 -0.22681256 -0.12762195 0.14171518 -0.24598384 -0.06418911
-0.2501376 0.11817027 -0.12015333 -0.03341919 -0.060780358 -0.14612815 -0.2290663 -0.030190712
0.08085627 0.16859464 -0.05900035 -0.015935944 0.17583035 0.07428471 0.08938508 -0.15971087
0.1628066 0.58969676 0.11883315 0.11377705 0.11134091 0.37523142 -0.008356323 -0.03763972
0.056984257 -0.26792586 0.05712423 -0.17886834 0.15670961 -0.06902622 -0.17365834 -0.045912802
-0.045666266 -0.11526485 0.25018102 0.39840645 0.09345662 0.3093028 0.64155245 0.08545344
0.3502396 0.4508535 0.445356 -0.51270705 0.35867137 0.37960193 0.06143392 0.6338919
0.29180065 0.31821254 -0.29633015 0.07103241 0.029703889 -0.2590776 0.049630273 0.025867447
0.0005329896 0.22194815 -0.14042546 -0.12502547 0.004915971 0.1465593 -0.22082628 0.03826025
-0.5669318 0.46485412 -0.15971728 -0.13510606 0.2978472 0.056186978 -0.36876562 -0.14819576
0.12687856 0.17790309 -0.21350846 0.080051005 0.08751747 0.10381503 0.4113784 -0.31519884
0.5043197 0.97022986 -0.29007193 0.031236472 0.62839514 0.36387008 0.20451286 -0.19342366
0.11051731 -0.02578897 0.12887219 0.05267179 0.39970675 0.41393203 0.14582258 -0.11696967
-0.16002287 0.060873237 0.3910511 0.078642435 0.044379365 0.22234893 0.4428024 -0.22439392
0.19196203 0.09455345 0.0702828 -0.03667235 0.101511136 -0.04387961 0.06560721 0.30605158
0.15494326 0.045761395 -0.059412114 0.043380875 0.026667504 -0.20589463 -0.14112797 -0.23506953
-0.1316164 0.12786756 -0.16262563 -0.21423402 -0.18242383 0.16069448 -0.296136 -0.27452993
-0.21457383 0.037840117 0.04175867 -0.35062176 0.10406751 -0.14592136 -0.32704085 -0.16897534
0.07935117 0.00078987377 -0.25900766 0.1895474 0.097134024 -0.057637833 0.018709248 -0.18799497
0.35243112 0.4343227 -0.025833683 0.16263911 0.16311145 0.26958072 -0.10426538 -0.25276902
0.03602794 -0.19912295 0.2244029 -0.12451447 0.4925606 -0.035062894 0.03043571 -0.12655787
-0.12135209 -0.24942335 0.1957503 0.16009359 0.1474348 0.10674236 0.3904726 -0.2710074
0.080227345 0.12754507 0.030718701 -0.046359196 0.17437723 0.09900586 0.069442466 0.46514148
-0.037366103 0.23821208 -0.01222993 0.014058439 0.03033524 -0.18315938 -0.0930934 -0.1281022
-0.103447214 0.20474285 -0.2145504 -0.20209166 -0.06376703 0.13363925 -0.2872349 -0.16963437
-0.08694668 0.15760514 -0.18248041 -0.073453955 0.028985746 -0.05064166 -0.087894425 -0.090578444
0.13300456 0.10009661 -0.07647201 0.01568356 -0.02728299 -0.0126301395 0.107455894 -0.117084235
0.047509547 0.50002307 -0.09966617 0.006626113 0.056955528 0.23418055 -0.044324055 -0.03209254
-0.118450284 -0.010447525 0.20540507 -0.011693657 0.29305688 0.029683713 -0.107056156 -0.11240849
00000000: f5f7 64bc 6e80 e3bd 3ed6 273e 2a27 b03d
00000010: 727b cfbd ee80 7a3c 7ec6 c83e 43be adbd
00000020: 1d79 983d 2dbf 0e3d d474 623e 0553 a3bd
00000030: dd9d 873e 0e5f d33d 3219 033e 1798 cc3e
00000040: 0e86 693e 602a f23d 2b25 3e3d 8086 df3d
00000050: 33b5 7ab9 801a 3dbd d56f 20be 56e2 07be
00000060: bfb3 9fbd f29f 2e3e d60b 24be 8d41 68be
00000070: 54af 02be c91d 113e 30e3 7bbe 9575 83bd
00000080: 0912 80be 4103 f23d f312 f6bd 90e2 08bd
00000090: d3f4 78bd 9ea2 15be 5b90 6abe 8352 f7bc
000000a0: f997 a53d 13a4 2c3e 5aaa 71bd 198c 82bc
000000b0: df0c 343e 9522 983d 860f b73d 3f8b 23be
000000c0: c6b6 263e 5ef6 163f cb5e f33d f103 e93d
000000d0: b406 e43d 551e c03e f5e8 08bc 1b2c 1abd
000000e0: 5368 693d 942d 89be 19fb 693d 4329 37be
000000f0: 7c78 203e 9e5d 8dbd 7ed3 31be 100f 3cbd
00000100: 8d0c 3bbd fa0f ecbd ba17 803e eefb cb3e
00000110: 2f66 bf3d f05c 9e3e c83c 243f 3702 af3d
00000120: 9b52 b33e 45d6 e63e b405 e43e c540 03bf
00000130: c6a3 b73e 2f5b c23e 22a2 7b3d bd46 223f
00000140: e566 953e c1ec a23e 96b8 97be 7179 913d
00000150: 9255 f33c d2a5 84be 1d49 4b3d f8e7 d33c
00000160: 54b8 0b3a 6046 633e b1cb 0fbe ad06 00be
00000170: 2716 a13b a413 163e 4920 62be c8b6 1c3d
00000180: 7122 11bf 5c01 ee3e ed8c 23be 3e59 0abe
00000190: 6e7f 983e 5124 663d d9ce bcbe a1c0 17be
000001a0: 74ec 013e 3a2c 363e f6a1 5abe c8f1 a33d
000001b0: 5c3c b33d f99c d43d 31a0 d23e be61 a1be
000001c0: 191b 013f fc60 783f 4f84 94be a1e3 ff3c
000001d0: 81de 203f 2e4d ba3e d26b 513e da10 46be
000001e0: e656 e23d 6443 d3bc 12f7 033e 60be 573d
000001f0: 5da6 cc3e e6ee d33e 8452 153e cb8d efbd
00000200: 09dd 23be 3756 793d da37 c83e 490f a13d
00000210: 23c7 353d 70af 633e ffb6 e23e 85c7 65be
00000220: b291 443e 3da5 c13d 6ef0 8f3d bf35 16bd
00000230: 12e5 cf3d 1bbb 33bd 135d 863d cbb2 9c3e
00000240: 72a9 1e3e 4d70 3b3d 1e5a 73bd 25b0 313d
00000250: cf75 da3c 0bd6 52be da83 10be 11b6 70be
00000260: 73c6 06be b7ef 023e 5587 26be 2a60 5bbe
00000270: 50cd 3abe 188d 243e 239f 97be 308f 8cbe
00000280: 3eb9 5bbe 3dfe 1a3d 240b 2b3d b284 b3be
00000290: 5921 d53d 696c 15be e671 a7be df07 2dbe
000002a0: de82 a23d 880f 4f3a a79c 84be b718 423e
000002b0: 34ee c63d a615 6cbd 2344 993c c181 40be
000002c0: da71 b43e 8c5f de3e 29a1 d3bc de8a 263e
000002d0: b006 273e 7c06 8a3e 1689 d5bd f16a 81be
000002e0: 0992 133d e3e6 4bbe e0c9 653e 7101 ffbd
000002f0: e730 fc3e 1c9e 0fbd 4f54 f93c 6398 01be
00000300: 7287 f8bd d668 7fbe c472 483e 93ef 233e
00000310: 26f9 163e bd9b da3d 06ec c73e 7bc1 8abe
00000320: 3c4e a43d 2d9b 023e c9a5 fb3c 24e3 3dbd
00000330: f28f 323e 96c3 ca3d da37 8e3d 0627 ee3e
00000340: 330d 19bd deed 733e 0b60 48bc 5e55 663c
00000350: 9c81 f83c 228e 3bbe c1a7 bebd 392d 03be
00000360: 22dc d3bd 1ca8 513e 1ab3 5bbe 1ef1 4ebe
00000370: 4a98 82bd bad8 083e 7410 93be a2b4 2dbe
00000380: 1a11 b2bd 3e63 213e 25dc 3abe 076f 96bd
00000390: 8473 ed3c a16d 4fbd fe01 b4bd 3181 b9bd
000003a0: 5932 083e 74ff cc3d 5b9d 9cbd cf7a 803c
000003b0: 9480 dfbc a5ee 4ebc d611 dc3d dcc9 efbd
000003c0: 5f99 423d 8301 003f c71d ccbd dd1f d93b
000003d0: 334a 693d 07cd 6f3e 248d 35bd 7873 03bd
000003e0: 1096 f2bd 192c 2bbc b555 523e c196 3fbc
000003f0: 8d0b 963e 422b f33c 4240 dbbd 6c36 e6bd

discriminator.2.bias f4 [32]
-0.1588597 -0.057873573 -0.014974316 -0.10455502 0.081501134 0.19976272 0.016396765 0.011194226
-0.123457104 -0.07446302 -0.06420756 -0.13586569 -0.19741489 0.05435444 0.17100196 -0.12237584
-0.11506118 0.047111314 -0.0712333 -0.121148355 0.30135694 0.009420682 -0.09618732 0.060003687
-0.03691575 -0.12870401 -0.050796673 -0.022576064 0.27590257 -0.10926589 -0.03833614 -0.008532784
00000000: 1eac 22be d70c 6dbd d556 75bc f120 d6bd
00000010: 11ea a63d 998e 4c3e 8252 863c fd67 373c
00000020: 14d7 fcbd 1180 98bd 417f 83bd 6020 0bbe
00000030: 2127 4abe c3a2 5e3d 231b 2f3e 2fa0 fabd
00000040: 32a5 ebbd cbf7 403d c4e2 91bd a11c f8bd
00000050: 754b 9a3e 3459 1a3c dcfd c4bd 6dc6 753d
00000060: f834 17bd fcca 03be 2c10 50bd 70f1 b8bc
00000070: 1a43 8d3e ccc6 dfbd 5b06 1dbd 17cd 0bbc

discriminator.4.weight f4 [1, 32]
0.1492534 0.5558039 0.3885254 0.21323073 -0.51234615 -0.42593792 -0.01489414 -0.08160369
0.165777 0.25385404 0.462077 0.67947555 0.42387852 -0.4266791 -0.51426953 0.18279618
-0.15699215 -0.58490497 0.43910995 0.23489793 -0.6344254 0.45388955 0.23296592 -0.08306539
-0.061575554 -0.04091004 -0.10880459 0.30322757 -0.464931 0.14320448 0.23234972 -0.081175834
00000000: e2d5 183e 2a49 0e3f cdec c63e 2859 5a3e
00000010: 1e29 03bf 8914 dabe 8d06 74bc d61f a7bd
00000020: 72c1 293e 28f9 813e 5b95 ec3e 1cf2 2d3f
00000030: 9b06 d93e af75 dabe 2ba7 03bf ec2e 3b3e
00000040: 8dc2 20be 55bc 15bf 05d3 e03e 1589 703e
00000050: b469 22bf 3664 e83e 9e8e 6e3e 301e aabd
00000060: a636 7cbd 4991 27bd f1d4 debd a540 9b3e
00000070: 700b eebe 32a4 123e 16ed 6d3e 843f a6bd
