models/2024-10-18/lstm_model.onnx (onnx, 468420 bytes, 6 tensors)

fc.weight f4 [7, 256]
0	0x3d909bc2	0.070609584
1	0x3d347763	0.04405917
2	0x3d278fe0	0.040908694
3	0xbd555617	-0.052084055
4	0x3dfaa9de	0.12239431
5	0x3d73dda5	0.05953755
6	0xbd3e375f	-0.046439525
7	0xbd385727	-0.04500499
8	0x3d928457	0.07154148
9	0xba4524a1	-0.0007520412
10	0xbe39526a	-0.18097845
11	0xbdef3b72	-0.1168126
12	0x3d7fa478	0.06241271
13	0x3c811602	0.015757564
14	0x3dbe300f	0.0928651
15	0x3d797067	0.06089821
16	0xbdaa5278	-0.08316511
17	0xbc341332	-0.010990905
18	0xbe26517f	-0.16242026
19	0xbe1aca9a	-0.15116349
20	0x3dc54aa1	0.09633375
21	0xbd697e70	-0.057005346
22	0x3d473d08	0.04864219
23	0xbcbb4644	-0.022860654
24	0xbdf2815d	-0.1184108
25	0x3ca04933	0.019566154
26	0xbddb3cf9	-0.10704989
27	0x3d23fbf1	0.040035192
28	0xbd2cf6a3	-0.0422274
29	0xbc6f1e2e	-0.014594598
30	0x3d14f7f7	0.03636929
31	0x3e4517b2	0.1924732
32	0x3c2e28e6	0.010629868
33	0x3d0a7fb0	0.03381318
34	0x3d7eafbf	0.062179323
35	0x3d465123	0.04841722
36	0xbd0d36b3	-0.034475993
37	0xbd38781f	-0.04503643
38	0x3dd1dcbb	0.10247179
39	0x3dfdec05	0.12398533
40	0x3ccd8fdc	0.025093012
41	0x3bd370fc	0.006452678
42	0xbc8728ab	-0.016498884
43	0xbce6aae1	-0.028157653
44	0x3dd0bfe4	0.1019285
45	0x3ccfb18a	0.025353212
46	0xbde8efbb	-0.1137385
47	0x3c80926d	0.015694821
48	0xbce3c036	-0.027801614
49	0x3ce164a1	0.027513804
50	0xbac81840	-0.0015266016
51	0xbe15c579	-0.14626111
52	0x3bb1f422	0.005430714
53	0x3d3ee7d3	0.046607804
54	0x3da3ded6	0.08001487
55	0x3d6f22b7	0.058382716
56	0x3d6ad9a2	0.057336457
57	0xbddbf714	-0.10740486
58	0xbddcee58	-0.10787648
59	0xbe2991a3	-0.16559462
60	0x3d87403e	0.0660405
61	0xbb5312ad	-0.0032207177
62	0x3d3fa311	0.04678637
63	0xbca0ff41	-0.019652965
64	0x3a8748d2	0.0010321385
65	0xbaa38ecf	-0.0012478473
66	0x3c078c2a	0.008273164
67	0xbdacf265	-0.084446706
68	0x3df2afd1	0.118499406
69	0xbb9310f3	-0.0044881045
70	0xbd47a253	-0.04873879
71	0xbc00145d	-0.007817355
72	0xbca6a2cf	-0.020341305
73	0x3d5b5d1a	0.053555585
74	0x3da29a1b	0.079395495
75	0xbd0741e9	-0.03302184
76	0xbe840e22	-0.25792032
77	0x3ccbbdf1	0.024870845
78	0x3c942383	0.01808334
79	0xbdcd0889	-0.100113936
80	0xbb0c7daa	-0.0021437206
81	0xbd707d03	-0.05871297
82	0x3cbcf8c5	0.023067841
83	0x3d69e2ac	0.057100937
84	0x3c8440a3	0.016144102
85	0xbcada277	-0.021195633
86	0xbdf515fd	-0.119670846
87	0x3e0bc10b	0.13647859
88	0xbc9c255f	-0.019060789
89	0x3db0ac9e	0.08626674
90	0xbd65c512	-0.056096144
91	0xbc04e92f	-0.008112236
92	0xbbb954ed	-0.005655876
93	0x3cda6bf5	0.026662806
94	0x3d7157fc	0.0589218
95	0xbc3bc85c	-0.011461344
96	0xbc328477	-0.01089584
97	0x3d86c284	0.0658007
98	0x3d9b4fa8	0.075835526
99	0x3d1e5650	0.038656533
100	0x3d9f27d0	0.077712655
101	0xbd6dc073	-0.058044862
102	0x3bd6cba3	0.006555037
103	0xbd8d37be	-0.068953976
104	0xb907ae66	-0.00012939572
105	0x3d2643a2	0.040591843
106	0x3c186f5c	0.009303894
107	0xbda00b9e	-0.07814716
108	0xbc808d78	-0.015692458
109	0x3c922328	0.01783903
110	0x3e04faf7	0.1298636
111	0xbc5312d2	-0.012882905
112	0xbda30e15	-0.0796167
113	0xbd842efa	-0.064542726
114	0x3ccae39f	0.024766741
115	0xbd29c6b2	-0.041449256
116	0xbce2ea51	-0.027699621
117	0xbd12b732	-0.03581924
118	0x3d4eb479	0.05046508
119	0x3cdc4b86	0.026891481
120	0xbe08dd39	-0.1336564
121	0xbd6df2bf	-0.05809283
122	0xbdb3d512	-0.08780874
123	0xbd61424c	-0.054994866
124	0x3d9ac56a	0.07557185
125	0x3dc2f61f	0.095196
126	0x3ce0803b	0.027404895
127	0xbdc9b8ba	-0.09849687
128	0x3cb77227	0.0223933
129	0x3c9669e2	0.018361036
130	0xbd16ed94	-0.036847666
131	0x3d4c1cb3	0.049832057
132	0x3c2af8e0	0.010435313
133	0x3db4ad60	0.08822131
134	0x3b81622f	0.003948472
135	0x3b1edc18	0.0024240073
136	0xbd169a97	-0.036768522
137	0xbc81f9d7	-0.015866203
138	0x3bd4c90d	0.0064936937
139	0xbd6bd806	-0.057579063
140	0xbc69414d	-0.01423676
141	0x3aba87ee	0.0014231184
142	0x3c9b5684	0.018962152
143	0xbce1edb7	-0.027579172
144	0xbd50901f	-0.050918695
145	0xbdc594e5	-0.0964754
146	0x3ddc1d5f	0.107477896
147	0x3c572fda	0.013133967
148	0x3cc16d6c	0.023611747
149	0x3d9d3cca	0.0767761
150	0xbd6f57f7	-0.0584335
151	0xbdc3acac	-0.09554419
152	0x3cdaa26d	0.026688779
153	0x3d0d802f	0.034546074
154	0x3cec1842	0.02882016
155	0x3def92d0	0.11697924
156	0xbe05f5b8	-0.13082016
157	0x3ce65cce	0.028120425
158	0x3dda0e55	0.10647265
159	0x3d20c3e8	0.03924933
160	0xbd2cc843	-0.042183172
161	0x3d47e929	0.048806343
162	0xbd4cdd25	-0.050015587
163	0x3c8411ec	0.016121827
164	0xbcac4ca4	-0.021032639
165	0xbe4e3112	-0.20135906
166	0x3d8304de	0.06397413
167	0xbd0fd2ce	-0.03511315
168	0xbc9cbd6a	-0.019133288
169	0xbdc468d3	-0.09590306
170	0x3e8224e6	0.25418776
171	0x3c250f45	0.010074441
172	0x3cb2b681	0.02181554
173	0x3da46640	0.08027315
174	0xbbecc21e	-0.007225289
175	0xbd768567	-0.060185816
176	0x3d5c08c3	0.053719293
177	0x3e7a95b0	0.24471164
178	0x3ce27b81	0.027646782
179	0xbd647220	-0.0557729
180	0x3dc07235	0.09396783
181	0x3d678400	0.05652237
182	0xbbbd38d8	-0.0057745986
183	0x3dbe5647	0.092938
184	0x3d074875	0.033028085
185	0x3da29e4c	0.07940349
186	0x3d76d6a7	0.060263302
187	0x3d83b515	0.06431023
188	0xbd6bb9be	-0.057550184
189	0xba02edf9	-0.0004994567
190	0xbdd7825e	-0.105229124
191	0xbcc248f3	-0.023716426
192	0x3c646e43	0.013942304
193	0xbd1f27ed	-0.038856436
194	0xbd325e0e	-0.04354673
195	0x3d2561d4	0.0403765
196	0xbc35541a	-0.011067415
197	0xbc274be7	-0.010210968
198	0x3cf0e9a4	0.029408284
199	0xbd25c853	-0.040474247
200	0x3d02f8d3	0.03197558
201	0xbb862c23	-0.004094617
202	0xbd3355a2	-0.043782838
203	0xbc90367e	-0.017604109
204	0x3dcc75f6	0.09983437
205	0x3da8979d	0.08232043
206	0xbdffaa12	-0.1248361
207	0xbc475148	-0.012165375
208	0xbdd85880	-0.10563755
209	0x3daba510	0.083810925
210	0xbe37fae0	-0.17966795
211	0x3dc6a959	0.09700269
212	0x3dd3f31c	0.10349104
213	0xbc57c38a	-0.013169179
214	0x3e83805e	0.25683874
215	0x3c90a409	0.017656343
216	0xbd6b5204	-0.057451263
217	0x3dc903f5	0.09815208
218	0x3c75961a	0.0149894
219	0x3a4b13f8	0.0007746811
220	0x3c9e712e	0.019341078
221	0xbd9497b8	-0.072555006
222	0xbce3d43c	-0.027811162
223	0xbcd40fc8	-0.025886431
224	0xbe0941a2	-0.13403943
225	0xbc23b3bd	-0.009991583
226	0x3d8775bb	0.06614252
227	0xbd82b05a	-0.06381293
228	0xbc76c341	-0.015061201
229	0xbd164a70	-0.036692083
230	0x3da8d6ac	0.082440704
231	0x3cb10762	0.021609966
232	0x3c0c5565	0.0085652815
233	0x3d1b06aa	0.037848152
234	0xbd12a47e	-0.035801403
235	0x3d75ecc3	0.060040247
236	0x3ae64bca	0.0017570194
237	0x3dbf9382	0.09354307
238	0x3da8d235	0.08243219
239	0x3d93e4d8	0.07221383
240	0x3cfcb0ff	0.030846117
241	0x3d0412ce	0.032244496
242	0xbd78c589	-0.06073526
243	0x3dbfad4b	0.09359225
244	0x3d8ca72c	0.06867823
245	0x3dd3b2bc	0.10336825
246	0x3c1bbc98	0.0095054135
247	0x3c8425b0	0.016131252
248	0xbc84f24e	-0.016228821
249	0xbdbeffc0	-0.09326124
250	0x3c1cb025	0.0095634805
251	0x3dc4a6e8	0.09602147
252	0xbcc4a5a1	-0.02400476
253	0xbe163438	-0.14668357
254	0xbe083e08	-0.13304913
255	0xbcd7b6ec	-0.026332341

fc.bias f4 [7]
0	0x3d21ddf6	0.03951832
1	0x3d0b367b	0.033987503
2	0x3d99566e	0.07487188
3	0x3d83925d	0.06424401
4	0x3d9f34cc	0.07773742
5	0x3dd3be4f	0.10339033
6	0x3dea0ab4	0.11427823

onnx::GRU_197 f4 [2, 768]
0	0xbddd42a6	-0.10803728
1	0xbe0fdf84	-0.14050108
2	0xbde2314a	-0.110445574
3	0xbdef79ef	-0.11693179
4	0xbda2d3e9	-0.07950575
5	0xbe0bf495	-0.1366752
6	0xbd72aac7	-0.059244897
7	0xbe4e647c	-0.20155519
8	0xbde2bef2	-0.11071576
9	0xbda675a3	-0.08127906
10	0xbea48be6	-0.32137984
11	0xbdbd97b4	-0.09257451
12	0xbe20097b	-0.15628617
13	0xbd9cd415	-0.07657639
14	0xbdcf1ac6	-0.101125285
15	0xbe215020	-0.15753222
16	0xbd998e36	-0.07497828
17	0xbe54360f	-0.20723747
18	0xbe711737	-0.23544012
19	0xbe3c49e6	-0.18387565
20	0xbe531d68	-0.20616686
21	0xbd96518b	-0.07339772
22	0xbe0d0c26	-0.13774166
23	0xbde1ca63	-0.1102493
24	0xbe480632	-0.19533613
25	0xbdcfc6ac	-0.101453155
26	0xbdd49f31	-0.10381926
27	0xbe6d1289	-0.23151602
28	0xbe4c7efa	-0.19970313
29	0xbe550113	-0.20801191
30	0xbddd3c2c	-0.108024925
31	0xbd8b36ce	-0.067975625
32	0xbe4bedaf	-0.19914888
33	0xbdd34592	-0.10316004
34	0xbe666158	-0.22498071
35	0xbe367612	-0.17818478
36	0xbd950ba7	-0.07277613
37	0xbe4186dd	-0.18899103
38	0xbd90cabb	-0.07069918
39	0xbe159821	-0.14608814
40	0xbd95bede	-0.07311796
41	0xbdc735ce	-0.09727059
42	0xbdd0e832	-0.10200538
43	0xbe6b33de	-0.22969005
44	0xbdf33f6c	-0.11877331
45	0xbe673f49	-0.22582735
46	0xbe1b42fb	-0.1516227
47	0xbdd593a2	-0.10428549
48	0xbdf7c84a	-0.12098749
49	0xbe3dfc7c	-0.18553346
50	0xbd3d61ca	-0.046235837
51	0xbe0284e8	-0.12746012
52	0xbd8563a9	-0.06513149
53	0xbe54d46d	-0.20784159
54	0xbe0e2e10	-0.13884759
55	0xbe2e6146	-0.17029294
56	0xbe2ec987	-0.17069064
57	0xbe357db8	-0.17723739
58	0xbe130a2e	-0.14359352
59	0xbd9e6cdf	-0.07735609
60	0xbdfd0750	-0.123549104
61	0xbe28ab5a	-0.16471615
62	0xbe2c17f8	-0.16806018
63	0xbd419815	-0.047264177
64	0xbddd405a	-0.1080329
65	0xbe6bf9a6	-0.23044452
66	0xbe152855	-0.14566167
67	0xbe21a15b	-0.15784208
68	0xbe39d5ad	-0.18147917
69	0xbe03d2ac	-0.12873334
70	0xbe1bbc9c	-0.15208668
71	0xbdce0805	-0.10060123
72	0xbd7fa185	-0.062409896
73	0xbe393c69	-0.18089451
74	0xbdb11594	-0.08646694
75	0xbe6f9b80	-0.23399162
76	0xbeb4adf9	-0.3528898
77	0xbda43e13	-0.08019652
78	0xbde0ad0d	-0.10970507
79	0xbdbfe7a2	-0.09370352
80	0xbe0cc5ec	-0.13747376
81	0xbd47b1c9	-0.048753534
82	0xbe3966b9	-0.18105592
83	0xbe4f7eab	-0.20263164
84	0xbd8ac004	-0.06774905
85	0xbe4c6570	-0.1996057
86	0xbe233770	-0.15939116
87	0xbdd9af56	-0.10629146
88	0xbe33dc57	-0.17564522
89	0xbdde9ab4	-0.10869351
90	0xbdb61cff	-0.08892249
91	0xbdbf2f3a	-0.093351796
92	0xbe1c1a37	-0.15244375
93	0xbd9a0b3f	-0.07521676
94	0xbde17987	-0.110095076
95	0xbda7133f	-0.08157968
96	0xbdfda9f6	-0.12385933
97	0xbe17af21	-0.148129
98	0xbd944c41	-0.07241107
99	0xbe43fcbd	-0.19139381
100	0xbe4c6143	-0.19958977
101	0xbdcb98a7	-0.099412255
102	0xbe6c0c34	-0.2305153
103	0xbd86a245	-0.06573919
104	0xbe0a3e52	-0.13500336
105	0xbdc7ef56	-0.097624466
106	0xbe4ff1a1	-0.20307018
107	0xbd86ba99	-0.065785594
108	0xbe2d9be1	-0.16953994
109	0xbe0150d2	-0.12628487
110	0xbdd60f82	-0.10452177
111	0xbd3a2b49	-0.045451436
112	0xbe470870	-0.19436812
113	0xbe3c1c11	-0.18370081
114	0xbe48e10b	-0.19617097
115	0xbcf913fb	-0.030405035
116	0xbe1ec2dd	-0.15504022
117	0xbe1781f2	-0.14795664
118	0xbddd0871	-0.10792626
119	0xbe1b311d	-0.15155454
120	0xbe35cf32	-0.1775482
121	0xbe510b68	-0.20414507
122	0xbdf80902	-0.12111093
123	0xbe6fb257	-0.23407875
124	0xbe0d3694	-0.13790351
125	0xbd885bb7	-0.06658118
126	0xbe0cc75b	-0.13747923
127	0xbd9845cd	-0.074351884
128	0xba169288	-0.0005743881
129	0x3dd4ec5f	0.10396647
130	0x3e1128f9	0.14175786
131	0x3d7c4ff4	0.061599687
132	0xbc0d0b39	-0.008608633
133	0x3d4f1583	0.050557625
134	0x3c0f00f7	0.008728257
135	0x3d1eb931	0.03875083
136	0x3da5a380	0.08087826
137	0xbc828e5c	-0.015937023
138	0xbdcf57df	-0.10124182
139	0x3d73bb75	0.059504945
140	0x3cc13516	0.023584884
141	0xbc863c5a	-0.0163862
142	0x3da1b8a6	0.07896547
143	0x3e12546a	0.14290014
144	0xbde39254	-0.11111894
145	0x3e0fa50d	0.14027806
146	0xbb1220a5	-0.002229729
147	0xbd8da7dc	-0.06916782
148	0x3b22cf31	0.0024842734
149	0x3c52f2b8	0.0128752515
150	0x38f26d33	0.00011559799
151	0x3d99f135	0.0751671
152	0xbd96d7ca	-0.07365377
153	0xbdc1ec03	-0.09468844
154	0x3db6c18d	0.08923636
155	0xbd874629	-0.06605179
156	0x3e37086d	0.17874308
157	0x3ddde856	0.1083533
158	0x3da6194a	0.08110292
159	0xbd05a8cc	-0.03263168
160	0x3db0256c	0.08600888
161	0x3dcea4a0	0.100899935
162	0x3e431996	0.19052729
163	0x3e5116d6	0.20418867
164	0x3e1d00d5	0.15332349
165	0x3c8255ce	0.015910055
166	0x3df5a5a1	0.11994482
167	0x3d298b29	0.04139248
168	0x3c0284a8	0.007966198
169	0xbcdbd462	-0.02683467
170	0x3cf57611	0.029963525
171	0x3c80671a	0.015674163
172	0x3da37b9f	0.07982563
173	0x3e3850ad	0.17999525
174	0xbd77d317	-0.060504045
175	0x3c0466ee	0.008081181
176	0xbdd302fb	-0.10303303
177	0x3cbec5ca	0.023287673
178	0xbd84e5ea	-0.06489165
179	0x3d456668	0.048193365
180	0x3d1118ce	0.035424046
181	0xbd88d3aa	-0.06680997
182	0x3d9e465c	0.07728264
183	0x3cabd8bd	0.020977372
184	0x3d96a341	0.07355357
185	0xbe03e380	-0.12879753
186	0x3d1a2a54	0.037638023
187	0xbd82bec5	-0.06384043
188	0x3c57cc2e	0.013171239
189	0xbd9c62f4	-0.07636061
190	0x3d0b990d	0.034081507
191	0xbdf8491a	-0.12123318
192	0xbcb66750	-0.02226606
193	0x3d8824c4	0.066476375
194	0x3de2b327	0.11069327
195	0x3de7991a	0.11308499
196	0x3d97af39	0.07406468
197	0xbda616e1	-0.081098326
198	0x3de91032	0.11380042
199	0xbde16b51	-0.11006797
200	0x3e0349fb	0.1282119
201	0x3c476fd9	0.012172663
202	0xbcb7d163	-0.02243871
203	0x3e2dd25a	0.16974774
204	0xbd8cc2c5	-0.06873087
205	0x3b41b8a4	0.0029559517
206	0x3e1d28d8	0.15347612
207	0xbd98eebf	-0.07467412
208	0xbb699b91	-0.0035645703
209	0xbcc7f1a9	-0.024407225
210	0xbd218c43	-0.039440405
211	0x3de685bd	0.11255977
212	0x3d6836ef	0.056693014
213	0x3d8205a5	0.06348733
214	0x3ded013c	0.11572501
215	0xbce71fc3	-0.028213387
216	0x3d8138dc	0.06309673
217	0x3d87b6c5	0.066266574
218	0xbd08b082	-0.033371456
219	0x3da7fdd2	0.08202709
220	0x3ce7f285	0.028313885
221	0x3d61f2d9	0.05516324
222	0x3a81602c	0.000987058
223	0xbbb1a113	-0.005420813
224	0x3d9bfb8f	0.0761634
225	0x3e0cdbc9	0.13755716
226	0x3e35f166	0.17767867
227	0x3e46867a	0.19387236
228	0x3e110d30	0.14165187
229	0x3d1a5871	0.037682
230	0xbcd6a5e2	-0.026202146
231	0x3d90fa95	0.07079045
232	0xbd13b88c	-0.03606467
233	0x3d31acc8	0.043377668
234	0x3db854ff	0.09000587
235	0x3e169847	0.14706527
236	0x3d1fd0fd	0.039017666
237	0x3e27f709	0.1640283
238	0xbd0f0245	-0.034914274
239	0x3da14daa	0.07876141
240	0xbd82a65e	-0.06379388
241	0x3c4f7851	0.012662963
242	0xbd4b387e	-0.049614422
243	0x3dd3db4b	0.10344561
244	0xbd8b2ac3	-0.067952655
245	0x3b38f0a8	0.0028219614
246	0x3db69faf	0.08917176
247	0xbb8566d4	-0.004071096
248	0xbd90f58e	-0.07078086
249	0x3d92516e	0.07144438
250	0x3d65d51b	0.056111436
251	0xbdb6b74a	-0.08921678
252	0x3d134503	0.035954487
253	0xbd43df61	-0.047820453
254	0xbddb9e9a	-0.1072361
255	0x3dc72e69	0.09725649

onnx::GRU_198 f4 [2, 384, 19]
0	0xbdd57654	-0.1042296
1	0xbdae6520	-0.08515382
2	0xbeb048a0	-0.34430408
3	0xbd8ae1c2	-0.06781341
4	0xbdf9f33d	-0.12204597
5	0xbe01634a	-0.12635532
6	0xb8e9279c	-0.000111176836
7	0xbe11bb2b	-0.14231555
8	0xbe06b5b2	-0.13155249
9	0xbdd5710a	-0.10421951
10	0xbd92b224	-0.07162884
11	0xbec1e1a2	-0.37867457
12	0xbdbcbc5a	-0.09215613
13	0xbea30861	-0.3184233
14	0xbdf0ce07	-0.117580466
15	0xbd938c0e	-0.07204448
16	0xbdf39f31	-0.11895598
17	0xbdac5cb2	-0.08416118
18	0xbe034503	-0.12819295
19	0x3ccac996	0.024754327
20	0xbdb9ad5e	-0.0906627
21	0xbe927455	-0.2860438
22	0xbe4e07d4	-0.20120174
23	0xbe416c70	-0.18889022
24	0xbd90ea03	-0.07075884
25	0xbc669791	-0.014074222
26	0xbd222caf	-0.039593395
27	0xbe2ea7fe	-0.17056271
28	0xbd799da1	-0.060941342
29	0xbdf4d204	-0.1195412
30	0xbe717226	-0.235787
31	0xbd33c4fa	-0.043889023
32	0xbe8b5cb8	-0.27219176
33	0xbe23a4db	-0.15980856
34	0xbd461b30	-0.04836577
35	0xbe28ad26	-0.16472301
36	0xbd1b3582	-0.037892826
37	0xbe51b4ce	-0.20479128
38	0xbc12bc9d	-0.008956102
39	0xbe560205	-0.20899208
40	0xbea5781d	-0.32318202
41	0xbde06c62	-0.109581724
42	0xbe6291bb	-0.22125904
43	0xbe629afa	-0.22129431
44	0x3c0ff8c6	0.00878734
45	0xbc719825	-0.014745747
46	0xbdbd6e6d	-0.09249578
47	0xbe4b51a5	-0.19855364
48	0xbe0c1e48	-0.13683426
49	0xbe9fd254	-0.31215155
50	0xbd75ab84	-0.059978023
51	0xbe97fc40	-0.2968464
52	0xbe16a0a6	-0.1470972
53	0xbe2cb9a9	-0.16867699
54	0xbded842e	-0.11597477
55	0x3c763d2c	0.015029233
56	0xbd443b2d	-0.047907997
57	0xbda0a0b3	-0.07843151
58	0xbe371479	-0.17878903
59	0xbe6770fd	-0.22601695
60	0xbddc67f7	-0.10762017
61	0xbe1bca10	-0.152138
62	0xbe30e09d	-0.17273183
63	0xbdd455a0	-0.10367894
64	0xbd8c4fb0	-0.06851137
65	0xbddf193e	-0.108934864
66	0xbcedcec3	-0.029029256
67	0xbdd22bf2	-0.10262288
68	0xbe7383df	-0.23780774
69	0xbe291a05	-0.16513832
70	0xbead7a69	-0.33882454
71	0xbe248e0d	-0.16069813
72	0xbe6dedb8	-0.23235214
73	0xbe4c16ce	-0.19930574
74	0xbe53e3a5	-0.20692308
75	0xbe0b1010	-0.13580346
76	0xbdc55f1c	-0.09637281
77	0xbe27fd54	-0.16405231
78	0xbecd4c81	-0.4009743
79	0xbce2dc17	-0.027692838
80	0xbe086071	-0.1331804
81	0xbdb67280	-0.08908558
82	0xbbbe7c75	-0.0058131763
83	0xbe1f2f71	-0.15545441
84	0xbe19d75c	-0.1502356
85	0xbc2b7498	-0.01046481
86	0x3c3c1e4a	0.011481831
87	0xbeb414f1	-0.35172227
88	0xbd565419	-0.052326296
89	0xbec65d89	-0.38743237
90	0xbe2fa265	-0.17151792
91	0xbd9f115d	-0.07766984
92	0xbe1ddeb2	-0.15416983
93	0xbd46755d	-0.04845177
94	0xbdeb3d36	-0.114862844
95	0xbdc708a3	-0.09718444
96	0xbda56f22	-0.080778375
97	0xbe59a86e	-0.21255657
98	0xbe168e58	-0.14702737
99	0xbe4e2c08	-0.20133984
100	0xbe2e5884	-0.17025954
101	0xbe19f184	-0.15033537
102	0xbd69e888	-0.057106525
103	0xbe0d7919	-0.13815726
104	0xbdf60c95	-0.120141186
105	0xbd9493c8	-0.072547495
106	0xbe8569d1	-0.26057294
107	0xbe4e436a	-0.20142904
108	0xbe49c718	-0.19704854
109	0xbdc46498	-0.09589499
110	0xbe546cb1	-0.20744587
111	0xbd8b6013	-0.06805434
112	0xbdad30ba	-0.084565595
113	0xbe257773	-0.16158848
114	0x3d06cb1f	0.032908555
115	0xbe27d9f7	-0.1639174
116	0xbec21db0	-0.37913275
117	0xbe241b34	-0.16026002
118	0xbe1e9bff	-0.15489195
119	0xbe52cbd8	-0.20585573
120	0x3d27afe7	0.040939238
121	0xbd9af5cd	-0.07566414
122	0xbd2d00a5	-0.042236943
123	0xbe87c916	-0.26520604
124	0xbe2a1225	-0.16608484
125	0xbe8373e1	-0.25674346
126	0xbdb5df4a	-0.0888048
127	0xbe88a841	-0.26690868
128	0xbe457049	-0.19281115
129	0xbcb3d4c4	-0.02195204
130	0x3d0508c0	0.032479048
131	0x3d4165fb	0.047216397
132	0xbe14e7b1	-0.14541508
133	0x3bc1e47b	0.0059171296
134	0xbe23d22c	-0.15998143
135	0xbe1ee974	-0.15518743
136	0xbe2e18bc	-0.17001623
137	0xbe39331a	-0.180859
138	0xbe2bce4b	-0.16777913
139	0xbd81e2b8	-0.06342071
140	0xbde38b3e	-0.11110543
141	0xbd374d7e	-0.044751637
142	0xbe0910d4	-0.13385326
143	0xbe671004	-0.22564703
144	0xbe719a4a	-0.23594013
145	0xbe6611d2	-0.22467735
146	0xbe927362	-0.28603655
147	0xbe101cac	-0.14073437
148	0xbde4e632	-0.11176719
149	0xbddf7bd1	-0.10912288
150	0x3caff27b	0.021477928
151	0xbe409a8a	-0.18808952
152	0xbdaca8c9	-0.08430631
153	0xbe33ac57	-0.17546211
154	0xbe839c90	-0.25705385
155	0xbe2fa02b	-0.17150943
156	0xbdb7c942	-0.08973934
157	0xbe52586f	-0.20541547
158	0xbe1ed846	-0.1551219
159	0xbde061af	-0.10956132
160	0xbd96ec4b	-0.07369288
161	0xbe01ea34	-0.12686998
162	0xbdc0ddee	-0.0941733
163	0xbe76401d	-0.24047895
164	0xbd95f6d4	-0.07322469
165	0xbe3e9312	-0.1861079
166	0xbdb7b897	-0.089707546
167	0xbe1fc1a8	-0.15601218
168	0xbe474142	-0.19458488
169	0xbe06a215	-0.13147767
170	0xbde84c91	-0.11342729
171	0x3d377df2	0.044797845
172	0xbe328934	-0.17435151
173	0xbe605a8a	-0.21909538
174	0xbe0779f8	-0.13230121
175	0xbe1458d5	-0.14487012
176	0xbe13c6c0	-0.14431286
177	0xbdc4b44c	-0.096047014
178	0xbc1ccd7b	-0.009570475
179	0xbde2cb64	-0.1107395
180	0xbd932096	-0.0718395
181	0xbe425c64	-0.18980557
182	0xbeacf01d	-0.33776942
183	0xbdf32772	-0.11872758
184	0xbe5a2e48	-0.21306717
185	0xbdb9a8bb	-0.09065386
186	0xbde3fee8	-0.11132604
187	0xbe4666cd	-0.19375153
188	0xbd92622f	-0.07147633
189	0xbe3878aa	-0.1801478
190	0x3e0b796b	0.13620536
191	0xbe6ed79c	-0.23324436
192	0xbea0b068	-0.31384587
193	0xbea41aa6	-0.3205158
194	0xbef918cb	-0.48651728
195	0xbe8d4bc1	-0.27596858
196	0xbd80e068	-0.06292802
197	0xbe1f4bee	-0.15556309
198	0xbbd0b4a9	-0.0063691926
199	0xbed4e6fb	-0.41582474
200	0xbe9fa963	-0.3118392
201	0xbe3085d1	-0.17238547
202	0xbe933047	-0.2874777
203	0xbe8c4377	-0.27395222
204	0xbe4b7a0c	-0.19870776
205	0xbde6f450	-0.11277068
206	0xbc86478e	-0.016391542
207	0x3e3f30e1	0.1867099
208	0xbe74a758	-0.23891962
209	0xbdd9a8b1	-0.106278785
210	0xbda6dad6	-0.081472084
211	0xbe979cac	-0.2961172
212	0xbe283bfd	-0.16429134
213	0xbd97a421	-0.07404352
214	0xbe4dbe85	-0.20092209
215	0xbe03d601	-0.12874605
216	0xbd4ca122	-0.049958356
217	0xbe2ae52a	-0.16688982
218	0xbdeae7e8	-0.11470014
219	0xbd93d573	-0.072184466
220	0xbe9e3d3c	-0.30906093
221	0xbe32f61e	-0.17476699
222	0xbec108c4	-0.37702
223	0xbe4e803b	-0.20166104
224	0xbe038cba	-0.12846652
225	0xbe516d7b	-0.2045192
226	0xbe07cba3	-0.13261275
227	0xbe1555a0	-0.14583445
228	0xbd203718	-0.03911504
229	0xbe2b7444	-0.1674357
230	0xbee0491a	-0.43805772
231	0xbe4a6057	-0.19763313
232	0xbe26bdd7	-0.16283356
233	0xbe64e976	-0.22354683
234	0xbdb970a2	-0.09054686
235	0x3cae9d7b	0.021315327
236	0xbdb7f139	-0.089815564
237	0xbe1c6cf7	-0.15275942
238	0xbdcc6e65	-0.099819936
239	0xbe9bf076	-0.30456895
240	0xbe3be173	-0.18347721
241	0xbec6cfa8	-0.38830304
242	0xbe396601	-0.18105318
243	0xbdf4537b	-0.11929985
244	0xbda79586	-0.08182816
245	0xbddc8bdf	-0.10768866
246	0xbd224a68	-0.03962174
247	0xbdd27bf4	-0.102775484
248	0xbd9d0668	-0.076672375
249	0xbeb0369e	-0.3441667
250	0xbe2c8bb4	-0.16850168
251	0xbe030c63	-0.12797694
252	0xbe4f361c	-0.20235485
253	0xbcb52bef	-0.022115676
254	0xbe29dc68	-0.16587985
255	0xbe01e7d3	-0.1268609

onnx::GRU_199 f4 [2, 384, 128]
0	0xbd800388	-0.062506735
1	0x3d0150b8	0.03157112
2	0x3dabfd97	0.08397978
3	0xbd1ec2e8	-0.038760096
4	0xbdb391de	-0.08768056
5	0xbd6fc87e	-0.058540814
6	0x3d096fab	0.03355376
7	0x3d7b949c	0.06142102
8	0xbc8d89f1	-0.01727769
9	0x3b219de1	0.0024660754
10	0xbd838f48	-0.06423813
11	0xbd25a3ef	-0.040439542
12	0xbd703116	-0.058640562
13	0x3d6bb029	0.057541046
14	0xbc8eac24	-0.017416067
15	0xbd1679b5	-0.036737163
16	0xbc1ce536	-0.0095761325
17	0x3d2347d2	0.039863415
18	0xbd48b75a	-0.049002983
19	0xbc4d2b95	-0.012522598
20	0x3d198d1b	0.037488084
21	0xbc2b2fb1	-0.010448382
22	0x3cea9d46	0.028639447
23	0xbd733a9b	-0.059382062
24	0xbba44da1	-0.005014137
25	0xbd2fa305	-0.042880077
26	0x3da6aa14	0.081379086
27	0xbdb4ce38	-0.088283956
28	0xbd362600	-0.044469833
29	0xbd0ef14b	-0.034898084
30	0x3d1fce80	0.039015293
31	0xbd218d02	-0.039441116
32	0xbd644175	-0.055726487
33	0xbba8e7d8	-0.005154591
34	0xbce7ef29	-0.028312283
35	0x3dafcda2	0.08584143
36	0x3d5eb28a	0.054369487
37	0x3d8d9537	0.06913226
38	0xbd97aa93	-0.07405581
39	0xbcbac1c9	-0.022797482
40	0xbd8abb85	-0.06774048
41	0x3da358e1	0.07975937
42	0x3d56b462	0.05241812
43	0xbd8dc3e5	-0.069221295
44	0xbd85ccfa	-0.06533237
45	0x3d32e094	0.043671206
46	0xbd37b58a	-0.044850864
47	0x3ce7537c	0.02823805
48	0xbd9ef73d	-0.07762001
49	0xbd90799f	-0.070544474
50	0xbcf68087	-0.030090583
51	0xbd8d9a0a	-0.06914146
52	0x3d5e9e03	0.05434991
53	0xbd8a3eec	-0.06750283
54	0xbcecf1f6	-0.02892397
55	0xbdb11a1e	-0.086475596
56	0x3da61848	0.081101
57	0x3c6c54f0	0.014424548
58	0xbd5bf9aa	-0.053704895
59	0xbc9e9aef	-0.019360987
60	0x3cd9182f	0.02650079
61	0xbcf7c8cd	-0.030247116
62	0x3d9078e1	0.07054306
63	0xbca687d2	-0.020328436
64	0x3da96fe5	0.08273295
65	0x3d459290	0.048235476
66	0x3d7f70f5	0.062363584
67	0x3b18ad26	0.0023296564
68	0xbcd0cb16	-0.025487464
69	0x3d1a0758	0.03760466
70	0x3d637499	0.055531118
71	0x3c4610f2	0.012089001
72	0x3c9080ff	0.017639635
73	0x3d9ba5ff	0.076000206
74	0xbd448efa	-0.047987916
75	0xbc9c2bd7	-0.019063873
76	0x3bdc6138	0.0067254566
77	0xbc29f9e4	-0.01037452
78	0xbd50144c	-0.050800607
79	0x3ce83086	0.02834345
80	0x3c8b23a4	0.016984768
81	0xbd5b1b82	-0.05349303
82	0xbba3759b	-0.004988385
83	0x3c2609bc	0.010134157
84	0xbc1321a2	-0.008980187
85	0x3cdee8ff	0.02721071
86	0xbda66633	-0.08124962
87	0xbc47d69a	-0.012197161
88	0x3d8590d2	0.06521763
89	0x3b202a4b	0.002443927
90	0xbc2b372a	-0.010450164
91	0xbcc5f9e1	-0.024167003
92	0xbc5f92a3	-0.013645801
93	0xbc2a5aad	-0.010397595
94	0xbd306db4	-0.04307337
95	0xbd8150f9	-0.063142724
96	0xbbf7aafe	-0.0075582257
97	0x3db37f35	0.08764497
98	0x3d8882d0	0.066655755
99	0x3b8c863c	0.004288463
100	0x3d1ccb23	0.038279664
101	0x3c9f3d37	0.01943837
102	0xbd39ba69	-0.04534379
103	0x3d02b3f6	0.031909905
104	0x3d2567aa	0.040382065
105	0xbbbfed50	-0.0058571473
106	0x3d57e13c	0.052705035
107	0x3d100e89	0.03517011
108	0xbd2b9dc8	-0.04189852
109	0x3cd2feea	0.025756318
110	0x3d254005	0.040344257
111	0x3d8f011b	0.06982633
112	0xbd76c650	-0.06024772
113	0xbda6ef0b	-0.081510626
114	0xbd0dd750	-0.034629166
115	0x3bf4797d	0.0074607716
116	0xbd8ecda0	-0.069728136
117	0xbcb2f6bb	-0.021846166
118	0xbd846a8f	-0.06465637
119	0xbd89039f	-0.06690144
120	0x3cdbc794	0.026828565
121	0x3d30c697	0.04315814
122	0x3c431e6b	0.011909108
123	0x3d7b24ab	0.061314266
124	0xbcad8703	-0.021182543
125	0x3c3b50fa	0.011432881
126	0x3d8580d4	0.06518713
127	0x3d95f1df	0.07321524
128	0x3ccf4bca	0.025304694
129	0xbd9a8ca5	-0.07546357
130	0x3caf2281	0.021378757
131	0x3d8271ec	0.06369385
132	0x3cf6a777	0.03010915
133	0xbdb24b76	-0.08705799
134	0xbceca434	-0.028886892
135	0xbd397c8a	-0.045284785
136	0xbda2ec24	-0.079551965
137	0xbd969b0c	-0.073537916
138	0x3d6a03d2	0.05713255
139	0xbd67f0ac	-0.056626007
140	0xbd5a38d9	-0.05327687
141	0xbd1d8dc5	-0.03846528
142	0xbc1a090c	-0.009401571
143	0x3d573a94	0.0525461
144	0xbdb25660	-0.08707881
145	0xbd21e540	-0.03952527
146	0xbc6c1f11	-0.014411704
147	0x3cc8e977	0.024525387
148	0xbd48e1d5	-0.049043495
149	0xbcc4dc8a	-0.024030942
150	0xbd42abb4	-0.04752703
151	0xbca287b6	-0.019840103
152	0x3d3b2923	0.045693528
153	0xbd19142b	-0.03737275
154	0xbc429f7f	-0.011878847
155	0xbd6d2781	-0.057899002
156	0x3cca416e	0.024689402
157	0xbd6884b6	-0.056767188
158	0x3ca7d489	0.020487087
159	0xbdb437e8	-0.08799726
160	0x3d0d5fcd	0.03451519
161	0x3d02526a	0.031816877
162	0xbd894f37	-0.06704562
163	0xbc3858d6	-0.011251649
164	0xbd59369c	-0.053030595
165	0xbd2ce3f8	-0.042209595
166	0x3d27bbcc	0.04095058
167	0xbd4ebb16	-0.050471388
168	0x3d4c6584	0.0499015
169	0x3d36fb21	0.04467309
170	0x3da24d1d	0.079248644
171	0xbd077a32	-0.03307552
172	0xbda08b9c	-0.078391284
173	0x3d6a5a9e	0.057215326
174	0xbcaa5ff5	-0.020797709
175	0xbd0e84c9	-0.034794603
176	0xbd2b9127	-0.041886475
177	0x3da857a1	0.08219839
178	0xbd8cd904	-0.0687733
179	0x3c9d4435	0.019197563
180	0x3c8fe62f	0.017565815
181	0xbd0d2599	-0.034459684
182	0x3d4df9d6	0.05028709
183	0x3d517714	0.051138952
184	0x3d738dbf	0.05946135
185	0x3cc31bb4	0.02381692
186	0x3cc060b4	0.023483612
187	0x3ccd1587	0.02503468
188	0xbce6d0bd	-0.028175706
189	0xbd90a326	-0.07062368
190	0x3b299b02	0.0025879745
191	0x3c05e03a	0.008171136
192	0x3d5fae9a	0.054609872
193	0x3c73f79a	0.014890576
194	0x3b21f4ad	0.0024712489
195	0xbd0047ac	-0.03131835
196	0x3d9788c0	0.0739913
197	0x3da00db4	0.07815114
198	0x3db20b4a	0.086935595
199	0xbbb9577c	-0.005656181
200	0xbd31b4e5	-0.043385405
201	0xbd928d42	-0.07155849
202	0xbdb223f9	-0.086982675
203	0xbd90e0ab	-0.07074102
204	0xbce7893a	-0.028263677
205	0x3d8d098e	0.06886588
206	0xbda6ddcd	-0.08147774
207	0xbcd78631	-0.026309105
208	0x3d1166aa	0.0354983
209	0x3d2a0df2	0.041517206
210	0x3b7ea0fe	0.0038853283
211	0xbca2b11e	-0.019859847
212	0x3b89ada6	0.0042016087
213	0xbd62dcde	-0.055386417
214	0x3d325511	0.043538157
215	0x3d538ede	0.05164992
216	0x3c72e062	0.014824005
217	0x3d7e194e	0.06203585
218	0x3d552cf4	0.052044824
219	0xbda9901c	-0.0827944
220	0xbd0e5451	-0.03474838
221	0xbd9a1ee2	-0.07525422
222	0x3d03db77	0.03219172
223	0xbda26786	-0.07929902
224	0x3cabf8cd	0.02099266
225	0xbd931ebc	-0.071835965
226	0x3d38b76f	0.04509681
227	0xbd77f2fc	-0.060534462
228	0xbda2fd7b	-0.07958504
229	0xbd1242b2	-0.035708137
230	0x3cef5c86	0.029218923
231	0xbd1ab696	-0.037771784
232	0x3d07299b	0.032998662
233	0x3b3900c6	0.002822922
234	0xbd44ea7e	-0.04807519
235	0xbb9fd735	-0.0048779496
236	0x3d65b138	0.056077212
237	0xbd5dc6af	-0.054144558
238	0x3d9e0fd6	0.07717864
239	0x3cc93625	0.024561951
240	0x3d3c3198	0.045945734
241	0xbc8b72e7	-0.017022563
242	0x3d86ca4d	0.065815546
243	0xbd870b03	-0.06593897
244	0xbd121fd4	-0.035674885
245	0x3d633421	0.055469636
246	0xbd42a0d5	-0.047516663
247	0x3d975e7a	0.07391067
248	0xbd033f9a	-0.032043077
249	0xbdab725c	-0.08371422
250	0x3daacd23	0.08339908
251	0x3d93c016	0.07214372
252	0x3d154243	0.036440145
253	0xbd9b0d8e	-0.07570945
254	0x3c9c8e70	0.019110888
255	0xbcabfc34	-0.020994283

onnx::MatMul_200 f4 [256, 1]
0	0xbc646f98	-0.013942622
1	0x3d7603d0	0.06006223
2	0xbcda6410	-0.026659042
3	0x3ccbe7e0	0.02489084
4	0x3d75789c	0.059929475
5	0x3c1e9768	0.009679653
6	0xbd7a3524	-0.061085835
7	0xbbefac60	-0.00731425
8	0x3d3508da	0.044197895
9	0x3b9ab690	0.00472147
10	0xbc284e08	-0.01027251
11	0x3d332456	0.043735825
12	0x3c67bf98	0.014144801
13	0x3bbff0d0	0.0058575645
14	0x3d635330	0.055499256
15	0x3d2018b4	0.03908606
16	0x39c0ee00	0.00036798418
17	0x3bb5d2b0	0.0055487975
18	0xbc823b10	-0.015897304
19	0x3d1f4602	0.038885124
20	0x3d5439e4	0.05181302
21	0xbd7fc860	-0.062446952
22	0xbd4b2f64	-0.049605742
23	0xbc8f1898	-0.017467782
24	0x3cfa3fd8	0.030548021
25	0xbd261d6e	-0.04055541
26	0x3cabe7f4	0.020984627
27	0x3c73fd50	0.014891937
28	0x3cf4fbb4	0.029905178
29	0x3d018610	0.031621993
30	0x3c05b5e0	0.008161038
31	0x3a276100	0.00063849986
32	0xbb86c690	-0.004113026
33	0x3c5fde00	0.013663769
34	0x3c29c528	0.010361947
35	0xbd087276	-0.033312283
36	0x3d2c1708	0.04201415
37	0x3d453886	0.048149608
38	0x3d377d84	0.044797435
39	0x3c3dc760	0.011583179
40	0x3d0e8d3a	0.034802653
41	0xbd70463a	-0.058660723
42	0x3c294eb0	0.010333702
43	0xbcbb4f0c	-0.02286484
44	0xbcd83de8	-0.026396707
45	0x3d688764	0.056769744
46	0xbb8af610	-0.0042407587
47	0xbd7e8b2c	-0.062144443
48	0xbcc5b2dc	-0.024133138
49	0xbbde50e0	-0.0067845434
50	0x3d2c55e4	0.0420741
51	0x3a811900	0.000984937
52	0x3d32c9c0	0.043649435
53	0xbd1985ce	-0.03748112
54	0xbcd07758	-0.025447533
55	0xbd39f528	-0.045399815
56	0x3c6fa9e8	0.014627911
57	0x3cd38678	0.025820956
58	0xbcc2888c	-0.023746751
59	0xbb357d40	-0.0027693063
60	0x3d161c7e	0.036648266
61	0xbd658048	-0.05603054
62	0x3d51868e	0.051153712
63	0xbd4af694	-0.04955156
64	0xbcb875c4	-0.022517093
65	0x3d144cee	0.03620618
66	0xbd44d9f0	-0.048059404
67	0xbc8523f4	-0.016252495
68	0xbd14785c	-0.036247596
69	0xbb57bb40	-0.0032918006
70	0x3d6e4256	0.05816873
71	0x3d71ca50	0.05903083
72	0xbbaeaf40	-0.00533095
73	0x3d38e496	0.04513987
74	0xbd3aa870	-0.04557079
75	0xbc9ac1d4	-0.018891253
76	0x3d786a2e	0.060648136
77	0x3cf4fff4	0.029907204
78	0xbd1a6fa2	-0.037704118
79	0x3c1e0660	0.009645075
80	0x3c61d310	0.013783231
81	0xbd6221c2	-0.055207975
82	0xb99e5b00	-0.0003020391
83	0x3d78679a	0.060645677
84	0xbd2ff07e	-0.04295396
85	0x3ac9ed40	0.0015405789
86	0xbd4ca1d8	-0.049959034
87	0xbcae0588	-0.021242872
88	0xbcee9b04	-0.029126652
89	0x3afcecc0	0.0019296631
90	0xbcd5c578	-0.026095137
91	0x3b0391e0	0.0020075962
92	0xbcb8e564	-0.02257032
93	0x3d4eb0b2	0.05046148
94	0x3d0e644a	0.03476361
95	0xbca4c120	-0.02011162
96	0x3d5aee04	0.053449646
97	0xbc7e9ae0	-0.015539855
98	0xbcbcc674	-0.023043849
99	0x3ba1fe50	0.0049436465
100	0xbb6f1fe0	-0.0036487505
101	0xbd05d056	-0.032669388
102	0xbd3555fc	-0.044271454
103	0xbd351332	-0.04420776
104	0x3c353570	0.011060104
105	0xbc584cb8	-0.013201885
106	0xbcf89e48	-0.030348912
107	0xbcd2029c	-0.02563601
108	0x3d232c34	0.039837077
109	0x3c815ef8	0.015792355
110	0x3d1b5c4a	0.03792981
111	0x3c920aac	0.017827354
112	0xbd3847f2	-0.044990487
113	0xbcf9ffa8	-0.030517414
114	0x3c46b428	0.012127914
115	0xbc78d340	-0.015187085
116	0xbc592e30	-0.013255641
117	0x3d705370	0.058673322
118	0x3d54d872	0.05196423
119	0xbd267202	-0.04063607
120	0xbd3950e2	-0.04524315
121	0x3c1338c8	0.008985706
122	0xbc80aac8	-0.015706435
123	0xbcd81034	-0.026374914
124	0xbcc3b548	-0.023890153
125	0xbd31a742	-0.0433724
126	0xbd3564b2	-0.044285484
127	0x3cbb5248	0.022866383
128	0x3cc8c734	0.02450905
129	0xbcb88018	-0.022522017
130	0xbce33630	-0.0277358
131	0x3d3605de	0.04443919
132	0x3d323b56	0.04351362
133	0xbd29e53c	-0.04147838
134	0xbc54eb38	-0.012995534
135	0x3d474266	0.048647307
136	0x3d5b7348	0.053576738
137	0x3d038e98	0.03211841
138	0x3d58c25c	0.05291973
139	0xbd56fa72	-0.052484937
140	0xbb9bdf30	-0.0047568306
141	0x3d753932	0.059869
142	0xbd599fa4	-0.05313076
143	0x3c7317b8	0.014837198
144	0x3d4824ba	0.04886315
145	0x3ceb27c8	0.028705493
146	0xbcc68464	-0.02423305
147	0xbaa7e5c0	-0.001280956
148	0x3d64bf18	0.055846304
149	0x3d64a5c6	0.055822156
150	0x3d520714	0.05127628
151	0x3c7fd808	0.015615471
152	0x3cfb6274	0.030686595
153	0xbd48ad1c	-0.048993215
154	0xbc726748	-0.014795132
155	0xbd50900a	-0.050918616
156	0x3d5731e8	0.05253783
157	0x3c4c7288	0.012478478
158	0xbccda7a8	-0.025104359
159	0x3d36f0e8	0.04466334
160	0x3d2bc08a	0.041931666
161	0x3d7e16da	0.06203351
162	0x3c5b7f88	0.013397105
163	0x3d43c894	0.047798708
164	0xbd737ef4	-0.059447244
165	0x3d77bf5c	0.06048523
166	0x3ca00b80	0.019536734
167	0x3d0eb6f2	0.03484244
168	0xbb9df770	-0.0048207566
169	0x3d2f0ea8	0.042738587
170	0xbd7cca70	-0.061716497
171	0x3d271eec	0.040800974
172	0x3c062ce8	0.008189417
173	0x3c42ad78	0.0118821785
174	0x3c8323bc	0.01600825
175	0xbc1f2f40	-0.009715855
176	0xbce1fca0	-0.027586281
177	0xbcd8d240	-0.026467443
178	0xbd6401d2	-0.0556658
179	0x3c166058	0.009178244
180	0x3c9ff318	0.019525096
181	0x3d72b3f4	0.059253648
182	0x3b9d9a10	0.0048096254
183	0xbd14fcfc	-0.036374077
184	0x3d7b290a	0.061318435
185	0xbd05d58c	-0.032674357
186	0xbd66f8cc	-0.056389615
187	0xbd419b5c	-0.047267303
188	0xbce752e4	-0.028237768
189	0x3d17c046	0.0370486
190	0x3d4cc678	0.049993962
191	0x3d1f6dcc	0.03892307
192	0xbc2ccce8	-0.0105469
193	0xbc7e9178	-0.015537612
194	0x3bab2c60	0.005223796
195	0x3d29efee	0.04148858
196	0x3d7c1980	0.061547756
197	0x3d72fb08	0.059321433
198	0x3c50d548	0.012746163
199	0x3d14a91a	0.03629408
200	0xbd0ace12	-0.03388793
201	0xbd006d80	-0.031354427
202	0xbd1553ea	-0.03645698
203	0x3d6ae5a4	0.05734791
204	0xbcf9c9fc	-0.030491821
205	0xba4a7980	-0.00077237934
206	0xbbd92be0	-0.0066275448
207	0xbc602c70	-0.01368247
208	0x3d099ec4	0.033598676
209	0x3b74b980	0.0037342012
210	0xbca66040	-0.020309567
211	0xbca07af8	-0.019589886
212	0xbc930bcc	-0.017949961
213	0x3bf33a10	0.007422693
214	0xbbf68d40	-0.0075241625
215	0xbcc06de0	-0.023489892
216	0x3d17eb12	0.037089415
217	0x3d25d70e	0.040488295
218	0xbd1432c8	-0.03618124
219	0xbd454f88	-0.04817155
220	0xbccd612c	-0.02507075
221	0x3b6d74c0	0.0036232919
222	0x3b92bfd0	0.0044784322
223	0x3c851c80	0.016248941
224	0xbd12e8d4	-0.035866573
225	0x3d48328e	0.048876338
226	0x3c85adf8	0.016318306
227	0xbcfadd64	-0.030623145
228	0xbd026d36	-0.031842433
229	0xbca527a8	-0.020160511
230	0xbcae4f18	-0.02127795
231	0xbd2d049e	-0.04224073
232	0xbd5a693a	-0.053323008
233	0xbd50b082	-0.05094958
234	0x3d2b4e6e	0.041822843
235	0xbd677aac	-0.056513473
236	0x3d34fefc	0.044188485
237	0x3cef614c	0.0292212
238	0x3d7451ee	0.059648447
239	0x3bc93390	0.00614018
240	0x3cd657bc	0.026164882
241	0xbd366806	-0.0445328
242	0xbd13e102	-0.036103256
243	0xbd68a4ea	-0.0567979
244	0xbb99c5d0	-0.0046927705
245	0xbcdb50e0	-0.026771963
246	0x3b713c00	0.0036809444
247	0x3cf78a14	0.030217208
248	0xbcdd8b84	-0.027044065
249	0xbd26de80	-0.040739536
250	0xbd6a128a	-0.057146586
251	0xbd500c96	-0.050793253
252	0xbd07bc1a	-0.033138372
253	0x3c5184b8	0.01278799
254	0x3b345380	0.002751559
255	0xbb193f20	-0.0023383573
