models/2014-08-01/gnn_model.pth (torch, 12192 bytes, 4 tensors)

fc1.weight f4 [64, 1]
000000 cf ad 87 3e 41 d5 93 be d0 2c 0c 3f 8a 46 c2 be
       0.26499793 -0.28873637 0.5475588 -0.37944442
000010 24 37 48 3f 65 73 59 bf 44 1e de be 6a cd 1f 3f
       0.7820914 -0.84941703 -0.43382466 0.6242281
000020 74 9e bb be eb 32 75 3f 68 6d 3e 3e 00 d8 2b 3e
       -0.36644328 0.9578082 0.18596423 0.16781616
000030 ad 80 3b 3f 8f 08 51 3f 36 57 59 3f 60 ce 21 3d
       0.7324322 0.81653684 0.848987 0.039503455
000040 04 1f b4 be fc 0e fd 3e 53 0d 16 be 6c da 66 bf
       -0.35179913 0.49425495 -0.1465352 -0.90177035
000050 fd 48 91 bf f0 22 03 bf c0 e3 22 3f 12 37 4c bf
       -1.1350399 -0.51225185 0.6362877 -0.7977153
000060 3c c1 62 3f e0 5c b0 3d 36 cc 53 bf 70 bd 8d 3d
       0.885761 0.086114645 -0.82733476 0.06920898
000070 17 38 5a 3f 4d c2 51 3f 41 3b 05 3e 46 0c 79 3f
       0.85241836 0.81937104 0.13010885 0.9728435
000080 bc b6 28 bf f0 b2 e5 3d 00 03 93 3d 64 58 37 bf
       -0.6590383 0.1121577 0.071783066 -0.7161925
000090 e6 6e 09 3e 5c 10 ff 3e b2 d1 7d bf 54 0e 63 bf
       0.1342121 0.4981717 -0.99148095 -0.8869374
0000a0 cb 11 7c be ea 6c b4 bd 20 b1 87 3f e6 73 58 3f
       -0.24616162 -0.08809836 1.0600929 0.84551847
0000b0 ce 05 94 bf fe e9 da 3c 50 22 32 3d 97 35 09 3f
       -1.1564271 0.026722904 0.043489754 0.53597397
0000c0 86 6a 03 3f 18 89 c3 3e cc e2 29 bf f8 0a 59 3e
       0.51334417 0.38190532 -0.6636169 0.2119559
0000d0 59 26 54 3d 8a 2c 29 3f 56 9b 4a bf 45 7a a9 bc
       0.051794384 0.66083586 -0.79143274 -0.020688185
0000e0 16 26 35 bf cc ca a1 3d 00 11 60 3d 98 24 cf 3e
       -0.7076124 0.079000086 0.054703712 0.40457606
0000f0 e0 f6 60 bf 64 c4 3b 3f 06 8c 0b bf e2 7e 03 3f
       -0.878767 0.73346543 -0.54510534 0.5136548

fc1.bias f4 [64]
000000 d9 4e 0d be f9 6f 09 3f 02 d8 95 bd 93 bf fc 3d
       -0.13799609 0.5368648 -0.07316591 0.123412274
000010 68 69 7b bf 27 85 d2 3e 64 5e 8c be c2 bc 13 bd
       -0.9820771 0.41117212 -0.27415764 -0.036068685
000020 d2 13 1a 3f 3a 8a 96 be 4c 18 ad be 90 1e e7 be
       0.60186493 -0.29402333 -0.338076 -0.45140505
000030 f5 71 98 bd 8a 43 5f 3e df 0c 21 3f 9c 1e 7b bf
       -0.074436106 0.21803108 0.62910265 -0.9809358
000040 a0 44 0d bf a4 43 37 bf f7 8a ec 3e c8 5e 55 be
       -0.5518284 -0.71587586 0.46199772 -0.20836937
000050 e0 a2 d7 3e 24 c2 7f bf e9 78 78 bb 80 25 10 bf
       0.4211645 -0.9990561 -0.0037913865 -0.5630722
000060 d4 96 14 3e e0 46 5e be 80 e1 0f 3d 26 36 29 bf
       0.14510661 -0.21706724 0.035127163 -0.6609825
000070 a1 f1 8d 3e 0c bd 1d 3f 63 fa 55 3f e0 60 9a 3e
       0.2772341 0.6161659 0.83585185 0.30152035
000080 00 71 06 3c 4a de 2e bc 50 ea bb be 00 70 a0 be
       0.008205652 -0.010673115 -0.36702204 -0.3133545
000090 83 26 b5 3e ec a4 4a bf 84 af 77 bf a0 5d af 3d
       0.35380945 -0.791579 -0.9675219 0.085627794
0000a0 08 21 36 3f b0 fd 0d 3f 88 36 23 bf 18 ad 75 bf
       0.7114415 0.5546522 -0.63755083 -0.95967245
0000b0 6e 9e bf 3d 2c b5 19 3f 17 bf 2e 3f 21 67 6d bd
       0.0935639 0.6004207 0.6826033 -0.05795968
0000c0 ca dc 22 bf fa a1 30 bf cc 76 30 bf 20 9a 61 be
       -0.6361815 -0.68997157 -0.6893127 -0.2203145
0000d0 f6 09 f8 3e 20 d1 f9 3e b8 a7 7b bf 42 3e 1a bd
       0.484451 0.48792362 -0.98302794 -0.03765703
0000e0 98 1f f0 3d 2e 69 b2 3e 00 d7 0b be ee 42 3e bf
       0.11724776 0.3484587 -0.13656235 -0.74320877
0000f0 80 0c 37 3d e0 f4 17 bd 2c 1e d0 be 83 62 52 3f
       0.044689655 -0.037098765 -0.4064802 0.82181567

fc2.weight f4 [37, 64]
000000 37 34 fa 3d 60 2b b3 3b 26 f2 4e 3b 8a 3d 35 be
       0.122169904 0.005467817 0.0031577437 -0.17699257
000010 b6 33 a2 bd 25 6b 18 bd 60 06 22 bd e8 e8 19 ba
       -0.07920019 -0.037211556 -0.03955686 -0.00058711926
000020 1c e2 ac bc 07 cd 5d 3e d8 62 de bc e0 1a f8 3d
       -0.021103911 0.21660243 -0.027146742 0.12114501
000030 ad ca f0 3d 6c 79 2d 3e 29 15 87 bd 38 9e dc 3c
       0.11757407 0.1694085 -0.06595833 0.026930913
000040 b6 41 a5 bd 44 b6 0f bd 5a e1 ad bd b0 1d 16 bd
       -0.08069174 -0.03508593 -0.08490248 -0.036649406
000050 85 96 f5 bd fc 14 ba bd b7 32 07 3e 38 dd 39 bd
       -0.119916 -0.09086034 0.1320294 -0.045376986
000060 d4 18 cd 3c 60 8d 5c bc c0 97 d1 bd 70 fb 4f bc
       0.025036253 -0.013461441 -0.10234022 -0.012694225
000070 f0 e0 16 3e b3 37 de 3b 68 a7 45 3d d2 c3 b7 3d
       0.14734244 0.006781542 0.048255354 0.08972897
000080 a0 d6 cd bc d8 c6 46 3d 2e 97 81 3d 80 24 ef 3b
       -0.025126755 0.048529476 0.06327663 0.0072980523
000090 2a 39 28 3d 90 ce c4 bc e0 fa 89 bb 40 6b 3b bc
       0.04107014 -0.024024278 -0.004210815 -0.011439145
0000a0 fd d6 b8 bd ca 91 f7 bd be c3 94 3c 68 21 fb 3c
       -0.09025381 -0.12088354 0.018159743 0.030655578
0000b0 7e 41 d4 bd f9 2f 72 3d f4 24 4d 3d c0 6e a3 3c
       -0.10364054 0.05912778 0.05008407 0.01995027
0000c0 ea 63 ab bd fc f7 7a bd b0 c9 45 3d 74 18 ee 3d
       -0.083686665 -0.061271653 0.048288047 0.11625758
0000d0 54 47 5a bc f1 34 9c 3d e0 7a ee bd fa 9f d9 bd
       -0.01332267 0.07627285 -0.1164453 -0.10626216
0000e0 98 9b 5f be 1d 54 a5 bd 60 91 8c bb 00 da be 3c
       -0.21836698 -0.08072684 -0.004289791 0.02329731
0000f0 40 2e ab bb e1 88 82 3d 70 06 5f bd 9e 90 0c 3e
       -0.0052240193 0.06373764 -0.0544495 0.13727042
000100 d9 2d 3c 3e ce 04 d2 bc 5a 79 78 3d 74 76 9d bd
       0.18376864 -0.025637057 0.060662605 -0.07688609
000110 b6 18 8e bd b3 cb 39 be 78 68 5b bd e4 50 09 3e
       -0.06938307 -0.18144111 -0.053566426 0.13409764
000120 19 92 1f bd ab 99 45 3e a2 82 fc bd 02 80 a5 3d
       -0.03895769 0.19296901 -0.12329604 0.08081056
000130 47 7b 6a 3e d0 d9 15 3d 41 a1 7f bd 9c ae c9 bd
       0.22898589 0.036584675 -0.062409643 -0.09847757
000140 30 3c 6a bd 48 b8 22 3d 1f 6a 9f 3d c8 79 ea bc
       -0.057186306 0.039726526 0.07783913 -0.028622523
000150 84 15 cb bd 18 c4 83 bc 3e 6e 36 3d 0c ea 74 bd
       -0.09916213 -0.016084716 0.04453873 -0.059793517
000160 3d e8 f0 3d 9e 89 84 3d e8 35 dd 3d 90 c7 3b 3c
       0.11763046 0.06471561 0.108012974 0.011461154
000170 60 27 9d bd ce 9d 27 3d aa 3f 62 bb 9f 57 f7 3d
       -0.07673526 0.04092198 -0.003452281 0.12077259
000180 ba 6d d0 3d cf 0c df 3d f8 76 bf 3c 78 15 bf 3c
       0.10177179 0.10891115 0.023372158 0.023325667
000190 d0 b2 0b bb cc ee f4 3d ee 35 c5 bd 20 a5 26 bc
       -0.0021316297 0.119596094 -0.09629427 -0.010171205
0001a0 94 42 8b 3d 79 74 41 bb ab ea 9d 3d 80 63 9a 3c
       0.06799808 -0.0029518886 0.07710775 0.018846273
0001b0 09 63 25 bc 52 e4 98 bd be ed d4 3d d8 28 d7 bb
       -0.010094413 -0.07465424 0.10396908 -0.0065661483
0001c0 be 89 bb 3d 74 dd b5 3d 02 26 cf bd d0 61 fd bd
       0.091571316 0.088801295 -0.10114671 -0.12372172
0001d0 e6 48 97 3d f7 f4 03 3e 5a af c9 3d 5d b7 d0 bd
       0.07386951 0.12886415 0.09847899 -0.10191224
0001e0 9b 11 1a be b9 03 8c 3c d4 89 e9 3d 60 6d d0 bd
       -0.15045778 0.017091619 0.11403242 -0.101771116
0001f0 58 23 b4 bc 12 8c 46 3e f6 bb b3 3d f0 bf 72 bd
       -0.02198951 0.1938937 0.08776085 -0.059265077
000200 b0 50 6f 3d af c0 45 3b ef 1d c9 3b 92 e1 bb bd
       0.05842656 0.0030174663 0.0061376016 -0.091738835
000210 e0 53 db 3c 4c 05 44 be 58 35 85 bc 0f af 4f 3d
       0.026773393 -0.19142646 -0.016260788 0.05070406
000220 30 a1 90 3d 45 e3 30 3e 20 66 ee 3d 1a b2 8c 3d
       0.07061994 0.17274196 0.116405725 0.06869908
000230 26 e6 3d 3e 9b 1b da 3d 84 89 43 3d 9c 6c af 3d
       0.18544826 0.106497966 0.047738567 0.085656375
000240 a0 9f 39 bc 2a f6 b1 bd 3f a5 c6 3d d4 f3 07 3d
       -0.0113295615 -0.0868953 0.09699487 0.033191517
000250 76 9c a8 bd f2 79 a1 bd 39 03 ab 3d 20 17 fa 3b
       -0.082329676 -0.07884587 0.08350224 0.0076321512
000260 d7 00 47 bc 8a ed a0 bd 94 2e 2c bd 14 95 3a 3d
       -0.012146196 -0.07857807 -0.042036608 0.04555233
000270 86 a9 8d bd 7d 22 15 bc 9e 83 b2 bd f0 50 86 3d
       -0.069171 -0.009102461 -0.0871651 0.06558406
000280 a4 5b 14 bd 17 34 da 3d a0 d3 b4 bc e0 93 c6 3d
       -0.036220208 0.106544666 -0.022073567 0.09696174
000290 a5 51 f0 bd 82 37 a8 3d 66 5b 83 bd 80 4e 3b bb
       -0.117343225 0.08213712 -0.06413917 -0.0028580725
0002a0 43 36 f7 bd 70 1b 2d 3d 0c 0a 22 3e f0 95 5f 3d
       -0.120708965 0.042262495 0.15824145 0.05458635
0002b0 58 39 be bd b5 d3 40 bd 30 e7 98 bd 35 9d 41 3e
       -0.09288281 -0.0470769 -0.074659705 0.18907626
0002c0 00 84 39 3c a6 74 cd 3d ac 84 1d bd ce d7 86 3d
       0.011322975 0.100320145 -0.038456604 0.0658413
0002d0 1f ad 62 3d 5c 9d c9 3d 88 c5 27 3d 43 ee 3a 3d
       0.055340882 0.09844467 0.040959865 0.04563738
0002e0 23 d6 48 be d9 73 20 3d 34 f4 0d 3d 80 7b f2 3b
       -0.19612937 0.03917298 0.03465672 0.0073999763
0002f0 32 4f ea 3d 53 58 39 3e c0 ad 4d bc d3 e6 15 3e
       0.114408866 0.181001 -0.012553632 0.14638834
000300 91 29 79 3e 23 25 a5 bc 33 63 5c 3d 7f 25 e9 bb
       0.24332263 -0.02015931 0.05380554 -0.0071150656
000310 4a 3f d0 3d 8f 6e d8 3b 60 49 8f 3b 38 75 0a 3e
       0.101683214 0.0066049765 0.0043727607 0.13521278
000320 d7 f1 83 3d 35 a4 f1 3d 2e 2f d7 3d 50 c8 4b bd
       0.06442612 0.11798898 0.10507046 -0.04975158
000330 92 37 24 3e 4e f2 c3 3d e1 6a 20 3d c0 55 84 bb
       0.16036823 0.095677 0.039164428 -0.0040385425
000340 38 b0 80 bd 64 7c 6f bd f7 d9 ab 3c 58 96 8d bc
       -0.06283611 -0.058468238 0.020977957 -0.017283604
000350 bf 76 e6 bd 10 49 9d bc c3 49 80 3d a2 17 e8 bd
       -0.11253118 -0.019199878 0.06264069 -0.113326326
000360 50 b9 28 3e 24 b4 82 3d da 26 df 3d 24 a2 cf bd
       0.16476941 0.06382015 0.10896082 -0.10138348
000370 17 50 0e bd a9 78 ed 3d 0e d9 41 bd 2e ca b4 3d
       -0.03474435 0.1159528 -0.04732614 0.08827625
000380 00 95 ac 3b 48 a5 24 3e 8a ec c5 bd 7c fb 5f 3d
       0.0052667856 0.16078675 -0.09664257 0.054683194
000390 ff 42 f7 bc d0 ef f1 3d b0 11 b0 3d 6c be c4 3d
       -0.030183313 0.11813319 0.085971236 0.096066326
0003a0 ba ce 81 3d 22 de 86 bd 98 f9 e2 3d 50 33 20 bc
       0.06338258 -0.06585337 0.110827625 -0.009777859
0003b0 be 92 46 3c 2d 79 f2 39 ef dd 89 bd f4 04 4e 3d
       0.012119947 0.0004624812 -0.067317836 0.050297692
0003c0 ee 1c c7 3d 60 ad 57 3d 90 cb 8f 3c 0e 1a cf 3d
       0.09722315 0.052655578 0.01755312 0.101123914
0003d0 7d d5 11 3e 59 d5 b9 3a c4 b0 d6 3d c3 0f b2 bd
       0.14241596 0.0014177962 0.10482934 -0.086944126
0003e0 16 34 28 3d bf 1a a1 bd 3a 93 df 3d 30 b0 fe bc
       0.041065298 -0.078664295 0.10916753 -0.031089872
0003f0 a6 88 81 bd 12 17 44 3e 90 05 19 bd e3 8a 84 bd
       -0.06324892 0.19149426 -0.03735882 -0.06471803

fc2.bias f4 [37]
000000 4b c5 be bc 07 d5 69 3c 36 80 9f 3d 95 56 14 3a
       -0.023287436 0.014271981 0.07788126 0.00056586537
000010 8a c9 12 3d 8c 70 b5 3c 7e 66 d4 3d bf 2b 83 3c
       0.035836734 0.022148393 0.10371111 0.01601207
000020 e1 94 2e 3d 64 00 e8 3b 1c cf 22 3c 35 7a 89 3d
       0.04262245 0.0070801247 0.009937074 0.06712762
000030 3b d8 87 bd de ec 8e bd 76 96 b3 3d c6 30 96 3d
       -0.066330396 -0.069787726 0.087689325 0.073335215
000040 21 97 fa bd 6c e2 b7 bd 99 89 ab 3d bf 0c 71 3c
       -0.12235857 -0.089787334 0.08375854 0.014712512
000050 98 aa 8a 3d f0 80 b4 3d 9a 44 aa bb ad 1b b7 3c
       0.067708194 0.088136554 -0.005196166 0.022352064
000060 2a e8 32 bd fb 6d 03 bd 3c f9 a2 bd b8 bb 3b 3d
       -0.04367844 -0.032087307 -0.07957694 0.04583332
000070 e3 bf 8a 3d e9 cb e3 3c 8d 60 9f 3d 65 c4 9f bc
       0.06774881 0.027807193 0.077820875 -0.019502828
000080 45 d4 9a 3d 04 d4 3d bd 99 2d eb bb f3 79 86 bc
       0.075600185 -0.046344772 -0.0071770665 -0.016415572
000090 89 20 d8 bd
       -0.105530806
