models/2017-11-17/gnn_model.pth (torch, 12192 bytes, 4 tensors)

fc1.weight f4 [64, 1]
000000 e8 d2 6e 3e 20 e8 aa be b0 6f b0 3e 7d bd bd be
       0.23322642 -0.33380222 0.3446021 -0.3705863
000010 24 37 48 3f fa 99 57 bf 44 1e de be 4d 29 1b 3f
       0.7820914 -0.84219325 -0.43382466 0.60609895
000020 f2 24 dd be bd ce 86 3f 68 6d 3e 3e 00 d8 2b 3e
       -0.4319225 1.0531842 0.18596423 0.16781616
000030 57 a1 2f 3f 91 c8 4c 3f 19 18 52 3f 60 ce 21 3d
       0.6860556 0.7999354 0.8206802 0.039503455
000040 04 1f b4 be fc 0e fd 3e 64 c8 51 be 6c da 66 bf
       -0.35179913 0.49425495 -0.20486599 -0.90177035
000050 bc 17 8c bf f0 22 03 bf ce 12 16 3f 12 37 4c bf
       -1.0944743 -0.51225185 0.58622444 -0.7977153
000060 e9 12 4e 3f e0 5c b0 3d 36 cc 53 bf 70 bd 8d 3d
       0.80497605 0.086114645 -0.82733476 0.06920898
000070 17 f0 4f 3f a6 be 3c 3f ec 3a 03 3e 11 1b 65 3f
       0.81225723 0.73728406 0.12815446 0.89494425
000080 bc b6 28 bf 53 26 6e 3c 00 03 93 3d 64 58 37 bf
       -0.6590383 0.014535504 0.071783066 -0.7161925
000090 c0 53 39 3d 5c 10 ff 3e b2 d1 7d bf 54 0e 63 bf
       0.045245886 0.4981717 -0.99148095 -0.8869374
0000a0 ce fb 9f be 91 60 1f be c2 8f 9c 3f e6 73 58 3f
       -0.312468 -0.15564181 1.2231371 0.84551847
0000b0 90 51 86 bf b2 8a 0a bd 5c 25 d5 bb 28 38 fe 3e
       -1.0493641 -0.033823676 -0.0065046977 0.4965222
0000c0 86 6a 03 3f 18 89 c3 3e cc e2 29 bf f8 0a 59 3e
       0.51334417 0.38190532 -0.6636169 0.2119559
0000d0 2b e5 71 3b 5d 88 1e 3f 56 9b 4a bf 8f 36 a6 bd
       0.0036910276 0.61926824 -0.79143274 -0.08115875
0000e0 7b 47 36 bf 1f bc e3 bc 00 11 60 3d 98 24 cf 3e
       -0.7120282 -0.027799664 0.054703712 0.40457606
0000f0 e0 f6 60 bf c2 c6 2b 3f 06 8c 0b bf 69 12 f4 3e
       -0.878767 0.67100155 -0.54510534 0.47670296

fc1.bias f4 [64]
000000 bf aa 2a be 01 a4 09 3f 0d 3d 5e be bf b5 f1 3d
       -0.16666697 0.53765875 -0.21702977 0.118022434
000010 68 69 7b bf 48 a6 e5 3e 64 5e 8c be 8e 16 2c be
       -0.9820771 0.44853425 -0.27415764 -0.16805479
000020 ae 81 1e 3f 2e 7a 95 be 4c 18 ad be 90 1e e7 be
       0.61916625 -0.29194778 -0.338076 -0.45140505
000030 99 b9 42 be db 43 4b 3e a5 f3 1e 3f 9c 1e 7b bf
       -0.19016112 0.19850104 0.6209052 -0.9809358
000040 a0 44 0d bf a4 43 37 bf 15 50 f1 3e c8 5e 55 be
       -0.5518284 -0.71587586 0.4713141 -0.20836937
000050 c3 aa cc 3e 24 c2 7f bf ed 22 b0 bc 80 25 10 bf
       0.3997403 -0.9990561 -0.021501029 -0.5630722
000060 0e f3 12 3e e0 46 5e be 80 e1 0f 3d 26 36 29 bf
       0.1435053 -0.21706724 0.035127163 -0.6609825
000070 dc fd 81 3e 48 7d 23 3f 50 a1 51 3f 80 4b 9a 3e
       0.25388992 0.6386304 0.8188677 0.30135727
000080 00 71 06 3c 29 eb b2 bd 50 ea bb be 00 70 a0 be
       0.008205652 -0.087362595 -0.36702204 -0.3133545
000090 db 67 c0 3e ec a4 4a bf 84 af 77 bf a0 5d af 3d
       0.37579235 -0.791579 -0.9675219 0.085627794
0000a0 cc 15 3a 3f 5e 07 09 3f 01 9d ca be 18 ad 75 bf
       0.7268951 0.53526866 -0.3957291 -0.95967245
0000b0 f4 ae 61 3e 22 1b 17 3f 42 58 2a 3f 10 2a ea bd
       0.22039396 0.59025776 0.6654092 -0.11433804
0000c0 ca dc 22 bf fa a1 30 bf cc 76 30 bf 20 9a 61 be
       -0.6361815 -0.68997157 -0.6893127 -0.2203145
0000d0 6d 59 f8 3e 9e 99 f4 3e b8 a7 7b bf b3 57 e0 bc
       0.48505726 0.4777345 -0.98302794 -0.027385568
0000e0 e0 4d dd 3d 89 66 be 3e 00 d7 0b be ee 42 3e bf
       0.10805869 0.37187603 -0.13656235 -0.74320877
0000f0 80 0c 37 3d c4 a7 19 bd 2c 1e d0 be 61 c6 4f 3f
       0.044689655 -0.03751351 -0.4064802 0.8116208

fc2.weight f4 [37, 64]
000000 39 16 ea 3d 44 09 c1 3c d9 95 98 b9 a3 0b 34 be
       0.1143002 0.023563989 -0.00029103344 -0.17582564
000010 b6 33 a2 bd f5 ba d9 bc 60 06 22 bd cc e0 70 3d
       -0.07920019 -0.026578406 -0.03955686 0.058808133
000020 8e b4 bd ba 89 4d 87 3e d8 62 de bc e0 1a f8 3d
       -0.0014473365 0.26426342 -0.027146742 0.12114501
000030 b2 04 ee 3d 6a b0 19 3e 40 20 9b bd 38 9e dc 3c
       0.11621989 0.15008703 -0.075745106 0.026930913
000040 b6 41 a5 bd 44 b6 0f bd 4a 1b 82 bd b0 1d 16 bd
       -0.08069174 -0.03508593 -0.06352861 -0.036649406
000050 f8 ed c5 bd fc 14 ba bd 1b 10 e1 3d 38 dd 39 bd
       -0.096645296 -0.09086034 0.109894 -0.045376986
000060 0f c9 40 3b 60 8d 5c bc c0 97 d1 bd 70 fb 4f bc
       0.0029416715 -0.013461441 -0.10234022 -0.012694225
000070 a0 5e 05 3e 21 f1 88 b9 ca 7f 60 3d dd e1 91 3d
       0.13024378 -0.00026119596 0.05480937 0.07123158
000080 a0 d6 cd bc 93 26 a5 3d 2e 97 81 3d 80 24 ef 3b
       -0.025126755 0.08063998 0.06327663 0.0072980523
000090 ba 14 53 3d 90 ce c4 bc e0 fa 89 bb 40 6b 3b bc
       0.05153344 -0.024024278 -0.004210815 -0.011439145
0000a0 18 f7 8e bd 26 9d db bd 8f b5 b3 3d 68 21 fb 3c
       -0.06980723 -0.10723333 0.08774864 0.030655578
0000b0 fa a0 c3 3d a2 d3 8d 3d da 93 72 3d 98 8b 92 bb
       0.09552188 0.069251314 0.059223033 -0.0044722073
0000c0 ea 63 ab bd fc f7 7a bd b0 c9 45 3d 74 18 ee 3d
       -0.083686665 -0.061271653 0.048288047 0.11625758
0000d0 38 5f d6 bb af 47 8b 3d e0 7a ee bd 0f ee af bd
       -0.0065421127 0.06800782 -0.1164453 -0.08590328
0000e0 29 0d 3b be 92 9d 8d bd 60 91 8c bb 00 da be 3c
       -0.18266739 -0.0691482 -0.004289791 0.02329731
0000f0 40 2e ab bb 0b 98 15 3d 70 06 5f bd b8 24 0d 3e
       -0.0052240193 0.036521953 -0.0544495 0.13783538
000100 fa 24 1e 3e 46 ce 58 bc 44 81 3f 3d 84 ee 7f bd
       0.15443793 -0.013232773 0.046754137 -0.062483326
000110 b6 18 8e bd 47 eb 1f be 78 68 5b bd 45 3d 16 3e
       -0.06938307 -0.15617095 -0.053566426 0.1467181
000120 77 fa d5 bc ac ab 69 3e a2 82 fc bd 02 80 a5 3d
       -0.026120408 0.22819394 -0.12329604 0.08081056
000130 45 cb 4c 3e 23 7c 00 3d d8 9d 7c bd 9c ae c9 bd
       0.19999416 0.031368386 -0.06167397 -0.09847757
000140 30 3c 6a bd 48 b8 22 3d 8a 59 b9 3d c8 79 ea bc
       -0.057186306 0.039726526 0.09050281 -0.028622523
000150 b0 78 8d bd 18 c4 83 bc 1b 38 0b 3d 0c ea 74 bd
       -0.06907785 -0.016084716 0.033989053 -0.059793517
000160 78 8d df 3d 9e 89 84 3d e8 35 dd 3d 90 c7 3b 3c
       0.10915655 0.06471561 0.108012974 0.011461154
000170 3a f3 a4 bd 3c 56 29 3d d8 89 a0 3b 16 d5 ec 3d
       -0.08054204 0.041342005 0.0048992448 0.115640804
000180 ba 6d d0 3d 0f 57 0b 3e f8 76 bf 3c 78 15 bf 3c
       0.10177179 0.13607429 0.023372158 0.023325667
000190 88 dd 92 3b cc ee f4 3d ee 35 c5 bd 20 a5 26 bc
       0.004481975 0.119596094 -0.09629427 -0.010171205
0001a0 a2 0f a5 3d c8 74 02 3c e7 89 1a 3e 80 63 9a 3c
       0.08059622 0.007962413 0.15091668 0.018846273
0001b0 e7 9a ee 3d ce ad 86 bd 10 d1 e6 3d 98 2f d2 bc
       0.11650639 -0.06576119 0.11270344 -0.02565746
0001c0 be 89 bb 3d 74 dd b5 3d 02 26 cf bd d0 61 fd bd
       0.091571316 0.088801295 -0.10114671 -0.12372172
0001d0 2c fc a6 3d 79 43 05 3e 5a af c9 3d 54 fd c9 bd
       0.08153567 0.1301402 0.09847899 -0.09862772
0001e0 12 c3 ba bd 3f 6f cb 3c d4 89 e9 3d 60 6d d0 bd
       -0.09119238 0.02483332 0.11403242 -0.101771116
0001f0 58 23 b4 bc f5 9c 30 3e f6 bb b3 3d 85 6e 5d bd
       -0.02198951 0.17247374 0.08776085 -0.054060478
000200 fa 4b a9 3c ea 26 96 3c 21 e1 ac bc 3d 58 96 bd
       0.020666111 0.018329103 -0.021103444 -0.07341049
000210 e0 53 db 3c 81 f0 22 be 58 35 85 bc 58 b2 45 3d
       0.026773393 -0.15912057 -0.016260788 0.048265785
000220 89 a3 b1 3d da 8f 46 3e 20 66 ee 3d 1a b2 8c 3d
       0.0867377 0.19390813 0.116405725 0.06869908
000230 75 55 15 3e f9 a5 c5 3d 4a b4 3b 3d 9c 6c af 3d
       0.1458338 0.096507974 0.045826234 0.085656375
000240 a0 9f 39 bc 2a f6 b1 bd 06 01 e6 3d d4 f3 07 3d
       -0.0113295615 -0.0868953 0.11230664 0.033191517
000250 10 a0 43 bd f2 79 a1 bd 55 dc 87 3d 20 17 fa 3b
       -0.04776007 -0.07884587 0.06633822 0.0076321512
000260 59 50 d8 bc 8a ed a0 bd 94 2e 2c bd 14 95 3a 3d
       -0.0264055 -0.07857807 -0.042036608 0.04555233
000270 5b 6e 9e bd 87 af 38 bc c4 aa a0 bd 32 93 63 3d
       -0.077358924 -0.011272318 -0.07845071 0.0555603
000280 a4 5b 14 bd 5e e3 04 3e a0 d3 b4 bc e0 93 c6 3d
       -0.036220208 0.12977359 -0.022073567 0.09696174
000290 59 86 e2 bd 82 37 a8 3d 66 5b 83 bd 80 4e 3b bb
       -0.11060781 0.08213712 -0.06413917 -0.0028580725
0002a0 a9 9b d7 bd 64 6e 5f 3d 7c 22 55 3e f0 95 5f 3d
       -0.10527737 0.054548636 0.20813936 0.05458635
0002b0 38 98 05 3d 60 a6 19 bd 84 aa 85 bd 8b 4d 25 3e
       0.03261587 -0.037512183 -0.06526664 0.16142862
0002c0 00 84 39 3c a6 74 cd 3d ac 84 1d bd ce d7 86 3d
       0.011322975 0.100320145 -0.038456604 0.0658413
0002d0 b0 b9 81 3d 96 32 c7 3d 88 c5 27 3d d4 0f 3e 3d
       0.06334245 0.097264454 0.040959865 0.046401814
0002e0 62 ae 04 be 59 ce 41 3d 34 f4 0d 3d 80 7b f2 3b
       -0.12957147 0.04731593 0.03465672 0.0073999763
0002f0 32 4f ea 3d d1 6b 19 3e c0 ad 4d bc a8 3b 1a 3e
       0.114408866 0.14982535 -0.012553632 0.1506182
000300 b0 ac 5f 3e 96 4e c2 bb 04 cb c2 3c f0 2f 88 3c
       0.21843219 -0.0059297783 0.023778446 0.01662442
000310 4a 3f d0 3d b9 63 17 3d 60 49 8f 3b f6 53 e9 3d
       0.101683214 0.036960337 0.0043727607 0.113929674
000320 88 3c a2 3d cc 4e 41 3e 2e 2f d7 3d 50 c8 4b bd
       0.07921702 0.18877715 0.10507046 -0.04975158
000330 d6 6b ff 3d 18 be b7 3d e6 bb 21 3d c0 55 84 bb
       0.1247174 0.089718044 0.039485835 -0.0040385425
000340 38 b0 80 bd 64 7c 6f bd c5 5b 0b 3d 58 96 8d bc
       -0.06283611 -0.058468238 0.034023065 -0.017283604
000350 0b 4f 87 bd 10 49 9d bc d1 0d 50 3d a2 17 e8 bd
       -0.06606873 -0.019199878 0.050794426 -0.113326326
000360 63 88 1e 3e 24 b4 82 3d da 26 df 3d 24 a2 cf bd
       0.15481715 0.06382015 0.10896082 -0.10138348
000370 19 f0 20 bd 36 cf ed 3d fd 2b 21 bd 00 f3 a6 3d
       -0.039291475 0.11611788 -0.03934859 0.08151817
000380 00 95 ac 3b 1a 45 bb 3d 8a ec c5 bd 7c fb 5f 3d
       0.0052667856 0.091440395 -0.09664257 0.054683194
000390 09 10 c2 bc d0 ef f1 3d b0 11 b0 3d 6c be c4 3d
       -0.023689287 0.11813319 0.085971236 0.096066326
0003a0 86 21 9d 3d a2 92 61 bd 38 c2 2f 3e 50 33 20 bc
       0.0767241 -0.05507148 0.17163932 -0.009777859
0003b0 06 3c 2c 3d 26 1f 1b 3c ef dd 6f bd ac e0 f0 3c
       0.04204943 0.009467876 -0.05856126 0.029404007
0003c0 ee 1c c7 3d 60 ad 57 3d 90 cb 8f 3c 0e 1a cf 3d
       0.09722315 0.052655578 0.01755312 0.101123914
0003d0 2b 2a 1a 3e ed 92 e1 3a c4 b0 d6 3d e7 27 9e bd
       0.15055148 0.0017209925 0.10482934 -0.077224545
0003e0 dc 4a 10 3e 2d 51 93 bd 3a 93 df 3d 30 b0 fe bc
       0.14091057 -0.071932174 0.10916753 -0.031089872
0003f0 a6 88 81 bd 92 07 2c 3e 90 05 19 bd 21 4b 77 bd
       -0.06324892 0.16799763 -0.03735882 -0.060374383

fc2.bias f4 [37]
000000 5a cf 29 bc e8 0e cb 3c f5 c2 b7 3d 16 94 2e 3c
       -0.010364378 0.024787381 0.08972732 0.010655424
000010 4f a2 5b 3d 03 29 20 3d 26 01 ed 3d a3 32 e5 3c
       0.053621586 0.03910161 0.11572485 0.027978247
000020 ed f7 5a 3d 76 ad b8 3c e0 4b b4 3c 41 6d ac 3d
       0.053459097 0.02254365 0.022008836 0.08419276
000030 ce 3e 64 bd 51 9b 6b bd fe 74 d7 3d 4a 7c ba 3d
       -0.055723958 -0.05752117 0.10520361 0.091057375
000040 39 a4 e3 bd 91 f2 96 bd 79 e0 cd 3d 37 62 0b 3d
       -0.11115307 -0.073704846 0.100525804 0.03402921
000050 c2 e6 a4 3d 6f 7b d4 3d 91 27 1c 3c 98 f8 1d 3d
       0.08051826 0.103751056 0.009530918 0.038567156
000060 a1 e0 13 bd af 24 9e bc d1 f0 81 bd 92 f1 82 3d
       -0.036102895 -0.019304601 -0.0634476 0.06393732
000070 95 78 a3 3d 6d 17 38 3d 7a 30 b2 3d 23 fa a9 bb
       0.079819836 0.044944216 0.087006524 -0.0051872893
000080 a5 3b bd 3d 66 55 1d bd ef 7f 2b 3c 6a d6 d3 bb
       0.09239892 -0.03841152 0.010467513 -0.006464769
000090 1d 4e c8 bd
       -0.09780524
