models/2024-03-01/lstm_model.onnx (onnx, 468420 bytes, 6 tensors)

fc.weight f4 [7, 256]
0	0x3da447fb	0.08021542
1	0x3d3eb201	0.046556477
2	0x3d2bccc0	0.04194331
3	0xbd41005e	-0.04711949
4	0x3deb9511	0.115030415
5	0x3d65766b	0.056021135
6	0xbd8c3acd	-0.06847153
7	0xbd393c48	-0.045223504
8	0x3d96c085	0.07360939
9	0x3b6fbe02	0.003658176
10	0xbe920e31	-0.28526452
11	0xbdf1a4dc	-0.117990226
12	0x3d38cae1	0.045115355
13	0x3c8176ae	0.015803661
14	0x3dc28e5f	0.094998114
15	0x3d754eeb	0.059889715
16	0xbd8599de	-0.065234885
17	0xbbd1132f	-0.0063804607
18	0xbe205422	-0.15657094
19	0xbe157172	-0.14594057
20	0x3dc148c0	0.09437704
21	0xbd4d6739	-0.05014727
22	0x3d46dfea	0.048553385
23	0xbcd988b4	-0.026554443
24	0xbe01ac15	-0.126633
25	0x3d2017d8	0.03908524
26	0xbddba61e	-0.10725044
27	0x3d2759b8	0.040857047
28	0xbd26845c	-0.04065357
29	0xbc42c304	-0.011887316
30	0x3d1bab39	0.038005088
31	0x3e3cff88	0.18456852
32	0x3c637f2d	0.013885302
33	0x3d62f3f3	0.05540843
34	0x3d6dc6b7	0.058050837
35	0x3d495eaf	0.049162563
36	0xbd1cf9fb	-0.038324337
37	0xbd38dc55	-0.045132
38	0x3dd4a18d	0.10382376
39	0x3df90f69	0.121611424
40	0x3cc78a93	0.02435807
41	0x3bb890f7	0.0056325155
42	0xbc7201cd	-0.014770937
43	0xbce1fc86	-0.027586233
44	0x3dd04b94	0.101706654
45	0x3d046bac	0.032329246
46	0xbde88013	-0.11352553
47	0x3c937cd3	0.018003857
48	0xbcdc2c02	-0.026876453
49	0x3cf6e3ad	0.030137861
50	0xbb052585	-0.0020316553
51	0xbe144c6e	-0.1448228
52	0x3c8209b3	0.015873766
53	0x3d483a75	0.048883874
54	0x3d9bc81a	0.07606526
55	0x3d715ef6	0.058928452
56	0x3d6851fd	0.056718815
57	0xbdd82080	-0.10553074
58	0xbde64b2c	-0.11244807
59	0xbe1c6677	-0.15273462
60	0x3d86336f	0.06552779
61	0x3a6c4014	0.0009012234
62	0x3d0ede76	0.034880124
63	0xbca7dd8f	-0.02049139
64	0x3b353870	0.0027652048
65	0xbb4a01bf	-0.0030823795
66	0x3c5f2ea6	0.013621962
67	0xbdae0e6f	-0.08498847
68	0x3df2ae93	0.11849704
69	0xbc767d66	-0.015044546
70	0xbd4cbb21	-0.049983148
71	0xbc1975a1	-0.009366424
72	0xbcaf5fd3	-0.021407997
73	0x3d60f17c	0.054917797
74	0x3d9ef4d2	0.077615395
75	0xbd04765e	-0.032339446
76	0xbe72d0e3	-0.23712496
77	0x3b8b9b68	0.004260469
78	0x3c914d53	0.017737066
79	0xbdc72b0e	-0.09725009
80	0xbaa9019c	-0.0012894156
81	0xbd6ab90e	-0.05730539
82	0x3cb0b8bb	0.021572461
83	0x3d72d036	0.059280597
84	0x3c60a49d	0.013711122
85	0xbcab3754	-0.020900406
86	0xbdf88a87	-0.12135797
87	0x3e00e56f	0.12587522
88	0xbcae0fbe	-0.02124774
89	0x3dab7720	0.08372331
90	0xbd78d224	-0.06074728
91	0xbb3bd401	-0.00286603
92	0xbbfec17e	-0.007774531
93	0x3ccf22a6	0.025285076
94	0x3d6bf08d	0.057602454
95	0xbca8bb8c	-0.020597242
96	0xbc920f35	-0.017829517
97	0x3d908fff	0.07058715
98	0x3d9614e6	0.07328205
99	0x3d2d3c4b	0.042293828
100	0x3d9dcad4	0.07704702
101	0xbd6103d4	-0.05493529
102	0x3b66fb5a	0.0035245032
103	0xbdb13dfb	-0.086544
104	0xbb0699e8	-0.0020538513
105	0x3d27c155	0.04095586
106	0x3c21e3f7	0.009881011
107	0xbd9f7846	-0.07786612
108	0xbc7b4194	-0.015335459
109	0x3c881e2d	0.016615951
110	0x3df9e98f	0.12202751
111	0xbc187a1e	-0.009306459
112	0xbdb2e1e6	-0.08734493
113	0xbd89d81f	-0.06730675
114	0x3ca3f6ca	0.02001514
115	0xbd240b6d	-0.04004996
116	0xbcd6aa9d	-0.026204402
117	0xbd17bc69	-0.037044916
118	0x3d41cc29	0.047313843
119	0x3cd708e5	0.026249358
120	0xbe017e60	-0.12645864
121	0xbd6d0a2b	-0.057871025
122	0xbdb69f0c	-0.089170545
123	0xbd554dde	-0.052076213
124	0x3d9e5849	0.07731683
125	0x3dae264a	0.08503397
126	0x3ce41d38	0.027845964
127	0xbde8510d	-0.11343584
128	0x3cc695f2	0.024241421
129	0x3ccf5ea2	0.02531368
130	0xbd065471	-0.032795373
131	0x3d645a74	0.055750325
132	0x3c0db5be	0.008649288
133	0x3d95bee5	0.07311801
134	0x3b3b2c2d	0.0028560266
135	0x3a625253	0.0008633483
136	0xbd1e91d5	-0.038713295
137	0xbc814b05	-0.015782842
138	0x3c577880	0.013151288
139	0xbd7001f6	-0.05859562
140	0xbc888ccc	-0.0166687
141	0x3a8e624e	0.0010863037
142	0x3c0ee346	0.008721178
143	0xbcc2717a	-0.02373575
144	0xbd613d1e	-0.054989927
145	0xbdbf3847	-0.09336906
146	0x3dd7aa63	0.105305456
147	0x3c65e2b3	0.0140311
148	0x3cd29324	0.025704928
149	0x3d992434	0.07477608
150	0xbd7c17b5	-0.061546046
151	0xbdc53594	-0.0962936
152	0x3cb47d60	0.02203244
153	0x3c06c724	0.00822619
154	0x3cf84b41	0.030309321
155	0x3deba241	0.11505557
156	0xbdb4f65e	-0.08836053
157	0x3ce87077	0.02837394
158	0x3dc1ef4a	0.09469469
159	0x3d0528f8	0.032509774
160	0xbd285688	-0.041098148
161	0x3d55e99a	0.052224733
162	0xbd331883	-0.043724548
163	0x3c87e2f4	0.016587712
164	0xbcaccec6	-0.021094691
165	0xbe3da6ac	-0.18520612
166	0x3d7d1883	0.061790954
167	0xbd266178	-0.040620297
168	0xbc98b383	-0.018640285
169	0xbdc45db8	-0.09588188
170	0x3e6cf2be	0.23139474
171	0x3c05e56f	0.008172377
172	0x3ce2749a	0.02764349
173	0x3d9fecf9	0.07808871
174	0xbc4badfa	-0.012431616
175	0xbd8eeede	-0.06979154
176	0x3d4db339	0.05021975
177	0x3e68e2cc	0.22742766
178	0x3cdea80e	0.027179744
179	0xbd611e63	-0.05496062
180	0x3dbfd43a	0.09366651
181	0x3d5920d4	0.053009823
182	0xbc0d2c69	-0.008616545
183	0x3dc40144	0.09570554
184	0x3e0ad20d	0.1355669
185	0x3d9f3026	0.077728555
186	0x3d9236c1	0.0713935
187	0x3d823dba	0.0635943
188	0xbd5bf9e9	-0.05370513
189	0x3c253809	0.010084161
190	0xbdd1cf75	-0.102446474
191	0xbcafdbec	-0.021467172
192	0x3c9a2bfd	0.018819803
193	0xbd016d1d	-0.0315982
194	0xbd387f65	-0.045043368
195	0x3d1ef628	0.03880897
196	0xbc1e642d	-0.009667438
197	0xbc0c418a	-0.008560548
198	0x3cfc9557	0.03083293
199	0xbd114bec	-0.035472795
200	0x3cf5def7	0.030013544
201	0xbbb3e2cd	-0.0054896832
202	0xbd358e65	-0.04432525
203	0xbc4e6ceb	-0.01259921
204	0x3db67672	0.089093104
205	0x3daba77f	0.08381557
206	0xbdf0def3	-0.11761274
207	0xbc4612cf	-0.012089445
208	0xbdd8039b	-0.10547563
209	0x3d9ddf5e	0.077086195
210	0xbe2bfea2	-0.16796353
211	0x3dedb8d6	0.1160752
212	0x3dd4b537	0.103861265
213	0xbc5f43b0	-0.013626978
214	0x3e5d3ad5	0.21604474
215	0x3cfb8eef	0.030707804
216	0xbd507a9c	-0.05089818
217	0x3dc4d2cc	0.09610519
218	0x3bc42a82	0.0059865126
219	0x3b9f1d6c	0.0048558023
220	0x3c80686e	0.015674796
221	0xbd865440	-0.06559038
222	0xbd0fbc4c	-0.035091683
223	0xbcca21ce	-0.024674322
224	0xbe05012b	-0.12988727
225	0xbd4d18e3	-0.050072562
226	0x3d79bacb	0.060969155
227	0xbd796b34	-0.060893252
228	0xbc28da8c	-0.010306012
229	0xbd1e6f19	-0.03868017
230	0x3db02a7e	0.08601855
231	0x3cd7bdc2	0.0263356
232	0x3c269480	0.010167241
233	0x3d09e233	0.033662986
234	0xbd15f007	-0.03660586
235	0x3d6a94c7	0.05727079
236	0xba3aead9	-0.0007130332
237	0x3dc7aac9	0.097493716
238	0x3dad7668	0.0846985
239	0x3d90ead3	0.07076039
240	0x3cf2b5a2	0.029627625
241	0x3d00befe	0.031432144
242	0xbd7c2f26	-0.0615684
243	0x3dc50c47	0.09621482
244	0x3d9469f3	0.07246771
245	0x3dd62ddf	0.10457968
246	0x3c478eb5	0.01218002
247	0x3caee89b	0.02135115
248	0xbc924424	-0.017854758
249	0xbd9ba486	-0.0759974
250	0x3bdd6b84	0.0067572016
251	0x3da9b838	0.0828709
252	0xbccacecd	-0.024756813
253	0xbe1576d2	-0.14596108
254	0xbe08725c	-0.13324875
255	0xbd15897d	-0.036508072

fc.bias f4 [7]
0	0x3d25156d	0.040303636
1	0x3d1009da	0.035165645
2	0x3da2f93f	0.07957696
3	0x3d86641f	0.06562065
4	0x3d9f6917	0.07783716
5	0x3dd003a4	0.101569444
6	0x3de7296d	0.11287198

onnx::GRU_197 f4 [2, 768]
0	0xbddead52	-0.10872902
1	0xbe12d75e	-0.14339969
2	0xbde23775	-0.11045734
3	0xbdf28c31	-0.11843146
4	0xbd9b6328	-0.07587272
5	0xbe0cd3b1	-0.13752629
6	0xbd84438d	-0.06458197
7	0xbe4da078	-0.20080745
8	0xbde0ad86	-0.10970597
9	0xbdafe60e	-0.08588801
10	0xbec58359	-0.38576773
11	0xbdbbab40	-0.09163523
12	0xbe1c18a5	-0.15243776
13	0xbd9fffac	-0.078124374
14	0xbdcea6c1	-0.100903995
15	0xbe219dbf	-0.15782832
16	0xbd8c7b47	-0.06859451
17	0xbe54ce04	-0.20781714
18	0xbe6d74de	-0.23189113
19	0xbe39608b	-0.18103234
20	0xbe52512b	-0.20538776
21	0xbd9c1696	-0.076214954
22	0xbe0fc2aa	-0.14039102
23	0xbde84bd8	-0.11342591
24	0xbe4d9df3	-0.20079784
25	0xbdca2efb	-0.09872242
26	0xbdd854d7	-0.10563057
27	0xbe69bb6a	-0.22825399
28	0xbe4ddfc2	-0.20104888
29	0xbe518e6c	-0.20464486
30	0xbddb205b	-0.10699531
31	0xbd87e685	-0.06635765
32	0xbe4e26c6	-0.20131978
33	0xbdddbc1c	-0.10826895
34	0xbe67f02f	-0.22650217
35	0xbe36444d	-0.17799492
36	0xbd9261bb	-0.07147547
37	0xbe431f5a	-0.19054928
38	0xbd95d44a	-0.073158816
39	0xbe1b3221	-0.15155841
40	0xbd975361	-0.0738895
41	0xbdc9a2e8	-0.09845525
42	0xbdd3fc87	-0.103509
43	0xbe69fc06	-0.22850046
44	0xbdf777e3	-0.120834135
45	0xbe680663	-0.22658686
46	0xbe1df866	-0.15426788
47	0xbdd7e7d6	-0.10542266
48	0xbdfa8da9	-0.12234051
49	0xbe3f99ef	-0.18711065
50	0xbd43bb15	-0.047785837
51	0xbe03eed5	-0.12884076
52	0xbd815652	-0.063152924
53	0xbe55a7a7	-0.20864736
54	0xbe0bbcbc	-0.13646215
55	0xbe30f1a9	-0.17279686
56	0xbe3212f7	-0.17390047
57	0xbe3655c2	-0.17806152
58	0xbe17db0e	-0.14829656
59	0xbd92e561	-0.07172657
60	0xbdfd3426	-0.12363462
61	0xbe2bb62e	-0.16768715
62	0xbe2f4674	-0.1711672
63	0xbd4ed63d	-0.050497282
64	0xbddaf2c3	-0.106908344
65	0xbe6b5cb3	-0.2298458
66	0xbe17bad1	-0.14817359
67	0xbe240bc8	-0.16020119
68	0xbe3b1e55	-0.1827329
69	0xbe0412e2	-0.12897828
70	0xbe1caa09	-0.15299238
71	0xbdd4523c	-0.103672475
72	0xbd82a3ef	-0.06378924
73	0xbe39c9df	-0.18143414
74	0xbdb860e2	-0.09002854
75	0xbe6e9b68	-0.2330147
76	0xbea92980	-0.33039474
77	0xbd8cfb3f	-0.06883859
78	0xbde46a53	-0.11153092
79	0xbdc5fd3c	-0.09667441
80	0xbe0c879e	-0.13723609
81	0xbd569e9e	-0.052397363
82	0xbe3b27e8	-0.18276942
83	0xbe50e547	-0.20399962
84	0xbd8895ed	-0.06669221
85	0xbe4a8440	-0.19777012
86	0xbe253b34	-0.16135865
87	0xbdd2624b	-0.10272654
88	0xbe3273ee	-0.17427036
89	0xbde2f4c8	-0.110818446
90	0xbdb85e69	-0.09002382
91	0xbdc2571e	-0.094892725
92	0xbe1bc774	-0.15212804
93	0xbd9b8707	-0.07594114
94	0xbde832e4	-0.113378316
95	0xbda7a4e0	-0.08185744
96	0xbe0157ff	-0.12631224
97	0xbe1799f8	-0.14804828
98	0xbd9a1ec5	-0.075254
99	0xbe446e9e	-0.19182822
100	0xbe4f6eef	-0.20257162
101	0xbdce2047	-0.1006475
102	0xbe6e471d	-0.23269315
103	0xbd89b482	-0.06723882
104	0xbe0b4d5f	-0.13603733
105	0xbdcb66fb	-0.09931751
106	0xbe4cd128	-0.20001662
107	0xbd8c2d17	-0.06844538
108	0xbe2e0c3b	-0.16996853
109	0xbe00db47	-0.12583648
110	0xbde1a963	-0.11018636
111	0xbd482ebb	-0.04887269
112	0xbe461287	-0.19343005
113	0xbe3d0f47	-0.18462859
114	0xbe4b21b4	-0.19837075
115	0xbd0b28a1	-0.033974294
116	0xbe1e7fc7	-0.1547843
117	0xbe185ba1	-0.14878704
118	0xbde0dce8	-0.109796345
119	0xbe189bcc	-0.14903182
120	0xbe37a841	-0.17935278
121	0xbe530724	-0.20608193
122	0xbdf8be4f	-0.121456735
123	0xbe6f3abd	-0.2336225
124	0xbe0d067f	-0.1377201
125	0xbd90e3c2	-0.07074691
126	0xbe0fa9a9	-0.14029564
127	0xbd961c90	-0.073296666
128	0xbaa5acbc	-0.001263998
129	0x3deb21ac	0.11481032
130	0x3e1787b6	0.14797863
131	0x3d987e6e	0.074459895
132	0x3be5de8d	0.0070150555
133	0x3d719b30	0.05898589
134	0x3cce399f	0.02517396
135	0x3d2391f9	0.039934132
136	0x3dab8c54	0.08376375
137	0xbc602466	-0.013680553
138	0xbdc4c0d7	-0.09607094
139	0x3d96107a	0.073273614
140	0x3d587fd6	0.05285629
141	0xbc38c6cf	-0.011277868
142	0x3da3b920	0.07994294
143	0x3e1507ba	0.14553729
144	0xbda048e0	-0.078264
145	0x3e11d1e9	0.1424023
146	0xbcf425f1	-0.029803248
147	0xbd730d3d	-0.059338797
148	0x3c2f4c9e	0.010699419
149	0x3cb00000	0.021484375
150	0x3bb3e6d5	0.005490164
151	0x3da05590	0.0782882
152	0xbd8a02f3	-0.06738844
153	0xbdb999e8	-0.090625584
154	0x3dcbc691	0.09949983
155	0xbd8e7a69	-0.06956942
156	0x3e39f81d	0.18161054
157	0x3df431da	0.11923571
158	0x3da9316f	0.08261382
159	0xbd07c6b4	-0.033148482
160	0x3dbf0e61	0.093289144
161	0x3ce85998	0.028363034
162	0x3e476ba5	0.19474657
163	0x3e5292f4	0.2056387
164	0x3e2518b8	0.1612271
165	0x3ca3dc12	0.020002399
166	0x3e048b5c	0.12943786
167	0x3d70a24c	0.05874853
168	0x3c8ca6f9	0.017169463
169	0xbcf5053a	-0.029909719
170	0x3d21929c	0.03944646
171	0x3c8f81c3	0.01751793
172	0x3db2cfb1	0.0873102
173	0x3e3bd5c0	0.18343258
174	0xbd6713a7	-0.056415226
175	0x3c5d79d3	0.013517815
176	0xbdcc8fd3	-0.0998837
177	0x3cfe4972	0.03104088
178	0xbd86f6d4	-0.065900475
179	0x3d68acbc	0.056805357
180	0x3c9da334	0.01924286
181	0xbd852440	-0.06501055
182	0x3da4021c	0.08008215
183	0x3ceab168	0.028649047
184	0x3da593ea	0.08084853
185	0xbe02282e	-0.1271064
186	0x3d2f62de	0.042818896
187	0xbd50b49c	-0.050953493
188	0x3c8cce5b	0.017188242
189	0xbd6fe606	-0.058568977
190	0x3d6fde9d	0.05856191
191	0xbdf24096	-0.11828725
192	0xbcd5d6ef	-0.026103465
193	0x3d8c6e54	0.06856981
194	0x3dfa94f8	0.12235445
195	0x3df6a114	0.12042442
196	0x3da900e8	0.08252126
197	0xbda591ae	-0.08084427
198	0x3df5f82a	0.12010224
199	0xbdd896e6	-0.105756566
200	0x3e07a9dd	0.13248391
201	0x3c7bbeed	0.0153653445
202	0xbc396ff0	-0.011318192
203	0x3e30b025	0.17254694
204	0xbd8a6310	-0.06757176
205	0x3ba22e71	0.004949384
206	0x3e23ddb6	0.16002545
207	0xbd9a7c85	-0.075432815
208	0xbab4158c	-0.0013739332
209	0xbc41644d	-0.011803699
210	0xbcffd82f	-0.031231014
211	0x3df92a24	0.12166241
212	0x3d6fdc4d	0.058559705
213	0x3d8163f7	0.06317895
214	0x3df79f65	0.12090949
215	0xbd0cf237	-0.03441068
216	0x3d854a79	0.06508345
217	0x3d9bea6f	0.07613074
218	0xbce10f2d	-0.027473057
219	0x3dc38abb	0.09547945
220	0x3d18bbad	0.037288357
221	0x3d6c8553	0.057744335
222	0x3c20eab2	0.009821581
223	0xbb288cd5	-0.0025718708
224	0x3daa27d4	0.08308378
225	0x3e10c1de	0.14136454
226	0x3e3d9e37	0.18517385
227	0x3e471c29	0.19444336
228	0x3e195d2d	0.1497695
229	0x3d2ec09b	0.04266415
230	0xbcbbf4de	-0.02294391
231	0x3d9cd872	0.07658471
232	0xbd00d2c2	-0.031450994
233	0x3d4bf75a	0.04979644
234	0x3db9c840	0.09071398
235	0x3e1e2490	0.15443635
236	0x3d2bd5f1	0.041952077
237	0x3e29390a	0.16525665
238	0xbc862b1a	-0.016377974
239	0x3dc32eb1	0.0953039
240	0xbd848bba	-0.06471963
241	0x3c9d6d7f	0.01921725
242	0xbd2c449b	-0.042057615
243	0x3de9877c	0.11402795
244	0xbd86f8e9	-0.065904446
245	0x3becee64	0.007230567
246	0x3dc92f38	0.098234594
247	0x3b7d68b9	0.0038667156
248	0xbd8ca248	-0.0686689
249	0x3d994235	0.07483331
250	0x3d6e2b5d	0.058146823
251	0xbdad107c	-0.0845041
252	0x3d298564	0.041386977
253	0xbd12a0d7	-0.03579792
254	0xbdd7425b	-0.10510703
255	0x3ddc3d00	0.10753822

onnx::GRU_198 f4 [2, 384, 19]
0	0xbde89054	-0.113556534
1	0xbdb621f7	-0.08893197
2	0xbeaee5cc	-0.34159696
3	0xbd80fa6e	-0.06297766
4	0xbdf4a3d1	-0.11945308
5	0xbe016ebe	-0.12639901
6	0xba7e5c72	-0.00097031065
7	0xbe1a5de3	-0.15074877
8	0xbe00d976	-0.12582955
9	0xbe004ec6	-0.1253005
10	0xbd85c492	-0.065316334
11	0xbec07ece	-0.37596744
12	0xbdb8165f	-0.08988642
13	0xbea13962	-0.31489092
14	0xbdfab107	-0.122407965
15	0xbd9a2aa7	-0.075276665
16	0xbdf508e7	-0.119645886
17	0xbd93fa07	-0.07225423
18	0xbe024832	-0.12722853
19	0x3cd30d40	0.025763154
20	0xbdc7781c	-0.09739706
21	0xbe8db8f2	-0.27680165
22	0xbe4bac2b	-0.19889896
23	0xbe422c5f	-0.18962239
24	0xbd97679c	-0.07392809
25	0xbcaa8613	-0.020815885
26	0xbd45203e	-0.04812645
27	0xbe24c41b	-0.16090433
28	0xbdd85812	-0.10563673
29	0xbdefc331	-0.11707152
30	0xbe67fb6e	-0.22654507
31	0xbd30200c	-0.042999312
32	0xbe86af93	-0.26305827
33	0xbe2af423	-0.16694693
34	0xbd4a9511	-0.049458567
35	0xbe20c96d	-0.15701838
36	0xbc8c9ed3	-0.017165577
37	0xbe5414a7	-0.20711003
38	0xbcab8ca9	-0.020941095
39	0xbe5babd3	-0.21452264
40	0xbea16bc0	-0.3152752
41	0xbdd19d22	-0.10235049
42	0xbe5c750d	-0.21529026
43	0xbe60caff	-0.21952437
44	0x3b5c5844	0.0033621946
45	0xbcd515ec	-0.02601143
46	0xbdbe6044	-0.09295705
47	0xbe46978d	-0.1939375
48	0xbe026d8b	-0.127371
49	0xbe9bc5f6	-0.3042447
50	0xbd5f5332	-0.0545227
51	0xbe93d7bc	-0.2887553
52	0xbe1df689	-0.15426077
53	0xbe318f1a	-0.17339745
54	0xbdef70ee	-0.116914615
55	0x3ce96634	0.028491117
56	0xbd412625	-0.047155518
57	0xbd901c7d	-0.07036684
58	0xbe3b0807	-0.18264781
59	0xbe62a4df	-0.22133206
60	0xbdd77383	-0.10520079
61	0xbe1c7fbd	-0.15283103
62	0xbe34705e	-0.1762099
63	0xbdce40cf	-0.10070955
64	0xbd9437b0	-0.07237184
65	0xbdc9828a	-0.098393515
66	0xbdaea9d3	-0.08528485
67	0xbdc7c800	-0.09754944
68	0xbe6eb7c5	-0.2331229
69	0xbe283cd2	-0.16429451
70	0xbeab0925	-0.33405414
71	0xbe2a0a65	-0.16605528
72	0xbe6d4f43	-0.23174767
73	0xbe44c8e8	-0.19217265
74	0xbe3af5e2	-0.1825786
75	0xbe0b2b28	-0.13590682
76	0xbdb3a142	-0.08770992
77	0xbe26a685	-0.1627446
78	0xbec88e35	-0.39170995
79	0xbc9df950	-0.01928392
80	0xbe05b701	-0.13058092
81	0xbdb20764	-0.08692816
82	0xbb00f957	-0.0019679868
83	0xbe1f1500	-0.15535355
84	0xbe05d1f6	-0.13068375
85	0xbdbce459	-0.09223241
86	0x3cbaed3b	0.022818198
87	0xbeaf56ad	-0.34245816
88	0xbd3ec9de	-0.046579234
89	0xbec0a31e	-0.3762445
90	0xbe31262a	-0.17299715
91	0xbd9536de	-0.07285856
92	0xbe123ee6	-0.14281806
93	0xbc960312	-0.01831201
94	0xbddf2744	-0.10896161
95	0xbdba1875	-0.09086696
96	0xbdac4533	-0.08411636
97	0xbe52f6d5	-0.20601971
98	0xbe146739	-0.14492501
99	0xbe4df0f0	-0.20111442
100	0xbe30d058	-0.17266977
101	0xbe1b0e61	-0.15142204
102	0xbd7eda0b	-0.06221966
103	0xbe07b605	-0.13253029
104	0xbe13afd7	-0.14422546
105	0xbd8c2d9d	-0.068446375
106	0xbe8210ff	-0.25403592
107	0xbe4ca9c4	-0.19986635
108	0xbe4353c4	-0.19074923
109	0xbdd18367	-0.10230141
110	0xbe542b11	-0.20719554
111	0xbd7df01a	-0.061996557
112	0xbd7f1978	-0.06228015
113	0xbe24336d	-0.16035242
114	0x3dcde725	0.10053853
115	0xbe36f591	-0.17867114
116	0xbeb3ca76	-0.35115403
117	0xbe3ffab5	-0.18747981
118	0xbe45cc38	-0.19316185
119	0xbe659143	-0.22418694
120	0x3d3a7c6f	0.045528825
121	0xbd8ab001	-0.06771851
122	0xbd275580	-0.040853024
123	0xbe41580b	-0.18881242
124	0xbe45cd93	-0.19316702
125	0xbe6a4159	-0.2287649
126	0xbdacd4b5	-0.08439008
127	0xbe709576	-0.23494515
128	0xbe5c269d	-0.21499105
129	0xbbc1d247	-0.0059149596
130	0x3da46ff9	0.080291696
131	0x3e0ad9ac	0.13559598
132	0xbe0f40b8	-0.13989532
133	0xbc051e80	-0.008124948
134	0xbe269b77	-0.16270243
135	0xbe1b095d	-0.1514029
136	0xbe29e3f8	-0.1659087
137	0xbe36545d	-0.1780562
138	0xbe29dc69	-0.16587986
139	0xbd826365	-0.06366614
140	0xbdecc90d	-0.11561785
141	0xbd457bb9	-0.048213694
142	0xbddf2584	-0.108958274
143	0xbe637080	-0.22210884
144	0xbe6dba39	-0.2321557
145	0xbe61cdbe	-0.2205114
146	0xbe90939e	-0.28237623
147	0xbe122a49	-0.14273943
148	0xbdeb34b9	-0.114846654
149	0xbde30a70	-0.11085975
150	0x3cd13221	0.025536599
151	0xbe3f1907	-0.18661891
152	0xbdc3271d	-0.09528945
153	0xbe350a02	-0.17679599
154	0xbe810fa5	-0.25207248
155	0xbe2b264c	-0.16713828
156	0xbdb2131c	-0.08695051
157	0xbe506797	-0.20352016
158	0xbe1f17d3	-0.15536432
159	0xbdea1289	-0.114293166
160	0xbd966bc0	-0.073447704
161	0xbdf66976	-0.12031834
162	0xbdb78d98	-0.08962554
163	0xbe71264a	-0.23549762
164	0xbd8f4b14	-0.06996742
165	0xbe3984c1	-0.18117048
166	0xbdbca54e	-0.09211217
167	0xbe222191	-0.15833117
168	0xbe4834f0	-0.19551444
169	0xbe000c56	-0.12504706
170	0xbde3dd92	-0.111262456
171	0x3d49488d	0.049141455
172	0xbe3b1704	-0.18270499
173	0xbe5b48e0	-0.21414518
174	0xbe06dcfb	-0.13170235
175	0xbe15f0df	-0.14642666
176	0xbe16bb16	-0.14719805
177	0xbdd4bdfb	-0.103877984
178	0xbc93178a	-0.01795556
179	0xbddfdcfd	-0.10930822
180	0xbdc9c973	-0.098528765
181	0xbe3da87e	-0.18521306
182	0xbeaa673e	-0.33281893
183	0xbdf43a50	-0.11925185
184	0xbe55ec55	-0.20890935
185	0xbdc8ee85	-0.09811119
186	0xbde4a861	-0.11164928
187	0xbe3f1770	-0.18661284
188	0xbd37d38b	-0.044879477
189	0xbe3cc513	-0.18434553
190	0x3defc9b8	0.11708397
191	0xbe9f67cc	-0.31133878
192	0xbea45b42	-0.32100874
193	0xbed41709	-0.41423824
194	0xbf135867	-0.57556766
195	0xbeaf4a39	-0.34236315
196	0xbdcb8b83	-0.09938719
197	0xbe491a0d	-0.19638844
198	0xbd1b50a8	-0.037918717
199	0xbea9e02f	-0.3317885
200	0xbed180cb	-0.40918574
201	0xbe37db9c	-0.17954868
202	0xbeab5aa9	-0.33467606
203	0xbe8948e9	-0.2681344
204	0xbe8b58d3	-0.27216205
205	0xbe1c77ee	-0.15280125
206	0xbcd6ee81	-0.026236774
207	0x3e3d142c	0.18464726
208	0xbe92256b	-0.28544173
209	0xbdcbff26	-0.09960775
210	0xbdaa608f	-0.08319198
211	0xbe94973c	-0.29021633
212	0xbe206cbc	-0.15666479
213	0xbd8f5fff	-0.07000732
214	0xbe4cf980	-0.20017052
215	0xbe02ef4e	-0.127866
216	0xbd5b4548	-0.05353287
217	0xbe19130f	-0.14948677
218	0xbe4fbe62	-0.20287469
219	0xbd7932af	-0.06083935
220	0xbe9b37c7	-0.30315992
221	0xbe2fa2a0	-0.1715188
222	0xbebd7a95	-0.37007585
223	0xbe51ce6f	-0.20488904
224	0xbe036734	-0.12832338
225	0xbe4b8929	-0.19876541
226	0xbdd7e1cc	-0.10541114
227	0xbe1362be	-0.14393136
228	0x3c2a4139	0.010391527
229	0xbe2e800b	-0.17041032
230	0xbed6af2e	-0.41930526
231	0xbe46a402	-0.19398502
232	0xbe2f48b4	-0.17117578
233	0xbe6ad626	-0.22933254
234	0xbdad13c7	-0.08451038
235	0x3cee7c25	0.029111931
236	0xbda3f76d	-0.08006177
237	0xbe224f50	-0.15850568
238	0xbdb64f17	-0.08901804
239	0xbe925692	-0.28581673
240	0xbe312af7	-0.17301546
241	0xbebbf17f	-0.36707684
242	0xbe45f6f7	-0.19332491
243	0xbdd3fadd	-0.10350583
244	0xbd2c5813	-0.04207618
245	0xbcdeeb0b	-0.027211687
246	0xbcee546f	-0.029092995
247	0xbdcae4ee	-0.09906946
248	0xbda8c13c	-0.082399815
249	0xbeac7ebf	-0.3369045
250	0xbe29c7c1	-0.16580106
251	0xbe0370b7	-0.12835966
252	0xbe51fec2	-0.20507339
253	0xbcb42793	-0.021991527
254	0xbe3034d4	-0.17207652
255	0xbdf95801	-0.121749885

onnx::GRU_199 f4 [2, 384, 128]
0	0xbd800388	-0.062506735
1	0x3d0150b8	0.03157112
2	0x3dabfd97	0.08397978
3	0xbd1ec2e8	-0.038760096
4	0xbdb391de	-0.08768056
5	0xbd6fc87e	-0.058540814
6	0x3d096fab	0.03355376
7	0x3d7b949c	0.06142102
8	0xbc8d89f1	-0.01727769
9	0x3b219de1	0.0024660754
10	0xbd838f48	-0.06423813
11	0xbd25a3ef	-0.040439542
12	0xbd703116	-0.058640562
13	0x3d6bb029	0.057541046
14	0xbc8eac24	-0.017416067
15	0xbd1679b5	-0.036737163
16	0xbc1ce536	-0.0095761325
17	0x3d2347d2	0.039863415
18	0xbd48b75a	-0.049002983
19	0xbc4d2b95	-0.012522598
20	0x3d198d1b	0.037488084
21	0xbc2b2fb1	-0.010448382
22	0x3cea9d46	0.028639447
23	0xbd733a9b	-0.059382062
24	0xbba44da1	-0.005014137
25	0xbd2fa305	-0.042880077
26	0x3da6aa14	0.081379086
27	0xbdb4ce38	-0.088283956
28	0xbd362600	-0.044469833
29	0xbd0ef14b	-0.034898084
30	0x3d1fce80	0.039015293
31	0xbd218d02	-0.039441116
32	0xbd644175	-0.055726487
33	0xbba8e7d8	-0.005154591
34	0xbce7ef29	-0.028312283
35	0x3dafcda2	0.08584143
36	0x3d5eb28a	0.054369487
37	0x3d8d9537	0.06913226
38	0xbd97aa93	-0.07405581
39	0xbcbac1c9	-0.022797482
40	0xbd8abb85	-0.06774048
41	0x3da358e1	0.07975937
42	0x3d56b462	0.05241812
43	0xbd8dc3e5	-0.069221295
44	0xbd85ccfa	-0.06533237
45	0x3d32e094	0.043671206
46	0xbd37b58a	-0.044850864
47	0x3ce7537c	0.02823805
48	0xbd9ef73d	-0.07762001
49	0xbd90799f	-0.070544474
50	0xbcf68087	-0.030090583
51	0xbd8d9a0a	-0.06914146
52	0x3d5e9e03	0.05434991
53	0xbd8a3eec	-0.06750283
54	0xbcecf1f6	-0.02892397
55	0xbdb11a1e	-0.086475596
56	0x3da61848	0.081101
57	0x3c6c54f0	0.014424548
58	0xbd5bf9aa	-0.053704895
59	0xbc9e9aef	-0.019360987
60	0x3cd9182f	0.02650079
61	0xbcf7c8cd	-0.030247116
62	0x3d9078e1	0.07054306
63	0xbca687d2	-0.020328436
64	0x3da96fe5	0.08273295
65	0x3d459290	0.048235476
66	0x3d7f70f5	0.062363584
67	0x3b18ad26	0.0023296564
68	0xbcd0cb16	-0.025487464
69	0x3d1a0758	0.03760466
70	0x3d637499	0.055531118
71	0x3c4610f2	0.012089001
72	0x3c9080ff	0.017639635
73	0x3d9ba5ff	0.076000206
74	0xbd448efa	-0.047987916
75	0xbc9c2bd7	-0.019063873
76	0x3bdc6138	0.0067254566
77	0xbc29f9e4	-0.01037452
78	0xbd50144c	-0.050800607
79	0x3ce83086	0.02834345
80	0x3c8b23a4	0.016984768
81	0xbd5b1b82	-0.05349303
82	0xbba3759b	-0.004988385
83	0x3c2609bc	0.010134157
84	0xbc1321a2	-0.008980187
85	0x3cdee8ff	0.02721071
86	0xbda66633	-0.08124962
87	0xbc47d69a	-0.012197161
88	0x3d8590d2	0.06521763
89	0x3b202a4b	0.002443927
90	0xbc2b372a	-0.010450164
91	0xbcc5f9e1	-0.024167003
92	0xbc5f92a3	-0.013645801
93	0xbc2a5aad	-0.010397595
94	0xbd306db4	-0.04307337
95	0xbd8150f9	-0.063142724
96	0xbbf7aafe	-0.0075582257
97	0x3db37f35	0.08764497
98	0x3d8882d0	0.066655755
99	0x3b8c863c	0.004288463
100	0x3d1ccb23	0.038279664
101	0x3c9f3d37	0.01943837
102	0xbd39ba69	-0.04534379
103	0x3d02b3f6	0.031909905
104	0x3d2567aa	0.040382065
105	0xbbbfed50	-0.0058571473
106	0x3d57e13c	0.052705035
107	0x3d100e89	0.03517011
108	0xbd2b9dc8	-0.04189852
109	0x3cd2feea	0.025756318
110	0x3d254005	0.040344257
111	0x3d8f011b	0.06982633
112	0xbd76c650	-0.06024772
113	0xbda6ef0b	-0.081510626
114	0xbd0dd750	-0.034629166
115	0x3bf4797d	0.0074607716
116	0xbd8ecda0	-0.069728136
117	0xbcb2f6bb	-0.021846166
118	0xbd846a8f	-0.06465637
119	0xbd89039f	-0.06690144
120	0x3cdbc794	0.026828565
121	0x3d30c697	0.04315814
122	0x3c431e6b	0.011909108
123	0x3d7b24ab	0.061314266
124	0xbcad8703	-0.021182543
125	0x3c3b50fa	0.011432881
126	0x3d8580d4	0.06518713
127	0x3d95f1df	0.07321524
128	0x3ccf4bca	0.025304694
129	0xbd9a8ca5	-0.07546357
130	0x3caf2281	0.021378757
131	0x3d8271ec	0.06369385
132	0x3cf6a777	0.03010915
133	0xbdb24b76	-0.08705799
134	0xbceca434	-0.028886892
135	0xbd397c8a	-0.045284785
136	0xbda2ec24	-0.079551965
137	0xbd969b0c	-0.073537916
138	0x3d6a03d2	0.05713255
139	0xbd67f0ac	-0.056626007
140	0xbd5a38d9	-0.05327687
141	0xbd1d8dc5	-0.03846528
142	0xbc1a090c	-0.009401571
143	0x3d573a94	0.0525461
144	0xbdb25660	-0.08707881
145	0xbd21e540	-0.03952527
146	0xbc6c1f11	-0.014411704
147	0x3cc8e977	0.024525387
148	0xbd48e1d5	-0.049043495
149	0xbcc4dc8a	-0.024030942
150	0xbd42abb4	-0.04752703
151	0xbca287b6	-0.019840103
152	0x3d3b2923	0.045693528
153	0xbd19142b	-0.03737275
154	0xbc429f7f	-0.011878847
155	0xbd6d2781	-0.057899002
156	0x3cca416e	0.024689402
157	0xbd6884b6	-0.056767188
158	0x3ca7d489	0.020487087
159	0xbdb437e8	-0.08799726
160	0x3d0d5fcd	0.03451519
161	0x3d02526a	0.031816877
162	0xbd894f37	-0.06704562
163	0xbc3858d6	-0.011251649
164	0xbd59369c	-0.053030595
165	0xbd2ce3f8	-0.042209595
166	0x3d27bbcc	0.04095058
167	0xbd4ebb16	-0.050471388
168	0x3d4c6584	0.0499015
169	0x3d36fb21	0.04467309
170	0x3da24d1d	0.079248644
171	0xbd077a32	-0.03307552
172	0xbda08b9c	-0.078391284
173	0x3d6a5a9e	0.057215326
174	0xbcaa5ff5	-0.020797709
175	0xbd0e84c9	-0.034794603
176	0xbd2b9127	-0.041886475
177	0x3da857a1	0.08219839
178	0xbd8cd904	-0.0687733
179	0x3c9d4435	0.019197563
180	0x3c8fe62f	0.017565815
181	0xbd0d2599	-0.034459684
182	0x3d4df9d6	0.05028709
183	0x3d517714	0.051138952
184	0x3d738dbf	0.05946135
185	0x3cc31bb4	0.02381692
186	0x3cc060b4	0.023483612
187	0x3ccd1587	0.02503468
188	0xbce6d0bd	-0.028175706
189	0xbd90a326	-0.07062368
190	0x3b299b02	0.0025879745
191	0x3c05e03a	0.008171136
192	0x3d5fae9a	0.054609872
193	0x3c73f79a	0.014890576
194	0x3b21f4ad	0.0024712489
195	0xbd0047ac	-0.03131835
196	0x3d9788c0	0.0739913
197	0x3da00db4	0.07815114
198	0x3db20b4a	0.086935595
199	0xbbb9577c	-0.005656181
200	0xbd31b4e5	-0.043385405
201	0xbd928d42	-0.07155849
202	0xbdb223f9	-0.086982675
203	0xbd90e0ab	-0.07074102
204	0xbce7893a	-0.028263677
205	0x3d8d098e	0.06886588
206	0xbda6ddcd	-0.08147774
207	0xbcd78631	-0.026309105
208	0x3d1166aa	0.0354983
209	0x3d2a0df2	0.041517206
210	0x3b7ea0fe	0.0038853283
211	0xbca2b11e	-0.019859847
212	0x3b89ada6	0.0042016087
213	0xbd62dcde	-0.055386417
214	0x3d325511	0.043538157
215	0x3d538ede	0.05164992
216	0x3c72e062	0.014824005
217	0x3d7e194e	0.06203585
218	0x3d552cf4	0.052044824
219	0xbda9901c	-0.0827944
220	0xbd0e5451	-0.03474838
221	0xbd9a1ee2	-0.07525422
222	0x3d03db77	0.03219172
223	0xbda26786	-0.07929902
224	0x3cabf8cd	0.02099266
225	0xbd931ebc	-0.071835965
226	0x3d38b76f	0.04509681
227	0xbd77f2fc	-0.060534462
228	0xbda2fd7b	-0.07958504
229	0xbd1242b2	-0.035708137
230	0x3cef5c86	0.029218923
231	0xbd1ab696	-0.037771784
232	0x3d07299b	0.032998662
233	0x3b3900c6	0.002822922
234	0xbd44ea7e	-0.04807519
235	0xbb9fd735	-0.0048779496
236	0x3d65b138	0.056077212
237	0xbd5dc6af	-0.054144558
238	0x3d9e0fd6	0.07717864
239	0x3cc93625	0.024561951
240	0x3d3c3198	0.045945734
241	0xbc8b72e7	-0.017022563
242	0x3d86ca4d	0.065815546
243	0xbd870b03	-0.06593897
244	0xbd121fd4	-0.035674885
245	0x3d633421	0.055469636
246	0xbd42a0d5	-0.047516663
247	0x3d975e7a	0.07391067
248	0xbd033f9a	-0.032043077
249	0xbdab725c	-0.08371422
250	0x3daacd23	0.08339908
251	0x3d93c016	0.07214372
252	0x3d154243	0.036440145
253	0xbd9b0d8e	-0.07570945
254	0x3c9c8e70	0.019110888
255	0xbcabfc34	-0.020994283

onnx::MatMul_200 f4 [256, 1]
0	0xbc646f98	-0.013942622
1	0x3d7603d0	0.06006223
2	0xbcda6410	-0.026659042
3	0x3ccbe7e0	0.02489084
4	0x3d75789c	0.059929475
5	0x3c1e9768	0.009679653
6	0xbd7a3524	-0.061085835
7	0xbbefac60	-0.00731425
8	0x3d3508da	0.044197895
9	0x3b9ab690	0.00472147
10	0xbc284e08	-0.01027251
11	0x3d332456	0.043735825
12	0x3c67bf98	0.014144801
13	0x3bbff0d0	0.0058575645
14	0x3d635330	0.055499256
15	0x3d2018b4	0.03908606
16	0x39c0ee00	0.00036798418
17	0x3bb5d2b0	0.0055487975
18	0xbc823b10	-0.015897304
19	0x3d1f4602	0.038885124
20	0x3d5439e4	0.05181302
21	0xbd7fc860	-0.062446952
22	0xbd4b2f64	-0.049605742
23	0xbc8f1898	-0.017467782
24	0x3cfa3fd8	0.030548021
25	0xbd261d6e	-0.04055541
26	0x3cabe7f4	0.020984627
27	0x3c73fd50	0.014891937
28	0x3cf4fbb4	0.029905178
29	0x3d018610	0.031621993
30	0x3c05b5e0	0.008161038
31	0x3a276100	0.00063849986
32	0xbb86c690	-0.004113026
33	0x3c5fde00	0.013663769
34	0x3c29c528	0.010361947
35	0xbd087276	-0.033312283
36	0x3d2c1708	0.04201415
37	0x3d453886	0.048149608
38	0x3d377d84	0.044797435
39	0x3c3dc760	0.011583179
40	0x3d0e8d3a	0.034802653
41	0xbd70463a	-0.058660723
42	0x3c294eb0	0.010333702
43	0xbcbb4f0c	-0.02286484
44	0xbcd83de8	-0.026396707
45	0x3d688764	0.056769744
46	0xbb8af610	-0.0042407587
47	0xbd7e8b2c	-0.062144443
48	0xbcc5b2dc	-0.024133138
49	0xbbde50e0	-0.0067845434
50	0x3d2c55e4	0.0420741
51	0x3a811900	0.000984937
52	0x3d32c9c0	0.043649435
53	0xbd1985ce	-0.03748112
54	0xbcd07758	-0.025447533
55	0xbd39f528	-0.045399815
56	0x3c6fa9e8	0.014627911
57	0x3cd38678	0.025820956
58	0xbcc2888c	-0.023746751
59	0xbb357d40	-0.0027693063
60	0x3d161c7e	0.036648266
61	0xbd658048	-0.05603054
62	0x3d51868e	0.051153712
63	0xbd4af694	-0.04955156
64	0xbcb875c4	-0.022517093
65	0x3d144cee	0.03620618
66	0xbd44d9f0	-0.048059404
67	0xbc8523f4	-0.016252495
68	0xbd14785c	-0.036247596
69	0xbb57bb40	-0.0032918006
70	0x3d6e4256	0.05816873
71	0x3d71ca50	0.05903083
72	0xbbaeaf40	-0.00533095
73	0x3d38e496	0.04513987
74	0xbd3aa870	-0.04557079
75	0xbc9ac1d4	-0.018891253
76	0x3d786a2e	0.060648136
77	0x3cf4fff4	0.029907204
78	0xbd1a6fa2	-0.037704118
79	0x3c1e0660	0.009645075
80	0x3c61d310	0.013783231
81	0xbd6221c2	-0.055207975
82	0xb99e5b00	-0.0003020391
83	0x3d78679a	0.060645677
84	0xbd2ff07e	-0.04295396
85	0x3ac9ed40	0.0015405789
86	0xbd4ca1d8	-0.049959034
87	0xbcae0588	-0.021242872
88	0xbcee9b04	-0.029126652
89	0x3afcecc0	0.0019296631
90	0xbcd5c578	-0.026095137
91	0x3b0391e0	0.0020075962
92	0xbcb8e564	-0.02257032
93	0x3d4eb0b2	0.05046148
94	0x3d0e644a	0.03476361
95	0xbca4c120	-0.02011162
96	0x3d5aee04	0.053449646
97	0xbc7e9ae0	-0.015539855
98	0xbcbcc674	-0.023043849
99	0x3ba1fe50	0.0049436465
100	0xbb6f1fe0	-0.0036487505
101	0xbd05d056	-0.032669388
102	0xbd3555fc	-0.044271454
103	0xbd351332	-0.04420776
104	0x3c353570	0.011060104
105	0xbc584cb8	-0.013201885
106	0xbcf89e48	-0.030348912
107	0xbcd2029c	-0.02563601
108	0x3d232c34	0.039837077
109	0x3c815ef8	0.015792355
110	0x3d1b5c4a	0.03792981
111	0x3c920aac	0.017827354
112	0xbd3847f2	-0.044990487
113	0xbcf9ffa8	-0.030517414
114	0x3c46b428	0.012127914
115	0xbc78d340	-0.015187085
116	0xbc592e30	-0.013255641
117	0x3d705370	0.058673322
118	0x3d54d872	0.05196423
119	0xbd267202	-0.04063607
120	0xbd3950e2	-0.04524315
121	0x3c1338c8	0.008985706
122	0xbc80aac8	-0.015706435
123	0xbcd81034	-0.026374914
124	0xbcc3b548	-0.023890153
125	0xbd31a742	-0.0433724
126	0xbd3564b2	-0.044285484
127	0x3cbb5248	0.022866383
128	0x3cc8c734	0.02450905
129	0xbcb88018	-0.022522017
130	0xbce33630	-0.0277358
131	0x3d3605de	0.04443919
132	0x3d323b56	0.04351362
133	0xbd29e53c	-0.04147838
134	0xbc54eb38	-0.012995534
135	0x3d474266	0.048647307
136	0x3d5b7348	0.053576738
137	0x3d038e98	0.03211841
138	0x3d58c25c	0.05291973
139	0xbd56fa72	-0.052484937
140	0xbb9bdf30	-0.0047568306
141	0x3d753932	0.059869
142	0xbd599fa4	-0.05313076
143	0x3c7317b8	0.014837198
144	0x3d4824ba	0.04886315
145	0x3ceb27c8	0.028705493
146	0xbcc68464	-0.02423305
147	0xbaa7e5c0	-0.001280956
148	0x3d64bf18	0.055846304
149	0x3d64a5c6	0.055822156
150	0x3d520714	0.05127628
151	0x3c7fd808	0.015615471
152	0x3cfb6274	0.030686595
153	0xbd48ad1c	-0.048993215
154	0xbc726748	-0.014795132
155	0xbd50900a	-0.050918616
156	0x3d5731e8	0.05253783
157	0x3c4c7288	0.012478478
158	0xbccda7a8	-0.025104359
159	0x3d36f0e8	0.04466334
160	0x3d2bc08a	0.041931666
161	0x3d7e16da	0.06203351
162	0x3c5b7f88	0.013397105
163	0x3d43c894	0.047798708
164	0xbd737ef4	-0.059447244
165	0x3d77bf5c	0.06048523
166	0x3ca00b80	0.019536734
167	0x3d0eb6f2	0.03484244
168	0xbb9df770	-0.0048207566
169	0x3d2f0ea8	0.042738587
170	0xbd7cca70	-0.061716497
171	0x3d271eec	0.040800974
172	0x3c062ce8	0.008189417
173	0x3c42ad78	0.0118821785
174	0x3c8323bc	0.01600825
175	0xbc1f2f40	-0.009715855
176	0xbce1fca0	-0.027586281
177	0xbcd8d240	-0.026467443
178	0xbd6401d2	-0.0556658
179	0x3c166058	0.009178244
180	0x3c9ff318	0.019525096
181	0x3d72b3f4	0.059253648
182	0x3b9d9a10	0.0048096254
183	0xbd14fcfc	-0.036374077
184	0x3d7b290a	0.061318435
185	0xbd05d58c	-0.032674357
186	0xbd66f8cc	-0.056389615
187	0xbd419b5c	-0.047267303
188	0xbce752e4	-0.028237768
189	0x3d17c046	0.0370486
190	0x3d4cc678	0.049993962
191	0x3d1f6dcc	0.03892307
192	0xbc2ccce8	-0.0105469
193	0xbc7e9178	-0.015537612
194	0x3bab2c60	0.005223796
195	0x3d29efee	0.04148858
196	0x3d7c1980	0.061547756
197	0x3d72fb08	0.059321433
198	0x3c50d548	0.012746163
199	0x3d14a91a	0.03629408
200	0xbd0ace12	-0.03388793
201	0xbd006d80	-0.031354427
202	0xbd1553ea	-0.03645698
203	0x3d6ae5a4	0.05734791
204	0xbcf9c9fc	-0.030491821
205	0xba4a7980	-0.00077237934
206	0xbbd92be0	-0.0066275448
207	0xbc602c70	-0.01368247
208	0x3d099ec4	0.033598676
209	0x3b74b980	0.0037342012
210	0xbca66040	-0.020309567
211	0xbca07af8	-0.019589886
212	0xbc930bcc	-0.017949961
213	0x3bf33a10	0.007422693
214	0xbbf68d40	-0.0075241625
215	0xbcc06de0	-0.023489892
216	0x3d17eb12	0.037089415
217	0x3d25d70e	0.040488295
218	0xbd1432c8	-0.03618124
219	0xbd454f88	-0.04817155
220	0xbccd612c	-0.02507075
221	0x3b6d74c0	0.0036232919
222	0x3b92bfd0	0.0044784322
223	0x3c851c80	0.016248941
224	0xbd12e8d4	-0.035866573
225	0x3d48328e	0.048876338
226	0x3c85adf8	0.016318306
227	0xbcfadd64	-0.030623145
228	0xbd026d36	-0.031842433
229	0xbca527a8	-0.020160511
230	0xbcae4f18	-0.02127795
231	0xbd2d049e	-0.04224073
232	0xbd5a693a	-0.053323008
233	0xbd50b082	-0.05094958
234	0x3d2b4e6e	0.041822843
235	0xbd677aac	-0.056513473
236	0x3d34fefc	0.044188485
237	0x3cef614c	0.0292212
238	0x3d7451ee	0.059648447
239	0x3bc93390	0.00614018
240	0x3cd657bc	0.026164882
241	0xbd366806	-0.0445328
242	0xbd13e102	-0.036103256
243	0xbd68a4ea	-0.0567979
244	0xbb99c5d0	-0.0046927705
245	0xbcdb50e0	-0.026771963
246	0x3b713c00	0.0036809444
247	0x3cf78a14	0.030217208
248	0xbcdd8b84	-0.027044065
249	0xbd26de80	-0.040739536
250	0xbd6a128a	-0.057146586
251	0xbd500c96	-0.050793253
252	0xbd07bc1a	-0.033138372
253	0x3c5184b8	0.01278799
254	0x3b345380	0.002751559
255	0xbb193f20	-0.0023383573
